checkpointing_test/sigmoid_example_s12345/models/checkpoint_1000.pt (torch, 95431 bytes, 24 tensors)

fc1.weight f4 [50, 7]
-0.2639969 0.26710472 0.44148728 0.15064724 -0.42321292 0.003492677 -0.2048563 -0.2675861
-0.13207842 -0.32281706 -0.36992654 -0.119501606 -0.09305407 -0.35248485 -0.073096775 -0.17394812
-0.08472175 0.25490817 0.35359225 0.016251653 -0.16939221 -0.08251871 0.3569655 -0.41780448
0.05941523 -0.22437897 -0.049761266 -0.088308185 -0.23573367 -0.19917569 -0.16812707 -0.49482563
0.41640717 -0.023210598 0.18289839 0.37823004 0.2423579 0.15781224 0.3295415 0.084744215
-0.07132966 0.13386887 -0.062165048 -0.17665035 0.032115944 0.36337954 0.17316428 0.14063221
0.150925 -0.20569608 0.31791082 0.1852246 -0.1614518 0.018269505 0.18584095 -0.10671809
0.023389682 0.1625361 -0.3661617 0.075135306 0.14087383 0.21296017 -0.2644682 -0.25214368
0.2038355 0.37716967 0.353006 0.13151473 -0.11048435 0.046581805 -0.52699584 -0.064925626
0.24239454 -0.216725 -0.37589642 0.27454627 0.0048516197 -0.37672526 -0.01031733 0.30136552
0.30182433 0.14192513 -0.14727554 -0.34534946 0.4032465 -0.22783247 -0.047547504 -0.222155
-0.23461516 -0.34617308 0.22370988 -0.25014994 0.07093825 0.18946727 0.29180276 -0.40066674
-0.1145196 -0.4657694 -0.40249217 0.27477556 0.21615507 -0.027829712 -0.2756926 -0.33938625
0.357699 0.37328005 -0.10856156 -0.1283565 -0.23742503 0.27273497 -0.10290922 -0.15910102
-0.34783626 -0.3954728 0.056422006 0.4011749 -0.29819253 0.31280774 0.2105195 -0.028808976
-0.25756422 0.2518995 0.27820218 0.37705684 0.33688912 0.07856293 -0.13486974 0.22012468
-0.07831388 -0.018796904 0.21646754 0.14396167 0.011112035 -0.6797578 0.37081453 0.0034925477
0.18374799 -0.06972951 0.08963742 0.12445178 -0.2047207 0.07291736 0.0048162085 0.3926877
-0.09510615 -0.2022029 -0.1313057 0.17964397 -0.27808294 0.20916723 0.098998494 -0.3210128
0.05327886 -0.19884275 -0.7062868 0.041547395 -0.17302778 0.34347793 0.2447624 -0.017965041
0.05371048 0.3593498 0.17771968 -0.165883 -0.44879463 -0.22895263 -0.056606833 -0.011400351
0.3349102 0.0020756046 0.21043575 0.2389236 -0.26158237 -0.12558207 0.059383553 0.4138488
0.19362529 -0.24955876 -0.00754656 0.13106643 0.13840255 0.25676697 -0.08729747 0.095624015
-0.22058956 0.22320381 0.028382298 -0.3526848 -0.14841129 -0.025182871 0.34048468 -0.025924979
-0.22194801 -0.3849913 -0.35732958 0.29378456 0.1755486 -0.38731906 0.027842067 0.24972247
0.043637764 -0.333416 0.26753524 0.26175186 -0.35094216 -0.447189 -0.2991562 0.14086422
-0.21260922 0.36389703 0.19325852 -0.3353881 -0.46598735 -0.19596317 -0.18578753 0.19628382
-0.04271673 -0.062667415 -0.1145867 0.4131813 0.41273946 -0.38867244 0.012520563 -0.22921327
-0.6036148 0.11147687 0.33171558 0.041958064 0.023108037 0.061062254 0.106366314 -0.19950719
-0.23050681 -0.49460632 -0.25452322 -0.2743715 -0.42586458 0.15565479 -0.05788101 -0.4549791
-0.2532801 -0.09525899 -0.021369098 0.3070749 0.28439173 0.1180684 -0.48107487 -0.053023648
0.14202012 0.12542397 -0.15026788 -0.009550196 0.057385664 0.40745443 -0.26169875 -0.29720926
00000000: 9a2a 87be f3c1 883e 9f0a e23e 4543 1a3e
00000010: 5daf d8be 65e5 643b dac5 51be 0c01 89be
00000020: 913f 07be 4748 a5be 0367 bdbe 42bd f4bd
00000030: 2293 bebd e578 b4be c3b3 95bd 751f 32be
00000040: 9982 adbd 5383 823e 0b0a b53e 3022 853c
00000050: 2775 2dbe 92ff a8bd 2fc4 b63e 78ea d5be
00000060: 625d 733d 9ac3 65be 78d2 4bbd ecda b4bd
00000070: 2b64 71be b6f4 4bbe 8129 2cbe c959 fdbe
00000080: 5233 d53e 2724 bebc b749 3b3e 5ea7 c13e
00000090: ab2c 783e 8899 213e aab9 a83e 608e ad3d
000000a0: 4915 92bd ec14 093e c7a0 7ebd d4e3 34be
000000b0: 028c 033d e20c ba3e fa51 313e e401 103e
000000c0: 158c 1a3e fea1 52be 35c5 a23e 84ab 3d3e
000000d0: 9f53 25be eea9 953c 174d 3e3e 048f dabd
000000e0: b89b bf3c dd6f 263e 8c79 bbbe 8ae0 993d
000000f0: 3b41 103e 3b12 5a3e 6068 87be fa18 81be
00000100: 41ba 503e 621c c13e 34bd b43e ccab 063e
00000110: 9e45 e2bd 90cc 3e3d 33e9 06bf baf7 84bd
00000120: 4636 783e 29ed 5dbe 7f75 c0be 5491 8c3e
00000130: 56fa 9e3b 22e2 c0be 050a 29bc 954c 9a3e
00000140: b888 9a3e d254 113e 66cf 16be a5d1 b0be
00000150: 5376 ce3e ea4c 69be 2cc1 42bd 9a7c 63be
00000160: f53e 70be 993d b1be 3414 653e a713 80be
00000170: 1348 913d b503 423e 2c67 953e 3124 cdbe
00000180: 4189 eabd 5479 eebe 7413 cebe 62af 8c3e
00000190: c157 5d3e 23fb e3bc 9527 8dbe 09c4 adbe
000001a0: 5324 b73e 901e bf3e 8655 debd e36f 03be
000001b0: 8c1f 73be eba3 8b3e 12c2 d2bd 61eb 22be
000001c0: 9817 b2be 697b cabe c31a 673d cc66 cd3e
000001d0: b1ac 98be 5628 a03e 6c92 573e cd00 ecbc
000001e0: 75df 83be f9f8 803e 8470 8e3e 980d c13e
000001f0: bb7c ac3e 9ae5 a03d 4b1b 0abe 5d68 613e
00000200: 0763 a0bd f7fb 99bc aba9 5d3e b06a 133e
00000210: 410f 363c 9b04 2ebf 67db bd3e 3ae3 643b
00000220: 6f28 3c3e 58ce 8ebd d393 b73d 93e0 fe3d
00000230: 4ea2 51be b255 953d 49d1 9d3b 5d0e c93e
00000240: 03c7 c2bd 470e 4fbe 0075 06be 97f4 373e
00000250: e360 8ebe ef2f 563e b9bf ca3d ca5b a4be
00000260: ef3a 5a3d 6f9d 4bbe 36cf 34bf 9a2d 2a3d
00000270: 322e 31be 57dc af3e ffa2 7a3e 6c2b 93bc
00000280: 85ff 5b3d b2fc b73e 26fc 353e 3cdd 29be
00000290: 69c8 e5be 8f72 6abe 91dc 67bd 8ac8 3abc
000002a0: 5a79 ab3e de06 083b 787c 573e 63a8 743e
000002b0: 20ee 85be 9698 00be 2b3c 733d fde3 d33e
000002c0: b545 463e 558c 7fbe 2249 f7bb 4736 063e
000002d0: 66b9 0d3e f676 833e 04c9 b2bd 86d6 c33d
000002e0: 3be2 61be 8a8f 643e fe81 e83c 1a93 b4be
000002f0: 21f9 17be 4f4c cebc 0254 ae3e 9f60 d4bc
00000300: 5746 63be 941d c5be e7f3 b6be ee6a 963e
00000310: 03c3 333e af4e c6be 0c15 e43c 3fb7 7f3e
00000320: 83bd 323d 80b5 aabe 61fa 883e 5704 863e
00000330: b1ae b3be f5f5 e4be 002b 99be b63e 103e
00000340: 3bb6 59be b650 ba3e 90e5 453e fdb7 abbe
00000350: e595 eebe 92aa 48be 163f 3ebe a0fe 483e
00000360: bdf7 2ebd c657 80bd 6fac eabd 808c d33e
00000370: 9652 d33e 1300 c7be 0c23 4d3c e2b6 6abe
00000380: 8086 1abf fc4d e43d a0d6 a93e 38dc 2b3d
00000390: 114d bd3c 6a1c 7a3d 95d6 d93d 9d4b 4cbe
000003a0: fa09 6cbe 0a3d fdbe de50 82be 6c7a 8cbe
000003b0: ec0a dabe f863 1f3e a314 6dbd 05f3 e8be
000003c0: eead 81be 2517 c3bd 3f0e afbc ec38 9d3e
000003d0: cb9b 913e d8cd f13d 724f f6be 532f 59bd
000003e0: b96d 113e 246f 003e d3df 19be 6d78 1cbc
000003f0: 3b0d 6b3d de9d d03e 61fd 85be d02b 98be

fc1.bias f4 [50]
-0.36551026 -0.22578293 -0.014587744 0.12441986 0.4661778 0.10750653 -0.09727679 0.4134945
-0.19123104 0.052371062 -0.13430324 -0.18187949 0.12221395 0.24251181 0.02497709 -0.0021765898
-0.26681194 0.42216265 0.08858152 0.15312071 -0.03668148 0.07342339 0.41943052 -0.11745687
0.35989264 0.24660277 0.159088 0.035177357 -0.0040477524 -0.09967951 0.049430724 -0.08798002
-0.008066335 -0.14530173 0.24340564 -0.20920181 -0.11387804 -0.012952484 0.17807531 0.40946382
0.3741813 -0.17366251 0.050428938 0.15052551 -0.04026743 -0.29003474 -0.018674094 -0.25441825
-0.11221835 0.18508987
00000000: 2924 bbbe a433 67be 6f01 6fbc d7cf fe3d
00000010: dbae ee3e 622c dc3d 0e39 c7bd 8db5 d33e
00000020: 12d2 43be 0a83 563d ca86 09be 9e3e 3abe
00000030: 4f4b fa3d 0455 783e c19c cc3c 1ea5 0ebb
00000040: 939b 88be b425 d83e 3a6a b53d adcb 1c3e
00000050: 523f 16bd 015f 963d 99bf d63e 3a8d f0bd
00000060: d943 b83e 7085 7c3e f7e7 223e 2216 103d
00000070: 02a3 84bb c524 ccbd df77 4a3d de2e b4bd
00000080: a928 04bc fac9 14be 543f 793e 0039 56be
00000090: e438 e9bd a836 54bc 6059 363e 3ea5 d13e
000000a0: b194 bf3e 96d4 31be 938e 4e3d 5c23 1a3e
000000b0: 76ef 24bd 6f7f 94be 6afa 98bc 1c43 82be
000000c0: bcd2 e5bd 3388 3d3e

fc2.weight f4 [50, 50]
0.04915916 0.0008728781 0.03648025 -0.0882244 0.23160607 0.06358956 -0.107631 -0.016717637
-0.03256774 -0.20771971 -0.21519199 -0.22135353 0.051534634 -0.015185647 -0.079120964 0.10913758
-0.16866142 0.028323395 -0.03103993 0.09482567 0.027711872 0.2560782 -0.1479162 0.15959726
0.00834958 0.020663962 -0.08044403 -0.20983821 -0.23336639 0.008415983 -0.050782263 -0.04699776
0.055309836 0.04257014 -0.19127443 -0.15741096 -0.05494534 -0.15066804 0.036264926 0.024973221
-0.04034424 0.12351263 -0.13883692 -0.15597692 0.10559782 -0.07388858 0.089419864 -0.020412445
0.0052652587 0.055043608 0.024625491 0.110104196 0.15917511 0.13640478 0.30579895 -0.07603572
-0.07847224 0.23230058 0.13546854 -0.0469889 -0.114825755 -0.29169738 -0.19924597 0.046361472
0.005097675 0.099749036 -0.026816145 -0.04207098 0.09380314 -0.18608345 -0.22408463 -0.064844675
-0.08873352 -0.06703942 -0.0105655845 0.12391632 0.14959824 -0.01257193 0.029458776 -0.062282342
-0.18797562 -0.12719876 -0.21213743 -0.12534009 -0.1554058 -0.19490516 0.02916597 -0.286226
0.13557434 0.028531197 -0.0054733786 0.082649656 -0.097252496 -0.011631081 -0.15012276 -0.25385907
-0.016995318 0.020053819 -0.031393833 0.10919419 -0.09113068 -0.05673492 0.04118334 -0.050869294
-0.11778537 -0.13769965 -0.07611372 0.067131184 -0.115175255 0.13564445 0.029045215 -0.06338128
0.081631556 -0.102370635 -0.07373192 -0.09146384 -0.138272 -0.07457656 -0.12712504 0.051679675
0.13379684 -0.08231875 -0.13682446 0.09976107 -0.07437542 -0.05531174 -0.095427416 -0.083409764
-0.09533866 -0.058329538 0.015932908 0.03226333 0.06685883 0.11149648 0.06667166 -0.051886786
0.053590428 0.12119443 -0.03237554 -0.025048176 0.039972544 -0.033050027 -0.021481913 0.023332378
0.13425417 -0.011567978 -0.12669374 0.01606321 -0.116855904 0.12625802 0.17747593 -0.037947845
-0.044276576 0.112434775 -0.08180428 -0.016074056 -0.08635926 0.10896131 -0.1373107 -0.12475483
-0.00044298248 -0.02510251 -0.18347244 0.14675923 -0.093001716 -0.0058320453 -0.21962854 0.040968955
0.106704965 0.1915718 0.068996705 0.023710893 -0.043171987 -0.084248655 0.03414666 0.079690576
0.0021551247 0.027339416 0.059355564 -0.14750712 -0.13768806 0.07773633 -0.02628843 0.1656983
0.00554179 -0.011913067 -0.09565417 -0.035182543 -0.03173238 -0.08520745 -0.14718594 -0.08216004
-0.04284059 0.08832797 -0.13980436 0.119520955 0.101158574 -0.11170377 0.12099864 -0.024123637
-0.061313175 -0.044419575 0.0681556 -0.061535038 -0.06615865 0.09837627 0.045240134 -0.07233154
0.00010344968 0.12123914 -0.2928572 -0.15177785 0.013465844 -0.13086265 -0.09836762 0.19813138
0.1306767 0.10207318 0.1675184 -0.46528104 0.12922339 0.21002167 -0.2224667 0.074281126
0.29691646 0.12521644 0.05479725 0.11043396 0.13255402 -0.08434532 0.1433015 0.17328593
-0.5065912 0.3029509 0.053013965 0.18838255 -0.021780843 0.15295607 0.07710724 0.06945459
0.03914684 -0.05278246 0.066574365 -0.34078017 0.14998695 0.06268469 0.08024326 -0.07783621
0.22406717 0.19309549 -0.13155042 -0.05750228 0.020288246 0.044738397 0.029695524 -0.13137019
00000000: 1e5b 493d dcd1 643a 516c 153d ffae b4bd
00000010: 242a 6d3e 3e3b 823d a46d dcbd 6df3 88bc
00000020: c065 05bd 7ab4 54be 4a5b 5cbe 80aa 62be
00000030: fb15 533d 38cd 78bc 2c0a a2bd 8683 df3d
00000040: 94b5 2cbe 7706 e83c 7447 febc f633 c23d
00000050: 0204 e33c af1c 833e 5877 17be 776d 233e
00000060: adcc 083c 7847 a93c d7bf a4bd d4df 56be
00000070: 99f7 6ebe 31e3 093c 1001 50bd b980 40bd
00000080: 918c 623d 075e 2e3d 72dd 43be 5730 21be
00000090: 5d0e 61bd b948 1abe 888a 143d a494 cc3c
000000a0: 0040 25bd 31f4 fc3d 442b 0ebe 6ab8 1fbe
000000b0: ab43 d83d e552 97bd c321 b73d 0038 a7bc
000000c0: 3188 ac3b 6875 613d 66bb c93c 4f7e e13d
000000d0: cdfe 223e b2ad 0b3e ae91 9c3e 9eb8 9bbd
000000e0: 0eb6 a0bd 34e0 6d3e 44b8 0a3e 6f77 40bd
000000f0: c429 ebbd 5c59 95be 2307 4cbe 87e5 3d3d
00000100: 660a a73b 3949 cc3d 88ad dbbc 9f52 2cbd
00000110: dc1b c03d a98c 3ebe 7176 65be 49cd 84bd
00000120: ebb9 b5bd f74b 89bd 461b 2dbc d7c7 fd3d
00000130: 4830 193e 7ffa 4dbc 8853 f13c c51b 7fbd
00000140: ae7c 40be 6440 02be 8e3a 59be 2759 00be
00000150: b322 1fbe 3895 47be 79ed ee3c 378c 92be
00000160: 00d4 0a3e 42ba e93c 075a b3bb 3944 a93d
00000170: 512c c7bd 4a90 3ebc c8b9 19be d1f9 81be
00000180: c439 8bbc e847 a43c d296 00bd 34a1 df3d
00000190: b9a2 babd e062 68bd ddaf 283d 525c 50bd
000001a0: 7539 f1bd 2301 0dbe 83e1 9bbd 137c 893d
000001b0: 01e1 ebbd 61e6 0a3e 3bf0 ed3c 0bce 81bd
000001c0: 722e a73d b2a7 d1bd c300 97bd 6551 bbbd
000001d0: 2d97 0dbe 98bb 98bd 112d 02be 11ae 533d
000001e0: 0a02 093e bc96 a8bd b61b 0cbe 884f cc3d
000001f0: 2452 98bd 908e 62bd 736f c3bd bdd2 aabd
00000200: ea40 c3bd f4ea 6ebd bb85 823c 8e26 043d
00000210: 48ed 883d 4458 e43d 278b 883d 3d87 54bd
00000220: a381 5b3d c934 f83d 379c 04bd d531 cdbc
00000230: 40ba 233d 775f 07bd d6fa afbc 8b23 bf3c
00000240: ed79 093e 9e87 3dbc 01bc 01be fe96 833c
00000250: 2652 efbd c849 013e 40bc 353e 336f 1bbd
00000260: 5b5b 35bd 3444 e63d 0189 a7bd bdad 83bc
00000270: 20dd b0bd 1b27 df3d 2d9b 0cbe 767f ffbd
00000280: 1a40 e8b9 c7a3 cdbc 33e0 3bbe 0d48 163e
00000290: af77 bebd be1a bfbb 4ee6 60be 10cf 273d
000002a0: 2288 da3d 662b 443e 254e 8d3d 593d c23c
000002b0: 1cd5 30bd 8f8a acbd 5edd 0b3d d034 a33d
000002c0: fe3c 0d3b e9f6 df3c d21e 733d 1b0c 17be
000002d0: 19fe 0cbe 3a34 9f3d d55a d7bc d1ac 293e
000002e0: e797 b53b 062f 43bc 55e6 c3bd 921b 10bd
000002f0: d0f9 01bd 3e81 aebd e9b7 16be 8643 a8bd
00000300: 9d79 2fbd 4be5 b43d e028 0fbe 67c7 f43d
00000310: 3a2c cf3d f2c4 e4bd 23ce f73d ef9e c5bc
00000320: 8623 7bbd 4df1 35bd 2a95 8b3d 2a0c 7cbd
00000330: 307e 87bd 7f79 c93d b84d 393d 8f22 94bd
00000340: 20f3 d838 3a4c f83d 61f1 95be a76b 1bbe
00000350: d89f 5c3c dc00 06be f674 c9bd f4e2 4a3e
00000360: 1dd0 053e be0b d13d f289 2b3e 5139 eebe
00000370: 2353 043e ec0f 573e 50ce 63be b420 983d
00000380: 6f05 983e bd38 003e 1573 603d 332b e23d
00000390: 3ebc 073e 3dbd acbd a1bd 123e de71 313e
000003a0: f6af 01bf 611c 9b3e 2c25 593d 5be7 403e
000003b0: bd6d b2bc 84a0 1c3e 67ea 9d3d 353e 8e3d
000003c0: 7058 203d 6c32 58bd 2458 883d bd7a aebe
000003d0: 2e96 193e d560 803d 9456 a43d 9768 9fbd
000003e0: dd71 653e d3ba 453e 27b5 06be 8387 6bbd
000003f0: 8933 a63c 9c3f 373d 0744 f33c e885 06be

fc2.bias f4 [50]
0.029575622 0.15730163 -0.08899742 -0.103202 0.083014786 -0.06767766 0.16033855 -0.1605316
0.036589764 -0.10407224 -0.12642163 0.051204477 -0.0018701382 0.016399248 0.16232155 0.036499977
0.006477919 -0.0014054356 -0.01451748 0.20957275 -0.011868846 0.19927867 -0.015446912 0.00018759683
0.045699146 -0.026085338 -0.11800594 0.046519533 0.23249435 -0.120046645 -0.064259276 -0.05241126
0.1696722 0.049797606 0.209511 0.057610895 -0.03974022 -0.1643919 0.064573795 -0.0360288
0.023068778 0.08671224 0.00044003275 -0.0989299 -0.08863142 0.027698616 -0.13468923 -0.054778073
0.05243068 -0.11421588
00000000: 9348 f23c ae13 213e 4844 b6bd 925b d3bd
00000010: a803 aa3d 969a 8abd ca2f 243e 6562 24be
00000020: 26df 153d d423 d5bd ac74 01be c9bb 513d
00000030: 6d1f f5ba b757 863c 9f37 263e 0081 153d
00000040: b944 d43b 9836 b8ba b9da 6dbc 3d9a 563e
00000050: 8c75 42bc b50f 4c3e 0b15 7dbc a4b5 4439
00000060: 072f 3b3d ebb0 d5bc 19ad f1bd 448b 3e3d
00000070: 0013 6e3e 04db f5bd 5e9a 83bd 30ad 56bd
00000080: 8dbe 2d3e 93f8 4b3d 0d8a 563e 67f9 6b3d
00000090: a4c6 22bd 5a56 28be 443f 843d ef92 13bd
000000a0: bcfa bc3c 3096 b13d 32b4 e639 c29b cabd
000000b0: 6484 b5bd 35e8 e23c f9eb 09be f95e 60bd
000000c0: 8dc1 563d 04ea e9bd

fc3.weight f4 [50, 50]
-0.052105673 -0.07302036 0.004402997 0.023976596 0.10146074 -0.015754357 0.00084668235 -0.137593
0.1207217 -0.10629791 0.07917409 -0.008607891 -0.038298674 0.16454944 -0.044463016 0.11764699
0.09912835 -0.002462675 0.038360946 -0.07700913 0.13041353 0.0036967709 0.079107545 0.1373736
0.060892787 0.007280231 -0.10440683 -0.0017405349 0.12999332 0.04106948 -0.03216217 -0.0052421116
0.07582835 0.023546299 0.17553212 -0.17697634 0.1330825 0.13459818 -0.044695213 0.21278474
-0.08180993 0.07294928 0.039177082 0.0017272844 0.082497396 0.18981892 0.06377862 -0.13108863
0.08930127 -0.026921367 -0.058558635 -0.06887504 -0.13849653 -0.08816563 0.08790893 -0.028717903
0.08388593 -0.08973511 -0.00097622286 0.07321859 0.04733637 0.11843262 -0.038663898 0.22294532
-0.098134786 -0.040608034 0.0004519464 0.03286456 0.119310796 0.0729269 -0.0064270874 0.1421664
0.103148386 0.10402395 -0.042030763 0.24667896 0.03433783 0.21206672 0.06501618 0.038253788
-0.14631446 -0.049304906 0.05130606 -0.077721156 0.16283903 0.108943194 0.11943004 -0.012676322
-0.18684557 0.22413279 -0.005284393 0.2430023 0.047462277 -0.042598292 0.11101834 -0.31679577
-0.035870906 0.12846485 -0.0871562 0.074679025 -0.123845525 0.041170884 0.13278915 0.11924291
0.13862619 -0.008356287 0.049293816 -0.093767904 -0.021211017 -0.08553196 -0.009609103 0.08443753
0.05200955 0.023345511 0.0024990095 0.18377313 0.14672232 0.049995717 -0.09564665 -0.067071766
-0.033605393 0.065643996 -0.20300601 -0.014970138 0.05879262 0.2302603 -0.052759748 0.08546522
0.21491638 -0.23898086 0.036355425 0.060787346 0.06605062 -0.040427577 0.11202225 0.16842069
0.013365581 -0.08708313 -0.10649653 -0.08238331 0.15027678 -0.09468941 0.011122961 -0.11754335
0.22981696 0.10149905 -0.088098876 0.07280912 0.07909739 0.034325913 -0.08717359 0.2762664
0.07229392 0.009287952 -0.072944775 -0.11303118 0.073826745 0.11981468 -0.1401051 -0.13518323
-0.105801135 0.011019245 0.18616204 0.22869587 -0.08537167 0.20064186 -0.05143491 0.18412226
-0.013193093 0.1842636 0.17593114 0.07919192 -0.056897063 -0.00076603587 0.031371795 0.07495975
-0.05301546 0.15575421 0.09396458 0.11058931 0.04009871 0.015218495 0.022384696 0.06480852
0.060894456 -0.07390067 0.02509032 0.0167467 0.03846426 0.056347795 -0.2338046 -0.004044829
-0.031644154 0.08725524 -0.07194301 0.04602154 -0.13509117 -0.05247596 -0.15432535 0.10179723
0.045501996 0.06255691 -0.08135729 -0.08070087 0.09298582 -0.09652802 0.10531413 -0.09268057
0.0563556 -0.117256865 0.0020954912 -0.120865494 -0.062364865 0.17158939 0.0441755 0.06684894
0.07778461 0.02939551 0.11157405 0.032208007 0.10557989 0.17641479 0.12607138 0.09438191
-0.078856684 -0.023206197 -0.1018955 0.16933227 -0.11894485 0.0008940661 -0.00066984864 0.16419466
-0.074887626 -0.052033946 0.096508816 -0.045809276 -0.009909905 -0.071107894 0.15584771 0.1348212
-0.059141442 0.17172614 -0.058952603 0.06743102 0.0027978467 -0.09207255 -0.03216368 0.06647478
0.04017397 -0.10707556 -0.041721955 -0.118794866 -0.07758944 0.088323936 0.07602459 0.039253436
00000000: c26c 55bd b38b 95bd 0447 903b 916a c43c
00000010: a6ca cf3d 480f 81bc e4f3 5d3a 2ee5 0cbe
00000020: f03c f73d b8b2 d9bd 0626 a23d 1d08 0dbc
00000030: 12df 1cbd a67f 283e da1e 36bd e8f0 f03d
00000040: ce03 cb3d d564 21bb 5e20 1d3d f6b6 9dbd
00000050: 208b 053e 8645 723b 2303 a23d aaab 0c3e
00000060: b76a 793d 018f ee3b 40d3 d5bd a922 e4ba
00000070: f81c 053e 7938 283d 7bbc 03bd 05c6 abbb
00000080: e54b 9b3d 2be4 c03c b1be 333e 4939 35be
00000090: c746 083e 1bd4 093e 5412 37bd 3ee4 593e
000000a0: f78b a7bd 6f66 953d 2678 203d 0c66 e23a
000000b0: 65f4 a83d e45f 423e 5d9e 823d 193c 06be
000000c0: 96e3 b63d 338a dcbc 2edb 6fbd 5b0e 8dbd
000000d0: 09d2 0dbe 2f90 b4bd 9909 b43d cf41 ebbc
000000e0: 63cc ab3d 0bc7 b7bd 35e9 7fba a1f3 953d
000000f0: c8e3 413d cd8c f23d 095e 1ebd c74b 643e
00000100: e4fa c8bd 9c54 26bd 38f3 ec39 fd9c 063d
00000110: 3859 f43d b35a 953d 519a d2bb 1294 113e
00000120: 763f d33d 820a d53d 7328 2cbd 6999 7c3e
00000130: d3a5 0c3d 0528 593e 3427 853d 01b0 1c3d
00000140: 75d3 15be f1f3 49bd 4e26 523d 452c 9fbd
00000150: 46bf 263e 9c1d df3d bd97 f43d 59b0 4fbc
00000160: 7254 3fbe 1183 653e b428 adbb 98d5 783e
00000170: ce67 423d 8c7b 2ebd 955d e33d 0e33 a2be
00000180: 5fed 12bd 4a8c 033e f37e b2bd 51f1 983d
00000190: b9a2 fdbd cda2 283d e1f9 073e a035 f43d
000001a0: 06f4 0d3e cfe8 08bc 50e8 493d 6309 c0bd
000001b0: bac2 adbc 612b afbd 806f 1dbc 95ed ac3d
000001c0: f707 553d 163f bf3c 6cc6 233b 062f 3c3e
000001d0: 603e 163e 4fc8 4c3d 64e2 c3bd ec5c 89bd
000001e0: cfa5 09bd 5c70 863d cfe0 4fbe 4f45 75bc
000001f0: 88d0 703d 5bc9 6b3e 9b1a 58bd 6408 af3d
00000200: 0a13 5c3e 66b7 74be 6de9 143d 27fc 783d
00000210: 8c45 873d 6397 25bd ec6b e53d 7976 2c3e
00000220: 4ffb 5a3c a458 b2bd da1a dabd 95b8 a8bd
00000230: 28e2 193e 85ec c1bd 143d 363c 91ba f0bd
00000240: 2355 6b3e bcde cf3d 2f6d b4bd f31c 953d
00000250: d0fd a13d 5499 0c3d 1188 b2bd ca72 8d3e
00000260: d60e 943d 7f2c 183c 1264 95bd e47c e7bd
00000270: 7a32 973d 6661 f53d b677 0fbe 796d 0abe
00000280: 44ae d8bd 108a 343c 43a1 3e3e 402f 6a3e
00000290: 58d7 aebd 0f75 4d3e 6aad 52bd 8c8a 3c3e
000002a0: d827 58bc 99af 3c3e 4b27 343e 602f a23d
000002b0: e50c 69bd cccf 48ba b67f 003d 7f84 993d
000002c0: bd26 59bd 087e 1f3e 8070 c03d a67c e23d
000002d0: 8c3e 243d ff56 793c 1c60 b73c 54ba 843d
000002e0: 776c 793d 3c59 97bd 378a cd3c 6030 893c
000002f0: b38c 1d3d f2cc 663d 796a 6fbe 7c8a 84bb
00000300: 4d9d 01bd e0b2 b23d db56 93bd 1581 3c3d
00000310: 5755 0abe 08f1 56bd 7707 1ebe 117b d03d
00000320: 4d60 3a3d d61d 803d a79e a6bd 7f46 a5bd
00000330: 596f be3d 7cb0 c5bd efae d73d 50cf bdbd
00000340: 21d5 663d 5e24 f0bd 8254 093b 5488 f7bd
00000350: 4d72 7fbd 21b5 2f3e 5ef1 343d 19e8 883d
00000360: 8a4d 9f3d dace f03c ef80 e43d 8bec 033d
00000370: 453a d83d 14a6 343e db18 013e 4e4b c13d
00000380: 9d7f a1bd ec1a bebc 97ae d0bd 7065 2d3e
00000390: 5c99 f3bd c35f 6a3a c898 2fba a522 283e
000003a0: af5e 99bd 8c21 55bd 6aa6 c53d 82a2 3bbd
000003b0: 275d 22bc 04a1 91bd 8b96 1f3e 920e 0a3e
000003c0: 4c3e 72bd fad8 2f3e 4978 71bd 4619 8a3d
000003d0: 145c 373b 8890 bcbd 10be 03bd ee23 883d
000003e0: 768d 243d 6e4a dbbd a4e4 2abd b94a f3bd
000003f0: 36e7 9ebd 2ee3 b43d c8b2 9b3d 36c8 203d

fc3.bias f4 [50]
0.083678946 0.01928753 0.054676328 0.015638875 0.19636565 0.050728846 0.17779605 0.051572412
0.03469417 0.20799261 -0.04339663 0.050053567 0.029133033 -0.06850096 -0.025908628 0.14593415
0.08176608 0.15483528 0.109034665 0.20655309 0.17154668 0.10527627 0.11084284 0.06652254
0.15659723 0.07013501 -0.008763186 0.1022934 0.07946374 0.07458298 0.11453845 0.14460184
0.13993344 0.010843622 -0.02886942 0.11111491 0.06998917 0.013835744 0.09067845 0.1749251
0.048009306 -0.0102244485 0.14093456 0.18545417 -0.0042927507 -0.10266921 -0.023569379 0.039360754
0.0945267 0.10127628
00000000: de5f ab3d e200 9e3c 49f4 5f3d 191d 803c
00000010: 1414 493e 0dc9 4f3d 2b10 363e 983d 533d
00000020: 791b 0e3d 04fc 543e aac0 31bd f804 4d3d
00000030: 66a8 ee3c 3b4a 8cbd 553e d4bc c36f 153e
00000040: f974 a73d 248d 1e3e 914d df3d a782 533e
00000050: efa9 2f3e 169b d73d 9201 e33d f83c 883d
00000060: 065b 203e f2a2 8f3d 7793 0fbc 347f d13d
00000070: e3bd a23d f6be 983d 2393 ea3d 8112 143e
00000080: b64a 0f3e 72a9 313c 907f ecbc 3790 e33d
00000090: 7b56 8f3d 51af 623c a0b5 b93d 911f 333e
000000a0: 68a5 443d 7284 27bc 2651 103e b3e7 3d3e
000000b0: 34aa 8cbb 3c44 d2bd 9214 c1bc be38 213d
000000c0: 3797 c13d f069 cf3d

fc1.weight f4 [50, 7]
-0.27100897 0.27541614 0.43799362 0.16055213 -0.43036523 0.01809656 -0.2034345 -0.2675753
-0.1320702 -0.3228081 -0.3699012 -0.119505286 -0.09306418 -0.35245505 -0.08629248 -0.17476024
-0.079087414 0.26594487 0.35891852 0.018918015 -0.15630999 -0.086455375 0.3607159 -0.41864994
0.062820576 -0.20767386 -0.04827223 -0.0833877 -0.25339922 -0.21309815 -0.17713177 -0.47672966
0.4129096 -0.02074666 0.18964593 0.3684483 0.23862034 0.15356609 0.33533594 0.07720123
-0.06641178 0.13499767 -0.06397954 -0.17282686 0.030911027 0.37197283 0.17722078 0.14136118
0.15546346 -0.20775983 0.31710958 0.17961146 -0.14918412 0.011052929 0.18725935 -0.10584822
0.020098059 0.16790631 -0.36171833 0.081196725 0.14818315 0.21342856 -0.27490318 -0.25643086
0.20947607 0.37528136 0.3475843 0.13068175 -0.11081054 0.048477348 -0.52893513 -0.06617754
0.23258528 -0.2171639 -0.36881083 0.27236286 -0.021512786 -0.37535024 -0.032494023 0.3040445
0.29230958 0.124005035 -0.14295419 -0.362156 0.39747557 -0.22332814 -0.056839943 -0.2143895
-0.23716207 -0.36146328 0.22605677 -0.25897944 0.07224057 0.18188435 0.28818223 -0.40426466
-0.120948195 -0.44220164 -0.3998585 0.27194098 0.2207585 -0.03601197 -0.2582971 -0.3388805
0.3610273 0.37182707 -0.12372953 -0.11367779 -0.2315075 0.2722588 -0.114730194 -0.16736248
-0.33662874 -0.38845482 0.06838133 0.4053446 -0.2907054 0.31394282 0.20837305 -0.029728366
-0.2527572 0.2497299 0.28780547 0.37929797 0.3397491 0.07622229 -0.12661369 0.2283338
-0.08166605 -0.016386619 0.2180523 0.1539756 0.02611402 -0.66512775 0.36432394 -0.0029992596
0.17433144 -0.087967776 0.06592882 0.09438088 -0.19380516 0.07865676 0.008879776 0.3925838
-0.116695836 -0.19758871 -0.12819086 0.17466766 -0.26786107 0.20900676 0.100637585 -0.32095265
0.062318634 -0.19174159 -0.67185086 0.030303502 -0.17989081 0.34510204 0.2479105 -0.016521955
0.057422962 0.3625687 0.18487793 -0.16733094 -0.43343255 -0.23036146 -0.0505494 0.0028532895
0.3262318 -0.0042500338 0.20708072 0.23745114 -0.26416945 -0.12613606 0.060304865 0.40450728
0.1889343 -0.25302362 -0.008443124 0.13332899 0.14398013 0.2609897 -0.091144085 0.09685895
-0.22071247 0.23743401 0.015745372 -0.34829834 -0.13791588 -0.027203497 0.33882147 -0.020286106
-0.23385282 -0.39782223 -0.3562022 0.30143648 0.1710162 -0.38656297 0.01577334 0.2538245
0.048778325 -0.3387404 0.27075738 0.2719184 -0.34283775 -0.4348205 -0.29918864 0.14344256
-0.21276616 0.3640094 0.20182689 -0.32394862 -0.45650932 -0.1861827 -0.19037281 0.20086384
-0.042951316 -0.06749954 -0.10459434 0.40529308 0.40550292 -0.40485385 0.01755557 -0.25607887
-0.59003025 0.10887675 0.3318274 0.04458081 0.013352992 0.055394836 0.09696004 -0.2169582
-0.21378252 -0.48771253 -0.23974706 -0.28818473 -0.42156744 0.14751372 -0.05594534 -0.44955593
-0.24309923 -0.09181478 -0.021421805 0.31542498 0.2966361 0.11505369 -0.46346998 -0.060970526
0.13451523 0.12896144 -0.16713183 -0.0021058205 0.05581351 0.39879474 -0.27144197 -0.29797402
00000000: b0c1 8abe 5803 8d3e b340 e03e c767 243e
00000010: d558 dcbe 3d3f 943c 2251 50be a1ff 88be
00000020: 693d 07be 1a47 a5be b163 bdbe 30bf f4bd
00000030: 6f98 bebd fd74 b4be 1dba b0bd 59f4 32be
00000040: 95f8 a1bd ed29 883e 2bc4 b73e f4f9 9a3c
00000050: ba0f 20be 840f b1bd c1af b83e 4959 d6be
00000060: 13a8 803d 75a8 54be 1ab9 45bd 2cc7 aabd
00000070: 8bbd 81be 6736 5abe 0862 35be e915 f4be
00000080: e368 d33e e6f4 a9bc 8b32 423e 41a5 bc3e
00000090: e458 743e 6e40 1d3e 27b1 ab3e ae1b 9e3d
000000a0: e602 88bd d43c 0a3e b407 83bd 86f9 30be
000000b0: 1f39 fd3c 3973 be3e 5d79 353e fcc0 103e
000000c0: d031 1f3e febe 54be 305c a23e 11ec 373e
000000d0: b9c3 18be 5817 353c eac0 3f3e f4c6 d8bd
000000e0: afa4 a43c a2ef 2b3e 2533 b9be 784a a63d
000000f0: 53bd 173e 048d 5a3e 1cc0 8cbe e84a 83be
00000100: e580 563e e124 c03e 92f6 b13e 70d1 053e
00000110: a3f0 e2bd 2f90 463d 4b68 07bf 1788 87bd
00000120: d62a 6e3e 3760 5ebe c6d4 bcbe 2573 8b3e
00000130: 953b b0bc e82d c0be 7418 05bd b9ab 9b3e
00000140: 9aa9 953e 5af6 fd3d 9562 12be 836c b9be
00000150: eb81 cb3e 22b0 64be 00d1 68bd ec88 5bbe
00000160: 9dda 72be b711 b9be 6d7b 673e f498 84be
00000170: ddf2 933d e43f 3a3e 9f8c 933e c7fb cebe
00000180: b0b3 f7bd 4168 e2be 41ba ccbe d93b 8b3e
00000190: 840e 623e 4a81 13bd 843f 84be bf81 adbe
000001a0: 92d8 b83e 1e60 be3e e865 fdbd e7cf e8bd
000001b0: 4d10 6dbe 8165 8b3e aaf7 eabd 1261 2bbe
000001c0: 9a5a acbe 8de3 c6be 830b 8c3d 5489 cf3e
000001d0: 57d7 94be 1dbd a03e bf5f 553e e788 f3bc
000001e0: 6469 81be 32b9 7f3e 3d5b 933e 5833 c23e
000001f0: 98f3 ad3e 6f1a 9c3d 05a7 01be 56d0 693e
00000200: 8840 a7bd 3b3d 86bc 1a49 5f3e c8ab 1d3e
00000210: 12ed d53c d045 2abf ab88 ba3e 3a8f 44bb
00000220: f183 323e 7328 b4bd b005 873d c34a c13d
00000230: dc74 46be cc16 a13d 7b7c 113c be00 c93e
00000240: 3afe eebd b254 4abe 7744 03be 14dc 323e
00000250: 1625 89be de05 563e 141b ce3d e853 a4be
00000260: d341 7f3d e857 44be 6bfe 2bbf 0d3f f83c
00000270: 4c35 38be 37b1 b03e 40dc 7d3e 0d59 87bc
00000280: 5734 6b3d 9ba2 b93e a450 3d3e cd58 2bbe
00000290: dfea ddbe e0e3 6bbe e30c 4fbd 41fe 3a3b
000002a0: db07 a73e de43 8bbb f80c 543e 6426 733e
000002b0: 3841 87be d029 01be 3c02 773d 941b cf3e
000002c0: fe77 413e 508c 81be 0755 0abc 6587 083e
000002d0: 876f 133e 71a0 853e c0a9 babd fc5d c63d
000002e0: 7302 62be e721 733e 70fc 803c 2954 b2be
000002f0: d239 0dbe ded9 debc 027a ad3e 0c2f a6bc
00000300: 1d77 6fbe 5baf cbbe 2260 b6be e255 9a3e
00000310: df1e 2f3e 95eb c5be 1737 813c 49f5 813e
00000320: c8cb 473d 626f adbe b6a0 8a3e e338 8b3e
00000330: 6e88 afbe cba0 debe 412f 99be 9be2 123e
00000340: 5fdf 59be 715f ba3e b5ab 4e3e 98dc a5be
00000350: 97bb e9be ada6 3ebe 17f1 42be 40af 4d3e
00000360: b8ed 2fbd 333d 8abd 8f35 d6bd 9382 cf3e
00000370: 149e cf3e 0149 cfbe b3d0 8f3c c51c 83be
00000380: 390c 17bf c6fa de3d 48e5 a93e 5e9a 363d
00000390: 82c6 5a3c b2e5 623d fc92 c63d 4a2a 5ebe
000003a0: cee9 5abe 75b5 f9be 4180 75be f38c 93be
000003b0: b0d7 d7be d60d 173e f126 65bd 322c e6be
000003c0: 01ef 78be 6309 bcbd c87c afbc 627f a13e
000003d0: b0e0 973e 45a1 eb3d f04b edbe 3bbc 79bd
000003e0: 5cbe 093e 780e 043e 9b24 2bbe ce01 0abb
000003f0: b59c 643d d32e cc3e 71fa 8abe 0d90 98be

fc1.bias f4 [50]
-0.36178702 -0.22576572 -0.012205594 0.12569275 0.46506485 0.102005795 -0.093204916 0.4123609
-0.18995702 0.051575504 -0.1471308 -0.18826227 0.12772545 0.2382666 0.019023256 -0.015636614
-0.26746452 0.42137748 0.092534155 0.1189661 -0.03820558 0.06709778 0.39738724 -0.10315793
0.35182774 0.24357076 0.16198008 0.046215363 -0.0052488497 -0.094104335 0.059392873 -0.09353051
-0.019750644 -0.13442144 0.25136214 -0.21236162 -0.11445493 -0.019012744 0.19072664 0.39786136
0.3615664 -0.17343083 0.046371076 0.12287862 -0.04265754 -0.29719847 -0.014505099 -0.25486857
-0.11691614 0.17771009
00000000: 263c b9be 212f 67be f9f9 47bc 9ab5 003e
00000010: fb1c ee3e 6ae8 d03d 38e2 bebd f820 d33e
00000020: 1884 42be d640 533d 75a9 16be d3c7 40be
00000030: 76ca 023e 29fc 733e a9d6 9b3c 5b18 80bc
00000040: 1cf1 88be cabe d73e 8c82 bd3d 80a4 f33d
00000050: 747d 1cbd 906a 893d 5776 cb3e 7744 d3bd
00000060: c422 b43e 9d6a 793e 1bde 253e 524c 3d3d
00000070: 8bfe abbb c6b9 c0bd f145 733d ed8c bfbd
00000080: 1acc a1bc c6a5 09be 8ab2 803e 5375 59be
00000090: 5967 eabd 9dc0 9bbc d84d 433e 7cb4 cb3e
000000a0: 3b1f b93e da97 31be 99ef 3d3d c9a7 fb3d
000000b0: acb9 2ebd 662a 98be cba6 6dbc 227e 82be
000000c0: bb71 efbd a2f9 353e

fc2.weight f4 [50, 50]
0.053533997 0.0008683836 0.04663495 -0.088894345 0.197849 0.06148625 -0.109793365 -0.02293146
-0.024373792 -0.20332508 -0.21308258 -0.21653609 0.05335243 -0.00033677428 -0.07994575 0.103033304
-0.16879469 0.027524533 -0.042372752 0.09695217 0.042153385 0.26007906 -0.14353569 0.15498842
0.011478867 0.013449523 -0.07828195 -0.21494341 -0.2295335 0.0003606778 -0.03973749 -0.040742114
0.05806744 0.047549244 -0.17874686 -0.15843743 -0.05609201 -0.15218623 0.04627458 0.02508314
-0.031516857 0.12425323 -0.13878211 -0.15175128 0.09639071 -0.07262658 0.09026325 -0.025445992
0.0060673147 0.055219147 0.048135124 0.11009903 0.1708887 0.12914969 0.30887982 -0.08105298
-0.0705265 0.2093892 0.13069138 -0.046249837 -0.10256379 -0.2471458 -0.1912632 0.09029115
0.02035486 0.090180635 -0.011305289 -0.03765489 0.09206708 -0.13228907 -0.20304891 -0.055433705
-0.06847129 -0.0809357 -0.010809051 0.11934434 0.1406959 -0.011653188 0.040142495 -0.0577822
-0.18820655 -0.10224465 -0.1896748 -0.1118098 -0.1465537 -0.18544178 0.02040061 -0.30593932
0.13583851 0.027754467 -0.0050762855 0.07896586 -0.10099417 0.03718291 -0.15139648 -0.24195161
-0.022440447 0.020120388 -0.03687256 0.10894265 -0.091132574 -0.056737006 0.041185517 -0.050863776
-0.117779985 -0.13768965 -0.07610606 0.06712974 -0.11516928 0.13564198 0.029043965 -0.06337896
0.08163343 -0.10236495 -0.07372788 -0.091455795 -0.13826935 -0.074572615 -0.12712565 0.051682383
0.13378675 -0.082315296 -0.13681702 0.099754825 -0.074367374 -0.05531023 -0.09542063 -0.083406925
-0.09533316 -0.058329154 0.015929826 0.032257047 0.066859536 0.11149528 0.066663735 -0.05188325
0.05358891 0.121186204 -0.032376204 -0.025047245 0.039974436 -0.033052664 -0.021484962 0.02333649
0.13424873 -0.011570551 -0.126695 0.016066223 -0.11685025 0.12624988 0.17704211 -0.03794789
-0.03899533 0.12191974 -0.08949528 -0.01705114 -0.07840402 0.10949423 -0.12902796 -0.12830935
0.007882739 -0.026380487 -0.18596603 0.14758173 -0.09078338 -0.004874115 -0.21219634 0.044497717
0.11076543 0.2106661 0.07003845 0.021141617 -0.021613052 -0.08176464 0.028043807 0.0837544
0.014719007 0.028910287 0.06684904 -0.14133541 -0.1323855 0.07312081 -0.0132759875 0.16539325
0.009133206 0.00118211 -0.08676553 -0.02792113 -0.023605745 -0.09315467 -0.15047137 -0.079324715
-0.040783435 0.09983496 -0.13957606 0.12555252 0.098197244 -0.112029105 0.121277556 -0.022390412
-0.06276314 -0.04442035 0.063652456 -0.07158003 -0.074664585 0.08917396 0.044813342 -0.072357416
-0.010494499 0.11774082 -0.26839316 -0.15635216 0.009866671 -0.12236116 -0.08828089 0.19424368
0.13487719 0.09661717 0.16840889 -0.43891513 0.13235708 0.19276223 -0.20880122 0.064751685
0.28552732 0.11842298 0.05577613 0.10899946 0.1347464 -0.08071932 0.14039437 0.1623757
-0.48926222 0.29067442 0.07367899 0.18305974 -0.032020163 0.1511184 0.07236178 0.060233094
0.01671162 -0.054694485 0.06284427 -0.31893876 0.13656835 0.055026595 0.07077852 -0.082124636
0.21423048 0.18294804 -0.1315473 -0.057505637 0.02028964 0.044731583 0.029699111 -0.13136677
00000000: 7746 5b3d 3da4 633a 4a04 3f3d 3d0e b6bd
00000010: ee98 4a3e 02d9 7b3d 58db e0bd c2da bbbc
00000020: 8cab c7bc 7334 50be 5232 5abe a3bb 5dbe
00000030: 1488 5a3d 1491 b0b9 99ba a3bd 2003 d33d
00000040: 84d8 2cbe 217b e13c 0d8f 2dbd dc8e c63d
00000050: 07a9 2c3d 1529 853e 05fb 12be 49b5 1e3e
00000060: dc11 3c3c 635b 5c3c 4952 a0bd 201a 5cbe
00000070: d40a 6bbe 5b19 bd39 c7c3 22bd 34e1 26bd
00000080: 20d8 6d3d ffc2 423d 6b09 37be 6c3d 22be
00000090: bcc0 65bd b5d6 1bbe 6a8a 3d3d 287b cd3c
000000a0: d217 01bd 7a78 fe3d e61c 0ebe b064 1bbe
000000b0: 7e68 c53d 3fbd 94bd f0db b83d 1d74 d0bc
000000c0: 53d0 c63b 792d 623d 5629 453d 9a7b e13d
000000d0: 73fd 2e3e d13f 043e 7f25 9e3e 1bff a5bd
000000e0: 3370 90bd 1f6a 563e f6d3 053e 7870 3dbd
000000f0: f70c d2bd ca13 7dbe 80da 43be 91ea b83d
00000100: 3cbf a63c a0b0 b83d d239 39bc 043c 1abd
00000110: aa8d bc3d c976 07be 0eec 4fbe 740e 63bd
00000120: ad3a 8cbd 9ec1 a5bd 7218 31bc ce6a f43d
00000130: 9612 103e 03ed 3ebc 756c 243d 07ad 6cbd
00000140: 38b9 40be a565 d1bd 1c3a 42be 89fc e4bd
00000150: 2c12 16be 73e4 3dbe 2e1f a73c 14a4 9cbe
00000160: 4019 0b3e 565d e33c f856 a6bb dab8 a13d
00000170: 08d6 cebd 1b4d 183d ae07 1bbe 2ac2 77be
00000180: 07d5 b7bc 83d3 a43c ae07 17bd 531d df3d
00000190: b7a3 babd 1065 68bd 25b2 283d 8956 50bd
000001a0: a236 f1bd 84fe 0cbe 7edd 9bbd 517b 893d
000001b0: dfdd ebbd bbe5 0a3e 9ced ed3c d4cc 81bd
000001c0: 6e2f a73d b7a4 d1bd a5fe 96bd 2d4d bbbd
000001d0: 7b96 0dbe 87b9 98bd 3a2d 02be e8b0 533d
000001e0: 65ff 083e ec94 a8bd c319 0cbe 424c cc3d
000001f0: ec4d 98bd fb8c 62bd e46b c3bd 40d1 aabd
00000200: 083e c3bd 8dea 6ebd 447f 823c f71f 043d
00000210: a7ed 883d a357 e43d ff86 883d 8883 54bd
00000220: 0b80 5b3d 7930 f83d e99c 04bd e12f cdbc
00000230: 3cbc 233d 3b62 07bd 3b01 b0bc 2b2c bf3c
00000240: 8078 093e 6992 3dbc 56bc 01be 509d 833c
00000250: 2f4f efbd a647 013e 874a 353e 3f6f 1bbd
00000260: 91b9 1fbd 0fb1 f93d 4d49 b7bd d5ae 8bbc
00000270: 4992 a0bd 833e e03d e81f 04be 8763 03be
00000280: 9b26 013c e41b d8bc e16d 3ebe aa1f 173e
00000290: a3ec b9bd 0ab7 9fbb ff49 59be 3d43 363d
000002a0: fcd8 e23d dbb8 573e 5270 8f3d 2f31 ad3c
000002b0: db0d b1bc 3874 a7bd 20bc e53c 6d87 ab3d
000002c0: fd27 713c 44d5 ec3c 26e8 883d 3bba 10be
000002d0: 1190 07be 5dc0 953d 8783 59bc d95c 293e
000002e0: 71a3 153c 08f1 9a3a 20b2 b1bd dbba e4bc
000002f0: d660 c1bc e0c7 bebd 2b15 1abe ff74 a2bd
00000300: 880c 27bd 4676 cc3d 07ed 0ebe d790 003e
00000310: a31b c93d 846f e5bd 5e60 f83d 196c b7bc
00000320: f689 80bd 1df2 35bd 385c 823d 8d98 92bd
00000330: bfe9 98bd d6a0 b63d 328e 373d 2030 94bd
00000340: 1ef1 2bbc 1922 f13d d46a 89be c81a 20be
00000350: d1a7 213c 7d98 fabd 9ccc b4bd d1e7 463e
00000360: 3f1d 0a3e 39df c53d 6173 2c3e 7cb9 e0be
00000370: 9d88 073e 7663 453e fdcf 55be 889c 843d
00000380: a330 923e bf87 f23d 8375 643d 1c3b df3d
00000390: f6fa 093e 2c50 a5bd 8bc3 0f3e d145 263e
000003a0: 9480 fabe 47d3 943e 03e5 963d 0374 3b3e
000003b0: 9327 03bd c8be 1a3e 6a32 943d fab6 763d
000003c0: cfe6 883c 5307 60bd 7fb4 803d f14b a3be
000003d0: 93d8 0b3e 9163 613d 54f4 903d f630 a8bd
000003e0: 3c5f 5b3e bb56 3b3e 56b4 06be 088b 6bbd
000003f0: 7636 a63c 7738 373d 8d4b f33c 0385 06be

fc2.bias f4 [50]
0.026920507 0.1530303 -0.088999234 -0.102407336 0.074547224 -0.067668386 0.15945506 -0.16667916
0.04158853 -0.107810296 -0.12880248 0.056558393 0.0020622474 0.015698463 0.16426787 0.03377937
-0.00127544 -0.0039513335 -0.014947598 0.20368595 -0.015263893 0.19621076 -0.014499853 -0.003136876
0.049214292 -0.03287257 -0.11799338 0.047354583 0.22783007 -0.120584846 -0.07011504 -0.046951666
0.16654992 0.049796075 0.20665236 0.055737205 -0.044931423 -0.16102235 0.06527937 -0.031122062
0.022956694 0.09005136 -0.0017413627 -0.10037362 -0.09434872 0.035572316 -0.13023251 -0.070827626
0.0582774 -0.11289935
00000000: 6588 dc3c fab3 1c3e 3b45 b6bd f0ba d1bd
00000010: 37ac 983d b995 8abd 3048 233e f1ad 2abe
00000020: bc58 2a3d a5cb dcbd cce4 03be c6a9 673d
00000030: c526 073b 109a 803c d635 283e 3d5c 0a3d
00000040: aa2c a7ba 307a 81bb c5e6 74bc 0d93 503e
00000050: 6815 7abc 79eb 483e cb90 6dbc 0c94 4dbb
00000060: ed94 493d 63a5 06bd 83a6 f1bd e1f6 413d
00000070: 494c 693e 30f5 f6bd 7998 8fbd 6450 40bd
00000080: 108c 2a3e f8f6 4b3d ad9c 533e b24c 643d
00000090: 030a 38bd 0be3 24be 31b1 853d b2f3 febc
000000a0: ad0f bc3c d96c b83d 703e e4ba af90 cdbd
000000b0: e739 c1bd 47b4 113d ac5b 05be 130e 91bd
000000c0: 48b4 6e3d c637 e7bd

fc3.weight f4 [50, 50]
-0.051853765 -0.058569744 0.004404431 0.026166847 0.09582334 -0.015751807 -0.0028461695 -0.13708967
0.12071993 -0.1075816 0.08648092 -0.007002112 -0.043474272 0.16492206 -0.048644707 0.11391526
0.094288886 -0.0070117954 0.033036876 -0.08309275 0.12574647 -0.0009535495 0.07746923 0.13712536
0.05769789 0.021745533 -0.1043978 -0.0032221389 0.1254373 0.04063241 -0.03603231 -0.016311178
0.07826589 0.023542333 0.16828139 -0.17893086 0.12906706 0.12842272 -0.03661509 0.21218467
-0.07864254 0.08333683 0.0391779 -0.0020744703 0.07766736 0.18640503 0.059306994 -0.1284964
0.08811222 -0.026915835 -0.059713323 -0.07232007 -0.13848741 -0.08089067 0.08947306 -0.028713536
0.086608045 -0.0721002 0.003700551 0.053078372 0.034804706 0.1155997 -0.04204952 0.2255277
-0.101785004 -0.040392272 0.000708281 0.034843165 0.117821075 0.07321951 -0.006483232 0.14416353
0.09771136 0.09845169 -0.038971607 0.2515652 0.034330517 0.21488278 0.06834616 0.032864936
-0.12983933 -0.05322623 0.0522833 -0.07772271 0.16861072 0.102978505 0.123665065 -0.0026064469
-0.1810609 0.22104189 -0.0008843894 0.2297204 0.047466252 -0.044670112 0.10221901 -0.31137288
-0.0065555735 0.12327286 -0.08638233 0.0746793 -0.11630683 0.025735162 0.1327805 0.12269315
0.13502732 -0.008352843 0.039280064 -0.088215224 -0.009664135 -0.085531615 -0.013298938 0.08492481
0.047195733 0.030397758 -0.0032981934 0.18035941 0.14032233 0.050553046 -0.09189027 -0.07218137
-0.0359252 0.045259696 -0.19039278 -0.02172224 0.058399852 0.2297824 -0.052760728 0.082803376
0.20552461 -0.25195673 0.03423996 0.06508113 0.06210416 -0.040430106 0.1057163 0.17285624
0.01684691 -0.07108013 -0.10283041 -0.08330424 0.1584756 -0.09402724 0.053546373 -0.11713379
0.22051798 0.097766355 -0.031731427 0.042997703 0.07341918 0.034320295 -0.08094719 0.26255077
0.072287604 0.009309299 -0.07570039 -0.11302231 0.07051661 0.116101325 -0.14010388 -0.13231066
-0.10481481 0.010925134 0.18169984 0.23461796 -0.07822725 0.19693618 -0.057077255 0.18331143
-0.017746268 0.18044834 0.17371795 0.07603755 -0.046254266 -0.0018978668 0.03134482 0.05023728
-0.053018857 0.15794681 0.09204676 0.11472628 0.041576635 0.015092157 0.022014298 0.06480774
0.058907494 -0.058428045 0.023560658 0.023977391 0.04452109 0.05296087 -0.23149067 -0.0038032776
-0.009954849 0.084904306 -0.072218046 0.04783552 -0.114503205 -0.047659215 -0.15865709 0.09662463
0.04878403 0.077190444 -0.081359506 -0.07425822 0.08841924 -0.09652897 0.09791436 -0.09408528
0.05634978 -0.106316805 0.00024369569 -0.12118644 -0.061772864 0.12678403 0.061083157 0.061011985
0.07275306 0.023845425 0.12089553 0.029135082 0.1058311 0.17233308 0.14622243 0.09194907
-0.08236902 -0.028107828 -0.10188872 0.16295084 -0.12644944 0.008534064 0.0005531309 0.16511075
-0.07288135 -0.05202829 0.09627513 -0.035669167 -0.015534065 -0.07289126 0.16678362 0.12663604
-0.06580481 0.15132399 -0.05895562 0.06731068 -0.0033216276 -0.08287576 -0.015070717 0.07006856
0.041054014 -0.10707452 -0.040677074 -0.08103222 -0.077587195 0.09036209 0.072489135 0.039252948
00000000: 9d64 54bd d4e6 6fbd 0c53 903b db5b d63c
00000010: 073f c43d ef09 81bc cd86 3abb 3c61 0cbe
00000020: 033c f73d be53 dcbd e91c b13d f971 e5bb
00000030: 1412 32bd 54e1 283e ac3f 47bd 674c e93d
00000040: 881a c13d 34c3 e5bb ad51 073d 882c aabd
00000050: afc3 003e a0f7 79ba 30a8 9e3d 976a 0c3e
00000060: 9f54 6c3d b023 b23c 84ce d5bd 852a 53bb
00000070: a372 003e 2c6e 263d 9e96 13bd 059f 85bc
00000080: de49 a03d dadb c03c f551 2c3e a739 37be
00000090: 282a 043e 3f81 033e b4f9 15bd f046 593e
000000a0: 570f a1bd 80ac aa3d 0179 203d d6f3 07bb
000000b0: 1110 9f3d f6e0 3e3e e4eb 723d 8f94 03be
000000c0: 2e74 b43d 997e dcbc f595 74bd 8b1c 94bd
000000d0: a5cf 0dbe 02aa a5bd a73d b73d a638 ebbc
000000e0: 8f5f b13d 45a9 93bd f284 723b b568 593d
000000f0: 618f 0e3d 89bf ec3d 1e3c 2cbd bcf0 663e
00000100: a874 d0bd 5e72 25bd efab 393a b5b7 0e3d
00000110: 2d4c f13d 1cf4 953d 4b71 d4bb 9b9f 133e
00000120: e51c c83d 0aa1 c93d b1a0 1fbd 27cd 803e
00000130: 289e 0c3d 3b0a 5c3e 12f9 8b3d 629d 063d
00000140: 9af4 04be bf03 5abd 0327 563d 162d 9fbd
00000150: 4aa8 2c3e 65e6 d23d 1c44 fd3d ecd0 2abb
00000160: 0768 39be ce58 623e 5ed6 67ba d33b 6b3e
00000170: f96b 423d 02f8 36bd 3358 d13d 446c 9fbe
00000180: 23d0 d6bb 7b76 fc3d 38e9 b0bd 76f1 983d
00000190: 4632 eebd 8cd2 d23c 9df7 073e 8c46 fb3d
000001a0: 9a44 0a3e 5dda 08bc 22e4 203d 2faa b4bd
000001b0: 5256 1ebc 332b afbd cae3 59bc 0fed ad3d
000001c0: 5050 413d b804 f93c 8126 58bb 23b0 383e
000001d0: a8b0 0f3e b610 4f3d f730 bcbd d3d3 93bd
000001e0: 4d26 13bd 3b62 393d 53f6 42be d7f2 b1bc
000001f0: af34 6f3d 144c 6b3e a21b 58bd d194 a93d
00000200: 0b75 523e 7900 81be 333f 0c3d 4149 853d
00000210: ef60 7e3d 0a9a 25bd ca81 d83d 3a01 313e
00000220: 8802 8a3c 7692 91bd c098 d2bd 6a9b aabd
00000230: 6d47 223e 5b91 c0bd 7153 5b3d d7e3 efbd
00000240: 77cf 613e ba39 c83d d0f8 01bd 5c1e 303d
00000250: cc5c 963d 7093 0c3d a4c7 a5bd 0e6d 863e
00000260: 860b 943d 0886 183c ce08 9bbd 3e78 e7bd
00000270: 036b 903d 88c6 ed3d 6477 0fbe 727c 07be
00000280: 26a9 d6bd 55ff 323c 860f 3a3e b13f 703e
00000290: 9c35 a0bd a3a9 493e d7c9 69bd feb5 3b3e
000002a0: 9f60 91bc 73c7 383e 1ee3 313e 93b9 9b3d
000002b0: 1d75 3dbd d8c1 f8ba 6d63 003d 9bc5 4d3d
000002c0: 4d2a 59bd cfbc 213e 0383 bc3d 9df5 ea3d
000002d0: 434c 2a3d 1845 773c 5457 b43c ecb9 843d
000002e0: fc48 713d 3f52 6fbd 4802 c13c 3c6c c43c
000002f0: bf5b 363d 7fed 583d e40b 6dbe 6940 79bb
00000300: aa19 23bc 4fe2 ad3d 0ee7 93bd 2eef 433d
00000310: a880 eabd 4f36 43bd 0177 22be 22e3 c53d
00000320: c3d1 473d 0616 9e3d d09f a6bd b214 98bd
00000330: 2615 b53d fbb0 c5bd 5387 c83d c9af c0bd
00000340: 07cf 663d a0bc d9bd 9088 7f39 9930 f8bd
00000350: 8b05 7dbd acd3 013e 5532 7a3d b4e7 793d
00000360: 8eff 943d 7b57 c33c 1398 f73d b2ac ee3c
00000370: fabd d83d 1578 303e 55bb 153e cb4f bc3d
00000380: 17b1 a8bd 6342 e6bc 09ab d0bd 96dc 263e
00000390: f67b 01be 75d2 0b3c fdff 103a cb12 293e
000003a0: d142 95bd 9e1b 55bd e52b c53d d519 12bd
000003b0: 9782 7ebc 0348 95bd 53c9 2a3e e1ac 013e
000003c0: acc4 86bd adf4 1a3e 737b 71bd 2fda 893d
000003d0: aaaf 59bb c4ba a9bd 2beb 76bc 1b80 8f3d
000003e0: 4128 283d e349 dbbd 019d 26bd 38f4 a5bd
000003f0: 09e6 9ebd c20f b93d 2f75 943d b3c7 203d

fc3.bias f4 [50]
0.08008975 0.021582503 0.05624452 0.017914264 0.20111115 0.048015703 0.17924795 0.04320948
0.03320661 0.20509367 -0.033943444 0.0535149 0.029125806 -0.073634505 -0.024494518 0.13177526
0.08491855 0.1472563 0.10090134 0.20583963 0.17111231 0.10328618 0.10809978 0.061587736
0.15172023 0.06832187 -0.0094741285 0.096597545 0.075688384 0.07236108 0.12655306 0.13842523
0.13869923 0.0084609855 -0.032935333 0.109122135 0.06921813 0.01683117 0.095407866 0.17274357
0.047268517 -0.020172503 0.13583717 0.18319374 -0.0015335324 -0.09835752 -0.02890189 0.035532452
0.09294031 0.1226558
00000000: 1806 a43d cacd b03c a760 663d efc0 923c
00000010: 15f0 4d3e 1dac 443d c68c 373e 6cfc 303d
00000020: a703 083d 1304 523e 4808 0bbd 7132 5b3d
00000030: 3e99 ee3c b0cd 96bd baa8 c8bc 18f0 063e
00000040: c7e9 ad3d 5bca 163e 5da5 ce3d a0c7 523e
00000050: 1138 2f3e b487 d33d 6b63 dd3d 6c43 7c3d
00000060: 8c5c 1b3e 56ec 8b3d 6039 1bbc efd4 c53d
00000070: 8302 9b3d 0c32 943d 2097 013e 58bf 0d3e
00000080: 2c07 0e3e f29f 0a3c 33e7 06bd 6d7b df3d
00000090: 3cc2 8d3d 86e1 893c 3365 c33d b1e3 303e
000000a0: a29c 413d ce40 a5bc e618 0b3e 2497 3b3e
000000b0: cf00 c9ba ab6f c9bd a8c3 ecbc 7a8a 113d
000000c0: 7d57 be3d f732 fb3d
