checkpointing_test/sigmoid_example_s12345/models/checkpoint_1000.pt (torch, 95431 bytes, 24 tensors)

fc1.weight f4 [50, 7]
0	0xbf2924a4	-0.66071534
1	0x3e263e17	0.16234623
2	0xbe06f9e5	-0.13181265
3	0x3ec51726	0.38494223
4	0xbe94428e	-0.28957027
5	0x3e965c5b	0.29367337
6	0xbe032f34	-0.12810975
7	0x3e1d1ae0	0.15342283
8	0xbea83667	-0.32854006
9	0x3e0bd9e0	0.13657331
10	0x3eb680d9	0.35645178
11	0x3da80a8c	0.08205137
12	0x3ec713ed	0.3888239
13	0xbe8837a4	-0.2660495
14	0xbe596612	-0.21230343
15	0xbe3a5b17	-0.1819881
16	0xbea681c9	-0.32520893
17	0x3e2f3171	0.17108704
18	0x3e96cf6b	0.29455122
19	0x3e6d3430	0.23164439
20	0xbe144186	-0.1447812
21	0x3d864b00	0.06557274
22	0x3e73497c	0.23758501
23	0x3de1ac5d	0.11019204
24	0x3eca5988	0.39521432
25	0xbdf0a0c1	-0.117494114
26	0x3e8a1122	0.26966196
27	0x3e760a90	0.24027467
28	0x3eb22fa7	0.3480198
29	0x3eb774be	0.35831255
30	0xbe0731e5	-0.13202627
31	0xbe50bfc1	-0.20385648
32	0xbe6afa95	-0.22947152
33	0xbe68fb09	-0.22752012
34	0x3e6ef909	0.23337187
35	0xbe69a749	-0.2281772
36	0x3e725c6e	0.23668072
37	0xbe3be9ca	-0.18350902
38	0x3caaf493	0.020868575
39	0xbeb9add8	-0.36265445
40	0x3e60b610	0.21944451
41	0xbe3d42a5	-0.18482454
42	0x3e161ddf	0.14659832
43	0x3e9221fc	0.28541553
44	0xbe07a0d4	-0.13244945
45	0x3eae8588	0.3408625
46	0x3e13320a	0.14374557
47	0x3e71d575	0.23616584
48	0x3e229d79	0.15880384
49	0x3ea01721	0.31267646
50	0x3da17e69	0.07885439
51	0xbe1dda3e	-0.15415284
52	0xbe1da517	-0.15395008
53	0x3e64b8a7	0.22336064
54	0x3b492d82	0.003069729
55	0x3e36d1b0	0.17853427
56	0x3e89be20	0.26902866
57	0xbcedef59	-0.029044794
58	0xbcffa16a	-0.031204898
59	0x3b3ad580	0.0028508604
60	0x3ebb3bf7	0.36569187
61	0xbea4bdd2	-0.3217607
62	0x3e9f850b	0.3115619
63	0xbd88dda4	-0.066828996
64	0x3c8484ca	0.0161766
65	0x3e79ef10	0.24407601
66	0xbe957670	-0.29191923
67	0xbeaf7e1c	-0.342759
68	0x3eb823a0	0.3596468
69	0xbe3ce83e	-0.18447968
70	0x3d85abff	0.06526946
71	0x3ebbd1ee	0.366836
72	0xbe1778cb	-0.14792173
73	0x3d8b47b5	0.068007864
74	0x3e92977f	0.28631207
75	0xbe94ea43	-0.29084978
76	0xbe8ff428	-0.28115964
77	0x3d63a670	0.05557865
78	0x3e439726	0.19100627
79	0x3da3fc1d	0.08007071
80	0xbe628af9	-0.22123326
81	0xbe91b50f	-0.2845845
82	0xbf092a49	-0.5358015
83	0x3d5f599b	0.054528814
84	0xbe1fee76	-0.1561831
85	0xbe87718e	-0.26453823
86	0x3e9dae89	0.30797222
87	0xbe8df770	-0.27727842
88	0xbdb596e8	-0.08866674
89	0xbdc15d0c	-0.094415754
90	0x3ea48717	0.32134315
91	0xbe9b1e6e	-0.30296654
92	0x3e60bad3	0.21946268
93	0x3db63495	0.08896748
94	0x3e670b45	0.22562893
95	0x3d72b7c5	0.059257288
96	0xbdacbd16	-0.08434503
97	0xbe51854e	-0.20461008
98	0x3e3de0d3	0.18542795
99	0x3db10a27	0.086445145
100	0x3e505396	0.20344386
101	0xbde89e8d	-0.11358366
102	0xbde1102e	-0.10989414
103	0xbe6dcf68	-0.2322365
104	0xbdee8e7a	-0.11648269
105	0x3cee14f6	0.02906273
106	0xbe569a8a	-0.2095739
107	0x3e4542de	0.19263789
108	0xbd2f0ccf	-0.042736825
109	0xbed0e7f1	-0.40801957
110	0x3ecc6f04	0.39928448
111	0xbdf0eca3	-0.11763885
112	0xbef8ef83	-0.48620233
113	0x3d699d67	0.057034876
114	0xbddb3977	-0.1070432
115	0x3dc3b706	0.09556393
116	0xbdb01e03	-0.08599474
117	0x3d3088c2	0.043099172
118	0x3e9c28e1	0.30499938
119	0xbe888d2a	-0.266702
120	0x3ea66ee1	0.3250647
121	0xbec2795f	-0.37983224
122	0x3db3e4e9	0.087838955
123	0x3ea9b17c	0.33143222
124	0xbc7a078a	-0.0152605865
125	0xbde85a77	-0.1134538
126	0xbf195d55	-0.5990804
127	0x3dd1ff2e	0.1025375
128	0x3e136ca1	0.14396907
129	0x3e5f506c	0.21808022
130	0xbe40f140	-0.1884203
131	0xbdfdc6d5	-0.1239144
132	0x3e965c3d	0.29367247
133	0xbccfde38	-0.025374517
134	0xbee5ce28	-0.44883847
135	0xbea45629	-0.32096985
136	0x3ed45167	0.41468355
137	0x3bbb05f8	0.0057074986
138	0xbc6b51b0	-0.014362738
139	0xbe21a5f2	-0.1578596
140	0x3e3a736a	0.1820809
141	0xbea440cb	-0.32080683
142	0x3e6c15ff	0.23055266
143	0x3e9311ba	0.28724462
144	0x3e9e3088	0.308964
145	0xbd1f6cb1	-0.038922016
146	0x3dcf1f1b	0.10113355
147	0x3ecda382	0.4016381
148	0xbe119d91	-0.14220263
149	0xbe998194	-0.29981673
150	0xbe3eefb7	-0.18646131
151	0xbdae9ba5	-0.085257806
152	0x3e854b5a	0.2603405
153	0x3e40b422	0.18818715
154	0x3ec2dc3c	0.3805865
155	0x3dced525	0.10099248
156	0x3e831ec1	0.256094
157	0xbe692c20	-0.22770739
158	0xbe762645	-0.24038036
159	0x3e09dc60	0.13462973
160	0xbe0597ee	-0.13046238
161	0x3cc45fbc	0.023971431
162	0x3d10e4c1	0.035374407
163	0x3d2776fd	0.04088496
164	0xbcd911fc	-0.026497833
165	0xbd626b17	-0.05527791
166	0xbe2759e2	-0.16342881
167	0x3eab8363	0.33498678
168	0xbe8184d5	-0.25296655
169	0x3e27c2e2	0.16382936
170	0x3e2fe562	0.17177346
171	0xbd98dbc1	-0.0746379
172	0xbdb69fe2	-0.08917214
173	0x3e915c0b	0.28390536
174	0x3e9c891a	0.3057335
175	0xbd5cce9d	-0.05390798
176	0xbe5160ee	-0.20447132
177	0xbe386920	-0.18008852
178	0xbbbc13aa	-0.005739649
179	0xbec1a367	-0.3781998
180	0x3df621b4	0.12018147
181	0x3e1e77dc	0.1547541
182	0x3e7ce2f3	0.2469595
183	0xbe9d4b2f	-0.30721423
184	0x3e3b4534	0.18288118
185	0xbe9c7be3	-0.30563268
186	0x3eb9c64d	0.36284104
187	0xbdc6d59c	-0.097087115
188	0x3e9bb96a	0.30414897
189	0xbd8dbba7	-0.069205575
190	0xbe3bfd5c	-0.18358368
191	0xbdeaa324	-0.11456898
192	0xbe880575	-0.26566663
193	0x3edf12c6	0.4356901
194	0x3ec32f4e	0.38122028
195	0xbde04123	-0.10949924
196	0xbe2f34e9	-0.17110027
197	0xbd4ec0cd	-0.050476838
198	0x3d93c9f5	0.072162546
199	0xbe335832	-0.17514113
200	0x3e8751af	0.26429507
201	0xbd97e00f	-0.07415783
202	0x3ea7e182	0.32789236
203	0x3e183170	0.14862609
204	0xbe91fef8	-0.28514838
205	0x3e8acd79	0.27109888
206	0x3dc9209e	0.09820674
207	0xbeead351	-0.45864347
208	0x3e976a5a	0.29573327
209	0xbe30dc27	-0.17271481
210	0x3e38a025	0.1802984
211	0xba828448	-0.0009957636
212	0xbddb9eb9	-0.10723633
213	0xbe12928f	-0.1431372
214	0x3dbdf50d	0.09275255
215	0x3e63caae	0.22245285
216	0xbe9109b4	-0.28327715
217	0x3dee9015	0.11648575
218	0x3dcc4ccf	0.099755876
219	0x3e39f680	0.18160439
220	0xbd5df45f	-0.05418813
221	0xbd936c75	-0.07198421
222	0xbe239e67	-0.15978394
223	0xbd3861c5	-0.045015115
224	0x3e3535fb	0.17696373
225	0x3daf0e88	0.085476935
226	0x3e95e89c	0.2927903
227	0xbe02c97f	-0.12772177
228	0x3e93fa88	0.28902078
229	0xbd9783c0	-0.07398176
230	0xbd9b0236	-0.07568781
231	0xbf2f9250	-0.6858263
232	0xbc8117bc	-0.015758388
233	0xbe3d6e18	-0.18499029
234	0x3ec69967	0.38788912
235	0x3e7cd31f	0.24689911
236	0x3e91f4a8	0.2850697
237	0xbe0da7ad	-0.13833494
238	0x3e188ff6	0.14898667
239	0xbdbdb1ca	-0.09262426
240	0xbe88786c	-0.26654375
241	0x3e39631b	0.18104212
242	0x3e78442e	0.24244758
243	0xbe5f7901	-0.21823503
244	0x3eab5395	0.33462206
245	0xbdfbe13d	-0.1229882
246	0x3e6396fe	0.22225568
247	0x3d9f16ce	0.077680215
248	0xbe9268a0	-0.28595448
249	0x3e40e5f6	0.18837723
250	0x3eadeb73	0.33968696
251	0x3e798fb9	0.24371232
252	0xbe3f2389	-0.186659
253	0xbe70b328	-0.23505843
254	0x3e77f6b2	0.242152
255	0xbea41e74	-0.32054484

fc1.bias f4 [50]
0	0xbde6a082	-0.11261083
1	0xbe9b4a59	-0.3033016
2	0x3e57a98f	0.21060775
3	0xbd9a559d	-0.07535861
4	0x3e8dc7fc	0.27691638
5	0xbd731ba4	-0.059352532
6	0x3da5e0a3	0.08099487
7	0x3eb4a556	0.3528239
8	0xbe76d683	-0.24105267
9	0x3eafbf79	0.3432577
10	0x3d6f8b56	0.05848249
11	0x3f077db3	0.52926177
12	0x3c98fd33	0.018675422
13	0x3ee24b43	0.44198045
14	0x3e8045de	0.25053304
15	0xbcd7092d	-0.026249493
16	0x3e2920c8	0.16516411
17	0x3e1f75db	0.15572302
18	0x3e68e852	0.22744873
19	0x3e91122d	0.2833418
20	0x3e2bc2fb	0.16773598
21	0xbde4e3fe	-0.111762986
22	0x3de55d90	0.11199486
23	0x3e8e4a53	0.2779108
24	0x3ddfaa3c	0.109211415
25	0xbd640ce4	-0.055676356
26	0xbe8e1111	-0.27747396
27	0xbe6dff59	-0.23241939
28	0x3ea173f9	0.31533793
29	0x3d437f33	0.04772873
30	0xbe8536d1	-0.26018384
31	0xbe2e41e7	-0.17017327
32	0x3ce8d8b1	0.028423639
33	0x3ee2a1d2	0.44264084
34	0xbeb53417	-0.35391304
35	0xbeb19b84	-0.34688962
36	0x3e9b2392	0.30300575
37	0xbe6c0d8d	-0.23052044
38	0xbd7cf33f	-0.061755415
39	0xbd53b33a	-0.051684596
40	0x3cc56f6c	0.024100982
41	0xbe9853ef	-0.29751536
42	0xbd25ad77	-0.040448632
43	0xbe5cdd07	-0.2156869
44	0x3d051a2e	0.03249567
45	0x3ec223f5	0.37918058
46	0x3c89c374	0.016816832
47	0xbd1a7c43	-0.03771616
48	0x3eafdda1	0.34348777
49	0x3ec2a0d7	0.38013336

fc2.weight f4 [50, 50]
0	0xbee0dbfc	-0.43917835
1	0x3c8c851f	0.01715332
2	0xbd4589b2	-0.04822702
3	0xbd8c1be1	-0.06841255
4	0x39b229ba	0.00033981894
5	0x3c9e2eae	0.019309368
6	0xbd870e0e	-0.065944776
7	0x3dc7d074	0.09756556
8	0x3e1bd315	0.1521724
9	0x3d811dab	0.06304487
10	0xbce22622	-0.027606074
11	0x3e4c54e4	0.19954258
12	0xbd741179	-0.059586976
13	0xbe0a65e2	-0.13515428
14	0xbdc7d8fb	-0.097581826
15	0x3def8018	0.11694354
16	0xbe7b5da8	-0.24547446
17	0xbd4dcd50	-0.05024463
18	0xbe428f62	-0.19000009
19	0x3e4358c4	0.1907683
20	0x3e1b8959	0.15189113
21	0xbd65de15	-0.056119997
22	0xbd48d096	-0.049027048
23	0xbdc34554	-0.09534708
24	0xbd72d24b	-0.059282582
25	0xbddd371b	-0.10801526
26	0xbd6990d0	-0.05702287
27	0x3e80f6a7	0.2518818
28	0xbdbaf171	-0.091280825
29	0xba0fa061	-0.00054789154
30	0x3d72fea0	0.05932486
31	0xbd6a94fd	-0.057270993
32	0x3dc39468	0.095497906
33	0xbd8de043	-0.0692754
34	0x3ca8b19d	0.020592505
35	0xbc106e19	-0.008815312
36	0x3a10547a	0.0005505752
37	0x3e0501db	0.12988989
38	0x3da67e42	0.081295505
39	0x3e8cd355	0.27504984
40	0x3b827b3f	0.0039819772
41	0xbe3a239f	-0.18177651
42	0x3d8ab069	0.06771929
43	0xbdf196d9	-0.1179635
44	0x3e03df27	0.12878095
45	0xbd608bff	-0.05482101
46	0x3d4f8e60	0.05067289
47	0xbdfa27fe	-0.12214659
48	0x3d8bb2b1	0.06821192
49	0x3dc23d91	0.09484399
50	0x3d290010	0.041259825
51	0x3d0868d3	0.033303093
52	0xbe0129b1	-0.1261356
53	0x3e0edfdf	0.13952588
54	0x3e16ff21	0.14745761
55	0x3cdf9c32	0.02729616
56	0x3dc9ff19	0.09863109
57	0xbd8ce8fa	-0.06880374
58	0x3db1a9e3	0.086749814
59	0xbd695496	-0.056965433
60	0x3b3b0e85	0.002854259
61	0xbd94cea0	-0.07265973
62	0xbe087905	-0.13327415
63	0xbe37339c	-0.17890781
64	0x3daf5564	0.08561209
65	0x3cd0b464	0.025476642
66	0x3e1b46ac	0.15163678
67	0xbdaaea85	-0.08345512
68	0xbb53010a	-0.0032196664
69	0x3c024831	0.007951782
70	0xbdc6a927	-0.09700232
71	0x3dc3bfb7	0.09558051
72	0xbc818a21	-0.015812935
73	0xbd1d2ad2	-0.038370915
74	0xbe2960d0	-0.16540837
75	0xbd856773	-0.06513872
76	0xbd3bc237	-0.045839515
77	0xbc2b12e8	-0.010441519
78	0x3d8ceca4	0.06881073
79	0xbca96640	-0.02067864
80	0xbdac629f	-0.08417248
81	0x3d64d193	0.055863928
82	0x3e110eb8	0.14165771
83	0xbed357db	-0.41277966
84	0x3d401c47	0.046901967
85	0x3b78d6e4	0.0037969882
86	0x3c6413bd	0.013920722
87	0xbd8f0db0	-0.069850326
88	0xbe1afebf	-0.1513624
89	0x3e6d5f6f	0.23180936
90	0xbe0e345e	-0.13887164
91	0xbe27850c	-0.16359347
92	0xbe27e417	-0.16395603
93	0x3cd9db8f	0.026593952
94	0xbc16c5eb	-0.009202461
95	0x3d855640	0.065105915
96	0x3d020c39	0.031749938
97	0x3d113522	0.035451062
98	0x3d47a3d6	0.04874023
99	0x3dfb3e2d	0.122677185
100	0x3d5afe81	0.05346537
101	0xbd09e708	-0.033667594
102	0x3d3f70af	0.046738323
103	0xbddf92d0	-0.10916674
104	0x3d50d2ee	0.05098241
105	0x3c5bc97e	0.013414739
106	0xbd91374a	-0.07090624
107	0x3dca27da	0.09870882
108	0x3e0d7fd2	0.13818291
109	0xbd62769a	-0.05528889
110	0x3dc17521	0.09446169
111	0xbdc1b089	-0.094574995
112	0xbc1693a8	-0.009190477
113	0x3e4c71b9	0.19965257
114	0x3bdf289e	0.006810262
115	0xbe6c5fad	-0.23083372
116	0xbdcf353d	-0.10117576
117	0xbe0593a2	-0.13044599
118	0x3e244b57	0.16044365
119	0x3dda8461	0.106697805
120	0x3d5814ed	0.05275433
121	0x3bc5b9ee	0.0060341274
122	0xbd7bfd7c	-0.06152104
123	0x3dc02eca	0.09383924
124	0xbbf7348b	-0.0075441054
125	0xbe049cf1	-0.12950493
126	0x3df2dc22	0.11858393
127	0xbdc97409	-0.09836585
128	0xbcee5a77	-0.029095871
129	0xbdf3361d	-0.11875556
130	0xbe0f61ad	-0.14002104
131	0x3d6886a1	0.056769017
132	0x3dc4cf80	0.0960989
133	0xbddf013c	-0.10888907
134	0x3d638afb	0.055552464
135	0xbd559b00	-0.052149773
136	0x3dee674a	0.116407946
137	0xbd89a8ae	-0.06721626
138	0x3cb7d378	0.022439703
139	0xbd908201	-0.07056046
140	0xbbba9f39	-0.0056952504
141	0xbd87a448	-0.06623131
142	0x3df7544f	0.120766275
143	0xbd96afb3	-0.07357731
144	0xbd9c84bc	-0.076425046
145	0x3e1af00c	0.15130633
146	0x3d0ca08c	0.034332797
147	0xbc5b94b9	-0.013402157
148	0xbe2d16c5	-0.16903217
149	0xbb20baab	-0.0024525325
150	0xbe1a0047	-0.15039168
151	0x3d09e1c2	0.033662565
152	0x3d910ffa	0.070831254
153	0xbd2cd04c	-0.042190835
154	0x3dd7a095	0.105286755
155	0x3d7a4247	0.061098363
156	0x3dd0e0e7	0.10199147
157	0x3d48cdbc	0.04902433
158	0x3d8a4946	0.06752257
159	0xbcf1c51b	-0.029512933
160	0x3d3a6bfc	0.04551314
161	0x3e27c0fe	0.16382214
162	0xbce50c4f	-0.02795997
163	0xbd8bb184	-0.06820968
164	0xbe1ee4aa	-0.15516916
165	0x3da45d1b	0.08025571
166	0xbd0c5672	-0.03426213
167	0x3dc3176b	0.09525951
168	0x3d9af68e	0.07566558
169	0xbe606f3e	-0.21917436
170	0xbdf14c02	-0.117820755
171	0xbe2369d8	-0.15958345
172	0xbc93d2fd	-0.018044943
173	0x3c98868b	0.018618843
174	0xbd4c27b8	-0.049842566
175	0x3d59d94a	0.05318574
176	0x3bbf4e95	0.005838225
177	0xbcd0c029	-0.025482254
178	0x3dbbc6d9	0.091687866
179	0x3dcb863c	0.099377126
180	0x3dad8a7a	0.08473678
181	0xbd501877	-0.05080458
182	0xbbc19a45	-0.005908283
183	0x3d55a3d0	0.052158177
184	0xbd99cca1	-0.07509733
185	0xbbd6becc	-0.0065535065
186	0x3db93dae	0.090449676
187	0x3dff1227	0.12454634
188	0xbd07180a	-0.03298191
189	0xbd1eff77	-0.03881785
190	0x3dc012ed	0.0937861
191	0x3cd6e537	0.026232345
192	0xbcdacb41	-0.026708247
193	0xbda0b933	-0.07847824
194	0x3df5eadc	0.120076865
195	0x3ce66a72	0.028126929
196	0x3d97688b	0.07392987
197	0x3c13cfc7	0.009021706
198	0xbde6cf36	-0.11269991
199	0xbd7ec8af	-0.062203106
200	0xbe47b738	-0.19503486
201	0xbe181681	-0.14852335
202	0xbd373514	-0.044728354
203	0xbdcf4f74	-0.10122576
204	0x3d43c74c	0.047797486
205	0xbc5d7d91	-0.013518707
206	0x3da0e95b	0.07857009
207	0x3dea2479	0.11432738
208	0xbd87c04f	-0.06628477
209	0xbd0e0419	-0.034671877
210	0x3dc5576a	0.096358135
211	0xbe06e23c	-0.13172239
212	0xbc939b98	-0.018018529
213	0xbdd03b86	-0.10167603
214	0x3d1903fb	0.03735731
215	0x3c7a8e37	0.015292696
216	0xbbb2ca84	-0.0054562707
217	0x3d360bc6	0.04444482
218	0x3d823eb4	0.06359616
219	0xbde88231	-0.11352957
220	0xbb8817ed	-0.004153243
221	0xbd49b141	-0.049241308
222	0xbe0573bc	-0.1303243
223	0x3daf033e	0.0854554
224	0x3d4d0ab8	0.05005905
225	0xbd0fa299	-0.035067175
226	0x3deefec5	0.11669687
227	0xbd3b13bf	-0.04567313
228	0x3ceff1bb	0.02929007
229	0x3da6d0ee	0.08145319
230	0x3e0f4b0b	0.1399347
231	0xbe0bc704	-0.13650137
232	0xbd2af8a2	-0.04174102
233	0xbe932e3e	-0.28746217
234	0xbdfdae34	-0.12386742
235	0x3cec77b0	0.028865665
236	0xbe01c297	-0.12671886
237	0xbdc26731	-0.094923384
238	0x3dcefa23	0.101063035
239	0x3e107d69	0.1411034
240	0x3d8247fd	0.06361387
241	0x3e285c6a	0.16441503
242	0xbc003a36	-0.007826379
243	0xbc45f5b7	-0.012082509
244	0x3d5c9bc0	0.053859472
245	0xbe50dc8e	-0.20396635
246	0x3e2f0717	0.17092548
247	0x3d070ab8	0.032969207
248	0xbd95b21f	-0.073093645
249	0x3d74e0b1	0.059784595
250	0xbda8661d	-0.082226016
251	0x3e0ede37	0.13951956
252	0xbe3a492e	-0.18191978
253	0x3dc0a004	0.094055206
254	0x3d6edb3e	0.058314554
255	0x3dc43d1c	0.09581968

fc2.bias f4 [50]
0	0xbd9a9fc9	-0.07550008
1	0x3e10c3d9	0.1413721
2	0x3aa5fd1e	0.0012663936
3	0x3ce24f88	0.027625814
4	0x3e4a3260	0.19745779
5	0xbe07c2f5	-0.13257964
6	0x3e3682af	0.1782329
7	0xbdeb32cf	-0.114843
8	0xbd8c467b	-0.068493806
9	0xbe14e9de	-0.14542338
10	0x3e163e59	0.14672221
11	0x3dfd90dd	0.12381146
12	0x3d2bc730	0.041938007
13	0x3d3b1607	0.045675304
14	0x3e103847	0.14083968
15	0x3e1bbd6a	0.15208974
16	0x3d47adf7	0.04874989
17	0xbe34436e	-0.17603847
18	0x3d501c40	0.05080819
19	0x3e0d1e64	0.13781124
20	0x3c75042c	0.014954608
21	0xbdb7ac3e	-0.089683995
22	0x3d92678f	0.071486585
23	0x3d3d160f	0.046163615
24	0xbdf092e3	-0.117467664
25	0xbdfbfce1	-0.12304092
26	0x3c5527ba	0.01300996
27	0xbe1124b2	-0.14174154
28	0x3dd3ea0f	0.103473775
29	0xbbf6c454	-0.0075307284
30	0x3e3b4a62	0.18290094
31	0xbdaf5cd3	-0.08562627
32	0xbd69c843	-0.05707575
33	0xbc33161e	-0.010930566
34	0x3ddf1041	0.10891772
35	0x3dd98fac	0.10623106
36	0x3d7f2564	0.062291518
37	0xbdababa2	-0.08382346
38	0xbe164502	-0.14674762
39	0xbd8e8a06	-0.0695992
40	0xbd366e6b	-0.044538897
41	0xbd7095f3	-0.058736753
42	0xbdfb90fd	-0.12283514
43	0xbcae12e7	-0.021249248
44	0x3dcc9ecd	0.09991226
45	0x3c179fc1	0.009254397
46	0xbbe33112	-0.00693334
47	0xbdc42d44	-0.09578946
48	0x3ccde976	0.025135737
49	0xbe0e6552	-0.13905838

fc3.weight f4 [50, 50]
0	0xbd2635bf	-0.0405786
1	0x3e27bef0	0.1638143
2	0xbd81846c	-0.063240856
3	0xbd31d31f	-0.04341423
4	0xbcfa5856	-0.0305597
5	0xbc1222bb	-0.008919413
6	0x3e1abf85	0.15112121
7	0xbdc2e0cc	-0.09515533
8	0x3d48eddf	0.049054977
9	0x3d912859	0.07087774
10	0x3e21f083	0.15814404
11	0x3d77c54f	0.060490903
12	0x3c492b3a	0.012278372
13	0x3e21d311	0.15803172
14	0x3e6b9f2a	0.23009935
15	0x3de8e5f8	0.11371988
16	0xbda3be33	-0.07995262
17	0xbc728c7d	-0.014804003
18	0x3df8f5bf	0.12156247
19	0xbd9ae284	-0.07562736
20	0x3db3dc79	0.08782286
21	0xbd4f5efd	-0.050627697
22	0xbd62f5c3	-0.055410158
23	0x3d85302d	0.065033294
24	0x3df143e0	0.11780524
25	0x3de390a1	0.1111157
26	0x3e0acfb1	0.1355579
27	0x3cd72fd4	0.026267923
28	0xbb6c1bca	-0.0036027306
29	0xbdbd06cb	-0.09229811
30	0xbd0b6e0c	-0.034040496
31	0xbe58b17b	-0.21161453
32	0x3dc20526	0.09473638
33	0x3d2ca674	0.04215093
34	0xbd16ca7e	-0.036814205
35	0x3e53a07b	0.20666687
36	0x3e166dab	0.14690273
37	0x3b07f7bf	0.0020747033
38	0xbdeaff3e	-0.11474465
39	0xbcc0c157	-0.023529692
40	0xbd990ea0	-0.074734926
41	0xbd6d08b3	-0.057869624
42	0xbd5146eb	-0.051093023
43	0x3e0124ea	0.12611738
44	0x3dd80dc1	0.10549498
45	0xbc52198e	-0.0128234755
46	0xbd74216c	-0.059602186
47	0x3e44eec3	0.19231705
48	0x3e17aa2a	0.14811006
49	0x3d0b8074	0.03405805
50	0x3e012ab8	0.12613952
51	0x3d0e49c9	0.034738336
52	0xbd88504c	-0.066559404
53	0xbd4a0376	-0.049319707
54	0xbce7e818	-0.028308913
55	0x3e5abb0c	0.21360415
56	0x3e2f392e	0.17111656
57	0xbde3f110	-0.111299634
58	0x3e78c4bd	0.242938
59	0xbdbe10c5	-0.09280542
60	0xbd52df69	-0.05148259
61	0x3e3f36fb	0.18673317
62	0x3df3dab5	0.119069494
63	0x3dee752b	0.11643442
64	0xbca79baf	-0.020459978
65	0xbd4ab86d	-0.04949229
66	0xbde7c7dc	-0.11317417
67	0xbcc5b145	-0.02413238
68	0x3e407411	0.18794276
69	0xbca45138	-0.02005826
70	0xbd8f56fd	-0.069990136
71	0x3cf84566	0.03030653
72	0x3d663b95	0.056209166
73	0xbd62fd47	-0.055417325
74	0x3c0ba617	0.008523486
75	0xbda38822	-0.0798495
76	0x3dc549a0	0.096331835
77	0xbcde73a9	-0.02715476
78	0x3d303c84	0.043026462
79	0x3d1d987e	0.038475506
80	0x3dbea5b0	0.09308946
81	0x3d432b51	0.04764873
82	0x3e3fc559	0.18727626
83	0x3db64e80	0.089016914
84	0xbdb5fdc8	-0.088862956
85	0xbaec3cc7	-0.0018023484
86	0xbe176e40	-0.14788151
87	0x3e2cb422	0.1686559
88	0x3d0b08b3	0.033943843
89	0x3c6b68e7	0.014368272
90	0xbc38c1c3	-0.011276665
91	0x3dcf24d0	0.10114443
92	0xbd4ce347	-0.050021436
93	0xbc7572d9	-0.014980995
94	0xbd5f257d	-0.05447911
95	0xbd102d88	-0.035199672
96	0x3d9a2590	0.07526696
97	0x3e5c6e0c	0.21526355
98	0x3e28f2c0	0.16498852
99	0x3de667f7	0.112502985
100	0x3e3b6c06	0.18302926
101	0x3e068c37	0.13139425
102	0x3e00713f	0.125432
103	0x3cdb846a	0.026796538
104	0x3cd1d914	0.025616206
105	0xbd913bc7	-0.0709148
106	0x3e2fa80c	0.17153949
107	0xbdf1dba5	-0.11809472
108	0x3dec1a86	0.115284964
109	0xbe144fca	-0.14483562
110	0xbd8826c8	-0.06648022
111	0x3dd8aeb2	0.105801955
112	0xbe159e69	-0.1461121
113	0x3b83dbdb	0.0040240115
114	0xbbb75086	-0.005594316
115	0x3de3e300	0.11127281
116	0x3de0db32	0.10979308
117	0xbe6b2248	-0.22962296
118	0x3e1f5984	0.15561491
119	0xbdb3275e	-0.08747743
120	0x3d37ed03	0.044903766
121	0x3e029e68	0.1275574
122	0xbd0e07df	-0.034675475
123	0x3e17bcf6	0.14818177
124	0x3cad77b1	0.021175237
125	0x3dcecbf4	0.10097495
126	0x3c580894	0.013185639
127	0x3de50fbb	0.11184641
128	0x3e80510b	0.2506183
129	0xbdff587b	-0.12468048
130	0x3e2c40d8	0.16821611
131	0xbe300156	-0.1718801
132	0x3e0b99ba	0.13632861
133	0x3d95c9ff	0.07313918
134	0xbc6c5b5c	-0.014426079
135	0xbdc31821	-0.095260866
136	0xbdc7e6ca	-0.097608164
137	0xbcb5faa4	-0.022214241
138	0xbdb36f42	-0.08761455
139	0x3e789ec0	0.24279308
140	0x3d886aad	0.06660972
141	0x3c85421c	0.016266875
142	0xbe21e4dc	-0.15809959
143	0x3e8807d8	0.26568484
144	0x3d8c2ed9	0.06844873
145	0x3dff98da	0.12480326
146	0x3dc0ae5b	0.09408256
147	0x3de86077	0.11346524
148	0x3d7bacd0	0.061444104
149	0xbdbf24a2	-0.09333159
150	0x3e3e6b38	0.18595588
151	0x3d725afd	0.059168804
152	0xbd4710aa	-0.048599876
153	0x3db2a93e	0.08723687
154	0xbd09f25e	-0.033678405
155	0x3dd87ea8	0.10571033
156	0x3e18071d	0.14846464
157	0x3b8611d5	0.004091481
158	0x3d872ffd	0.0660095
159	0x3ddd4c54	0.10805574
160	0xbd919482	-0.07108404
161	0x3b2985f4	0.0025867196
162	0xbdd31b86	-0.10307984
163	0xbc9a3466	-0.018823814
164	0x3d587386	0.052844547
165	0x3e00e368	0.12586749
166	0x3dd9ae0f	0.10628902
167	0xbe2cfe9b	-0.16894
168	0x3d2e3362	0.04252947
169	0x3e23a38b	0.15980355
170	0x3e00ab1a	0.1256527
171	0x3cf8a770	0.030353278
172	0xbd24764f	-0.04015189
173	0x3d20d41d	0.039264787
174	0x3e6b8f2e	0.23003837
175	0xbc627f6b	-0.013824324
176	0x3e23fda5	0.16014726
177	0xbe07e2d0	-0.13270116
178	0x3e194c81	0.1497059
179	0xbdfde0e2	-0.123964086
180	0xbe0c019b	-0.13672487
181	0xbddffa78	-0.10936445
182	0xb9c525f2	-0.0003760304
183	0xbbc473d7	-0.0059952545
184	0x3d9855df	0.074382536
185	0x3e3184ef	0.17335866
186	0x3dc89823	0.09794643
187	0xbb986d93	-0.004651734
188	0xbdea1359	-0.114294715
189	0x3e30ca21	0.17264606
190	0x3e08b7b9	0.13351335
191	0x3ca506b7	0.020144803
192	0xbcbcaadc	-0.02303069
193	0x3c2174ec	0.0098545365
194	0xbd1100cf	-0.03540116
195	0x3deb5827	0.11491423
196	0xbe0fd86b	-0.140474
197	0xbcba10b8	-0.02271305
198	0xbd87b109	-0.06625564
199	0xbd5e288a	-0.05423788
200	0x3db88e8a	0.09011562
201	0x3dae9a37	0.08525508
202	0x3ddf6eb3	0.10909786
203	0x3e31256b	0.1729943
204	0xbd06a9d9	-0.032876823
205	0x3e3dda13	0.1854022
206	0xbd1909bf	-0.03736281
207	0xbce693ef	-0.028146712
208	0x3df8f2db	0.12155696
209	0xbdbe1732	-0.09281768
210	0xbd564c06	-0.052318595
211	0x3e2f1d4d	0.17101021
212	0x3d36601b	0.044525247
213	0x3dfc0b25	0.12306813
214	0x3e1f4045	0.1555186
215	0xbd92df03	-0.07171442
216	0x3df2775f	0.118391745
217	0xbdb73b5b	-0.08946868
218	0xbe01e476	-0.12684807
219	0xbd938d1f	-0.07204651
220	0xbe2cf514	-0.16890365
221	0xbd5ae101	-0.053437237
222	0x3e1cdbb2	0.15318182
223	0x3e0aed62	0.13567117
224	0x3e484c2b	0.19560306
225	0x3d63579d	0.055503476
226	0x3db3b19a	0.08774109
227	0xbcbbb113	-0.022911584
228	0x3e1c307b	0.15252869
229	0xbdcabdda	-0.098994926
230	0xbd96d4ec	-0.073648304
231	0xbdeda637	-0.116039686
232	0x3c10ae48	0.008830614
233	0x3d3de4a8	0.04636064
234	0x3dcad12c	0.099031776
235	0x3c99985c	0.018749408
236	0xbd0717de	-0.032981746
237	0xbdc7e7ad	-0.097609855
238	0xbdfb9034	-0.12283364
239	0x3e1bcb9c	0.1521439
240	0xbd0a7fcb	-0.03381328
241	0x3e56e907	0.2098733
242	0xbdb7b491	-0.08969987
243	0xbd81f05a	-0.063446715
244	0x3d83c7de	0.06434606
245	0x3d4e3f8e	0.05035358
246	0xbd84e5ef	-0.06489169
247	0xbda8b047	-0.08236747
248	0x3d822036	0.063538
249	0xbd03205a	-0.032013275
250	0x3d32f0d2	0.043686695
251	0x3dbcd1ce	0.092197046
252	0x3cc2a635	0.023760894
253	0xbdd67672	-0.104718104
254	0xbe319bea	-0.17344633
255	0x3e037e2b	0.12841098

fc3.bias f4 [50]
0	0x3d8ae11a	0.06781216
1	0x3db9c31f	0.090704195
2	0xbc9fb12e	-0.019493666
3	0xbd695383	-0.05696441
4	0x3cfaa4d7	0.03059618
5	0x3de115c0	0.109904766
6	0xbd45c1ec	-0.04828064
7	0x3d09922d	0.03358667
8	0x3dcab13c	0.09897086
9	0xbda647c0	-0.08119154
10	0xbd855ba4	-0.0651162
11	0xbc73a82b	-0.014871637
12	0xbdb135df	-0.08652853
13	0x3e02724f	0.12738918
14	0x3d013267	0.031542208
15	0x3df0c5cc	0.11756477
16	0xbddbf665	-0.107403554
17	0x3d6fdf4f	0.058562573
18	0x3d59fa24	0.05321707
19	0x3def308e	0.11679183
20	0x3d858a67	0.06520539
21	0xbd83b949	-0.06431825
22	0x3beca72f	0.0072220783
23	0x3e2e5291	0.17023684
24	0x3e5b252e	0.21400902
25	0x3df18213	0.11792388
26	0x3d4e3493	0.050343107
27	0xbd01576f	-0.031577524
28	0x3e1ccac4	0.15311724
29	0x3cc144e8	0.023592427
30	0x3db1c912	0.08680929
31	0xbd9f1fd9	-0.07769746
32	0x3bfe04e7	0.0077520492
33	0xba186f51	-0.0005814927
34	0x3d9b527a	0.075840905
35	0x3d8e1153	0.06936898
36	0x3db80b3e	0.08986519
37	0xbcee6703	-0.029101854
38	0xbd7656ed	-0.060141493
39	0x3e8841cb	0.26612696
40	0x3c000e9b	0.007815982
41	0x3d4e841b	0.050418954
42	0x3de27393	0.110572
43	0x3d952333	0.07282104
44	0x3d80cbef	0.06288897
45	0xbdab1c20	-0.08354974
46	0x3db8c962	0.09022786
47	0xbc7a4d21	-0.015277178
48	0xbdaad707	-0.083417945
49	0xbc922a5b	-0.017842462

fc1.weight f4 [50, 7]
0	0xbf232721	-0.6373158
1	0x3e1c9086	0.15289506
2	0xbe168197	-0.14697872
3	0x3ec57ce4	0.38571846
4	0xbe92078a	-0.28521377
5	0x3e921e92	0.28538948
6	0xbdec8d40	-0.11550379
7	0x3e1a0ad0	0.15043187
8	0xbea61565	-0.32438198
9	0x3e093663	0.13399653
10	0x3eb5fb8d	0.3554348
11	0x3db1fe40	0.086910725
12	0x3ecb9e59	0.39769247
13	0xbe84e8f6	-0.25958985
14	0xbe4dbc5a	-0.20091382
15	0xbe317995	-0.17331536
16	0xbea38809	-0.31939724
17	0x3e2d88ac	0.16946667
18	0x3e9e4e07	0.30918905
19	0x3e6db62b	0.23214023
20	0xbe11dbaa	-0.14243951
21	0x3d5dbe73	0.054136705
22	0x3e678c85	0.22612198
23	0x3dd8882b	0.10572847
24	0x3ec66505	0.38748947
25	0xbdeebb50	-0.11656821
26	0x3e881e26	0.265855
27	0x3e74063c	0.23830503
28	0x3eb30141	0.34961894
29	0x3eb4c9d4	0.35310233
30	0xbe0a3e01	-0.13500215
31	0xbe555395	-0.20832665
32	0xbe7031b6	-0.23456463
33	0xbe6be48e	-0.23036405
34	0x3e6f3876	0.23361382
35	0xbe6138e4	-0.21994358
36	0x3e724e47	0.23662673
37	0xbe4baa08	-0.1988908
38	0x3cffaf2b	0.031211456
39	0xbebd481f	-0.36969087
40	0x3e5e24d1	0.21693732
41	0xbe310824	-0.17288262
42	0x3e0dd41c	0.13850445
43	0x3e8d8b21	0.2764521
44	0xbe0c3a23	-0.13694052
45	0x3eaa0b15	0.3321158
46	0x3e14fcd1	0.14549567
47	0x3e6e6937	0.23282324
48	0x3e216f8e	0.15765211
49	0x3e9bdc40	0.30441475
50	0x3d913ee6	0.07092075
51	0xbe1e6923	-0.15469794
52	0xbe26c5fd	-0.16286464
53	0x3e65f098	0.2245506
54	0x3bef949c	0.007311417
55	0x3e3991c8	0.18122017
56	0x3e88d04e	0.26721424
57	0xbcf89163	-0.030342763
58	0xbd066825	-0.032814164
59	0x39ff658d	0.0004871305
60	0x3ebaea03	0.36506662
61	0xbea35fe8	-0.31909108
62	0x3ea02416	0.3127753
63	0xbd4d611b	-0.050141435
64	0x3cd19af3	0.02558658
65	0x3e848a52	0.2588678
66	0xbe8ec5ef	-0.27885386
67	0xbeabe19f	-0.33570573
68	0x3eba5496	0.3639266
69	0xbe369c0a	-0.17832962
70	0x3d5a0a75	0.05323263
71	0x3eb951f1	0.3619533
72	0xbe19f4b6	-0.15034756
73	0x3d6a3ce5	0.05718698
74	0x3e90480d	0.2817997
75	0xbe91fc1e	-0.28512663
76	0xbe93c03d	-0.28857604
77	0x3d74de56	0.05978235
78	0x3e3bbbbc	0.18333334
79	0x3da98d43	0.08278897
80	0xbe62da7e	-0.2215366
81	0xbe8c1501	-0.27359775
82	0xbf069f18	-0.5258651
83	0x3d816f66	0.06320076
84	0xbe237da5	-0.15965898
85	0xbe838a38	-0.2569139
86	0x3e9d8766	0.30767363
87	0xbe8cae39	-0.2747667
88	0xbd9493b1	-0.072547324
89	0xbdd2931b	-0.102819644
90	0x3ea15a9d	0.31514445
91	0xbe95c1e4	-0.2924949
92	0x3e5be2b8	0.21473205
93	0x3dba1977	0.09086888
94	0x3e5f50e7	0.21808206
95	0x3d832a4f	0.06404554
96	0xbdb81712	-0.08988775
97	0xbe4a063e	-0.19728944
98	0x3e39f68c	0.18160456
99	0x3dab8a5d	0.08376
100	0x3e5101db	0.20410864
101	0xbe01ece5	-0.12688024
102	0xbdd84bc3	-0.105613254
103	0xbe7864e1	-0.24257232
104	0xbdffc281	-0.124882706
105	0x3caf3889	0.021389263
106	0xbe58744f	-0.21138118
107	0x3e477cd5	0.19481213
108	0xbd3bc966	-0.045846365
109	0xbecb17c8	-0.3966658
110	0x3ece1c7e	0.40256113
111	0xbe18863c	-0.14894956
112	0xbef4411a	-0.4770592
113	0x3d65f168	0.056138426
114	0xbdc25da8	-0.0949052
115	0x3db64d5d	0.089014746
116	0xbdbf625b	-0.09344932
117	0x3d1af1c6	0.03782823
118	0x3e9e831b	0.309594
119	0xbe84a384	-0.25906003
120	0x3ea70467	0.32620546
121	0xbec570a3	-0.38562497
122	0x3da4ec84	0.08052924
123	0x3eab1e17	0.33421394
124	0xbca54954	-0.020176567
125	0xbdec8976	-0.11549656
126	0xbf167e8f	-0.58786863
127	0x3db80b9e	0.08986591
128	0x3e127b2f	0.14304803
129	0x3e5901ca	0.21192089
130	0xbe43025e	-0.19043872
131	0xbe03b9f6	-0.12863907
132	0x3e9817d2	0.29705673
133	0xbd05a7e7	-0.032630827
134	0xbed95de5	-0.42454448
135	0xbe9de67d	-0.3083991
136	0x3ed94d73	0.42441902
137	0xbbd5a035	-0.0065193423
138	0xbc15efee	-0.009151442
139	0xbe2b12b7	-0.16706358
140	0x3e3c1673	0.18367939
141	0xbea2f6ce	-0.31828922
142	0x3e68bd01	0.2272835
143	0x3e94252d	0.28934613
144	0x3e9e7e73	0.30955848
145	0xbd1b70a8	-0.037949234
146	0x3dd4217b	0.103579484
147	0x3ecaca10	0.39607286
148	0xbe182059	-0.1485609
149	0xbe9649f4	-0.29353297
150	0xbe4921c7	-0.19641791
151	0xbdc3e6d3	-0.095655106
152	0x3e883b9b	0.26607975
153	0x3e456025	0.19274957
154	0x3ec06646	0.37578028
155	0x3db924b1	0.090402015
156	0x3e86433d	0.26223174
157	0xbe72abc8	-0.23698342
158	0xbe760690	-0.24025941
159	0x3e087c37	0.13328634
160	0xbe031cff	-0.1280403
161	0x3cf8b3ec	0.030359231
162	0x3d2941c1	0.041322473
163	0x3d20c3dd	0.03924929
164	0xbcd8e9b1	-0.02647862
165	0xbd4445de	-0.047918193
166	0xbe24d060	-0.16095114
167	0x3eace8e9	0.33771446
168	0xbe82dc0c	-0.25558507
169	0x3e2cba4b	0.1686794
170	0x3e33c330	0.17554927
171	0xbdaa5c65	-0.08318404
172	0xbdb56eb3	-0.08859005
173	0x3e91095e	0.2832746
174	0x3e9a2b51	0.30111173
175	0xbd6f4081	-0.058411125
176	0xbe49cba4	-0.19706589
177	0xbe465c72	-0.19371203
178	0xbc487c38	-0.012236647
179	0xbec08f31	-0.37609246
180	0x3e0b99a1	0.13632824
181	0x3e1bed76	0.15227303
182	0x3e7e8465	0.24855192
183	0xbe9d99a4	-0.3078128
184	0x3e3bfb99	0.18357696
185	0xbe98f89c	-0.29877174
186	0x3eba54df	0.36392877
187	0xbdba8181	-0.09106732
188	0x3e9e2ecb	0.30895075
189	0xbda746cc	-0.081678
190	0xbe47b93c	-0.19504255
191	0xbdf89c6b	-0.12139209
192	0xbe8254f2	-0.25455433
193	0x3edd38b1	0.43207315
194	0x3ec4fc30	0.38473654
195	0xbde657c8	-0.11247212
196	0xbe2c8b12	-0.16849926
197	0xbd3f9ceb	-0.046780508
198	0x3d9ca839	0.076492734
199	0xbe33c439	-0.17555322
200	0x3e8950b5	0.26819387
201	0xbd7a9dab	-0.06118552
202	0x3ea9de80	0.33177567
203	0x3e0efa20	0.13962603
204	0xbe912c46	-0.2835409
205	0x3e87f7d6	0.2655627
206	0x3db88630	0.09009969
207	0xbee373d4	-0.44424307
208	0x3e96c341	0.29445842
209	0xbe470514	-0.19435531
210	0x3e352e24	0.17693383
211	0xba341c10	-0.0006870637
212	0xbdd9b378	-0.10629934
213	0xbe0e6bfd	-0.13908382
214	0x3db5c406	0.08875279
215	0x3e700d35	0.23442538
216	0xbe906c6b	-0.28207716
217	0x3dea856f	0.11451232
218	0x3dbd5415	0.09244553
219	0x3e3cd79f	0.18441628
220	0xbd603610	-0.054739058
221	0xbd80ee39	-0.06295437
222	0xbe259426	-0.16169795
223	0xbd47ff08	-0.0488272
224	0x3e31d02b	0.17364566
225	0x3daca36d	0.084296085
226	0x3e96cb02	0.29451758
227	0xbe07244d	-0.13197441
228	0x3e95c1c8	0.29249406
229	0xbd8d94fa	-0.06913181
230	0xbd90fddf	-0.07079672
231	0xbf28fa3a	-0.66006815
232	0xbcdf3b18	-0.027249858
233	0xbe377049	-0.17913927
234	0x3ec2d0d8	0.3804996
235	0x3e83caa9	0.25740555
236	0x3e8e5cb7	0.2780511
237	0xbe0b5c20	-0.13609362
238	0x3e121182	0.14264491
239	0xbdcaaefa	-0.098966554
240	0xbe8c0941	-0.2735081
241	0x3e330480	0.17482185
242	0x3e73a49d	0.23793264
243	0xbe638b1d	-0.22221036
244	0x3eac0e66	0.33604735
245	0xbe0231b3	-0.12714271
246	0x3e609b75	0.21934302
247	0x3d89b274	0.0672349
248	0xbe947170	-0.28992796
249	0x3e43403b	0.1906747
250	0x3eafc3ef	0.34329173
251	0x3e7987f1	0.24368264
252	0xbe399dda	-0.18126622
253	0xbe6eec62	-0.2333236
254	0x3e6e7799	0.2328781
255	0xbea41741	-0.3204899

fc1.bias f4 [50]
0	0xbe026cb9	-0.12736787
1	0xbe97e15e	-0.2966413
2	0x3e5734f6	0.21016297
3	0xbd9b9544	-0.075968295
4	0x3e8db5e6	0.2767784
5	0xbd3d1c70	-0.0461697
6	0x3d9dafe9	0.07699568
7	0x3eb2c5a9	0.34916428
8	0xbe7484b5	-0.23878749
9	0x3eb154d3	0.34635028
10	0x3d45bab9	0.048273776
11	0x3f072627	0.5279259
12	0x3c5d3447	0.013501233
13	0x3ed9c232	0.42530972
14	0x3e80c2eb	0.2514871
15	0xbd044839	-0.03229544
16	0x3e149240	0.14508915
17	0x3e1fb433	0.15596084
18	0x3e55243d	0.20814605
19	0x3e9351b4	0.28773272
20	0x3e2d5618	0.16927373
21	0xbde150e1	-0.110017546
22	0x3de024f2	0.10944547
23	0x3e912481	0.28348163
24	0x3dd7af21	0.1053145
25	0xbd663b3f	-0.056208845
26	0xbe8cdf3c	-0.27514064
27	0xbe6c8bbc	-0.2310018
28	0x3ea45086	0.32092685
29	0x3d2eafde	0.04264819
30	0xbe86c742	-0.26323897
31	0xbe2b2a0e	-0.16715261
32	0x3cec79a2	0.028866593
33	0x3ed3b0fd	0.4134597
34	0xbeb54678	-0.35405326
35	0xbeb00ed0	-0.343863
36	0x3e9be754	0.30449927
37	0xbe7318ac	-0.2373988
38	0xbd818324	-0.06323841
39	0xbd497a51	-0.049188916
40	0x3cc55071	0.024086209
41	0xbe94c7d5	-0.2905871
42	0xbd10451a	-0.03522215
43	0xbe5a1df1	-0.21300484
44	0x3cd87fb4	0.026428081
45	0x3eac57b5	0.33660665
46	0x3cc14a78	0.02359508
47	0xbd2445ad	-0.04010551
48	0x3eaef94e	0.3417458
49	0x3ec37ec7	0.3818266

fc2.weight f4 [50, 50]
0	0xbed225b2	-0.41044384
1	0x3cbfec05	0.023427973
2	0xbd0df64c	-0.034658715
3	0xbd8febf7	-0.070274286
4	0xbba7e55c	-0.0051237773
5	0x3c6da797	0.014505289
6	0xbd8c664d	-0.0685545
7	0x3dbf3f28	0.09338218
8	0x3e18dcc8	0.14927971
9	0x3d49c5fc	0.04926108
10	0xbce658c8	-0.028118506
11	0x3e3d5004	0.18487555
12	0xbd85cffb	-0.0653381
13	0xbdf39c75	-0.11895076
14	0xbdc4cbcb	-0.09609183
15	0x3dda0817	0.10646074
16	0xbe6b9818	-0.23007238
17	0xbd411ab9	-0.047144625
18	0xbe331d7b	-0.17491715
19	0x3e4947a6	0.19656238
20	0x3e1a1386	0.1504651
21	0xbd6ebec0	-0.058287382
22	0xbd3fa5d7	-0.046789017
23	0xbdc9c7d7	-0.098525696
24	0xbd706468	-0.058689505
25	0xbdd8c8ca	-0.105851725
26	0xbd7043d4	-0.058658436
27	0x3e784b45	0.24247463
28	0xbdbff4ba	-0.0937285
29	0xbc3d550d	-0.011555922
30	0x3d810e5c	0.06301567
31	0xbd5fd43b	-0.054645758
32	0x3dc11fdb	0.09429904
33	0xbd292125	-0.041291375
34	0x3c868dd4	0.01642505
35	0xbc3082c6	-0.010773366
36	0xba236e0b	-0.0006234354
37	0x3e04cc94	0.12968665
38	0x3db30a1d	0.08742163
39	0x3e85c6a9	0.26128128
40	0x3b4a87f9	0.00309038
41	0xbe342e32	-0.17595747
42	0x3d809519	0.06278438
43	0xbdf40469	-0.11914904
44	0x3e01a19b	0.12659304
45	0xbd427749	-0.04747704
46	0x3d79c527	0.060979035
47	0xbdfcc12e	-0.123415336
48	0x3d8d0e7f	0.068875305
49	0x3dbe8015	0.093017735
50	0x3d694df3	0.056959104
51	0x3d01e9b9	0.031717036
52	0xbdf7d071	-0.12100304
53	0x3e0b3467	0.13594209
54	0x3e143d2a	0.14476457
55	0x3d186033	0.037201118
56	0x3dbf4de8	0.09341031
57	0xbd96d10f	-0.073640935
58	0x3da7bdf2	0.08190526
59	0xbd5d9349	-0.05409554
60	0x3a2e2ce8	0.0006644265
61	0xbd8b3026	-0.06796293
62	0xbe00b649	-0.12569536
63	0xbe2176c9	-0.15767969
64	0x3dada2b0	0.08478296
65	0x3d075906	0.033043884
66	0x3e23b934	0.15988618
67	0xbda7689e	-0.08174251
68	0x3a499b93	0.0007690724
69	0x3cbb323d	0.022851104
70	0xbdcfebc6	-0.10152392
71	0x3dc15ccd	0.094415285
72	0xbc7388c1	-0.014864148
73	0xbd21988b	-0.039452117
74	0xbe26add3	-0.16277246
75	0xbd1bf899	-0.038078878
76	0xbd42c3ad	-0.047549892
77	0xbd1953a5	-0.037433285
78	0x3d927344	0.071508914
79	0xbc4e09c1	-0.012575568
80	0xbdaeceb9	-0.08535523
81	0x3d62c5e4	0.055364504
82	0x3e0e98f2	0.13925532
83	0xbec4db1a	-0.3844841
84	0x3d2a1e2e	0.041532688
85	0x3bb8e031	0.00564196
86	0x3c903327	0.017602516
87	0xbd965c9a	-0.07341881
88	0xbe1c9970	-0.15292907
89	0x3e6fd37c	0.23420519
90	0xbe0e4664	-0.1389404
91	0xbe21c932	-0.15799406
92	0xbe232682	-0.15932658
93	0x3ccfef5a	0.025382686
94	0xbc2b34fb	-0.010449643
95	0x3d912f1b	0.07089063
96	0x3d555a44	0.052088037
97	0x3d0dc2f7	0.03460976
98	0x3d422f6d	0.04740851
99	0x3df25346	0.118322894
100	0x3d9014f7	0.07035249
101	0xbd2f106d	-0.042740274
102	0x3d460b8e	0.048350863
103	0xbde00b11	-0.10939611
104	0x3d661ffb	0.056182843
105	0x3cf65351	0.030069025
106	0xbd91af73	-0.071135424
107	0x3dcd789a	0.100327685
108	0x3e0e1790	0.13876176
109	0xbd6c3bc7	-0.057674196
110	0x3dc07ca0	0.0939877
111	0xbd81b7c0	-0.06333876
112	0xbb16bea4	-0.0023001814
113	0x3e4290bb	0.19000523
114	0x3c2a13f1	0.010380731
115	0xbe6050e1	-0.21905853
116	0xbdc828c2	-0.09773399
117	0xbe03f21a	-0.12885323
118	0x3e1a3cbd	0.15062232
119	0x3dc62bd3	0.096763276
120	0x3d4c5b69	0.049891863
121	0x3c34842c	0.01101784
122	0xbd799d96	-0.0609413
123	0x3dc5c193	0.09656062
124	0xbbc68c98	-0.0060592405
125	0xbddfa1fb	-0.10919567
126	0x3df3cdae	0.11904465
127	0xbdd6e8a0	-0.104935884
128	0xbce947a5	-0.028476546
129	0xbdf99744	-0.12187055
130	0xbe11900c	-0.14215106
131	0x3d75e7b5	0.060035426
132	0x3dc185fe	0.09449385
133	0xbde1bbd0	-0.110221505
134	0x3d6b1bec	0.057399675
135	0xbd53ef12	-0.051741667
136	0x3decf5b2	0.115703
137	0xbd90b213	-0.07065215
138	0x3c9eeb89	0.019399421
139	0xbd92b16c	-0.07162747
140	0xbb55f870	-0.00326493
141	0xbd8e702d	-0.069549896
142	0x3dfc5c5f	0.12322306
143	0xbd8ec26e	-0.06970678
144	0xbd8dddb0	-0.06927049
145	0x3e11ce02	0.14238742
146	0x3d275e6d	0.040861536
147	0xbc4874f1	-0.012234912
148	0xbe2a956b	-0.16658561
149	0xbb68fd57	-0.0035551393
150	0xbe17ed19	-0.1483654
151	0x3d1d8853	0.038460087
152	0x3da7a1f1	0.08185185
153	0xbd2de322	-0.04245294
154	0x3dd3d39c	0.10343096
155	0x3d6e5e5b	0.058195453
156	0x3dd2a4fb	0.10285374
157	0x3d515163	0.051103007
158	0x3d89e8b9	0.067338414
159	0xbd017d1b	-0.03161345
160	0x3d3d65d6	0.046239696
161	0x3e297932	0.16550139
162	0xbcee6e4e	-0.029105332
163	0xbd8e5d91	-0.0695144
164	0xbe19aa78	-0.15006435
165	0x3d9b006a	0.07568438
166	0xbcb696e9	-0.022288756
167	0x3dd21b4f	0.10259115
168	0x3da96e18	0.08272952
169	0xbe571721	-0.21004917
170	0xbdef867d	-0.116955735
171	0xbe1f29e8	-0.1554333
172	0xbc145163	-0.009052607
173	0x3c9509a3	0.018193072
174	0xbd301231	-0.0429861
175	0x3d4b2a04	0.049600616
176	0x3c13fd0e	0.009032501
177	0xbb73f784	-0.0037226388
178	0x3dc6362c	0.09678301
179	0x3dc96142	0.098330036
180	0x3dc0b240	0.094089985
181	0xbd3453c4	-0.044025198
182	0xba462647	-0.00075588044
183	0x3d969a89	0.07353694
184	0xbda1080d	-0.07862864
185	0x3a3d1f6f	0.0007214462
186	0x3dc9e5b4	0.098582655
187	0x3e0144ef	0.12623952
188	0xbce6cc0c	-0.028173469
189	0xbd03073c	-0.03198932
190	0x3dc3a2c3	0.09552529
191	0x3cd9887c	0.026554339
192	0xbca5a024	-0.020217963
193	0xbd9d2cd7	-0.07674568
194	0x3debb002	0.1150818
195	0x3d1e300c	0.03862004
196	0x3d568e95	0.05238207
197	0x3c0bdb73	0.0085362075
198	0xbddb3ea3	-0.107053064
199	0xbd7d06e9	-0.06177417
200	0xbe39c0b0	-0.1813991
201	0xbe0560e7	-0.13025247
202	0xbd209dce	-0.039212994
203	0xbdccc4c2	-0.09998466
204	0x3d426aef	0.04746526
205	0xbbddc804	-0.0067682285
206	0x3da0a91d	0.07844756
207	0x3de883b9	0.11353249
208	0xbd837f70	-0.06420791
209	0xbce1606d	-0.0275118
210	0x3dc875c1	0.09788085
211	0xbdee703e	-0.11642502
212	0xbc4eee39	-0.012630039
213	0xbd9df4f4	-0.07712737
214	0x3d264196	0.04058989
215	0x3cad596d	0.021160806
216	0x3bc14d70	0.005899124
217	0x3d4ca133	0.04995842
218	0x3d8fd63f	0.07023286
219	0xbde8f170	-0.113741755
220	0xba2b486f	-0.0006533926
221	0xbd4fedcd	-0.050763894
222	0xbe012002	-0.12609866
223	0x3db1e95d	0.08687089
224	0x3d4efe6e	0.05053561
225	0xbd29d2c7	-0.04146078
226	0x3df2b088	0.11850077
227	0xbd6d25da	-0.057897426
228	0x3d000701	0.03125668
229	0x3dbe23de	0.09284185
230	0x3e0e4cb6	0.1389645
231	0xbe062aab	-0.13102214
232	0xbd2ef72e	-0.042716198
233	0xbe90dd5f	-0.28293893
234	0xbdf99496	-0.12186544
235	0x3ce76006	0.02824403
236	0xbe044330	-0.12916255
237	0xbdbbf985	-0.091784514
238	0x3dcb55c2	0.099284664
239	0x3df1323f	0.11777162
240	0x3d7c41c8	0.06158617
241	0x3e2c6389	0.16834845
242	0xbbf8cbff	-0.0075926776
243	0xbc95f252	-0.018304024
244	0x3d5f6646	0.054540895
245	0xbe425eb4	-0.18981439
246	0x3e2fa5e3	0.17153125
247	0x3d0ad8e5	0.033898253
248	0xbd8f2e0e	-0.06991206
249	0x3d80b0d9	0.06283731
250	0xbd6427fc	-0.055702195
251	0x3e0bcb8b	0.13651864
252	0xbe300dec	-0.17192811
253	0x3db86db0	0.09005296
254	0x3d676d58	0.056500763
255	0x3dc146ba	0.09437318

fc2.bias f4 [50]
0	0xbda10f0e	-0.078641996
1	0x3e0f7554	0.14009601
2	0x3a67e1df	0.0008845608
3	0x3ceec382	0.02914596
4	0x3e49b77c	0.196989
5	0xbe04e78f	-0.12978958
6	0x3e3219d2	0.17392662
7	0xbdeb3107	-0.114839606
8	0xbd9105ce	-0.07081185
9	0xbe117ed9	-0.14208545
10	0x3e182d58	0.14861047
11	0x3df1ff2c	0.11816248
12	0x3d2ad3c0	0.041705847
13	0x3d39b3fe	0.04533767
14	0x3e0c6055	0.13708623
15	0x3e1a60e2	0.1507602
16	0x3d467c82	0.048458584
17	0xbe25cda2	-0.16191724
18	0x3d593949	0.053033147
19	0x3e0badd3	0.13640527
20	0x3cb8bd9c	0.02255135
21	0xbdba9ac9	-0.09111554
22	0x3d9d4dae	0.07680832
23	0x3d4f4982	0.050607212
24	0xbe009d04	-0.12559897
25	0xbe005c33	-0.12535171
26	0x3bf43a0e	0.0074532097
27	0xbe1123bb	-0.14173786
28	0x3dc890cb	0.09793242
29	0xbbf66c7d	-0.007520257
30	0x3e3345ea	0.17507139
31	0xbda88b94	-0.082297474
32	0xbd609bb0	-0.054835975
33	0xbc331e4a	-0.010932514
34	0x3dd6894b	0.10475405
35	0x3de4472b	0.11146387
36	0x3d756122	0.059907086
37	0xbdac6c99	-0.08419151
38	0xbe160ba6	-0.14652881
39	0xbda19375	-0.07889453
40	0xbd2b60fa	-0.04184053
41	0xbd76b82d	-0.060234237
42	0xbe04e9a7	-0.12979756
43	0xbc261ea6	-0.010139143
44	0x3dcd30c7	0.10019069
45	0x3c58c044	0.013229433
46	0xbbc44ebd	-0.0059908316
47	0xbdbce169	-0.09222681
48	0x3cb2d337	0.02182923
49	0xbe05477c	-0.1301555

fc3.weight f4 [50, 50]
0	0xbd4e04a1	-0.050297383
1	0x3e227d44	0.15868098
2	0xbd663fed	-0.056213308
3	0xbd55dc5c	-0.052212104
4	0xbcfca400	-0.03083992
5	0xbc80bc5b	-0.015714815
6	0x3e15e100	0.14636612
7	0xbdc2dcfc	-0.09514806
8	0x3d123dbd	0.03570341
9	0x3d9127b8	0.07087654
10	0x3e26fbfd	0.16307063
11	0x3d5f852f	0.054570373
12	0x3be670a6	0.0070324717
13	0x3e1a8181	0.15088464
14	0x3e5fc219	0.21851386
15	0x3dd9c726	0.10633688
16	0xbda7159d	-0.08158419
17	0xbc2f67f3	-0.010705936
18	0x3df08b7c	0.117453545
19	0xbd9e9173	-0.07742586
20	0x3da0b309	0.07846648
21	0xbd794022	-0.060852177
22	0xbd7b6e96	-0.06138476
23	0x3d887f3b	0.06664892
24	0x3dd6f438	0.104958
25	0x3de10643	0.109875225
26	0x3e03a185	0.12854584
27	0x3cd72d1b	0.026266625
28	0xbbb91a88	-0.0056489147
29	0xbdbd01c5	-0.09228853
30	0xbd390175	-0.045167405
31	0xbe41bffd	-0.18920894
32	0x3db2f5bc	0.08738276
33	0x3d2ca2f9	0.04214761
34	0xbd31a195	-0.043366987
35	0x3e4cee9e	0.200129
36	0x3e02f312	0.12788036
37	0xbbf987ef	-0.0076150815
38	0xbdeaf9ba	-0.11473413
39	0xbd25e32e	-0.04049986
40	0xbd982707	-0.07429319
41	0xbd8e258c	-0.06940755
42	0xbd846129	-0.06463844
43	0x3e02cde9	0.12773861
44	0x3dd669cd	0.10469399
45	0xbc94a4be	-0.018144961
46	0xbd742320	-0.05960381
47	0x3e3c7cce	0.18406984
48	0x3e15556b	0.14583366
49	0x3cc7699d	0.024342353
50	0x3e0af39c	0.13569492
51	0x3cdd5365	0.027017305
52	0xbd8f200f	-0.069885366
53	0xbd6551ed	-0.055986334
54	0xbd105ce8	-0.035244852
55	0x3e501cc1	0.20323469
56	0x3e28d472	0.16487291
57	0xbde3ee78	-0.11129469
58	0x3e71c06b	0.23608558
59	0xbdd5e63e	-0.10444306
60	0xbd53b9de	-0.05169093
61	0x3e38abe8	0.18034327
62	0x3df70c9f	0.12062954
63	0x3de15b5e	0.11003755
64	0xbcc7424f	-0.02432361
65	0xbd511bf5	-0.051052053
66	0xbde6ea0d	-0.112751104
67	0xbcae5921	-0.021282734
68	0x3e2bc645	0.16774853
69	0xbcda4166	-0.026642513
70	0xbda30175	-0.07959262
71	0x3c8a046c	0.016847812
72	0x3d66674d	0.05625086
73	0xbd9c6410	-0.07636273
74	0xbc0ea703	-0.008706811
75	0xbda4c7b2	-0.08045901
76	0x3dbc27df	0.09187292
77	0xbcde68fc	-0.02714967
78	0x3d0ae664	0.033911124
79	0x3d1d932c	0.038470432
80	0x3daa948f	0.083291166
81	0x3d4b8cb6	0.04969474
82	0x3e3d746d	0.18501444
83	0x3db64e2a	0.08901627
84	0xbdc0d686	-0.09415917
85	0x3bb6a98d	0.0055744112
86	0xbe0980de	-0.13428065
87	0x3e24a7bd	0.16079612
88	0x3d0b0581	0.033940796
89	0x3c25f164	0.010128353
90	0xbc994351	-0.018708857
91	0x3dbff2e7	0.09372502
92	0xbd302992	-0.043008395
93	0xbca2536d	-0.019815171
94	0xbd36c139	-0.044617865
95	0xbd25c10a	-0.0404673
96	0x3d9a25f3	0.075267695
97	0x3e538915	0.20657761
98	0x3e237c55	0.15965398
99	0x3dc9f6d7	0.09861534
100	0x3e33fe74	0.17577535
101	0x3e017cd2	0.12645271
102	0x3e017c34	0.12645036
103	0x3cdfd553	0.0273234
104	0x3cd67e22	0.026183192
105	0xbd939d54	-0.07207742
106	0x3e2f8722	0.17141393
107	0xbdf1d96a	-0.118090466
108	0x3ddd017e	0.107913
109	0xbe13e236	-0.14441761
110	0xbd8016e9	-0.0625437
111	0x3dd87258	0.10568684
112	0xbe16b614	-0.14717895
113	0x3b389b91	0.0028168897
114	0xbc4c0643	-0.012452665
115	0x3de2278d	0.110427
116	0x3df0d0b1	0.11758555
117	0xbe61c568	-0.22047961
118	0x3e1c70ea	0.15277448
119	0xbdaf30fb	-0.08554264
120	0x3d0353c3	0.032062303
121	0x3df9bb7b	0.12193962
122	0xbd2d6b1d	-0.04233848
123	0x3e140072	0.14453295
124	0x3c85c266	0.016328048
125	0x3dd3793a	0.103258565
126	0x3c209a37	0.009802393
127	0x3de50bd7	0.11183899
128	0x3e7be4d8	0.24599016
129	0xbdff56b6	-0.12467711
130	0x3e287f17	0.16454731
131	0xbe2c4458	-0.16822946
132	0x3e06117c	0.13092607
133	0x3d95c93a	0.073137715
134	0xbc886e36	-0.016654115
135	0xbdc3ee75	-0.095669664
136	0xbdcd8f5f	-0.100371115
137	0xbcbb91c3	-0.022896653
138	0xbdb37033	-0.08761635
139	0x3e689b1f	0.22715424
140	0x3d8ac59d	0.06775973
141	0x3c5a4fac	0.013324659
142	0xbe2a1b91	-0.16612078
143	0x3e86a66f	0.26298854
144	0x3da33e77	0.079708986
145	0x3dfdc8aa	0.12391789
146	0x3dc0aec0	0.09408331
147	0x3dcf2d1f	0.10116028
148	0x3d85cb94	0.0653297
149	0xbdbf22b4	-0.09332791
150	0x3e3f66b5	0.18691523
151	0x3d5e1eba	0.054228522
152	0xbd2f9833	-0.042869758
153	0x3dabe467	0.08393174
154	0xbd06da58	-0.032923073
155	0x3dcffe2d	0.10155902
156	0x3e14ea2b	0.14542453
157	0x3b863caf	0.0040965895
158	0x3d78e199	0.06076202
159	0x3dddaf6b	0.10824474
160	0xbd9152ea	-0.07095893
161	0xb9128ddb	-0.0001397649
162	0xbdd23b8d	-0.10265265
163	0xbca12d0f	-0.019674806
164	0x3d4b3da6	0.04961934
165	0x3dfe2f53	0.1241137
166	0x3dd49a9d	0.10381053
167	0xbe2d0cfc	-0.16899484
168	0x3d21f629	0.039541397
169	0x3e211061	0.15728904
170	0x3df74140	0.12072992
171	0x3ccd776d	0.02508136
172	0xbd2d8e5c	-0.042372093
173	0x3d1ee1aa	0.03878943
174	0x3e587af8	0.21140659
175	0xbc97d963	-0.018536275
176	0x3e1f102a	0.1553351
177	0xbe07e10b	-0.13269441
178	0x3e168618	0.1469959
179	0xbdfddb16	-0.12395303
180	0xbe0cef1d	-0.1376309
181	0xbdd71f79	-0.1050405
182	0xbb351744	-0.0027632276
183	0xbbc45ecf	-0.0059927474
184	0x3d910409	0.07080848
185	0x3e3200a1	0.17383052
186	0x3dc0af30	0.09408414
187	0xbbe79998	-0.0070678703
188	0xbdea12c4	-0.114293605
189	0x3e250d02	0.16118243
190	0x3e0658cb	0.1311981
191	0x3c8c1c51	0.017103346
192	0xbcee6145	-0.029099116
193	0x3b537112	0.003226344
194	0xbd10fc5e	-0.035396926
195	0x3de29d9e	0.11065219
196	0xbe0fd7c4	-0.14047152
197	0xbcb5f904	-0.022213466
198	0xbd8f4507	-0.06995588
199	0xbd970568	-0.07374078
200	0x3da9c429	0.08289368
201	0x3da0d7f1	0.078536876
202	0x3db4f8c8	0.08836514
203	0x3e345aec	0.17612809
204	0xbd31519a	-0.043290712
205	0x3e361628	0.1778189
206	0xbd154d0c	-0.03645043
207	0xbce68bc2	-0.028142814
208	0x3dea6b22	0.11446215
209	0xbdbe13b7	-0.09281104
210	0xbd6192a6	-0.055071495
211	0x3e298d07	0.16557704
212	0x3d486ebf	0.04893374
213	0x3de993a2	0.11405112
214	0x3e1b2204	0.15149695
215	0xbd99754b	-0.07493075
216	0x3de3929d	0.11111949
217	0xbdb840ec	-0.08996758
218	0xbde4a096	-0.11163442
219	0xbda67466	-0.0812767
220	0xbe2676db	-0.16256277
221	0xbd4760de	-0.048676364
222	0x3e1afefc	0.15136331
223	0x3e0f5d91	0.14000537
224	0x3e362456	0.17787299
225	0x3d270b96	0.040782534
226	0x3dadebd2	0.08492245
227	0xbcbba468	-0.022905543
228	0x3e1be2ba	0.15223208
229	0xbdcabc6f	-0.09899222
230	0xbda35b76	-0.07976429
231	0xbddc407f	-0.10754489
232	0x3bf68248	0.007522855
233	0x3d3de4bd	0.04636072
234	0x3db93011	0.09042371
235	0x3cb2cc68	0.021825984
236	0xbcf195df	-0.02949041
237	0xbdc7aed8	-0.09750146
238	0xbdfb9042	-0.12283374
239	0x3e0f03cb	0.1396629
240	0xbd197223	-0.037462365
241	0x3e4c3504	0.19942099
242	0xbda857cb	-0.0821987
243	0xbd8b60e6	-0.06805591
244	0x3d10fbe7	0.035396483
245	0x3d49f8d6	0.049309574
246	0xbd84e2b9	-0.064885564
247	0xbdafaf1d	-0.08578322
248	0x3d5c25ff	0.053747173
249	0xbd092b18	-0.033488363
250	0x3d30a4ea	0.043126024
251	0x3db57dc3	0.08861878
252	0x3d0a40ef	0.03375333
253	0xbddbda7c	-0.10735032
254	0xbe274e34	-0.16338426
255	0x3e044676	0.12917504

fc3.bias f4 [50]
0	0x3d71a340	0.058993578
1	0x3db9e44d	0.09076748
2	0xbcbe05fa	-0.02319621
3	0xbd71422b	-0.058900993
4	0x3cf2acae	0.029623356
5	0x3de0ffa4	0.109862596
6	0xbd4d7c71	-0.050167505
7	0x3cdc2342	0.026872281
8	0x3dd55647	0.10416847
9	0xbda59293	-0.080845974
10	0xbd836cbf	-0.06417226
11	0xbca54815	-0.020175973
12	0xbdb131c6	-0.08652072
13	0x3e0179c6	0.12644109
14	0x3cd0f864	0.025509067
15	0x3def5f69	0.1168812
16	0xbdd654f0	-0.10465419
17	0x3d5fac2c	0.054607555
18	0x3d6200eb	0.055176657
19	0x3df0dd42	0.117609516
20	0x3d93fd17	0.072260074
21	0xbd83752a	-0.06418832
22	0x3bc4ed7a	0.0060097547
23	0x3e2d570f	0.16927741
24	0x3e59ba69	0.21262516
25	0x3e09e7d3	0.1346734
26	0x3d5c3fff	0.05377197
27	0xbcf5b9d6	-0.02999584
28	0x3e258696	0.16164622
29	0x3cb7e06b	0.022445878
30	0x3dc2133a	0.094763234
31	0xbdad2d11	-0.08455861
32	0x3c15e644	0.009149138
33	0x3babbdc1	0.0052411263
34	0x3d9c60cb	0.07635649
35	0x3d8d9f3f	0.069151394
36	0x3db2033e	0.08692025
37	0xbd073e2f	-0.033018287
38	0xbd4f2b97	-0.05057868
39	0x3e85e1c4	0.26148808
40	0x3bd89476	0.006609495
41	0x3d41463a	0.047186114
42	0x3de4e489	0.11176402
43	0x3d938065	0.07202224
44	0x3d8d177a	0.068892434
45	0xbdbdf858	-0.092758834
46	0x3dc7a1f9	0.09747691
47	0xbc911b64	-0.017713256
48	0xbdb4e069	-0.08831865
49	0xbc8d0d37	-0.017218215
