checkpointing_test/sigmoid_example_s12345/models/eval_checkpoint_900.pt (torch, 95431 bytes, 24 tensors)

fc1.weight f4 [50, 7]
000000 f3 0b 8b be a8 f4 8c 3e 32 da e0 3e 74 0f 26 3e
       -0.27157554 0.27530408 0.4391647 0.16216832
000010 1d 87 db be 62 4e 68 3c 54 51 53 be 0c 01 89 be
       -0.4287652 0.014178844 -0.20636493 -0.2675861
000020 91 3f 07 be 47 48 a5 be 03 67 bd be 42 bd f4 bd
       -0.13207842 -0.32281706 -0.36992654 -0.119501606
000030 22 93 be bd e5 78 b4 be 76 ab ba bd 43 24 2f be
       -0.09305407 -0.35248485 -0.09114735 -0.17103676
000040 7e 51 98 bd e8 90 8a 3e b8 59 b8 3e fa 17 a7 3c
       -0.074374184 0.2706368 0.3600595 0.020397175
000050 9f 0c 1a be 4f ba a1 bd 3a 69 bc 3e c2 24 d4 be
       -0.15043877 -0.07896864 0.36799031 -0.41434294
000060 06 6b 88 3d d9 a2 61 be b2 9c 29 bd 2d cf 9f bd
       0.06661038 -0.22034778 -0.041409202 -0.078031875
000070 0b 81 82 be ab 84 5a be 8b cb 32 be 8f 17 f3 be
       -0.25489077 -0.21339671 -0.17460458 -0.4747891
000080 98 a9 d3 3e 76 06 62 bc e1 53 44 3e c0 7f bc 3e
       0.41340327 -0.013795486 0.19172622 0.36816216
000090 c5 b4 72 3e e0 7a 21 3e 29 56 ac 3e 12 4b 9b 3d
       0.2370177 0.1576953 0.33659485 0.07582678
0000a0 d3 1d 8e bd fa aa 0b 3e a2 d7 8b bd 95 63 34 be
       -0.06939282 0.13639441 -0.06828238 -0.17616113
0000b0 25 7c 11 3d c7 92 be 3e 61 ac 36 3e 8b bc 08 3e
       0.035518784 0.37221357 0.17839195 0.13353173
0000c0 20 2b 1d 3e 81 84 52 be c4 b8 a2 3e a2 ec 37 3e
       0.15348482 -0.20558359 0.3178159 0.17961362
0000d0 92 f9 1b be f1 63 2a 3c ef 16 40 3e c6 fa d5 bd
       -0.15231922 0.010399804 0.18758748 -0.10448222
0000e0 04 8e 98 3c 79 f8 29 3e d0 bc b8 be ff c0 9a 3d
       0.018622406 0.16598691 -0.36081553 0.07556342
0000f0 61 2f 17 3e a0 ca 56 3e 20 ed 8e be 95 0a 83 be
       0.14764167 0.20975733 -0.27915287 -0.2559401
000100 74 1c 58 3e 7d e1 be 3e 14 ac b2 3e ab 61 07 3e
       0.21104604 0.3728141 0.3489691 0.13220851
000110 82 32 eb bd b4 df 40 3d 86 0d 0a bf 79 56 91 bd
       -0.11484243 0.04708834 -0.53926885 -0.070965715
000120 db e3 72 3e 11 14 5b be 20 40 b9 be 15 f1 8d 3e
       0.23719732 -0.21394373 -0.36181736 0.27722993
000130 4d ea e0 bc c8 99 c3 be f1 00 04 bd ee ee 99 3e
       -0.027455473 -0.38203263 -0.03222746 0.300651
000140 f9 f0 93 3e b3 82 01 3e 45 60 09 be 7f 47 bd be
       0.28894785 0.12647514 -0.1341563 -0.3696861
000150 c0 5b cd 3e f3 6b 62 be b5 64 80 bd dc a7 56 be
       0.40109062 -0.22111492 -0.06269208 -0.20962471
000160 3f 8f 76 be 98 a6 bd be a1 77 64 3e 40 0a 86 be
       -0.24078082 -0.37041163 0.2231126 -0.26179695
000170 ad a4 95 3d 29 9c 37 3e 7f c6 94 3e 94 7d ce be
       0.073068 0.17930664 0.2905769 -0.40330184
000180 56 2a f3 bd d8 f5 de be a6 35 d0 be 01 07 89 3e
       -0.11873309 -0.4354694 -0.4066593 0.26763156
000190 55 16 60 3e db 00 18 bd 16 fd 83 be 9d 06 af be
       0.21883519 -0.03711019 -0.25779027 -0.34184733
0001a0 94 3e b7 3e f9 db be 3e e2 1d 00 be 8e e6 e2 bd
       0.3578993 0.372772 -0.125114 -0.11079131
0001b0 85 92 65 be 66 30 90 3e aa 80 d2 bd 29 c7 21 be
       -0.22419174 0.28161925 -0.10278447 -0.1579863
0001c0 82 df ad be 84 a2 c7 be 18 53 8c 3d 9a 9d d0 3e
       -0.33959585 -0.38991177 0.068517864 0.4074524
0001d0 84 c0 92 be 4a 6f 9f 3e 85 0d 51 3e 83 c3 f4 bc
       -0.28662503 0.31139594 0.20415314 -0.029878384
0001e0 b5 4d 82 be 7f 3e 7f 3e 3e 6d 94 3e 62 04 c3 3e
       -0.2544991 0.24926184 0.28989595 0.3808928
0001f0 ca 66 ad 3e cb b6 9c 3d d2 be fd bd e7 2c 6a 3e
       0.33867484 0.076520525 -0.12389912 0.22868691
000200 a0 c7 ac bd 11 a8 9a bc 79 a4 5c 3e 1e d7 1d 3e
       -0.08436513 -0.018878968 0.21547116 0.15414092
000210 44 0d e5 3c 89 ab 2c bf 47 60 bc 3e 74 1f a7 bb
       0.027960427 -0.6744924 0.36792204 -0.005100185
000220 35 d8 33 3e 07 b5 b3 bd 27 cc 95 3d f5 d6 b2 3d
       0.17562945 -0.087747626 0.073143296 0.08732406
000230 c8 7f 40 be 3a 57 a5 3d c4 92 22 3c 5d 0e cb 3e
       -0.18798745 0.08073278 0.009922687 0.39659396
000240 86 aa f0 bd a5 81 48 be 9c 98 01 be d3 6c 36 3e
       -0.11751275 -0.19580705 -0.12655872 0.1781495
000250 9e 03 88 be a5 d0 59 3e 95 31 d3 3d 9e eb 9f be
       -0.2656526 0.21270998 0.103121914 -0.3123445
000260 96 f6 71 3d 9a 46 43 be d8 37 2c bf 07 2a 1d 3d
       0.059073053 -0.19069901 -0.6727271 0.03837016
000270 e5 77 38 be c9 a0 b0 3e af 94 7e 3e fe e4 29 bc
       -0.18014486 0.3449767 0.24861406 -0.010369537
000280 53 10 5b 3d bb 55 b9 3e a9 02 3e 3e a1 6d 2a be
       0.053482365 0.3619822 0.18555702 -0.16643383
000290 f1 c6 db be c0 24 6e be a3 51 53 bd f0 f2 fd 3b
       -0.42925218 -0.23256207 -0.051591527 0.0077499077
0002a0 1b 46 a6 3e 66 ee 05 bc 3b ed 55 3e c9 96 71 3e
       0.3247536 -0.008174514 0.20891277 0.23592676
0002b0 bf 39 87 be a7 54 06 be 07 cb 7e 3d 02 cf ce 3e
       -0.26411244 -0.1311823 0.06220534 0.4039231
0002c0 1d 34 40 3e 6b 53 80 be 26 36 e6 bb 07 78 0a 3e
       0.1876988 -0.25063643 -0.007025498 0.1352235
0002d0 38 ee 15 3e da 97 88 3e da 0d c4 bd 25 84 bb 3d
       0.14641654 0.26678354 -0.095729545 0.09156064
0002e0 8f 5a 66 be d0 6f 70 3e 00 33 82 3c 06 b4 b1 be
       -0.22495483 0.23480153 0.01589346 -0.3470766
0002f0 24 70 09 be da 4c f9 bc 91 93 ad 3e 24 da bf bc
       -0.13421685 -0.030432153 0.33901647 -0.023419447
000300 9b 85 6f be c1 d4 cb be 99 36 b3 be 72 86 9d 3e
       -0.2339081 -0.39810756 -0.35002592 0.30766636
000310 89 d0 2b 3e e6 72 c5 be 6d a3 84 3c 05 41 84 3e
       0.16778769 -0.38564223 0.016191209 0.25830856
000320 9f b5 52 3d 82 04 b0 be 34 df 89 3e 01 49 8d 3e
       0.05144274 -0.3437844 0.26928103 0.2759476
000330 74 be ac be ae 06 de be 78 08 98 be 87 d0 13 3e
       -0.33739054 -0.4336447 -0.2969396 0.14435016
000340 94 62 5d be 36 0b bb 3e a3 1d 4c 3e 30 c4 a5 be
       -0.21619636 0.3653199 0.1993318 -0.32376242
000350 00 29 ec be ed 2e 3e be 5d 24 45 be ce af 4a 3e
       -0.4612503 -0.18572588 -0.19252153 0.19793627
000360 49 63 2a bd 9b da 86 bd ec 97 dc bd 89 96 ce 3e
       -0.041598592 -0.065846644 -0.10771164 0.40349224
000370 c0 53 cf 3e dc 4c ce be eb 3e f7 3b 58 1b 89 be
       0.40493584 -0.40293014 0.007545342 -0.26778674
000380 1a 80 18 bf 1e e3 e6 3d 52 cb a8 3e 14 1b 3d 3d
       -0.5957047 0.11273788 0.3296762 0.0461684
000390 2e ca 32 3c 1e ae 78 3d fa 92 c1 3d 70 c6 5e be
       0.010912461 0.060712926 0.09451862 -0.21755385
0003a0 d6 84 5e be 64 e2 f7 be d7 5a 75 be 25 e1 96 be
       -0.2173036 -0.4841491 -0.23960434 -0.29468647
0003b0 b2 04 da be 9c d7 1a 3e 15 0d 62 bd 0e 02 e5 be
       -0.42581707 0.15121311 -0.055188257 -0.4472813
0003c0 73 50 74 be f6 4f b3 bd 20 cf d2 bc b3 5e a4 3e
       -0.23858814 -0.08755486 -0.02573353 0.321035
0003d0 4f f7 98 3e 1f 53 db 3d 66 9e ef be ce 97 7d bd
       0.2987618 0.107092135 -0.46800536 -0.06191235
0003e0 bd 96 02 3e 6a 1f 02 3e 9e f1 32 be 89 9a 70 bb
       0.12752815 0.12707296 -0.17474982 -0.0036713204
0003f0 d5 55 3f 3d 0d 83 c8 3e f4 e9 8b be 82 f7 9c be
       0.046712715 0.39162484 -0.2732693 -0.30657583

fc1.bias f4 [50]
000000 71 29 ba be a4 33 67 be 45 e9 01 bc 98 ba 08 3e
       -0.36359742 -0.22578293 -0.007929151 0.1335243
000010 06 77 ef 3e f4 60 d4 3d b8 82 c1 bd 16 3f d3 3e
       0.46770495 0.10370055 -0.09448761 0.41259068
000020 20 c4 43 be 2b ab 5b 3d bb 33 1c be ed 07 41 be
       -0.19117785 0.053630035 -0.15254109 -0.1885068
000030 1f 35 06 3e 33 c6 75 3e 8b 35 5f 3c 3c 36 2c bc
       0.13106202 0.24001388 0.0136236055 -0.010510977
000040 07 8b 8a be 7a 4c d7 3e 51 a6 ba 3d a5 22 ea 3d
       -0.27059194 0.42050534 0.091137536 0.11432389
000050 0f db 0f bd cc 77 87 3d 18 e0 ca 3e 9a 44 ce bd
       -0.03512102 0.06614646 0.39624095 -0.100716785
000060 27 ce b3 3e ca 02 7c 3e 81 da 22 3e 53 1a 49 3d
       0.3511822 0.24610439 0.15903665 0.04909737
000070 1b ac 90 bb 2c 7a bb bd 34 71 71 3d ad 42 c6 bd
       -0.004415048 -0.09154162 0.05894585 -0.09680686
000080 03 f3 b9 bc 91 00 0e be f1 3a 82 3e 04 e5 5f be
       -0.022698885 -0.13867404 0.25435594 -0.21864706
000090 3b 5b f1 bd 26 39 3b bc 21 fc 43 3e 9c 09 cc 3e
       -0.11784979 -0.0114271995 0.19139148 0.3985108
0000a0 5f 72 b8 3e a5 ff 2f be 98 dd 46 3d 37 d9 f3 3d
       0.36024758 -0.17187364 0.048551172 0.11906665
0000b0 b0 25 2d bd ea 51 96 be 6b 2b 5a bc 32 81 82 be
       -0.04227227 -0.2935937 -0.013316016 -0.25489193
0000c0 f6 8d f2 bd 3b a1 36 3e
       -0.11843483 0.17834942

fc2.weight f4 [50, 50]
000000 f4 54 52 3d dc d1 64 3a cc 28 4e 3d ae bc c1 bd
       0.05135055 0.0008728781 0.050331876 -0.09459816
000010 ea bb 48 3e 42 f5 6c 3d 41 52 e3 bd 40 7a e2 bc
       0.19602934 0.057851084 -0.11099673 -0.027646184
000020 74 4f de bc 76 b1 54 be 9a 21 59 be e6 51 5f be
       -0.027137496 -0.20770821 -0.21204224 -0.21808586
000030 96 6a 5b 3d 46 23 10 ba 2b ec aa bd 7b 4d cc 3d
       0.053568445 -0.000549842 -0.08345827 0.09975716
000040 a7 91 2c be 51 b6 cc 3c 33 c2 32 bd 1a 20 c5 3d
       -0.16852437 0.024989279 -0.043642234 0.096252635
000050 8b ae 35 3d d2 e6 84 3e 84 f7 13 be c5 78 1e 3e
       0.04435591 0.25957352 -0.14449888 0.15475757
000060 0a 04 0a 3c 9f bd 45 3c b6 0a a9 bd 15 d4 59 be
       0.008423815 0.012069135 -0.08253996 -0.21272309
000070 bb 48 6b be bb 5b b6 3b f2 fa 05 bd 07 76 2d bd
       -0.22976963 0.0055651343 -0.032710023 -0.042348888
000080 f2 a5 6d 3d 81 a7 3d 3d a8 df 30 be 34 7d 1e be
       0.058019586 0.046302322 -0.17272818 -0.15477449
000090 4d af 5e bd 17 0c 26 be 77 49 48 3d 2f d2 a1 3c
       -0.0543664 -0.1621555 0.048898187 0.019753544
0000a0 0c cc 04 bd 08 3e 03 3e 9f aa 12 be 10 62 1b be
       -0.032421157 0.12816632 -0.143229 -0.15174127
0000b0 65 73 b4 3d e1 ae 97 bd 5e d8 b0 3d cc a3 f5 bc
       0.08811072 -0.074064024 0.08635019 -0.029985331
0000c0 48 e1 53 3b f4 9b 5e 3d c6 64 6f 3d 4f 7e e1 3d
       0.0032330323 0.054347947 0.058445714 0.110104196
0000d0 6b 11 2c 3e bf bd 01 3e ae 42 9c 3e 02 6e a4 bd
       0.1680352 0.12670039 0.30519623 -0.08028795
0000e0 c2 d2 93 bd ea b2 64 3e 9a 66 04 3e 5f 91 3a bd
       -0.07217933 0.22333875 0.12929764 -0.045548793
0000f0 61 95 c5 bd db bb 7b be 62 71 45 be 3c 33 03 3e
       -0.096476324 -0.2458338 -0.19281533 0.12812513
000100 48 cd a2 3c 5c 14 b3 3d b6 6a 50 bc bb c9 1b bd
       0.019873276 0.087441176 -0.012720754 -0.038034182
000110 f0 e9 c2 3d dc 0a fe bd b3 ec 4f be d3 4f 4f bd
       0.09517276 -0.12404415 -0.20305137 -0.050613236
000120 cb a3 92 bd dc 93 a3 bd 94 91 30 bc a7 83 f6 3d
       -0.07160147 -0.07987186 -0.010776896 0.120368294
000130 64 04 0c 3e 28 14 20 bc 77 41 0f 3d ad cf 77 bd
       0.1367355 -0.009770431 0.03497454 -0.06050079
000140 97 9c 43 be f2 44 b9 bd 52 7a 40 be 09 92 e8 bd
       -0.19102703 -0.090463534 -0.18796661 -0.11355979
000150 13 6a 18 be 5b 1b 42 be 3b b1 ce 3c 4a 15 a8 be
       -0.14884214 -0.18955748 0.025230994 -0.32828742
000160 02 3e 08 3e fa 4e f5 3c 94 2a 31 bc 52 6a b4 3d
       0.13304904 0.029944886 -0.010813374 0.088093415
000170 c3 5c c2 bd a7 39 93 3d a9 fe 26 be 9d 35 74 be
       -0.09490349 0.07188731 -0.16308083 -0.23848577
000180 a1 29 ad bc f5 9f 98 3c 1d 47 15 bd 5a 56 de 3d
       -0.021138014 0.018630961 -0.036444772 0.10856314
000190 b9 a2 ba bd e0 62 68 bd dd af 28 3d 52 5c 50 bd
       -0.09113068 -0.05673492 0.04118334 -0.050869294
0001a0 75 39 f1 bd 23 01 0d be 83 e1 9b bd 13 7c 89 3d
       -0.11778537 -0.13769965 -0.07611372 0.067131184
0001b0 01 e1 eb bd 61 e6 0a 3e 3b f0 ed 3c 0b ce 81 bd
       -0.115175255 0.13564445 0.029045215 -0.06338128
0001c0 72 2e a7 3d b2 a7 d1 bd c3 00 97 bd 65 51 bb bd
       0.081631556 -0.102370635 -0.07373192 -0.09146384
0001d0 2d 97 0d be 98 bb 98 bd 11 2d 02 be 11 ae 53 3d
       -0.138272 -0.07457656 -0.12712504 0.051679675
0001e0 0a 02 09 3e bc 96 a8 bd b6 1b 0c be 88 4f cc 3d
       0.13379684 -0.08231875 -0.13682446 0.09976107
0001f0 24 52 98 bd 90 8e 62 bd 73 6f c3 bd bd d2 aa bd
       -0.07437542 -0.05531174 -0.095427416 -0.083409764
000200 ea 40 c3 bd f4 ea 6e bd bb 85 82 3c 8e 26 04 3d
       -0.09533866 -0.058329538 0.015932908 0.03226333
000210 48 ed 88 3d 44 58 e4 3d 27 8b 88 3d 3d 87 54 bd
       0.06685883 0.11149648 0.06667166 -0.051886786
000220 a3 81 5b 3d c9 34 f8 3d 37 9c 04 bd d5 31 cd bc
       0.053590428 0.12119443 -0.03237554 -0.025048176
000230 40 ba 23 3d 77 5f 07 bd d6 fa af bc 8b 23 bf 3c
       0.039972544 -0.033050027 -0.021481913 0.023332378
000240 ed 79 09 3e 9e 87 3d bc 01 bc 01 be fe 96 83 3c
       0.13425417 -0.011567978 -0.12669374 0.01606321
000250 26 52 ef bd c8 49 01 3e 69 eb 2e 3e 33 6f 1b bd
       -0.116855904 0.12625802 0.1708199 -0.037947845
000260 31 91 13 bd 04 95 ef 3d 26 f1 a7 bd 3f af 95 bc
       -0.036027137 0.11698344 -0.08200292 -0.01827204
000270 21 03 9c bd ff a9 e4 3d 10 e0 05 be bf 9d 04 be
       -0.07617784 0.11165237 -0.13073754 -0.129508
000280 23 e2 04 3c 09 f8 f8 bc 20 57 48 be b1 c7 08 3e
       0.008110556 -0.03039171 -0.19564486 0.13357426
000290 d1 11 bf bd 21 a2 63 bb 7f 9b 5b be 9b 06 46 3d
       -0.0932957 -0.0034734088 -0.21446036 0.048346143
0002a0 dc a8 e7 3d 48 fd 5a 3e 34 c4 6b 3d 13 be 68 3c
       0.11311504 0.21385682 0.05756016 0.0142054735
0002b0 ee 23 a1 bc 07 bd ae bd bd aa b0 3c d6 c7 ad 3d
       -0.019670453 -0.08532148 0.02156579 0.08485381
0002c0 09 96 cc 3b a6 b3 bf 3c f2 5a 8a 3d 65 47 10 be
       0.0062434715 0.023401093 0.06755628 -0.14089735
0002d0 e2 a6 0d be 8e 10 83 3d b6 c8 f6 bb 54 d8 28 3e
       -0.13833192 0.06399642 -0.007531251 0.16488773
0002e0 75 12 3a 3c 8b b6 18 3c 49 2f b6 bd d5 c6 11 bd
       0.01135694 0.009320865 -0.08895738 -0.03559001
0002f0 32 7b fc bc d7 a8 d0 bd 38 6c 1f be 2c c8 9f bd
       -0.030820463 -0.10188454 -0.15568626 -0.07801852
000300 9b 55 20 bd f4 45 ca 3d 44 de 0e be 91 c0 fb 3d
       -0.03914414 0.09876624 -0.13951975 0.122925885
000310 d2 38 ca 3d 65 1b e3 bd 9f a0 f4 3d 38 a0 93 bc
       0.09874119 -0.110892095 0.119446985 -0.018020734
000320 46 c4 7e bd 4d f1 35 bd 87 04 84 3d 27 1a 92 bd
       -0.0621989 -0.044419575 0.06446176 -0.071338944
000330 18 0b a3 bd de 75 b7 3d 53 6b 3e 3d 6f de 9a bd
       -0.079611 0.08958028 0.04648907 -0.07561957
000340 74 4d 69 bc 2f 1f f3 3d b1 4a 8b be af 54 2b be
       -0.014239658 0.11871182 -0.27205423 -0.16731523
000350 53 cc 87 3b a4 79 01 be f9 42 ae bd fc ea 45 3e
       0.0041442304 -0.12644058 -0.08508868 0.1932792
000360 64 80 0e 3e 2c c2 c6 3d 4a 27 2c 3e 50 74 e3 be
       0.13916165 0.09705004 0.16811863 -0.44424677
000370 90 b4 06 3e dd 5d 45 3e 66 bb 53 be 62 be 6e 3d
       0.13154817 0.19274087 -0.20676956 0.058287032
000380 98 9d 92 3e a0 fb f2 3d 66 f4 65 3d 5b 45 e7 3d
       0.2863586 0.118644 0.05614128 0.112925254
000390 36 b6 10 3e 3c d2 a7 bd 8b 6d 0f 3e a3 b0 26 3e
       0.14132008 -0.08194396 0.14006631 0.16278319
0003a0 27 84 fd be d8 bc 93 3e 88 60 a0 3d b2 42 3d 3e
       -0.49514887 0.28855014 0.07830912 0.18482473
0003b0 38 ff 09 bd 12 09 11 3e 14 7b 93 3d 22 d5 78 3d
       -0.03369066 0.14163616 0.0720121 0.060750134
0003c0 4c d3 73 3c e7 43 64 bd 74 fc 7e 3d f1 b0 a5 be
       0.01488192 -0.05572882 0.062252477 -0.32361558
0003d0 49 60 00 3e fb 98 58 3d 41 94 92 3d 10 bd a4 bd
       0.1253673 0.05288027 0.071571834 -0.08043873
0003e0 e0 ed 59 3e 7a 4d 3b 3e 27 b5 06 be 83 87 6b bd
       0.21282148 0.18291274 -0.13155042 -0.05750228
0003f0 89 33 a6 3c 9c 3f 37 3d 07 44 f3 3c e8 85 06 be
       0.020288246 0.044738397 0.029695524 -0.13137019

fc2.bias f4 [50]
000000 1c 0d c4 3c 8a e9 1d 3e 48 44 b6 bd 19 9b d3 bd
       0.023932032 0.1542112 -0.08899742 -0.10332317
000010 ce e0 9c 3d 96 9a 8a bd f6 1f 23 3e 71 38 2d be
       0.076600656 -0.06767766 0.15930161 -0.16916062
000020 5e f6 26 3d a5 b2 dc bd c3 b9 fd bd e6 e5 64 3d
       0.040762298 -0.10776261 -0.12388947 0.05588331
000030 f3 23 83 3b bd eb 32 3c 97 65 2b 3e 57 33 1f 3d
       0.004002088 0.010920462 0.16737972 0.03886732
000040 e0 e3 cb b6 8f 12 8e bb f3 a0 89 bc ae 9a 4e 3e
       -6.0763996e-06 -0.0043357085 -0.01680038 0.20176193
000050 c0 86 6e bc 03 7f 4a 3e 3a ce a7 bc 44 29 5f bb
       -0.014558494 0.19775014 -0.020484079 -0.0034051696
000060 e8 f4 4b 3d 89 f1 11 bd 19 ad f1 bd d3 60 4b 3d
       0.049794108 -0.035630737 -0.11800594 0.049652886
000070 76 93 69 3e 83 58 fa bd 5a 8b 93 bd 64 31 38 bd
       0.22810158 -0.122239135 -0.072043136 -0.044968978
000080 80 ea 2b 3e 93 f8 4b 3d b2 d7 51 3e 16 74 6c 3d
       0.16788673 0.049797606 0.20492437 0.057727896
000090 f6 54 35 bd 5d 14 23 be 24 bb 87 3d 31 52 ff bc
       -0.04427048 -0.15925737 0.06627491 -0.031167122
0000a0 00 9a c2 3c c6 8f b2 3d 32 1a 64 bb b2 00 cf bd
       0.023755074 0.08718829 -0.0034805653 -0.101075545
0000b0 c5 46 c2 bd 25 d3 16 3d ac 04 03 be ad aa 93 bd
       -0.094861545 0.036822457 -0.12794751 -0.07210288
0000c0 93 f0 5f 3d a2 e9 e9 bd
       0.05467279 -0.11421515

fc3.weight f4 [50, 50]
000000 8e 08 44 bd df 10 43 bd 04 47 90 3b 1f 1a f9 3c
       -0.04785972 -0.04762351 0.004402997 0.030407963
000010 fb b6 c4 3d 48 0f 81 bc 3b 02 53 bb 6b 4f 0e be
       0.09605213 -0.015754357 -0.0032197374 -0.13897483
000020 f0 3c f7 3d b8 b2 d9 bd e9 0e b9 3d 07 59 c3 bb
       0.1207217 -0.10629791 0.09036047 -0.0059615406
000030 2d 80 31 bd dd 09 2b 3e d6 03 4b bd ec 45 ea 3d
       -0.04333513 0.16702981 -0.049564205 0.11439118
000040 29 20 c0 3d 65 98 8a bb 78 e6 e6 3c b6 10 ae bd
       0.09381134 -0.0042295926 0.028186068 -0.08499281
000050 1d 74 01 3e 86 8e de b9 2e 27 94 3d b9 5f 0e 3e
       0.1264195 -0.00042449328 0.072340354 0.13903703
000060 78 7f 79 3d d1 c6 d7 3c 40 d3 d5 bd 80 d4 e7 ba
       0.06091258 0.02633992 -0.10440683 -0.0017687231
000070 74 11 01 3e ac 85 26 3d fc 88 43 bd 02 8f 52 bc
       0.12604314 0.040654823 -0.04773806 -0.0128514785
000080 a5 77 9e 3d 2b e4 c0 3c 34 0a 2c 3e 86 c2 3d be
       0.07737664 0.023546299 0.16800767 -0.18531236
000090 3a c4 04 3e af 55 00 3e 90 90 f8 bc f4 4d 5e 3e
       0.1296548 0.12532686 -0.03034237 0.21709424
0000a0 54 2a 9c bd d0 89 c5 3d 26 78 20 3d 1a 2b 40 b9
       -0.07625261 0.09645426 0.039177082 -0.00018326603
0000b0 77 2c a3 3d cc e2 44 3e d0 a6 5b 3d 68 f6 04 be
       0.07967465 0.19227141 0.05362588 -0.12984622
0000c0 8b 0e b6 3d 33 8a dc bc 41 d8 82 bd 27 32 a5 bd
       0.088894926 -0.026921367 -0.063889034 -0.080662064
0000d0 09 d2 0d be 41 30 ae bd 28 39 b0 3d cf 41 eb bc
       -0.13849653 -0.085052975 0.08604652 -0.028717903
0000e0 24 7a ab 3d 31 4b 95 bd 42 3d 8b ba 98 e4 3b 3d
       0.08372906 -0.07289732 -0.0010623115 0.0458723
0000f0 71 f8 db 3c ac 8c e5 3d 9c 52 34 bd e0 b3 71 3e
       0.026851865 0.11208472 -0.044024095 0.23603773
000100 cd d7 db bd 9f 8f 39 bd a3 2a 98 bb 4e ac 07 3d
       -0.1073452 -0.045302983 -0.0046437546 0.033123307
000110 70 e1 e7 3d 3f f4 8e 3d eb 48 48 bc 16 37 12 3e
       0.11322296 0.0698018 -0.012224416 0.14278826
000120 66 85 c8 3d 65 72 c4 3d 19 ca 34 bd 02 f2 7d 3e
       0.09791069 0.095921315 -0.044138048 0.2479935
000130 d3 a5 0c 3d bc 9e 57 3e e6 c4 86 3d e7 11 00 3d
       0.03433783 0.21056646 0.06580524 0.031267073
000140 b7 ae 02 be b4 9c 84 bd 93 99 46 3d 45 2c 9f bd
       -0.12761961 -0.06475201 0.048486304 -0.077721156
000150 ce 4a 2a 3e 85 86 c6 3d ca 88 fa 3d 62 4a a3 ba
       0.16630098 0.09693626 0.12233122 -0.0012458081
000160 ee 28 41 be 97 ec 5a 3e 91 ed 25 bb be 9a 67 3e
       -0.1886327 0.21379314 -0.0025318603 0.22617623
000170 ce 67 42 3d 4d fe 48 bd 3a 1b c7 3d d1 7d a8 be
       0.047462277 -0.049070645 0.0972199 -0.3290849
000180 c7 dc 35 bb ba 31 f3 3d 5c c1 bb bd 51 f1 98 3d
       -0.0027750002 0.11874719 -0.0916774 0.074679025
000190 59 4b f5 bd fa bb 93 3c e1 f9 07 3e 5b c9 11 3e
       -0.11977262 0.01803397 0.13278915 0.14236967
0001a0 73 b4 0b 3e cf e8 08 bc 32 d5 30 3d aa 22 b6 bd
       0.13643055 -0.008356287 0.04317207 -0.088933304
0001b0 3c 53 57 3c 61 2b af bd 21 41 5b bc be 0f b4 3d
       0.013142403 -0.08553196 -0.013382227 0.08792065
0001c0 67 6f 53 3d 74 92 38 3d 2d 5c 04 bb 86 45 3c 3e
       0.051619913 0.045061544 -0.0020196543 0.18385896
0001d0 5d 5b 11 3e 3c 76 53 3d c0 33 c0 bd a3 17 96 bd
       0.14195009 0.05162643 -0.093848705 -0.07328727
0001e0 2f 7a 0b bd b5 c3 4f 3d 62 20 41 be 82 6b b7 bc
       -0.03405207 0.05072375 -0.1886001 -0.02239013
0001f0 93 88 6f 3d 4a a1 68 3e 9b 1a 58 bd d5 2c b8 3d
       0.058479857 0.22717777 -0.052759748 0.08992926
000200 61 9f 57 3e 61 d1 81 be 3f 13 0f 3d 55 c8 80 3d
       0.21056892 -0.25355056 0.034930464 0.0628821
000210 f3 7b 86 3d 63 97 25 bd 37 86 db 3d 91 99 34 3e
       0.0656661 -0.040427577 0.10718959 0.17636706
000220 46 60 d3 3c fc 7b 93 bd 1c 7e c6 bd 37 ec a5 bd
       0.025802743 -0.072013825 -0.09692022 -0.08101695
000230 93 10 22 3e 7e b5 af bd 64 ab 9c 3d c0 fc ef bd
       0.15826635 -0.08579539 0.07649878 -0.1171813
000240 6e 8c 61 3e ee 31 cd 3d 5b c4 99 bc 3a e7 12 3d
       0.22026226 0.10019289 -0.018770387 0.035865046
000250 96 6a 9c 3d 54 99 0c 3d d5 3c a2 bd 92 ed 87 3e
       0.07637517 0.034325913 -0.07921759 0.2654844
000260 d6 0e 94 3d 5e 42 29 3c 03 44 93 bd e4 7c e7 bd
       0.07229392 0.010330765 -0.071907066 -0.11303118
000270 43 c0 97 3d d9 d6 e9 3d b6 77 0f be 79 6d 0a be
       0.07409718 0.11417932 -0.1401051 -0.13518323
000280 a3 32 d5 bd 07 8a 34 3c a7 31 3c 3e 07 b7 79 3e
       -0.10410049 0.011019236 0.18378316 0.24386226
000290 a1 80 a7 bd 6f dc 4d 3e 59 d8 55 bd 35 e9 3f 3e
       -0.08178831 0.2010362 -0.05220828 0.18741305
0002a0 9f c2 8b bc b4 8d 3b 3e e9 c5 35 3e 91 f2 a3 3d
       -0.017060576 0.18315774 0.17751278 0.0800525
0002b0 6c 31 50 bd c0 a0 24 ba d8 44 16 3d 99 60 46 3d
       -0.050828382 -0.0006280057 0.03668675 0.048431966
0002c0 bd 26 59 bd f1 2d 22 3e 91 76 c5 3d c1 a6 e2 3d
       -0.05301546 0.15837838 0.09641755 0.11066962
0002d0 16 01 20 3d 64 54 73 3c 23 b9 b9 3c 54 ba 84 3d
       0.039063536 0.014851663 0.022671288 0.06480852
0002e0 5f 92 76 3d 96 c6 81 bd 9c b0 ee 3c 54 7a a7 3c
       0.060198184 -0.063367054 0.029136948 0.020444073
0002f0 9a 78 4a 3d 1b 6f 6b 3d cc dd 6c be f3 7a 0a 3c
       0.04943142 0.057479005 -0.23131484 0.008452165
000300 17 24 8e bc ad bb b1 3d b3 f6 8a bd 5e 78 4e 3d
       -0.017351193 0.086783744 -0.067853354 0.05040776
000310 2a 75 fb bd 40 fe 47 bd 36 c0 20 be b9 7a d0 3d
       -0.12278207 -0.048826456 -0.15698323 0.101796575
000320 cd 7f 49 3d 61 3a 9a 3d a7 9e a6 bd 78 63 91 bd
       0.049194146 0.07530666 -0.08135729 -0.0709905
000330 8e 77 b4 3d 7c b0 c5 bd 4f 03 c5 3d da 88 c1 bd
       0.08811866 -0.09652802 0.09619772 -0.094499305
000340 21 d5 66 3d 41 42 dc bd 72 d9 d0 39 54 88 f7 bd
       0.0563556 -0.107548244 0.0003983486 -0.120865494
000350 cd 46 71 bd 85 43 ed 3d 5e 8a 88 3d 82 2e 73 3d
       -0.05890541 0.11585144 0.066670164 0.059370525
000360 18 8d 92 3d 10 26 a5 3c 70 b4 fe 3d 94 ae ed 3c
       0.07155818 0.020159751 0.124367595 0.02901391
000370 93 d1 da 3d e7 a1 2f 3e 82 bb 1c 3e 2f 7b bb 3d
       0.10684504 0.17151605 0.15305904 0.09154355
000380 b0 0d a9 bd 04 2d f7 bc 97 ae d0 bd e7 3b 24 3e
       -0.08254564 -0.030172832 -0.1018955 0.16038476
000390 2f e5 03 be 84 16 77 3c b3 1c 3f 3b b1 21 2b 3e
       -0.12880395 0.015081052 0.0029161393 0.16712071
0003a0 a3 e3 95 bd 8c 21 55 bd 1a 77 c6 3d 34 1e 05 bd
       -0.07318809 -0.052033946 0.096906856 -0.032499507
0003b0 f7 ec a7 bc 6e a2 92 bd 9a a6 2b 3e 0f 2d fc 3d
       -0.020498736 -0.07159887 0.16762772 0.12313282
0003c0 dd bd 8f bd d7 9d 0c 3e 49 78 71 bd 68 5d 8c 3d
       -0.070186354 0.13732086 -0.058952603 0.06853753
0003d0 05 31 7f bb 49 35 9d bd 7c 73 11 bc c5 be 8a 3d
       -0.003893913 -0.07676179 -0.008877631 0.06774668
0003e0 df 8e 24 3d 6e 4a db bd 37 91 2f bd fe 4f aa bd
       0.040175315 -0.10707556 -0.042863097 -0.083160385
0003f0 36 e7 9e bd f3 cc b3 3d bb c4 8b 3d 36 c8 20 3d
       -0.07758944 0.08779325 0.06824633 0.039253436

fc3.bias f4 [50]
000000 32 3c a3 3d ec 30 84 3c 0a 80 78 3d 72 02 99 3c
       0.07970466 0.016136609 0.060668983 0.018677924
000010 e7 59 4e 3e 01 a1 36 3d e8 14 34 3e d2 bf 1f 3d
       0.20151483 0.04458714 0.175861 0.039001293
000020 99 7e fe 3c e1 36 52 3e 58 94 04 bd 36 2a 5d 3d
       0.031066226 0.20528747 -0.032368034 0.053995334
000030 66 a8 ee 3c 58 33 94 bd c8 52 b0 bc 1d e2 f8 3d
       0.029133033 -0.072363555 -0.021523848 0.12152503
000040 04 39 aa 3d a0 e8 16 3e 12 3a c1 3d aa 07 58 3e
       0.08311656 0.14737177 0.09434904 0.21096674
000050 ed 7a 2f 3e 1c 50 d5 3d 4f 9c de 3d be 7e 82 3d
       0.17136736 0.1041567 0.10869657 0.063718304
000060 41 be 15 3e 9b 10 89 3d 40 c0 1b bc 94 4c cc 3d
       0.14623357 0.0669262 -0.009506285 0.099755436
000070 08 06 9b 3d fb 0f 98 3d 24 c4 04 3e f3 a1 0d 3e
       0.0756951 0.07424923 0.12965447 0.1383131
000080 75 e3 11 3e 06 63 f3 3b a1 6c 03 bd 4f 65 df 3d
       0.14246924 0.007427576 -0.03208602 0.10907995
000090 14 64 8a 3d b5 71 b7 3c c2 6a ca 3d 29 12 30 3e
       0.0675737 0.022393087 0.09883644 0.17194428
0000a0 e4 88 41 3d 14 9c b6 bc f8 dc 09 3e b6 61 39 3e
       0.04724969 -0.02229122 0.13463199 0.1810368
0000b0 11 50 d7 bb 51 d5 bc bd 23 cb fd bc 35 dc 0d 3d
       -0.006570824 -0.092203744 -0.030980652 0.034633834
0000c0 a2 ee bc 3d 34 23 02 3e
       0.09225203 0.12708741

fc1.weight f4 [50, 7]
000000 27 6f 8e be af 32 92 3e 64 cc dc 3e 83 41 2e 3e
       -0.27819178 0.28554294 0.43124688 0.17017178
000010 39 80 e0 be 96 d2 03 3d f0 35 4b be 20 fd 88 be
       -0.43847826 0.032183252 -0.19844794 -0.2675562
000020 da 39 07 be 4d 45 a5 be b5 5d bd be a4 c2 f4 bd
       -0.13205662 -0.32279435 -0.36985555 -0.11951187
000030 91 a1 be bd 57 6e b4 be 28 69 bf bd 21 42 35 be
       -0.0930816 -0.35240433 -0.09346229 -0.17701007
000040 d7 1c 94 bd 35 57 8e 3e da da b8 3e 36 65 b4 3c
       -0.07232063 0.2780091 0.3610447 0.022020917
000050 2f 1a 17 be 95 e3 be bd 77 49 b8 3e 2e 0a d8 be
       -0.14756082 -0.093207516 0.3599355 -0.42195266
000060 fd ad 8b 3d ca 5c 3d be 71 2a 4d bd 16 54 ab bd
       0.06820295 -0.18492427 -0.050089303 -0.083656475
000070 5e 76 86 be 56 25 67 be ed f0 3e be 78 31 eb be
       -0.26262182 -0.22572836 -0.18646593 -0.4593618
000080 10 8a d1 3e 53 fa a5 bc c8 32 46 3e c6 24 b7 3e
       0.40925646 -0.020260965 0.19355309 0.35770243
000090 eb bf 70 3e 5d a3 11 3e 79 ee af 3e 80 21 96 3d
       0.23510711 0.14222474 0.34361628 0.07330608
0000a0 48 f9 79 bd c1 ed 0b 3e b7 57 80 bd 3e 7e 29 be
       -0.06102875 0.13664915 -0.0626673 -0.16552064
0000b0 e4 c2 f2 3c 0a 92 c3 3e cf de 39 3e 16 87 13 3e
       0.029633947 0.38197356 0.18151401 0.14407
0000c0 c5 96 27 3e 29 83 58 be e8 5f a1 3e c2 9f 33 3e
       0.16366108 -0.21143784 0.31518483 0.17541412
0000d0 9e 19 0b be 21 3e cf 3b b3 fa 3e 3e b7 32 dc bd
       -0.13583991 0.006324545 0.18650322 -0.107518606
0000e0 7d 3a 91 3c 4b 2c 2e 3e 71 a8 b5 be 97 d8 bb 3d
       0.017728085 0.17009084 -0.35480073 0.091721706
0000f0 29 ff 1c 3e b7 ec 59 3e a3 15 94 be b4 6a 86 be
       0.15331711 0.21281706 -0.28922758 -0.26253283
000100 7d e7 57 3e b2 b1 be 3e 5d ba ae 3e 55 35 04 3e
       0.210844 0.37244946 0.3412656 0.1291097
000110 86 e2 df bd ec 27 4f 3d 30 fb 05 bf 14 5b 8a bd
       -0.10931878 0.05057518 -0.52336407 -0.06755653
000120 2f e8 61 3e be d7 65 be 1d b9 b9 be 50 2b 87 3e
       0.22061227 -0.2244558 -0.36274043 0.26400232
000130 71 a6 49 bd e2 11 bf be f5 ac 5d bd 03 be 9d 3e
       -0.049230997 -0.3731833 -0.054120023 0.3080903
000140 20 43 93 3e b6 14 df 3d e9 c5 13 be c8 e7 ba be
       0.2876215 0.10892622 -0.14430965 -0.3650496
000150 a0 fb c9 3e ce aa 5d be ed 95 7a bd 44 8e 53 be
       0.39449787 -0.21647188 -0.061178137 -0.20659739
000160 38 07 75 be 57 da ba be 0b e0 67 3e 1c a1 88 be
       -0.23928535 -0.36494705 0.2264406 -0.26685417
000170 5e b0 8f 3d 01 c0 30 3e a9 e0 8c 3e 92 10 d2 be
       0.07016061 0.17260744 0.27515152 -0.41028267
000180 c0 b8 01 be 66 d0 da be c0 28 cb be e8 80 8a 3e
       -0.12668133 -0.4273712 -0.39679527 0.27051473
000190 94 93 67 3e ae 8f 29 bd e8 b9 78 be cf 87 ad be
       0.2261489 -0.04139679 -0.24289668 -0.33892676
0001a0 82 a4 b9 3e f9 29 bd 3e 2f de 0b be 70 f4 ce bd
       0.36258322 0.36946085 -0.13658975 -0.101052165
0001b0 48 2b 68 be 8f 26 89 3e 66 02 05 be 4f d7 32 be
       -0.2267276 0.2678723 -0.12989196 -0.17464946
0001c0 b6 a4 a7 be 29 13 c0 be 3a d9 93 3d d5 fa d3 3e
       -0.32742852 -0.37514618 0.07219167 0.41402307
0001d0 2d 77 93 be 88 c0 a3 3e fe 2f 56 3e 0d 00 fe bc
       -0.2880186 0.31982827 0.20916745 -0.031005884
0001e0 d1 69 7d be 81 19 7b 3e 34 5d 98 3e b2 21 c3 3e
       -0.24747397 0.24521448 0.29758608 0.38111645
0001f0 7c ea ae 3e bd 10 9c 3d 32 05 fc bd c5 f5 6c 3e
       0.34163272 0.0762038 -0.123056784 0.23140629
000200 12 28 b1 bd 66 71 a1 bc 0f 53 60 3e 46 45 24 3e
       -0.08650221 -0.019707393 0.21906684 0.1604205
000210 68 b4 02 3d 4d bf 22 bf c5 85 b7 3e e2 e0 29 bc
       0.03191033 -0.6357315 0.35844246 -0.010368558
000220 ce a1 27 3e 3f bf cf bd 52 44 15 3d 34 ac 90 3d
       0.16370317 -0.10143899 0.03644211 0.07064095
000230 ab d2 43 be cb 17 a9 3d 51 52 06 3c 50 3b c7 3e
       -0.19123332 0.08256491 0.008198337 0.3891244
000240 52 4a 07 be c2 2d 46 be 20 32 01 be ad 55 2b 3e
       -0.13211945 -0.19353393 -0.12616777 0.16731901
000250 5f ed 82 be 92 76 50 3e 1b d8 cf 3d 26 69 a7 be
       -0.25571725 0.20357731 0.10148641 -0.3269741
000260 22 be 8a 3d dc 15 3f be 98 64 23 bf c0 c9 86 3c
       0.06774546 -0.18660682 -0.6382537 0.016453624
000270 39 88 48 be 85 1a b0 3e 64 00 7d 3e 52 1b be bc
       -0.19583215 0.34395233 0.2470718 -0.023206387
000280 a8 36 66 3d 96 02 bd 3e 6c 94 43 3e dc 1a 25 be
       0.056204468 0.36916035 0.19099587 -0.16123527
000290 e7 44 d6 be 38 bc 6d be 4a ce 22 bd d3 09 59 3c
       -0.41849443 -0.23216331 -0.039747514 0.013246971
0002a0 a6 d0 a1 3e a9 67 1f bc 6d 40 4c 3e 91 f1 72 3e
       0.316045 -0.009729304 0.19946451 0.23724963
0002b0 83 ee 87 be 8a 5b fe bd ed 1d 7e 3d e9 7a ca 3e
       -0.26549158 -0.124198034 0.06204026 0.39546898
0002c0 a1 1f 3b 3e 8a fa 84 be f1 df 1e bc e8 2a 09 3e
       0.18273784 -0.25972396 -0.0096969465 0.13395274
0002d0 66 65 15 3e 98 5d 86 3e 23 a8 b2 bd cd 96 c6 3d
       0.14589462 0.2624328 -0.08723476 0.09696732
0002e0 7f 21 5a be ec 9d 80 3e fe a8 aa b9 b1 8a b2 be
       -0.2130184 0.25120485 -0.00032550836 -0.34871438
0002f0 06 5d 07 be bb 97 f2 bc 8b 0f a8 3e 66 9e 05 bc
       -0.1321908 -0.029613366 0.32824358 -0.008155441
000300 12 63 80 be 71 70 d4 be a5 5f b6 be 11 71 9a 3e
       -0.25075585 -0.41492036 -0.35619846 0.30164388
000310 b0 9c 2a 3e ba e1 c6 be a5 b3 46 3b 85 11 82 3e
       0.16661334 -0.3884409 0.0030319479 0.2540399
000320 38 0c 5b 3d a4 e8 b0 be 66 2c 8c 3e 07 da 8f 3e
       0.05347845 -0.3455249 0.27377623 0.2809603
000330 2a 0e ad be c3 ac d6 be 04 ef 98 be 4e 6f 15 3e
       -0.3379987 -0.41928682 -0.29869854 0.1459324
000340 2b d7 5a be 45 85 ba 3e 3c 18 5b 3e 99 51 9f be
       -0.21371143 0.36429802 0.21395963 -0.31116942
000350 b0 88 e1 be cb a4 35 be b1 e5 45 be bc df 54 3e
       -0.44049597 -0.17738645 -0.19325902 0.20788473
000360 64 e0 1c bd d8 41 9e bd 04 e0 bc bd 62 95 c7 3e
       -0.038299933 -0.077274024 -0.09222415 0.38981158
000370 f1 df cb 3e 62 4f d6 be e4 c3 ad 3c 5a 10 8f be
       0.3981929 -0.4185744 0.021211572 -0.27942163
000380 0a 3c 12 bf d5 fd ca 3d b3 2d ab 3e 60 4b 31 3d
       -0.5712286 0.09911696 0.33433303 0.043284774
000390 57 74 0e 3c 35 94 2c 3d 56 b8 b1 3d ec dc 72 be
       0.00869473 0.04213353 0.086777374 -0.23717088
0003a0 ff 25 4d be e7 b3 f3 be 14 9f 6b be b1 e3 96 be
       -0.20034026 -0.47598192 -0.23009902 -0.2947059
0003b0 3a 2f d6 be 49 3a 0c 3e c3 72 52 bd 3b c1 e3 be
       -0.41832906 0.13694109 -0.051378977 -0.4448336
0003c0 0d 4b 70 be 29 a6 b5 bd 37 5b 96 bc be 8c a5 3e
       -0.2346613 -0.08869583 -0.018354042 0.3233394
0003d0 2f 36 9f 3e 33 62 eb 3d cd 3b e3 be d7 0d 8d bd
       0.31096026 0.114933394 -0.44381562 -0.06887405
0003e0 fe 4b 05 3e d3 e3 09 3e 98 cf 35 be da 2b 54 3c
       0.1301727 0.13465814 -0.17754972 0.012949908
0003f0 72 eb 6e 3d c9 fd c8 3e 53 c6 8d be 6e 3c 96 be
       0.058330007 0.39256123 -0.27690372 -0.2934298

fc1.bias f4 [50]
000000 b9 2c b7 be 76 27 67 be 3d 5d 14 bc 5b f3 fa 3d
       -0.35776308 -0.22573647 -0.009055433 0.122534476
000010 ca a0 ec 3e 57 e2 c0 3d 73 f5 b0 bd 66 7c d1 3e
       0.46216422 0.09418171 -0.08640566 0.4091522
000020 13 e1 43 be bc 28 48 3d a3 ec 21 be 94 e1 44 be
       -0.19128828 0.048866972 -0.15812926 -0.19226676
000030 2f 1f 0c 3e 1c 43 6b 3e e0 7e 6f 3c 46 aa f9 bc
       0.1368377 0.22974819 0.014617652 -0.0304767
000040 91 ba 85 be f6 ed d7 3e 04 1d ba 3d 1a b3 b7 3d
       -0.261189 0.42173737 0.090875655 0.08969708
000050 71 15 2f bd e3 f9 78 3d 31 67 bf 3e 34 ee b5 bd
       -0.042745057 0.060785186 0.37383416 -0.08883324
000060 6d a1 af 3e 1b d2 73 3e 88 63 27 3e 44 9e 52 3d
       0.34302846 0.23810618 0.16346562 0.051420465
000070 42 52 ed bb 69 bf b4 bd 20 f7 8f 3d 10 d4 ce bd
       -0.007242472 -0.08825571 0.07029557 -0.100990415
000080 45 d9 05 bd fc f1 01 be 65 61 85 3e 6d a3 59 be
       -0.032677907 -0.12689966 0.2605087 -0.21253748
000090 97 76 e7 bd 22 dd f1 bc 76 e5 4b 3e 19 2c c5 3e
       -0.11301916 -0.02952439 0.19911751 0.38510206
0000a0 d1 89 b2 3e ad 94 2e be ff 29 30 3d 41 27 d2 3d
       0.3487077 -0.17048903 0.0430088 0.10261393
0000b0 b5 95 4d bd 15 9f 9a be ac 78 10 bc a8 15 83 be
       -0.0501916 -0.30199495 -0.008817833 -0.2560246
0000c0 ba 1a fe bd 89 ce 30 3e
       -0.124074414 0.17266287

fc2.weight f4 [50, 50]
000000 f4 22 7c 3d e3 99 61 3a 15 c4 61 3d 50 ba b5 bd
       0.06155677 0.0008606 0.05511864 -0.08873427
000010 e5 69 3a 3e 9f 50 83 3d 1e 8f d6 bd 27 f1 d7 bc
       0.18204458 0.06411862 -0.10476516 -0.026360108
000020 89 f8 8d bc 43 12 47 be 8c a8 5b be 93 d3 59 be
       -0.017330425 -0.1944056 -0.21451014 -0.21272115
000030 5f 98 69 3d 9f 5d 95 3c 03 b3 a0 bd c4 a7 c6 3d
       0.057030078 0.018233119 -0.07846644 0.096999675
000040 50 ca 2c be 2d 7a 00 3d 0e bf 4f bd 18 88 cd 3d
       -0.16874051 0.031366516 -0.050719313 0.100357234
000050 e0 f7 77 3d cb 73 87 3e 11 63 0d be eb 25 18 3e
       0.060539126 0.2645553 -0.13807322 0.14858215
000060 ab a0 94 3c 6d d9 28 3c cc 03 8f bd fe c4 60 be
       0.018143019 0.010305745 -0.06983146 -0.21950147
000070 20 59 61 be 75 bc b4 bb e1 8c 0d bd f7 25 03 bd
       -0.22006655 -0.00551563 -0.03455818 -0.032018628
000080 44 a1 75 3d 99 1d 57 3d 67 fb 26 be 1f 95 21 be
       0.059968248 0.05251846 -0.1630684 -0.15779541
000090 d9 2a 81 bd f0 fb 16 be 4c 55 57 3d 1a 08 f4 3c
       -0.06307001 -0.14744544 0.05257158 0.02978902
0000a0 c3 6e b6 bc d1 74 fa 3d f5 84 09 be fc d3 1a be
       -0.022269612 0.12229312 -0.13429625 -0.15119928
0000b0 e7 52 bc 3d e8 30 8c bd 84 f9 ba 3d f7 c8 c4 bc
       0.091955 -0.068452656 0.091296226 -0.024021609
0000c0 a7 26 0f 3c ad 69 70 3d b8 d4 8b 3d 0f 77 e1 3d
       0.008737243 0.05869453 0.06827682 0.11009037
0000d0 a2 99 3a 3e 15 85 f3 3d 25 4e 9d 3e 4a 8f af bd
       0.18222669 0.11890618 0.30723682 -0.08572252
0000e0 ba a9 82 bd 62 7c 30 3e 20 6c fd 3d 8e c5 3e bd
       -0.06380029 0.17234948 0.12374139 -0.04657512
0000f0 e5 0d c5 bd e5 1b 46 be 6e 14 32 be 2f 98 f8 3d
       -0.09621791 -0.19346578 -0.17390606 0.12138402
000100 88 45 10 3d 34 4e ab 3d b9 2c 69 3b 7e e9 0f bd
       0.03522256 0.083645254 0.0035579635 -0.035134785
000110 2d a4 aa 3d c2 3e cc bd 4c f0 46 be 24 c7 3b bd
       0.08332095 -0.099729076 -0.19427603 -0.045844212
000120 f0 2c 59 bd 89 5e c3 bd de fa c7 bb f5 ad e6 3d
       -0.05302137 -0.095395155 -0.0061029037 0.112636484
000130 1b 91 04 3e 5e f0 e1 bb d6 18 64 3d 2d 30 5a bd
       0.12945978 -0.006895109 0.055687748 -0.0532686
000140 eb 7b 41 be af f4 a2 bd 2d f5 32 be da 16 ce bd
       -0.18894927 -0.07956826 -0.1747634 -0.10062952
000150 90 34 0f be 3a ae 34 be 39 64 f9 3a e3 d3 a4 be
       -0.13984895 -0.17644587 0.0019027061 -0.32192907
000160 b5 7f 09 3e 21 6a 00 3d b8 32 35 3a 39 30 8e 3d
       0.13427623 0.031351212 0.000691216 0.069427915
000170 35 54 e4 bd 89 37 93 3d ba 1f 13 be a5 1d 72 be
       -0.11148874 0.07188327 -0.14367571 -0.23644121
000180 16 0d e9 bc 40 3c af 3c 36 07 31 bd 7d a9 e0 3d
       -0.028448623 0.021391034 -0.043219768 0.10969827
000190 ff a4 ba bd 7f 68 68 bd d2 b5 28 3d 94 4c 50 bd
       -0.09113502 -0.05674028 0.041189022 -0.05085428
0001a0 8c 31 f1 bd b4 f9 0c be 8e d6 9b bd f6 79 89 3d
       -0.117770284 -0.13767129 -0.076092824 0.06712715
0001b0 15 d8 eb bd e8 e4 0a 3e 2d e9 ed 3c 9d ca 81 bd
       -0.11515824 0.13563883 0.029041851 -0.063374735
0001c0 14 31 a7 3d 29 9f d1 bd 24 fb 96 bd 96 45 bb bd
       0.08163658 -0.102354355 -0.0737212 -0.09144132
0001d0 1c 95 0d be da b5 98 bd 69 2d 02 be 71 b5 53 3d
       -0.13826412 -0.074565604 -0.12712635 0.051686708
0001e0 74 fa 08 3e f2 91 a8 bd 90 16 0c be 87 46 cc 3d
       0.1337679 -0.08230962 -0.13680482 0.099743895
0001f0 8e 46 98 bd 61 8a 62 bd 51 65 c3 bd 66 ce aa bd
       -0.07435332 -0.05530775 -0.09540809 -0.08340149
000200 38 39 c3 bd f2 e9 6e bd 1b 74 82 3c a9 14 04 3d
       -0.09532398 -0.058328576 0.015924504 0.032246266
000210 75 ee 88 3d 7e 56 e4 3d dd 7f 88 3d b1 7c 54 bd
       0.06686107 0.111493096 0.06665013 -0.051876727
000220 fe 7c 5b 3d 2f 29 f8 3d 50 9e 04 bd ac 2c cd bc
       0.053586 0.1211723 -0.03237754 -0.025045715
000230 f3 bf 23 3d f3 66 07 bd 58 0c b0 bc da 3a bf 3c
       0.03997798 -0.033057164 -0.021490261 0.023343492
000240 4c 76 09 3e 2e a5 3d bc 6c bc 01 be ff a7 83 3c
       0.13424033 -0.011575026 -0.12669533 0.016071318
000250 2b 4a ef bd ef 43 01 3e 8a 82 38 3e 3f 6f 1b bd
       -0.11684068 0.12623571 0.18018547 -0.03794789
000260 fd 64 19 bd e5 64 0a 3e 09 2f d5 bd 1e 0a 8b bc
       -0.037449826 0.1351505 -0.10409362 -0.016972598
000270 52 a1 94 bd 9e 64 de 3d b3 2d f4 bd 94 f0 05 be
       -0.07257332 0.10859035 -0.11922779 -0.13080055
000280 fd 4e 5b 3c 1a a7 e0 bc a1 d0 39 be c1 3d 20 3e
       0.0133855315 -0.02742343 -0.18145992 0.15648557
000290 bb 6a b7 bd 25 65 e7 bb a7 09 53 be 76 86 35 3d
       -0.08955904 -0.007061618 -0.20609151 0.044317685
0002a0 e3 21 e9 3d 5b 47 66 3e 8d 2f 9e 3d 6f a7 c4 3c
       0.113834165 0.22488157 0.07723913 0.02400562
0002b0 bc a9 a0 39 c9 fc 9e bd 28 da d6 3c 6d 35 b3 3d
       0.0003064404 -0.07763059 0.026227072 0.087504245
0002c0 b9 af 09 3d 96 5a 08 3d 62 41 92 3d 60 8d 0b be
       0.033614848 0.033289514 0.07141377 -0.13628149
0002d0 e1 da fb bd c9 a4 96 3d d4 df cc bb d6 88 26 3e
       -0.12297607 0.07355649 -0.0062522683 0.16263136
0002e0 e8 94 40 3c 7b 95 d8 3b f4 a4 9d bd 29 19 9f bc
       0.011754252 0.0066096163 -0.07697478 -0.019421177
0002f0 0b 54 37 bc 0f 37 c0 bd 54 e5 19 be 2a bf a3 bd
       -0.011189471 -0.093855016 -0.15028888 -0.07995446
000300 a7 b1 26 bd 0a 49 db 3d 99 8f 0e be c0 f6 07 3e
       -0.040696766 0.107072905 -0.13921966 0.13277721
000310 88 7e c1 3d 45 ef e7 bd 42 cd fa 3d df be c5 bc
       0.09447962 -0.11324934 0.12246181 -0.024138866
000320 96 fe 85 bd 57 f3 35 bd d6 99 70 3d 18 4b ab bd
       -0.06542699 -0.04442152 0.05874046 -0.08363932
000330 80 1d 98 bd b3 3b a4 3d 4f 7b 37 3d 1d ac 93 bd
       -0.07427502 0.08019199 0.04479533 -0.072105624
000340 d5 19 a2 bc c2 cf e6 3d 0a 07 77 be 41 85 22 be
       -0.019787708 0.112700954 -0.24123779 -0.15871145
000350 de e1 40 3c 7e c1 df bd 74 ec 9f bd 07 1d 43 3e
       0.011772601 -0.109255776 -0.07808772 0.19054042
000360 84 3c 0e 3e 6f 15 ba 3d 44 f7 2d 3e 69 cd cc be
       0.13890272 0.090861194 0.16988856 -0.40000466
000370 f7 d3 0f 3e bf 51 30 3e e6 cb 44 be 11 3b 73 3d
       0.14045702 0.17218684 -0.19218406 0.059382502
000380 ce bf 8b 3e 1d d7 e7 3d 26 3b 62 3d d0 76 dc 3d
       0.27294773 0.113203265 0.05523219 0.10764849
000390 b5 46 0b 3e 2f 16 94 bd 97 36 08 3e 57 8a 19 3e
       0.13601191 -0.07230794 0.13302074 0.14994179
0003a0 13 fc ee be 87 a5 8e 3e 9f 5b bf 3d 56 a4 33 3e
       -0.46676692 0.27860662 0.09343647 0.17543158
0003b0 80 90 30 bd 95 65 19 3e c9 9f 80 3d 51 ef 4e 3d
       -0.043106556 0.14980157 0.062804766 0.0505212
0003c0 81 e1 05 bc e5 d3 6c bd 9d eb 69 3d 7f 2f 95 be
       -0.00817144 -0.057819266 0.057109464 -0.291378
0003d0 6c 83 05 3e 7c 6b 46 3d b0 3a 72 3d 57 04 b0 bd
       0.13038415 0.04844235 0.059138 -0.08594578
0003e0 7f b8 51 3e 91 d3 2e 3e e3 b2 06 be 0c 91 6b bd
       0.20480536 0.17072894 -0.13154177 -0.057511374
0003f0 3d 3b a6 3c d5 2b 37 3d 3a 58 f3 3c 74 83 06 be
       0.020291919 0.044719536 0.029705156 -0.13136083

fc2.bias f4 [50]
000000 a9 5f e2 3c ac 63 15 3e 03 47 b6 bd 3a 1b d0 bd
       0.027633505 0.14588803 -0.08900263 -0.10161443
000010 74 82 85 3d 88 8d 8a bd 10 87 22 3e c7 e7 28 be
       0.065190226 -0.06765276 0.15871835 -0.16494666
000020 8b c8 35 3d 15 de df bd 7a f8 05 be 7f f3 7e 3d
       0.044380706 -0.10931031 -0.13083068 0.062243935
000030 ec 09 8c 3b 0c 3f 8b 3c 06 23 2a 3e 89 d3 ed 3c
       0.0042736437 0.016997837 0.16614923 0.029031532
000040 ac 83 47 bc b0 77 9d bb 5e 52 7b bc 1b 2f 49 3e
       -0.012177389 -0.0048055276 -0.015339462 0.19646876
000050 a3 69 9a bc b3 b6 43 3e c3 ae 58 bc de a5 bf bb
       -0.0188492 0.19112663 -0.01322526 -0.0058486303
000060 fb fb 5c 3d 81 de 2f bd ec 9a f1 bd 65 32 30 3d
       0.053951245 -0.042936806 -0.11797127 0.04301681
000070 84 66 65 3e 33 9c f7 bd fe af 97 bd 29 1a 33 bd
       0.22402388 -0.120903395 -0.07406615 -0.04372612
000080 43 b9 29 3e 69 f4 4b 3d 37 a6 4e 3e 4d 11 5f 3d
       0.16574578 0.049793635 0.20180593 0.05445986
000090 20 6b 4c bd 70 d5 1f be 17 08 81 3d 9c 24 f6 bc
       -0.04990685 -0.15608764 0.06300371 -0.030046754
0000a0 a6 ad c2 3c 69 7f b5 3d 4e f0 83 bb 7c 72 d4 bd
       0.023764443 0.08862192 -0.0040264493 -0.10373399
0000b0 3d e5 c9 bd 72 c9 2f 3d 02 82 02 be f1 06 af bd
       -0.09858177 0.042916723 -0.12744907 -0.08546246
0000c0 cc 7d 85 3d 2c 8c e2 bd
       0.065181345 -0.11061892

fc3.weight f4 [50, 50]
000000 85 ce 54 bd 74 f7 61 bd 95 67 90 3b 4e 60 ca 3c
       -0.051954765 -0.05516763 0.004406879 0.024704125
000010 6f 9e b5 3d 80 00 81 bc e3 40 e9 bb 4f df 09 be
       0.088681094 -0.015747309 -0.007118331 -0.13464092
000020 3f 3a f7 3d 17 e1 e0 bd 29 0d b9 3d f0 80 12 bc
       0.120716564 -0.109804325 0.09035713 -0.008941874
000030 eb 70 4c bd f4 28 23 3e dd 97 5b bd b2 3a e0 3d
       -0.049912374 0.15933591 -0.053611625 0.10948695
000040 8f ef b6 3d bd a4 70 bc 8f aa 0a 3d 36 a6 b2 bd
       0.08932411 -0.014687714 0.033854064 -0.087231085
000050 70 6c f3 3d 7f 44 20 bc 51 1f a1 3d d5 c2 0b 3e
       0.11885917 -0.009781956 0.07867301 0.13648541
000060 5d a4 5d 3d 79 59 12 3d 8c c6 d5 bd dd 9b 15 bc
       0.054111827 0.03572986 -0.104382604 -0.009131399
000070 a0 ad ef 3d c6 65 19 3d 1a 99 07 bd 0f f2 b1 bc
       0.11703038 0.037450574 -0.033104993 -0.021721868
000080 03 9f 9d 3d 87 cd c0 3c 2b b7 26 3e 4a 04 36 be
       0.07696345 0.023535503 0.1628081 -0.17775074
000090 b6 68 f8 3d 0f 15 f9 3d 89 16 b5 bc 1c 8d 54 3e
       0.12129347 0.1216222 -0.022105472 0.20756954
0000a0 2d 70 a0 bd 58 3d 95 3d 84 7a 20 3d 0d c6 da bb
       -0.07833896 0.07287091 0.03917934 -0.0066764415
0000b0 b0 d7 90 3d 9f cd 36 3e b8 01 6c 3d 22 87 ef bd
       0.07072389 0.17851876 0.057618827 -0.116956964
0000c0 2b e2 b0 3d 69 6a dc bc 1a db 74 bd 97 a8 81 bd
       0.08636888 -0.026906209 -0.059779264 -0.06330984
0000d0 c5 cb 0d be 27 2a 91 bd bc 12 b4 3d c0 28 eb bc
       -0.13847263 -0.07088118 0.08792636 -0.028705955
0000e0 22 1c ae 3d 6e 89 68 bd 82 44 41 3c f0 82 1c 3d
       0.0850146 -0.05677169 0.011796119 0.03821081
0000f0 36 c6 df 3c 9f 44 e8 3d f8 17 28 bd ea 63 68 3e
       0.027316194 0.113412134 -0.041038483 0.22694364
000100 cf 84 cd bd 92 26 29 bd 08 b7 ce b9 fa 58 02 3d
       -0.10035097 -0.04129655 -0.0003942775 0.031823136
000110 bb ac e6 3d c4 bd 8e 3d 3c 8d 05 bc ba f6 18 3e
       0.112634145 0.06969789 -0.008151349 0.14937869
000120 50 7e ba 3d 66 79 b3 3d 6f ef 0c bd 05 77 80 3e
       0.091061234 0.08763389 -0.03440803 0.25090805
000130 ca 90 0c 3d 59 02 5b 3e 81 fd 98 3d 68 d4 ab 3c
       0.03431777 0.21387614 0.07470227 0.020975307
000140 bb 98 f3 bd e7 ac 62 bd d7 b4 5a 3d 29 2e 9f bd
       -0.118943654 -0.055340674 0.05339512 -0.07772476
000150 ab 01 2d 3e de f3 d1 3d 08 ea ff 3d 0d 91 e0 39
       0.16895168 0.10251592 0.1249581 0.0004283268
000160 55 27 2f be 45 76 5e 3e a4 90 fa ba e7 06 5c 3e
       -0.17104848 0.21724804 -0.0019116593 0.21487008
000170 d3 72 42 3d 79 98 4a bd eb 5a bf 3d 34 a8 93 be
       0.047472786 -0.049461816 0.09343513 -0.28839266
000180 5f f0 2d 3c 01 78 df 3d db 62 a7 bd f5 f1 98 3d
       0.010616391 0.10911561 -0.08173152 0.07468025
000190 ff 01 d9 bd 96 92 84 3c d4 f3 07 3e 93 02 03 3e
       -0.10596084 0.016183179 0.13276607 0.1279395
0001a0 38 4a 05 3e 46 c1 08 bc 09 a8 ec 3c 39 6f af bd
       0.13016593 -0.008346861 0.02888872 -0.08566136
0001b0 cd 14 fc bb cd 2a af bd 2e 9e 99 bc 37 5a af 3d
       -0.0076929093 -0.085530855 -0.018752184 0.08562129
0001c0 fb ee 28 3d b6 b9 02 3d 4b a6 51 bc 74 ed 34 3e
       0.041243535 0.03191539 -0.012795995 0.17668706
0001d0 33 17 09 3e d0 aa 51 3d 6b d0 b5 bd b6 43 a1 bd
       0.13387756 0.05118829 -0.08877643 -0.07874243
0001e0 3c b2 22 bd 3f 44 c3 3c 3b ae 33 be 2e 6a 00 bd
       -0.03972076 0.023836253 -0.17546932 -0.03135126
0001f0 17 31 6e 3d 1b 81 68 3e 39 1d 58 bd 7a 7a a2 3d
       0.058152284 0.227055 -0.052762244 0.07933517
000200 4a c6 47 3e 86 79 87 be da 8b e5 3c 8c 98 8d 3d
       0.19509235 -0.26459903 0.028020788 0.06913862
000210 57 3b 6c 3d 88 9e 25 bd 03 4f c2 3d 33 ce 37 3e
       0.05767378 -0.04043439 0.094877265 0.17949753
000220 f7 86 72 3c 17 e3 5b bd f3 c9 d1 bd f1 27 ae bd
       0.014802686 -0.053683367 -0.10243597 -0.08503712
000230 8c 1e 2b 3e df 44 a8 bd 81 a9 9c 3d 31 5b f0 bd
       0.16710871 -0.08216261 0.07649518 -0.117361434
000240 84 d0 56 3e 0f e4 b6 3d 9f a3 aa 3c 18 08 62 3a
       0.2097798 0.089302175 0.020829974 0.0008622422
000250 68 85 87 3d 22 89 0c 3d f1 79 9d bd 11 b7 79 3e
       0.06617242 0.034310468 -0.07689274 0.2438624
000260 e8 05 94 3d e6 62 0d 3c d5 74 ab bd 04 70 e7 bd
       0.07227689 0.008629536 -0.08371893 -0.11300662
000270 49 ec 85 3d 97 77 eb 3d d1 76 0f be 20 64 02 be
       0.065392084 0.11497419 -0.14010169 -0.12733507
000280 36 11 c8 bd c2 53 30 3c 1c 49 33 3e a4 1e 6f 3e
       -0.09768908 0.010762157 0.17508358 0.23351532
000290 df bc 8b bd 51 ae 41 3e 73 a7 88 bd 0c 90 36 3e
       -0.06823134 0.18914153 -0.066725634 0.17828387
0002a0 3b 24 a5 bc f9 73 31 3e 4f c7 2a 3e 59 46 90 3d
       -0.020158878 0.17329396 0.16677593 0.07044668
0002b0 f1 86 fa bc 28 84 a3 bb 7f fc d6 3c ff d9 fc 3c
       -0.030581923 -0.0049901195 0.026243446 0.030865667
0002c0 93 30 59 bd 57 43 25 3e 87 2f ad 3d 32 b5 f7 3d
       -0.05302484 0.1613897 0.08456331 0.12095107
0002d0 aa 32 2e 3d 40 5f 94 3c 64 9b 9a 3c d5 b8 84 3d
       0.042528786 0.018111825 0.018872924 0.064805664
0002e0 3e 1c 5a 3d 70 70 15 bd a0 38 76 3c 7f a3 0d 3d
       0.05324959 -0.036484182 0.015028149 0.03457975
0002f0 ee 59 54 3d 27 20 3d 3d 9e 9b 6c be 65 6a 85 3a
       0.051843576 0.04617324 -0.23106238 0.0010178803
000300 ac 4a a6 3c f3 8a a5 3d ea 76 98 bd e6 e0 30 3d
       0.020299278 0.08083143 -0.07444556 0.04318323
000310 91 8e ad bd 54 fc 2e bd ce dd 27 be f5 89 b3 3d
       -0.08474458 -0.042721108 -0.16393206 0.087665476
000320 27 a1 4e 3d 37 ab 87 3d aa a1 a6 bd 65 e1 92 bd
       0.050446656 0.066244535 -0.08136304 -0.07171897
000330 9b 86 ab 3d 84 b1 c5 bd 60 1a b5 3d 73 1f c4 bd
       0.08375283 -0.09652999 0.08842921 -0.09576311
000340 a0 c4 66 3d 98 3e dc bd bc 78 1e bb eb 53 f9 bd
       0.05633986 -0.10754126 -0.002418085 -0.12174209
000350 39 ae 72 bd a9 0e 8b 3d f7 38 8d 3d 1b 6f 5a 3d
       -0.059248183 0.067899056 0.06895631 0.053328615
000360 f2 bd 86 3d f1 e9 9e 3c bb 00 00 3e 57 19 d3 3c
       0.06579198 0.019398661 0.12500279 0.025768919
000370 6e 3c d7 3d 66 8e 25 3e 4d fb 11 3e e3 99 b5 3d
       0.10509573 0.16167602 0.1425602 0.08867242
000380 93 f6 ad bd 55 01 03 bd aa a4 d0 bd f4 ba 16 3e
       -0.08494296 -0.031983692 -0.10187657 0.14719754
000390 0f 4b 0e be ac 56 57 3c fc 1c a1 b9 a2 bc 2d 3e
       -0.1389582 0.013143223 -0.00030729908 0.16966489
0003a0 71 d5 b9 bd f2 10 55 bd 5a f1 c3 3d fc 2e 10 bd
       -0.09073914 -0.052018113 0.095675185 -0.035201058
0003b0 b7 57 ae bc 3d bc 9a bd 6b eb 2f 3e 33 5d ed 3d
       -0.02128206 -0.07555435 0.17179649 0.11590042
0003c0 91 6e 8f bd 60 e6 d2 3d 9e 80 71 bd 5d 99 85 3d
       -0.07003511 0.10297847 -0.05896055 0.06523392
0003d0 a2 b9 44 bc f3 4b 8d bd 0b 23 11 bc 8b ec 8e 3d
       -0.012007149 -0.06899252 -0.008858453 0.06978711
0003e0 6a 66 2e 3d 2d 49 db bd 1c 49 1b bd 28 c4 54 bd
       0.04257814 -0.107073165 -0.03791152 -0.05194488
0003f0 cb e3 9e bd b0 7b c3 3d 08 30 8c 3d e4 c6 20 3d
       -0.07758292 0.09545076 0.06845099 0.039252177

fc3.bias f4 [50]
000000 bb cf 9c 3d fb bc cb 3c 7a 8c 6d 3d d2 94 a3 3c
       0.07656809 0.024870386 0.057995297 0.019968424
000010 12 2e 4a 3e 74 e0 38 3d 7f a5 38 3e 0f c1 1c 3d
       0.19744137 0.04513593 0.18031882 0.038270053
000020 ad 08 fa 3c ce 79 4a 3e 98 bc c6 bc a5 f5 66 3d
       0.030521715 0.19773027 -0.02425985 0.05638661
000030 bd 7e ee 3c 71 38 a0 bd 72 e5 c5 bc 70 75 fa 3d
       0.029113168 -0.07823265 -0.02415726 0.12229431
000040 79 23 c5 3d 2b 51 0d 3e dc 94 bf 3d 8e d0 50 3e
       0.096259065 0.13800494 0.093545645 0.20392057
000050 f3 8b 2d 3e 1b 24 cd 3d 2f 91 d6 3d 87 0f 77 3d
       0.16947918 0.10016652 0.1047691 0.060317542
000060 14 87 16 3e 0c 0e 8f 3d fe d5 23 bc 04 ae ba 3d
       0.14699966 0.06985101 -0.00999975 0.09115222
000070 22 4a 92 3d 13 1e 88 3d 5f ef 0d 3e fc dc 04 3e
       0.07143046 0.06646361 0.13860844 0.12974924
000080 64 4b 10 3e df 43 df 3b a5 cd 1c bd 4d ee dd 3d
       0.14091259 0.006813511 -0.038282055 0.10836468
000090 61 5e 8e 3d b1 72 95 3c 92 6e c7 3d 99 d5 2e 3e
       0.06951595 0.018243166 0.097378865 0.17073669
0000a0 e7 70 3e 3d 44 06 ef bc 00 55 05 3e ab 91 37 3e
       0.04649439 -0.029177792 0.13020706 0.17926662
0000b0 f6 9f 4b 3b 14 d3 bb bd fd d7 ef bc 4b 7b 11 3d
       0.0031070686 -0.09171119 -0.029277796 0.035517972
0000c0 bd e6 b6 3d d8 1b 14 3e
       0.089307286 0.14463747
