checkpointing_test/sigmoid_example_s12345/models/eval_checkpoint_checkpoint_200.pt (torch, 95431 bytes, 24 tensors)

fc1.weight f4 [50, 7]
0	0xbebe5540	-0.37174416
1	0xbbb735e6	-0.005591142
2	0xbe87e145	-0.26539055
3	0x3eb27f87	0.3486292
4	0xbe6413e6	-0.22273216
5	0x3e31cb70	0.17362761
6	0xbe5814a8	-0.2110163
7	0x3d5a9ede	0.053374164
8	0xbe96397d	-0.29340735
9	0x3e1d1798	0.15341032
10	0x3e9f34de	0.31095022
11	0x3df10fb0	0.1177057
12	0x3ec8787e	0.39154428
13	0xbe71f7c9	-0.23629679
14	0xbe6546a6	-0.22390231
15	0xbe107b23	-0.14109473
16	0xbebf1183	-0.37318048
17	0x3de644ed	0.11243615
18	0x3e986065	0.29761043
19	0x3e551f3f	0.208127
20	0xbda8b3b8	-0.08237404
21	0xbc822cce	-0.015890505
22	0x3e590658	0.21193826
23	0x3df9c727	0.121961884
24	0x3eb66db5	0.35630575
25	0xbdab07ff	-0.083511345
26	0x3e807a8c	0.25093496
27	0x3e8011f3	0.25013694
28	0x3eb182b0	0.3467002
29	0x3eb1a8a0	0.34698963
30	0xbe0a1673	-0.13485126
31	0xbe736dbf	-0.23772334
32	0xbe83507f	-0.2564735
33	0xbe84ae38	-0.25914168
34	0x3e7520f6	0.23938355
35	0xbe696910	-0.22793984
36	0x3e44a745	0.19204433
37	0xbe821f5c	-0.2541455
38	0xbc62f5f6	-0.013852587
39	0xbe920098	-0.28516078
40	0x3e41e9de	0.1893687
41	0xbdac3b99	-0.08409805
42	0x3db70f92	0.08938517
43	0x3e847465	0.25870052
44	0xbe13fb54	-0.14451343
45	0x3e8b3f9d	0.2719697
46	0x3e24a2af	0.16077684
47	0x3e58d700	0.21175766
48	0x3e21dd0c	0.15806979
49	0x3e84d92f	0.25946948
50	0x3d3fdc39	0.04684088
51	0xbddb79df	-0.107166044
52	0xbe4391f5	-0.19098647
53	0x3e4fb581	0.20284082
54	0x3c188841	0.009309829
55	0x3e41ab11	0.18912913
56	0x3e692185	0.22766693
57	0xbcef76a9	-0.029231386
58	0x3b674427	0.0035288425
59	0xbce91c38	-0.028455839
60	0x3eb56afd	0.35433188
61	0xbea235e9	-0.31681755
62	0x3ea71565	0.3263351
63	0x3cc164df	0.02360767
64	0x3dd5a993	0.10432734
65	0x3e89ea67	0.26936647
66	0xbe77c9b2	-0.24198034
67	0xbe9fe864	-0.31231987
68	0x3ec2a05b	0.38012967
69	0xbe1f49b2	-0.15555456
70	0x3c8167f5	0.01579664
71	0x3eb79edf	0.35863397
72	0xbdcea9db	-0.10090991
73	0x3cd5511b	0.02603965
74	0x3e8bce76	0.27305955
75	0xbe7608db	-0.24026816
76	0xbe92e104	-0.28687298
77	0xbcb086c1	-0.02154863
78	0x3da12c8a	0.07869823
79	0x3cd08aba	0.025456775
80	0xbebaa7cc	-0.36456144
81	0xbdf749ca	-0.12074621
82	0xbeae7f79	-0.3408163
83	0x3d6b34e8	0.057423502
84	0xbe3185e9	-0.17336239
85	0xbe53fb9a	-0.20701447
86	0x3eb024b6	0.34403008
87	0xbe7a64f3	-0.24452572
88	0xbd96e20b	-0.07367333
89	0xbe0c2289	-0.13685049
90	0x3e8c1d98	0.27366328
91	0xbe687e89	-0.2270452
92	0x3e3946ea	0.18093458
93	0x3e084154	0.1330617
94	0x3e59e050	0.21276975
95	0xbd312168	-0.04324475
96	0xbda57dfa	-0.08080669
97	0xbdf4199c	-0.11918947
98	0x3e45f2df	0.19330929
99	0x3ddd4da4	0.108058244
100	0x3e5916dc	0.21200126
101	0xbe29b85f	-0.16574238
102	0xbd931c53	-0.07183137
103	0xbe71947e	-0.23591802
104	0xbe11e873	-0.14248829
105	0x3d14b184	0.036302105
106	0xbe77cb8f	-0.24198745
107	0x3e3d75f8	0.18502033
108	0xbdb57135	-0.08859483
109	0xbe786f10	-0.24261117
110	0x3ed51621	0.41618446
111	0xbe9eec24	-0.31039536
112	0xbeb45389	-0.35219982
113	0x3cf4b6c6	0.02987231
114	0xbdb3d547	-0.08780914
115	0x3de39f71	0.111143954
116	0xbe4bcd07	-0.1990243
117	0xbcf4b795	-0.029872695
118	0x3e9e0d9f	0.30869767
119	0xbe6f2f2b	-0.23357837
120	0x3eadcaa5	0.33943668
121	0xbebf75ae	-0.3739447
122	0x3dc0f79e	0.09422229
123	0x3eb5bfc9	0.35497883
124	0xbbba73cf	-0.005690075
125	0xbdc92365	-0.09821204
126	0xbed3012e	-0.41211838
127	0xbcf58801	-0.029972078
128	0x3d9f4dea	0.07778533
129	0x3e62a9bb	0.2213506
130	0xbe56051d	-0.20900388
131	0xbe648620	-0.2231679
132	0x3e9a1116	0.3009116
133	0xbe134c1c	-0.14384502
134	0xbe98e887	-0.29864904
135	0xbe1bfb6d	-0.1523263
136	0x3ebbeb80	0.3670311
137	0x3dbedb35	0.09319154
138	0xbd814232	-0.06311454
139	0xbe57702f	-0.21038888
140	0x3e2c0014	0.16796905
141	0xbea323e4	-0.3186332
142	0x3e4a13a0	0.19734049
143	0x3e89e630	0.26933432
144	0x3ea2a531	0.31766656
145	0xbd6c97c3	-0.05776192
146	0x3dfcd7e8	0.12345868
147	0x3eb89744	0.36052907
148	0xbe35278b	-0.17690866
149	0xbe818619	-0.2529762
150	0xbe8bde7b	-0.27318177
151	0xbdd7c066	-0.10534744
152	0x3e6c6da8	0.23088706
153	0x3e58476c	0.21120995
154	0x3eb0d5c6	0.34538096
155	0x3d3e8e9f	0.046522733
156	0x3e8d4245	0.27589622
157	0xbe7aeb54	-0.24503833
158	0xbe7d7293	-0.24750738
159	0x3ddd2f03	0.107999824
160	0xbdf4830a	-0.11939056
161	0x3d874b30	0.06606138
162	0x3d81b2d9	0.063329406
163	0x3c9cc1f2	0.01913545
164	0x3c3cc17a	0.011520738
165	0xbd17fd17	-0.0371066
166	0xbdf37754	-0.118879944
167	0x3eb1977a	0.3468588
168	0xbe5e4b4a	-0.21708408
169	0x3e414375	0.18873389
170	0x3e3aeb71	0.18253876
171	0xbc3aaba2	-0.0113934595
172	0xbdbedbfd	-0.09319303
173	0x3e94efad	0.29089108
174	0x3e92d307	0.28676626
175	0xbd855a05	-0.065113105
176	0xbe41b785	-0.18917663
177	0xbe8b2b7d	-0.27181616
178	0xbd4c563d	-0.04988693
179	0xbe739ae5	-0.23789556
180	0x3e2a284e	0.16616938
181	0x3e0f304c	0.13983268
182	0x3e8752d3	0.26430377
183	0xbe951e04	-0.29124463
184	0x3e08f4b7	0.13374601
185	0xbe972327	-0.29519007
186	0x3eb6a8fe	0.35675806
187	0xbd63aa54	-0.05558236
188	0x3eb03544	0.34415638
189	0xbe49cb04	-0.1970635
190	0xbe5a6700	-0.21328354
191	0xbda59b4f	-0.080862634
192	0xbe4fd4af	-0.20295976
193	0x3ec71b6e	0.38888115
194	0x3ec66c00	0.38754272
195	0xbdd12c6c	-0.10213551
196	0xbe2fda4b	-0.17173116
197	0xbd2c981d	-0.042137254
198	0x3de125c5	0.10993532
199	0xbe372f7b	-0.17889206
200	0x3e8ea823	0.27862653
201	0xbc80691d	-0.015675122
202	0x3eb344b8	0.35013366
203	0x3dbc331c	0.09189436
204	0xbe969ee5	-0.29418102
205	0x3e80cb66	0.2515518
206	0xbc961a42	-0.018323068
207	0xbec7c998	-0.3902099
208	0x3e717e93	0.2358344
209	0xbe84ab2a	-0.25911838
210	0x3e29bf1c	0.16576809
211	0xbbff6300	-0.007793784
212	0xbd0cb93c	-0.03435634
213	0xbddd3e5d	-0.108029105
214	0x3d9e1121	0.07718111
215	0x3e5fc1f8	0.21851337
216	0xbe83376e	-0.25628227
217	0x3dc8933a	0.09793706
218	0x3dc55c5f	0.09636759
219	0x3e3c5f35	0.18395694
220	0x3a8ed11d	0.0010896061
221	0xbd4e3a71	-0.050348703
222	0xbe1ec2e2	-0.1550403
223	0xbd35bcff	-0.044369694
224	0x3e130804	0.14358526
225	0x3da31d29	0.07964546
226	0x3e96a3dd	0.29421893
227	0xbe530b4c	-0.20609778
228	0x3e988e33	0.2979599
229	0xbd901024	-0.070343286
230	0xbcbeece2	-0.023306314
231	0xbec2b32b	-0.3802732
232	0xbdb483e8	-0.088142216
233	0xbe1f77cb	-0.15573041
234	0x3ec4ea6d	0.38460103
235	0x3e5b57df	0.21420239
236	0x3e4b98c4	0.19882494
237	0xbe5ca8c0	-0.21548748
238	0x3df1bd1c	0.11803648
239	0xbdba7efd	-0.09106252
240	0xbe8841e1	-0.26612762
241	0x3e0bf6fe	0.13668439
242	0x3e71136f	0.2354257
243	0xbe645479	-0.22297849
244	0x3eb4dc29	0.3532422
245	0xbe0f4b0c	-0.13993472
246	0x3e69a586	0.22817048
247	0x3d9331a2	0.07187201
248	0xbe9a85e6	-0.3018028
249	0x3e43d5d6	0.1912454
250	0x3eaaae0f	0.3333592
251	0x3e7f6d27	0.24943982
252	0xbe403bb3	-0.18772773
253	0xbe5868a4	-0.21133667
254	0x3e842f88	0.25817513
255	0xbe8c93b5	-0.27456442

fc1.bias f4 [50]
0	0xbe7c7070	-0.24652267
1	0xbea64b92	-0.3247953
2	0x3e38fdbd	0.18065543
3	0xbdd05202	-0.10171892
4	0x3e8f44be	0.27982134
5	0xbd953d53	-0.07287087
6	0x3c6c1ccc	0.014411163
7	0x3e964dd2	0.29356247
8	0xbe8a054a	-0.2695716
9	0x3ebc0214	0.36720335
10	0x3b929056	0.0044727726
11	0x3eb8801f	0.3603525
12	0x3c28cf62	0.01030335
13	0x3ec3500c	0.38147008
14	0x3e999eb8	0.30003905
15	0xbda3b853	-0.079941414
16	0x3de58949	0.11207826
17	0x3e2e7f12	0.17040661
18	0x3de0b8ea	0.109727696
19	0x3e463b44	0.19358546
20	0x3e0b17bd	0.13583274
21	0xbe3db938	-0.18527687
22	0x3d60a3ca	0.0548437
23	0x3e9c5bc7	0.3053877
24	0x3e13767a	0.14400664
25	0xbdee768a	-0.11643703
26	0xbe8af5fe	-0.27140802
27	0xbe7fd68d	-0.24984188
28	0x3eabc9c9	0.33552387
29	0xbd218939	-0.039437506
30	0xbe97eb5a	-0.29671746
31	0xbe204377	-0.15650736
32	0xbb5fc7ee	-0.0034146267
33	0x3ea80482	0.3281594
34	0xbeb5c33a	-0.3550051
35	0xbeac268e	-0.33623165
36	0x3ea231e8	0.316787
37	0xbe830e48	-0.25596833
38	0xbd63641e	-0.0555154
39	0xbdd691ed	-0.10477052
40	0x3c99c6a9	0.018771486
41	0xbe942368	-0.28933263
42	0xbd07f6b3	-0.033194255
43	0xbe63dc36	-0.22251973
44	0xbd8f3e62	-0.069943205
45	0x3e31de6b	0.17370002
46	0xbcfb4979	-0.030674683
47	0xbd4c0658	-0.049810737
48	0x3eb9c4fd	0.36283103
49	0x3eab6c28	0.33480954

fc2.weight f4 [50, 50]
0	0xbdceeaae	-0.10103355
1	0xbb9c2223	-0.0047648116
2	0xbd9f1e4f	-0.07769453
3	0xbdad796d	-0.08470426
4	0xbc99a0fb	-0.01875352
5	0xbca70c71	-0.020391675
6	0xbdc34dd6	-0.095363304
7	0x3d864d63	0.06557729
8	0x3e0c484a	0.13699451
9	0x3c909b43	0.01765216
10	0xbd83e2dc	-0.06439754
11	0x3e0cbe16	0.13744387
12	0xbcea1924	-0.028576441
13	0xb980d540	-0.00024572946
14	0xbdd3ffd1	-0.103515275
15	0x3d8a4c9c	0.06752893
16	0xbcc30da0	-0.023810208
17	0xbd88dfa9	-0.06683285
18	0x3d0dfab5	0.03466292
19	0x3dfb2d5f	0.12264513
20	0x3e0802cd	0.13282318
21	0xbdbe93b2	-0.093055144
22	0xbd712707	-0.05887511
23	0xbdd54b1c	-0.104147166
24	0xbd063f1f	-0.03277504
25	0xbd5c8757	-0.053840008
26	0xbd7f6137	-0.06234857
27	0x3de5c042	0.11218311
28	0xbdbb9fe0	-0.09161353
29	0xbd7cf67b	-0.0617585
30	0x3d04d0db	0.032425743
31	0xbd58d98f	-0.052941855
32	0x3da8fe9e	0.082516894
33	0x3d8a9363	0.06766393
34	0x3c0472a2	0.008083971
35	0xbc17fab5	-0.009276082
36	0x3bd039e5	0.006354558
37	0x3de86bab	0.11348661
38	0x3e06464a	0.1311275
39	0x3e074444	0.13209635
40	0x3c12630b	0.0089347465
41	0xbe126999	-0.14298095
42	0x3d67fc85	0.056637306
43	0xbe015cf1	-0.1263311
44	0x3dafc2f3	0.085821055
45	0x3de25cad	0.11052833
46	0x3d995424	0.07486752
47	0xbdf3259a	-0.11872406
48	0x3d5ba0ca	0.053620137
49	0x3da55c77	0.08074277
50	0x3dee2af4	0.116292864
51	0xbd34dad4	-0.044154003
52	0xbd8991c4	-0.06717256
53	0x3dd9b895	0.10630909
54	0x3df9a2e1	0.1218927
55	0x3cab6e1f	0.020926533
56	0x3d5d1666	0.05397644
57	0xbdca52e4	-0.098790914
58	0x3d94578d	0.072432615
59	0x3ba7981e	0.0051145693
60	0xbc88a9c6	-0.016682517
61	0x3d4ebe4f	0.05047446
62	0x3d9f411c	0.077760905
63	0xbdc6d7c6	-0.09709124
64	0x3d98a42b	0.074531876
65	0x3d9d2c8f	0.076745145
66	0x3e1a0084	0.15039259
67	0xbd9e0e3f	-0.07717561
68	0x3cd9284b	0.026508471
69	0x3c206c32	0.009791421
70	0xbdfd4c62	-0.123680845
71	0x3c28e295	0.010307928
72	0xbc2c53b6	-0.010518005
73	0xbd298301	-0.0413847
74	0xbdf70808	-0.12062079
75	0xbda0b5b3	-0.078471564
76	0xbd1e7403	-0.038684856
77	0xbde3ab5f	-0.11116671
78	0x3deb774a	0.11497362
79	0xbb83d731	-0.0040234555
80	0xbdd84189	-0.10559375
81	0x3d5831bc	0.052781805
82	0x3e0abcb4	0.13548547
83	0xbdd41d1c	-0.10357115
84	0x3c434a82	0.0119196195
85	0x3d11eb32	0.03562469
86	0x3d1f4957	0.0388883
87	0xbd9eef3b	-0.07760473
88	0xbdc6922f	-0.09695851
89	0x3e17064b	0.14748494
90	0xbda0861d	-0.0783808
91	0xbe37673a	-0.17910472
92	0xbe09ffde	-0.13476512
93	0xbceb90fd	-0.02875566
94	0xbdfb426c	-0.12268528
95	0x3e017506	0.12642297
96	0x3ce7beb3	0.028289175
97	0x3d5bc614	0.0536557
98	0x3d0d1e11	0.0344525
99	0x3ddb0ece	0.10696183
100	0xbbbbf57d	-0.0057360516
101	0xbd8686be	-0.06568669
102	0x3d6acc76	0.057323895
103	0xbdd6bf3d	-0.104856946
104	0x3d8c35e7	0.068462186
105	0x3dcecc80	0.10097599
106	0xbd95cf3a	-0.07314916
107	0x3dd01d45	0.10161833
108	0x3e10928d	0.14118405
109	0xbd680ed6	-0.056654774
110	0x3daa4a2b	0.08314928
111	0xbc60a079	-0.013710135
112	0x3d807ae4	0.062734395
113	0x3e323f82	0.17407039
114	0x3cf9daba	0.030499805
115	0xbdde5c94	-0.108575016
116	0xbe05a679	-0.13051786
117	0xbe09c97f	-0.13455771
118	0x3da87911	0.082262166
119	0xbca85ac8	-0.0205511
120	0x3d3fd6a0	0.04683554
121	0xbbe7c950	-0.007073559
122	0xbd41653e	-0.047215693
123	0x3dced5fc	0.10099408
124	0xbb02ceac	-0.0019959612
125	0xbe318dd8	-0.17339265
126	0x3dfbc67f	0.122937195
127	0xbdff19ab	-0.12456068
128	0xbcd84c49	-0.026403563
129	0xbdbdfff9	-0.092773385
130	0xbe16adc9	-0.14714731
131	0x3da90f55	0.082548775
132	0x3dc75f1d	0.09734938
133	0xbe09a0d0	-0.13440251
134	0x3d594a6b	0.053049486
135	0xbd454749	-0.048163686
136	0x3df66760	0.12031436
137	0xbd9db4d5	-0.077005066
138	0x3caccefe	0.021094795
139	0xbd907f72	-0.07055558
140	0x3cb9f452	0.022699509
141	0xbd9ccdd7	-0.07656448
142	0x3e023e3f	0.12719058
143	0xbdb56c9e	-0.08858608
144	0xbda1e172	-0.079043284
145	0x3d9ed968	0.07756311
146	0xbd4ab77d	-0.049491394
147	0xbc0c6e68	-0.008571245
148	0xbe182fee	-0.14862034
149	0xbaa9e0d7	-0.0012960684
150	0xbcbae50e	-0.0228143
151	0x3d992338	0.074774206
152	0x3dec3b92	0.115348
153	0xbd341c60	-0.043972373
154	0x3da06759	0.07832212
155	0x3dc5bd98	0.09655303
156	0x3dc94caa	0.09829076
157	0x3d4531f4	0.048143342
158	0x3d58e133	0.05294914
159	0xbd0e8cc6	-0.03480222
160	0x3d14ec3c	0.036358103
161	0x3d73daf1	0.05953497
162	0xbcc1255d	-0.023577387
163	0xbdc4a3cd	-0.09601555
164	0xbe0bdaab	-0.13657634
165	0x3d709011	0.058731142
166	0x3d0b00fc	0.033936486
167	0x3ddb2380	0.107001305
168	0x3e040a79	0.1289462
169	0xbdff2529	-0.124582596
170	0xbde5fc45	-0.11229757
171	0xbe050c78	-0.12993038
172	0x3cae3c91	0.021269115
173	0x3c438479	0.011933439
174	0xbcd2eef9	-0.025748717
175	0x3da0b423	0.07846858
176	0x3c2f574f	0.010701968
177	0x3dd12a7b	0.10213181
178	0x3dc4cb90	0.09609139
179	0x3dbb1cb9	0.09136338
180	0x3dcbf015	0.099579014
181	0xbc90ba88	-0.01766707
182	0x3c67dde7	0.014152027
183	0x3e0cf041	0.13763525
184	0xbdcc3673	-0.09971323
185	0x3c5c81ca	0.0134586785
186	0x3df01a8c	0.117238134
187	0x3dfb97ce	0.12284814
188	0xbcf19258	-0.029488727
189	0xbd9d06d9	-0.07667322
190	0x3d92deb4	0.071713835
191	0x3cc89f98	0.024490163
192	0xbc987570	-0.018610686
193	0xbdadeb7d	-0.084921815
194	0x3dcccfcf	0.10000574
195	0x3ddaeaa3	0.10689285
196	0x3d12e915	0.035866816
197	0xbbcaa251	-0.0061839004
198	0xbdc36105	-0.095399894
199	0xbd71005a	-0.058838226
200	0xbd872880	-0.06599522
201	0xbde3ffbf	-0.11132764
202	0x3d50683b	0.050880652
203	0xbe0d2c84	-0.13786513
204	0x3d25b48c	0.040455386
205	0x3d2a4715	0.041571695
206	0x3d61afd7	0.055099335
207	0x3dcc3b52	0.09972252
208	0xbd8fcea3	-0.07021835
209	0xbd08bf05	-0.033385295
210	0x3dc3a0dc	0.09552166
211	0xbda024b8	-0.078195035
212	0x3d96c44c	0.073616594
213	0xbd5505ce	-0.05200749
214	0x3d26abf4	0.04069133
215	0xbd01c339	-0.03168032
216	0x3d82977e	0.06376551
217	0x3dbe2f58	0.09286374
218	0x3dec4bb0	0.11537874
219	0xbe0fb0bb	-0.14032261
220	0xbcf3e0c8	-0.02977027
221	0xbdc332b8	-0.09531158
222	0xbdf9074c	-0.12159595
223	0x3d8e25b1	0.06940783
224	0x3c96ae95	0.018393794
225	0xbbc516a6	-0.006014663
226	0x3de73fea	0.112914875
227	0xbda29a7e	-0.07939623
228	0x3cbed680	0.023295641
229	0x3d5ba64e	0.053625397
230	0x3e001fb4	0.12512094
231	0xbdf2e6fc	-0.11860463
232	0xbd568725	-0.052374978
233	0xbdfdea36	-0.12398188
234	0xbe019e18	-0.12657964
235	0x3cd26e0a	0.025687236
236	0xbe0320b1	-0.1280544
237	0xbdd4e38e	-0.10394965
238	0x3c9903b1	0.018678518
239	0x3cf55976	0.029949885
240	0x3d9d213c	0.076723546
241	0x3ddc1cfb	0.10747715
242	0x3c8bccb4	0.017065383
243	0xbd0b83b1	-0.034061138
244	0x3cef58ef	0.029217212
245	0x3b4ea110	0.0031529106
246	0x3db7fe6f	0.08984076
247	0x3c9e8a28	0.019352987
248	0xbd8c33fe	-0.06845854
249	0x3d201b21	0.039088372
250	0x3ca7269a	0.020404149
251	0x3dbfb055	0.093598045
252	0xbde6d55c	-0.11271164
253	0x3db5139a	0.08841629
254	0x3d9399f1	0.07207096
255	0x3de8e535	0.11371843

fc2.bias f4 [50]
0	0xbe030b2a	-0.12797228
1	0x3da4aac6	0.08040385
2	0xbc706249	-0.0146718705
3	0x3d137aa3	0.036005627
4	0x3e0dd787	0.13851748
5	0xbdf5ef6b	-0.12008556
6	0x3dda3f4e	0.10656606
7	0xbdeb32cf	-0.114843
8	0xbdfc2223	-0.123111986
9	0xbdd0327e	-0.101658806
10	0x3e080008	0.13281262
11	0xbc196775	-0.009363045
12	0x3d17e70a	0.03708557
13	0x3d4aefe8	0.0495452
14	0x3c93734e	0.017999317
15	0x3dd11039	0.10208172
16	0x3d838e11	0.064235814
17	0xbdc6eb6d	-0.09712873
18	0x3b2ee1b0	0.0026684813
19	0x3ddc935d	0.10770295
20	0x3d45ac6f	0.04826015
21	0xbdc34014	-0.09533706
22	0x3d754c3d	0.05988716
23	0x3c778808	0.015108116
24	0xbe0fa319	-0.1402706
25	0xbe1454c3	-0.14485459
26	0xbc9f56c3	-0.01945055
27	0xbe1124b2	-0.14174154
28	0x3c179a66	0.00925312
29	0x3b0b90b1	0.002129596
30	0x3dee9085	0.11648659
31	0xbd351583	-0.04420997
32	0xbdb93878	-0.09043974
33	0xbc33161e	-0.010930566
34	0x3c8f048a	0.01745822
35	0x3dfd98ea	0.12382682
36	0x3d12df1f	0.035857316
37	0xbda48612	-0.080333844
38	0xbe101fb0	-0.14074588
39	0xbddc2184	-0.1074858
40	0xbcc60d55	-0.02417628
41	0xbdb45146	-0.08804564
42	0xbe089259	-0.13337077
43	0x3c97e2d5	0.01854078
44	0x3dcaaba4	0.09896019
45	0xbcb9882a	-0.022647936
46	0x3bf4b231	0.007467531
47	0xbdc32448	-0.095284045
48	0xbc837f0c	-0.016051792
49	0xbe0ad2d2	-0.13556984

fc3.weight f4 [50, 50]
0	0xbe09c65b	-0.13454573
1	0x3da11d6b	0.07866939
2	0xbdae21a6	-0.08502512
3	0xbddabbbd	-0.106803395
4	0xbd105745	-0.035239477
5	0xbd4e24ca	-0.050328054
6	0x3df42545	0.11921171
7	0xbdc2e0cc	-0.09515533
8	0xbd58f58b	-0.052968543
9	0x3d912859	0.07087774
10	0x3e054ad9	0.13016833
11	0x3bec9d45	0.0072208964
12	0xbd6d5474	-0.05794187
13	0x3dc9afd6	0.09847991
14	0x3e168829	0.14700378
15	0x3d241dad	0.040067364
16	0xbdbdb0e8	-0.09262258
17	0x3cabb813	0.020961797
18	0x3de08f3a	0.10964818
19	0xbe036785	-0.12832458
20	0x3d19e12a	0.03756825
21	0xbdecea6a	-0.115681484
22	0xbd68ca83	-0.056833755
23	0x3cdf5c65	0.027265737
24	0x3dd34ddb	0.10317584
25	0x3df5c574	0.12000552
26	0x3db9b8f0	0.09068477
27	0x3cd72fd4	0.026267923
28	0xbce8505f	-0.028358636
29	0xbdbd06cb	-0.09229811
30	0xbd9832c6	-0.07431559
31	0xbdfda0a9	-0.12384159
32	0x3d841e98	0.06451148
33	0x3d2ca674	0.04215093
34	0xbdf59bb5	-0.119925894
35	0x3dfe8d64	0.12429312
36	0x3d2ce23f	0.042207953
37	0xbdac5093	-0.08413806
38	0xbdeaff3e	-0.11474465
39	0xbd9013f5	-0.070350565
40	0xbdf4f918	-0.11961573
41	0xbe02fb7e	-0.12791249
42	0xbdce5f51	-0.10076774
43	0x3dc27780	0.09495449
44	0x3dc48305	0.095953025
45	0xbda35eda	-0.07977076
46	0xbd74216c	-0.059602186
47	0x3dd74b00	0.10512352
48	0x3e0962f5	0.13416655
49	0x3cb048c2	0.021519069
50	0x3e02b8b9	0.12765779
51	0xbccd6cf6	-0.02507637
52	0xbddb1ecd	-0.10699234
53	0xbd7c3204	-0.061571136
54	0xbdb303fd	-0.08740995
55	0x3e28067f	0.16408728
56	0x3de7fb58	0.11327237
57	0xbde3f110	-0.111299634
58	0x3ddfac31	0.10921515
59	0xbd983064	-0.07431105
60	0xbd6c2b1f	-0.05765831
61	0x3e19fcd9	0.1503786
62	0x3e0038e4	0.12521702
63	0x3da97bd2	0.0827557
64	0xbda0a831	-0.0784458
65	0xbdb142e4	-0.086553365
66	0xbda26e18	-0.07931155
67	0xbd6f02f1	-0.058352415
68	0x3d044a1d	0.032297242
69	0xbc6b2ffe	-0.014354704
70	0xbdb0bef1	-0.08630169
71	0xbd34ce83	-0.044142257
72	0xbc222f29	-0.009898939
73	0xbd41bfc4	-0.047302023
74	0xbc166183	-0.009178522
75	0xbdd24c13	-0.10268416
76	0x3d902654	0.070385605
77	0xbcde73a9	-0.02715476
78	0xbd753103	-0.059861194
79	0x3d1d987e	0.038475506
80	0xbc804fd8	-0.015663072
81	0x3e053d89	0.13011755
82	0x3dff0675	0.124524035
83	0x3db64e80	0.089016914
84	0xbd8c9db3	-0.06866016
85	0x3d9c1e06	0.07622914
86	0xbdcf946c	-0.10135731
87	0x3d76dcb6	0.06026908
88	0x3d0b08b3	0.033943843
89	0x3d1aff4d	0.03784113
90	0xbcfefdc3	-0.031126862
91	0x3db2a7e6	0.0872343
92	0xbd4dd2e5	-0.050249953
93	0xbd161f1d	-0.036650766
94	0xbd41d3a2	-0.04732097
95	0xbd5bf681	-0.05370188
96	0x3d9a2590	0.07526696
97	0x3db2bd23	0.08727481
98	0x3de885d5	0.113536514
99	0x3d79b8c9	0.06096724
100	0x3df1d580	0.118083
101	0x3d77e139	0.060517523
102	0x3df9b4b1	0.12192667
103	0x3d034fe5	0.032058615
104	0xbc0ee331	-0.008721159
105	0xbda59348	-0.08084732
106	0x3e0b3f8d	0.13598461
107	0xbdf1dba5	-0.11809472
108	0x3d8897d5	0.06669585
109	0xbd910d2b	-0.0708259
110	0xbd9a81c9	-0.07544286
111	0x3d95b12e	0.07309185
112	0xbe020277	-0.12696253
113	0x3c23f9df	0.010008304
114	0xbd0ba0ab	-0.03408877
115	0x3de0db92	0.1097938
116	0x3e047fe3	0.1293941
117	0xbe1687c2	-0.14700225
118	0x3de864e3	0.113473676
119	0xbdadde99	-0.08489723
120	0x3d1d9669	0.03847352
121	0x3df1ea13	0.11812224
122	0xbcd2fed9	-0.025756286
123	0x3dcf00e0	0.10107589
124	0x3c3b37b1	0.011426852
125	0x3de3805e	0.111084685
126	0xbcd9b3d3	-0.026575005
127	0x3de50fbb	0.11184641
128	0x3e25969e	0.16170737
129	0xbdff587b	-0.12468048
130	0x3d835e27	0.064144425
131	0xbe0d48b3	-0.13797264
132	0x3da1fb47	0.079092555
133	0x3d95c9ff	0.07313918
134	0xbd69eb81	-0.05710936
135	0xbdb3485e	-0.08754037
136	0xbd4b409e	-0.04962217
137	0xbcfca61e	-0.03084093
138	0xbdb36f42	-0.08761455
139	0x3d8b252c	0.06794199
140	0x3da8017d	0.08203409
141	0xbbf5a725	-0.007496732
142	0xbe0e857d	-0.13918109
143	0x3d461d74	0.048367932
144	0x3db011fb	0.085971795
145	0x3dc8bb83	0.0980139
146	0x3dc0ae5b	0.09408256
147	0x3a4e8560	0.0007878151
148	0x3d73f1d9	0.059556816
149	0xbdbf24a2	-0.09333159
150	0x3d6f62ef	0.05844396
151	0x3cdb2248	0.026749745
152	0x3cf3ab93	0.029744899
153	0x3cf5891f	0.029972611
154	0xbd4b6620	-0.04965794
155	0x3baf86fd	0.005356668
156	0x3d955233	0.07291069
157	0x3b8611d5	0.004091481
158	0x3d881258	0.06644124
159	0x3e0ed598	0.13948667
160	0xbd137e82	-0.03600932
161	0xbdc50360	-0.09619784
162	0xbdd6562f	-0.10465657
163	0x3c58ba38	0.013227992
164	0xbccbeb05	-0.02489234
165	0x3ddf79ae	0.109118804
166	0x3df11c6d	0.11773
167	0xbdef2e5f	-0.116787665
168	0x3d898343	0.06714489
169	0x3dc0c883	0.094132446
170	0xbd42c500	-0.047551155
171	0x3d0a7355	0.033801395
172	0xbd1128be	-0.035439245
173	0xbd890035	-0.066894926
174	0x3e23ef51	0.1600926
175	0xbce29a71	-0.027661534
176	0x3dbfe410	0.09369671
177	0xbe07e2d0	-0.13270116
178	0x3e1a1b55	0.15049489
179	0xbdfde0e2	-0.123964086
180	0xbdc7cb56	-0.0975558
181	0x3d363c9e	0.044491403
182	0xbca7a894	-0.020466127
183	0xbbc473d7	-0.0059952545
184	0x3c2809bc	0.010256227
185	0x3e2f4240	0.17115116
186	0x3d1a1f99	0.03762779
187	0xbce3be6d	-0.027800763
188	0xbdeb6dbc	-0.114955395
189	0x3dc38e61	0.09548641
190	0x3d3e3fb4	0.04644747
191	0xbc776bbd	-0.01510137
192	0xbd72120c	-0.059099242
193	0xbc3f060c	-0.0116591565
194	0xbd1100cf	-0.03540116
195	0x3d2c6a2f	0.042093452
196	0xbe0fd86b	-0.140474
197	0x3c0ae565	0.0084775435
198	0xbdb35239	-0.08755917
199	0xbe050ce4	-0.12993199
200	0xbb3ec15d	-0.0029106953
201	0x3d23d17b	0.039994698
202	0x3aa48947	0.0012553119
203	0x3de18068	0.1101082
204	0xbdd3cc1a	-0.10341664
205	0x3dab546e	0.08365713
206	0xbde87c16	-0.113517925
207	0xbce693ef	-0.028146712
208	0x3d05076c	0.03247778
209	0xbdbe1732	-0.09281768
210	0xbda2ef55	-0.07955805
211	0x3d9c704a	0.07638605
212	0x3ddf3fa0	0.109008074
213	0x3dc9d158	0.09854382
214	0x3dbf5015	0.09341446
215	0xbe021cea	-0.12706342
216	0x3de5f78c	0.112288564
217	0xbd8ba08f	-0.068177335
218	0x3cb900bf	0.022583364
219	0xbdd7c1c0	-0.10535002
220	0xbe000c7a	-0.1250476
221	0xbcaa2cdd	-0.020773346
222	0x3e171ffa	0.14758292
223	0x3d812e75	0.06307689
224	0xbd8c46b4	-0.06849423
225	0xbdec08c6	-0.11525111
226	0x3d22020c	0.039552733
227	0xbcbbb113	-0.022911584
228	0x3e1b1508	0.15144742
229	0xbdcabdda	-0.098994926
230	0xbda7abaf	-0.08187043
231	0xbdf47edc	-0.11938259
232	0x3b92f2c8	0.004484508
233	0x3d3de4a8	0.04636064
234	0x3d2a7807	0.041618373
235	0x3cc8c1d3	0.024506485
236	0xbdf4a735	-0.11945955
237	0xbdcce6d2	-0.10004963
238	0xbdfb9034	-0.12283364
239	0xbd87e2ef	-0.06635081
240	0xbe01e57f	-0.12685202
241	0x3e081f68	0.1329323
242	0xbda022b9	-0.07819123
243	0xbd630495	-0.05542429
244	0x3b97bb37	0.004630472
245	0x3d15c15b	0.03656135
246	0xbd84e5ef	-0.06489169
247	0xbd95d027	-0.073150925
248	0x3b4d2900	0.0031304955
249	0xbd697000	-0.056991577
250	0x3d210627	0.039312508
251	0x3d807024	0.06271389
252	0x3dc8995a	0.097948745
253	0xbe168eff	-0.14702986
254	0xbd95b8f2	-0.07310666
255	0x3dd0cbaf	0.101950996

fc3.bias f4 [50]
0	0x3c72824e	0.014801575
1	0x3d6c04e7	0.057621863
2	0xbd8c3a03	-0.06847002
3	0xbd9bea2f	-0.07613026
4	0x3cece540	0.028917909
5	0x3dca686c	0.09883198
6	0xbd83bad6	-0.064321205
7	0x3ba48b4a	0.0050214874
8	0x3de4056c	0.11133847
9	0xbe034537	-0.12819372
10	0xbd940c4f	-0.0722891
11	0xbccdfb4c	-0.025144242
12	0xbdb135df	-0.08652853
13	0x3de9aa82	0.11409475
14	0xbd05c46d	-0.03265803
15	0x3de72fac	0.112883896
16	0xbdebc040	-0.11511278
17	0x3c94706c	0.018120013
18	0x3ca5adae	0.020224418
19	0x3d86267d	0.0655031
20	0x3d27728c	0.040880725
21	0xbdec59c3	-0.11540558
22	0x3c54d3c6	0.012989944
23	0x3dccabd0	0.09993708
24	0x3e317443	0.17329507
25	0x3de81f2e	0.11334072
26	0x3cb36d51	0.021902712
27	0xbdc9fe51	-0.0986296
28	0x3e0ef5f1	0.13961007
29	0x3c7691ce	0.015049411
30	0x3d97ff9a	0.07421799
31	0xbdf45141	-0.119295605
32	0x3caf96a2	0.021434132
33	0xbca4db28	-0.020124033
34	0x3d50e5cd	0.051000405
35	0x3c9db7bc	0.01925265
36	0x3ce8f309	0.0284362
37	0xbdbd80b8	-0.09253067
38	0xbdad2e38	-0.08456081
39	0x3e27a8f9	0.16373052
40	0xbd9b7599	-0.07590789
41	0xbc9ea1c8	-0.019364253
42	0x3dad36a0	0.084576845
43	0x3d7a993c	0.061181292
44	0x3d57f909	0.052727733
45	0xbe01ea95	-0.12687142
46	0x3d38a688	0.04508069
47	0xbd800700	-0.06251335
48	0xbdf0691a	-0.117387965
49	0xbd50b5f8	-0.05095479

fc1.weight f4 [50, 7]
0	0xbeb0cdd5	-0.34532037
1	0xbd6f3158	-0.058396667
2	0xbe934e3b	-0.28770623
3	0x3e80ee46	0.25181788
4	0xbe644a55	-0.2229398
5	0x3e30bb00	0.17258835
6	0xbe347314	-0.17622024
7	0x3cdeca7b	0.02719616
8	0xbe934aa9	-0.287679
9	0x3e3f9e66	0.18712768
10	0x3e9c1a8a	0.30488998
11	0x3e024758	0.12722528
12	0x3e918519	0.28421858
13	0xbe6ed4dd	-0.23323388
14	0xbe46012e	-0.19336388
15	0xbe0aef0f	-0.13567756
16	0xbe9f54bd	-0.31119338
17	0x3dda3be1	0.10655952
18	0x3e92c5cd	0.28666535
19	0x3e1cad6c	0.1530053
20	0xbda56450	-0.08075774
21	0xbd85eb79	-0.065390535
22	0x3e2e2e4c	0.17009848
23	0x3e001fc1	0.12512113
24	0x3ea2197a	0.31660062
25	0xbd7ad222	-0.061235555
26	0x3e3e1c6d	0.18565531
27	0x3e30a886	0.17251787
28	0x3e8cacd1	0.27475598
29	0x3ea2fa03	0.3183137
30	0xbe00164e	-0.12508509
31	0xbe7cd480	-0.24690437
32	0xbe54a0c6	-0.20764455
33	0xbe6ed0bc	-0.23321813
34	0x3e6f5b7a	0.2337474
35	0xbe3e2d02	-0.18571857
36	0x3e4f0a81	0.2021885
37	0xbe85c22d	-0.26124707
38	0xbd45aa16	-0.04825791
39	0xbe819909	-0.2531207
40	0x3e44ce7c	0.19219393
41	0xbd8de871	-0.069291
42	0x3d347606	0.04405787
43	0x3e729f4c	0.2369358
44	0xbdfbbab8	-0.12291473
45	0x3e6d2cb7	0.23161589
46	0x3dddefe8	0.10836774
47	0x3e399d0f	0.1812632
48	0x3e296ac4	0.16544634
49	0x3e60214a	0.21887699
50	0x3bbed928	0.005824227
51	0xbde519c7	-0.11186557
52	0xbe46d095	-0.19415505
53	0x3e2dec3f	0.16984652
54	0x3d64bc09	0.055843387
55	0x3e079f78	0.13244426
56	0x3e7456c4	0.23861223
57	0x3b2f7876	0.0026774681
58	0x3ca340c8	0.019928351
59	0x3a065a88	0.00051251845
60	0x3ea23273	0.31679115
61	0xbe746b97	-0.23869167
62	0x3ea439a2	0.3207522
63	0x3c33b4d4	0.010968406
64	0x3d3fe4bd	0.046849
65	0x3e757999	0.23972167
66	0xbe3e24a6	-0.18568668
67	0xbe9eb5a9	-0.3099797
68	0x3e9a5665	0.3014404
69	0xbe38a68e	-0.18032286
70	0x3ab69c71	0.0013932121
71	0x3e8c43ce	0.2739548
72	0xbd9521e8	-0.07281858
73	0x3d171883	0.03688861
74	0x3e91bc56	0.28464
75	0xbe78af09	-0.2428552
76	0xbe66d63e	-0.22542664
77	0xbd48817b	-0.048951607
78	0x3dcc5537	0.09977191
79	0x3c8057c4	0.01566685
80	0xbeb2321b	-0.34803852
81	0xbe0a1949	-0.13486208
82	0xbea925d9	-0.33036688
83	0x3ad1b08d	0.0015998051
84	0xbe3f09ec	-0.18656129
85	0xbe2d7f69	-0.16943134
86	0x3eaa275a	0.33233148
87	0xbe694810	-0.22781396
88	0xbccd55a3	-0.025065249
89	0xbd9fefc2	-0.07809402
90	0x3e5a5e1a	0.2132496
91	0xbe38c608	-0.18044293
92	0x3dfd2384	0.1236029
93	0x3d905584	0.07047561
94	0x3e0e8648	0.13918412
95	0xbd68aace	-0.056803517
96	0xbdcdd989	-0.10051257
97	0xbde929bb	-0.113849126
98	0x3e10a1c3	0.14124207
99	0x3e0f0224	0.1396566
100	0x3e1bf296	0.15229258
101	0xbe163d39	-0.14671792
102	0xbdc7dd6b	-0.09759029
103	0xbe447062	-0.19183496
104	0xbdf59939	-0.119921155
105	0x39f64edb	0.00046979528
106	0xbe36080b	-0.17776506
107	0x3e12f038	0.14349449
108	0xbd46bfb1	-0.048522655
109	0xbe275169	-0.1633965
110	0x3ec5290a	0.38507873
111	0xbe759f0f	-0.23986457
112	0xbe842cd6	-0.25815457
113	0x3d0c0208	0.034181625
114	0xbd5e45a0	-0.05426562
115	0x3d9edfd6	0.07757537
116	0xbe1b1d04	-0.15147787
117	0xbd84591e	-0.0646231
118	0x3e7a6da4	0.24455887
119	0xbe76a808	-0.24087536
120	0x3e8b2181	0.27174
121	0xbe93bde0	-0.288558
122	0x3e01a170	0.1265924
123	0x3ea22014	0.316651
124	0xbc63ce3a	-0.013904149
125	0xbe080a09	-0.13285078
126	0xbeab550c	-0.33463323
127	0xbcbde841	-0.023182036
128	0x3d219a4d	0.039453793
129	0x3e5f00ee	0.21777698
130	0xbe3b924e	-0.1831753
131	0xbe52c7e5	-0.20584066
132	0x3e9c20c6	0.30493754
133	0xbe093f33	-0.13403015
134	0xbe8343dd	-0.25637713
135	0xbde8d221	-0.11368204
136	0x3e828325	0.2549068
137	0x3d8d2088	0.068909705
138	0xbdb1ac59	-0.08675451
139	0xbe6b5f26	-0.22985515
140	0x3dd41e9d	0.103574015
141	0xbea2ee5c	-0.3182248
142	0x3e05b8ab	0.13058726
143	0x3e630ef7	0.22173677
144	0x3e8d57cd	0.2760605
145	0xbbd94b1b	-0.0066312677
146	0x3db2da7f	0.08733081
147	0x3e962153	0.293223
148	0xbe19e002	-0.15026858
149	0xbe7448c8	-0.23855889
150	0xbe823c53	-0.2543665
151	0xbdc857ad	-0.09782348
152	0x3e5ec3ed	0.21754427
153	0x3e6139eb	0.2199475
154	0x3e8726d0	0.263968
155	0x3cb9c88e	0.02267864
156	0x3e76db26	0.24107036
157	0xbe74d6f2	-0.2391012
158	0xbe64f37c	-0.22358507
159	0x3e029b03	0.12754445
160	0xbe0e8dc9	-0.13921274
161	0x3d7925de	0.06082713
162	0x3db45060	0.08804393
163	0xbc2dc659	-0.010606372
164	0xbd179a9b	-0.037012678
165	0xbd46bcfe	-0.04852008
166	0xbd75f3a8	-0.06004682
167	0x3e89eeac	0.26939905
168	0xbe235f84	-0.15954405
169	0x3e45ab50	0.19303632
170	0x3e3cc963	0.18436198
171	0xbd0928ea	-0.033486284
172	0xbdc1325a	-0.09433432
173	0x3e831ed4	0.25609457
174	0x3e97a053	0.29614505
175	0xbdb7ad58	-0.089686096
176	0xbe423e3e	-0.18969056
177	0xbe52704a	-0.20550647
178	0xbd2af4f3	-0.041737508
179	0xbe29bf17	-0.16576801
180	0x3e290174	0.1650446
181	0x3e2bb9a0	0.16770029
182	0x3e68ea4b	0.22745626
183	0xbe81ca26	-0.2534954
184	0x3db6958c	0.089152426
185	0xbe936207	-0.28785726
186	0x3e85f4e2	0.26163393
187	0xbd5f9f08	-0.054595023
188	0x3e845fb7	0.25854275
189	0xbe038739	-0.12844552
190	0xbe3ecdaa	-0.18633142
191	0xbde9ba30	-0.114124656
192	0xbe1a00a8	-0.15039313
193	0x3ebecf8c	0.3726772
194	0x3e948bdb	0.2901295
195	0xbdbf987c	-0.09355256
196	0xbe25c609	-0.16188826
197	0xbdadb915	-0.08482567
198	0x3d94f8d8	0.07274026
199	0xbdeeb181	-0.1165495
200	0x3e91f7ae	0.28509277
201	0xbcd8ec25	-0.02647979
202	0x3e9f6e82	0.31138998
203	0x3d84d8b0	0.06486642
204	0xbe8fcc5d	-0.28085604
205	0x3e76e374	0.24110204
206	0xbd0bb7d0	-0.034110844
207	0xbe8ff8c2	-0.28119475
208	0x3e38f5c9	0.1806251
209	0xbe5ca47b	-0.2154712
210	0x3e1e16b4	0.15438348
211	0xbb794999	-0.0038038252
212	0xbcc87011	-0.0244675
213	0xbe04eac7	-0.12980185
214	0x3db44766	0.08802681
215	0x3e4a5ffa	0.19763175
216	0xbe7d82b1	-0.24756886
217	0x3dbb94c6	0.09159236
218	0x3e09d310	0.1345942
219	0x3e15734e	0.14594766
220	0xbd3351d8	-0.043779224
221	0xbd3c1da5	-0.04592671
222	0xbdbe7b3e	-0.0930085
223	0xbc4a558e	-0.012349499
224	0x3dd6bc10	0.10485089
225	0x3dc017f0	0.09379566
226	0x3e6e140a	0.23249832
227	0xbe3057fa	-0.1722106
228	0x3e8be3c7	0.27322218
229	0xbc561624	-0.013066802
230	0x3d114576	0.035466634
231	0xbe919bd0	-0.28439188
232	0xbe1e1724	-0.15438515
233	0xbe2e9c8c	-0.17051905
234	0x3ebc6b2c	0.36800516
235	0x3e1e8552	0.15480545
236	0x3e02be12	0.12767819
237	0xbe7f14bb	-0.24910252
238	0x3d935a79	0.07194991
239	0xbdcbd0c0	-0.09951925
240	0xbe41f3e3	-0.18940692
241	0x3e002870	0.12515426
242	0x3e7d19da	0.24716893
243	0xbe1528c0	-0.14566326
244	0x3e97ce2e	0.2964949
245	0xbe1075c2	-0.14107421
246	0x3e2ca5bd	0.16860099
247	0x3dba876d	0.09107862
248	0xbe79bbe4	-0.24388081
249	0x3e03538e	0.12824842
250	0x3e9bf74f	0.3046212
251	0x3e79a7ae	0.24380371
252	0xbe286168	-0.16443408
253	0xbe6a2982	-0.22867396
254	0x3e640fa3	0.2227159
255	0xbe7ff217	-0.24994694

fc1.bias f4 [50]
0	0xbe82d909	-0.2555621
1	0xbe98b674	-0.298267
2	0x3e298781	0.16555597
3	0xbdc2f198	-0.095187366
4	0x3e92c3d6	0.28665036
5	0xbdbe750c	-0.09299669
6	0x3ca132d8	0.019677565
7	0x3e8c18e8	0.27362752
8	0xbe6c1910	-0.23056436
9	0x3eab42db	0.33449444
10	0xbd1a9ef3	-0.037749242
11	0x3eb667df	0.35626122
12	0xbcb0a6a5	-0.021563837
13	0x3ea8b031	0.32946923
14	0x3e892358	0.26784778
15	0xbd97bd2d	-0.07409129
16	0x3db192c1	0.08670569
17	0x3df5cf41	0.12002421
18	0x3d45e25f	0.048311587
19	0x3de46481	0.11151982
20	0x3e1c058a	0.15236488
21	0xbe21f84f	-0.15817378
22	0x3ce56225	0.0280009
23	0x3e9faa1b	0.31184468
24	0x3e0e9436	0.13923725
25	0xbdeaa3d1	-0.11457027
26	0xbe5e0b0e	-0.21683905
27	0xbe679c0b	-0.2261812
28	0x3eabaca0	0.3353014
29	0xbcea6388	-0.028611913
30	0xbe9abd4f	-0.30222556
31	0xbe276a99	-0.16349258
32	0x3c337eaa	0.010955492
33	0x3e916a3b	0.2840136
34	0xbea83e7c	-0.32860172
35	0xbe77c74c	-0.2419712
36	0x3e80069c	0.25005043
37	0xbe729ddd	-0.23693033
38	0x3b2f2f78	0.0026731174
39	0xbdf24af5	-0.11830703
40	0x3cd9dd34	0.026594736
41	0xbe92a639	-0.28642443
42	0xbd305674	-0.043051198
43	0xbe632a8c	-0.22184199
44	0xbd409999	-0.047021482
45	0x3e1f18da	0.15536824
46	0xbd575e83	-0.052580368
47	0xbd0e5f85	-0.034759063
48	0x3eaffe34	0.3437363
49	0x3e95a89c	0.292302

fc2.weight f4 [50, 50]
0	0xbd16ecba	-0.036846854
1	0xbc331ca5	-0.010932122
2	0xbdb40749	-0.08790452
3	0xbdada3e2	-0.08478524
4	0xbc32a5e0	-0.0109038055
5	0xbc6a4266	-0.014298057
6	0xbda5344c	-0.080666155
7	0x3d579a8e	0.05263763
8	0x3df7bd52	0.12096657
9	0xbd027ba6	-0.0318562
10	0xbd4f7987	-0.050653007
11	0x3ddd10ee	0.10794245
12	0xbd30c105	-0.043152828
13	0xbcc1a8f8	-0.02364014
14	0xbdc7bbec	-0.0975264
15	0x3da63691	0.081158765
16	0xbc1e0058	-0.009643637
17	0xbd345dd5	-0.044034798
18	0x3caec507	0.021334184
19	0x3dc4191e	0.09575103
20	0x3dd60467	0.104500584
21	0xbd8ccf66	-0.068754956
22	0xbd547af6	-0.051875077
23	0xbd9bee57	-0.07613819
24	0xbcd6a608	-0.026202217
25	0xbd27c7eb	-0.04096214
26	0xbd603809	-0.05474094
27	0x3dc372be	0.0954337
28	0xbd9b8f2e	-0.07595669
29	0xbcb8dcb9	-0.022566186
30	0x3c8b8fd9	0.017036365
31	0xbd36cdbe	-0.044629805
32	0x3d5b8645	0.053594846
33	0x3cb0346c	0.021509372
34	0x3b362b5d	0.0027796843
35	0x3baf60f7	0.0053521353
36	0xbaf2d092	-0.0018525294
37	0x3dd9430c	0.10608491
38	0x3dc0e148	0.09417969
39	0x3e06bfc6	0.13159093
40	0xbc093de5	-0.008376573
41	0xbe057ea1	-0.13036586
42	0x3d54a001	0.051910404
43	0xbdcb2d9e	-0.0992081
44	0x3d890b36	0.066915914
45	0x3db42a77	0.08797162
46	0x3d221fe2	0.039581187
47	0xbde3cd0f	-0.11123096
48	0x3d6e7e0a	0.05822567
49	0x3d995a47	0.07487922
50	0x3db8c27a	0.090214685
51	0xbd348fea	-0.04408256
52	0xbd6c7b80	-0.057734966
53	0x3de804fe	0.11329077
54	0x3ddff5eb	0.10935577
55	0xbb6a21f5	-0.0035725806
56	0x3d493527	0.049122956
57	0xbdc26e24	-0.09493664
58	0x3d9bb051	0.07601989
59	0xbc5e0707	-0.01355148
60	0x398a33a9	0.000263599
61	0x3d227240	0.03965974
62	0x3d9123dd	0.070869185
63	0xbd95dc51	-0.07317413
64	0x3d86ca28	0.06581527
65	0x3d9439e6	0.07237606
66	0x3de8018a	0.113284186
67	0xbd66d935	-0.05635949
68	0x3cc1a27b	0.023637047
69	0x3b0a9fd2	0.002115239
70	0xbdcc7ea4	-0.09985092
71	0x3cedf486	0.029047262
72	0xbbc0872d	-0.005875489
73	0xbd51ed77	-0.051251855
74	0xbdd4f724	-0.10398701
75	0xbdcf058a	-0.10108478
76	0xbcf6dbb2	-0.030134056
77	0xbdc4e378	-0.09613699
78	0x3dea79c2	0.11449005
79	0xbc788240	-0.015167773
80	0xbd9cab89	-0.07649905
81	0x3d1c1b39	0.0381119
82	0x3dff612e	0.124697074
83	0xbd9a9c94	-0.07549396
84	0xbb2e759c	-0.0026620394
85	0x3c99b6e6	0.01876397
86	0x3d4143e6	0.047183894
87	0xbd52d639	-0.05147383
88	0xbd80e5db	-0.062938415
89	0x3dfc27ae	0.12312256
90	0xbd971eeb	-0.07378944
91	0xbe21c643	-0.15798287
92	0xbde98b75	-0.114035524
93	0xbcae6df9	-0.021292673
94	0xbdc9c9b6	-0.098529264
95	0x3da95e10	0.08269894
96	0x3c07fa90	0.008299485
97	0x3d0c3105	0.034226436
98	0x3d0556c3	0.032553446
99	0x3dbc185d	0.091843344
100	0x39031054	0.00012499216
101	0xbd5cabfe	-0.053874962
102	0x3d30ba01	0.043146137
103	0xbdaa5a02	-0.08317949
104	0x3d955231	0.072910674
105	0x3d8c6d09	0.06856734
106	0xbd60b9ad	-0.054864574
107	0x3dce3d34	0.10070267
108	0x3df9a594	0.12189785
109	0xbd4891ca	-0.04896716
110	0x3d9aba2e	0.07555042
111	0xbb4b6cca	-0.0031040185
112	0x3d936d34	0.07198563
113	0x3e168b28	0.14701521
114	0x3d1ef0d6	0.038803898
115	0xbd55c803	-0.0521927
116	0xbe06f77b	-0.13180344
117	0xbdeac585	-0.11463455
118	0x3d8d2ab3	0.0689291
119	0xbc6defed	-0.014522535
120	0x3d097693	0.033560347
121	0xbb834d6a	-0.004007031
122	0xbd474874	-0.04865308
123	0x3dd34b78	0.10317129
124	0xbc870c19	-0.01648526
125	0xbe1356e0	-0.14388609
126	0x3dd00924	0.101579934
127	0xbdcbe03e	-0.0995488
128	0xbcfbe541	-0.030748965
129	0xbda071fe	-0.07834242
130	0xbde6edd3	-0.1127583
131	0x3db1e3f0	0.08686054
132	0x3d9d3abd	0.07677219
133	0xbdaab3ad	-0.08335052
134	0x3ceb7aeb	0.028745135
135	0xbcd41549	-0.025889056
136	0x3dc8942c	0.097938865
137	0xbd543054	-0.0518039
138	0x3c17f15a	0.009273851
139	0xbd84274f	-0.0645281
140	0x3bd93773	0.0066289245
141	0xbd863213	-0.0655252
142	0x3dc870b4	0.097871214
143	0xbd6e6daf	-0.05821007
144	0xbd58d01f	-0.052932855
145	0x3d3ccc28	0.046093136
146	0xbd413c6f	-0.047176775
147	0xbce4a35d	-0.027909929
148	0xbdfc244f	-0.12311613
149	0xbc3b2a99	-0.01142373
150	0x3c74da14	0.014944572
151	0x3d691a8c	0.056910083
152	0x3dc0d93a	0.09416433
153	0xbd0a634b	-0.0337861
154	0x3d60cc34	0.054882243
155	0x3dc1a201	0.09454728
156	0x3d987a06	0.07445149
157	0x3d7cdf43	0.061736356
158	0x3d3d6d31	0.04624671
159	0xbd630b92	-0.055430956
160	0x3cb10c04	0.021612175
161	0x3d771ed7	0.060332146
162	0xbce08593	-0.027407443
163	0xbde2afc3	-0.1106868
164	0xbdde5b4b	-0.108572565
165	0x3d075499	0.033039663
166	0x3d49f2e2	0.049303897
167	0x3de76111	0.11297811
168	0x3dd9d9d0	0.106372476
169	0xbe01a1f3	-0.12659435
170	0xbde82ed0	-0.11337054
171	0xbde4fa25	-0.11180524
172	0x3cab6bb1	0.020925375
173	0x3c145ee0	0.009055823
174	0xbc63b76b	-0.013898711
175	0x3d8e6f85	0.069548644
176	0x3c22d2b9	0.0099379355
177	0x3da3821d	0.079838015
178	0x3dc48d0d	0.09597216
179	0x3d981280	0.074254036
180	0x3db56a0a	0.08858116
181	0xbd0172a9	-0.03160349
182	0xbb54c933	-0.0032468557
183	0x3dbc0194	0.091799885
184	0xbdc47f54	-0.095945984
185	0x3cc9fcce	0.02465668
186	0x3daa7f10	0.083250165
187	0x3dcea6a8	0.10090381
188	0xbd2a5773	-0.041587304
189	0xbda1d471	-0.07901848
190	0x3d628355	0.05530103
191	0x3ce7d246	0.028298508
192	0xbc0d01bd	-0.0086063715
193	0xbd6f3823	-0.058403146
194	0x3de7d5ab	0.11320051
195	0x3dcb8e35	0.09939233
196	0x3d1653c4	0.03670098
197	0x3b914c80	0.0044341683
198	0xbdb32950	-0.08748114
199	0xbd832fa7	-0.06405573
200	0xbd4c589d	-0.049889196
201	0xbdd42282	-0.10358144
202	0x3d37bdcc	0.04485874
203	0xbdf69274	-0.120396525
204	0x3d008b1e	0.031382672
205	0x3d34892f	0.04407614
206	0x3d1fc8be	0.039009802
207	0x3db98084	0.090577155
208	0xbd4eb61c	-0.05046664
209	0xbc417397	-0.011807344
210	0x3d948544	0.07251981
211	0xbd62e17a	-0.055390812
212	0x3d881b3c	0.066458195
213	0xbc4c23ad	-0.012459678
214	0x3cf7138b	0.030160686
215	0xbcfda786	-0.03096367
216	0x3d715d03	0.058926594
217	0x3d94103a	0.072296575
218	0x3ded524a	0.11587961
219	0xbdc22dce	-0.09481393
220	0xbd3ac83d	-0.04560112
221	0xbdbef662	-0.093243375
222	0xbdf17587	-0.11789995
223	0x3d8b7283	0.06808951
224	0x3c00c887	0.007860309
225	0xbb82d160	-0.0039922446
226	0x3de9561f	0.113933794
227	0xbd8c87b6	-0.06861822
228	0x3b7f0d93	0.0038918003
229	0x3d0bea19	0.0341588
230	0x3dc0ea45	0.09419683
231	0xbdef4cdf	-0.11684584
232	0xbd00ac88	-0.03141454
233	0xbd930b73	-0.07179918
234	0xbdf0a6fc	-0.117506
235	0x3d0b8f6d	0.03407233
236	0xbdfb6584	-0.12275222
237	0xbd9229e9	-0.071369
238	0x3d0228b0	0.031777084
239	0x3cafc537	0.021456344
240	0x3d92cadc	0.071675986
241	0x3db78d42	0.0896249
242	0xbb7897fb	-0.0037932384
243	0xbd2c6e80	-0.04209757
244	0x3d21eadb	0.039530616
245	0x3c8e1aea	0.017346818
246	0x3da86d5a	0.08223982
247	0x3cf86b8b	0.030324718
248	0xbd9f4b1e	-0.07777999
249	0x3d2feff9	0.042953465
250	0x3ca1b629	0.019740181
251	0x3d77fe35	0.060545165
252	0xbda72c19	-0.08162708
253	0x3dbb0ba4	0.0913308
254	0x3da58061	0.08081127
255	0x3df6b6f3	0.120466135

fc2.bias f4 [50]
0	0xbdf5bb71	-0.11998642
1	0x3d8d5583	0.06901076
2	0x3b120be9	0.002228493
3	0x3d350e96	0.044203363
4	0x3de81f03	0.1133404
5	0xbdb95321	-0.09049059
6	0x3dcec5cf	0.10096323
7	0xbdd369b9	-0.10322899
8	0xbdd87ad5	-0.10570303
9	0xbdba40d1	-0.09094394
10	0x3dded443	0.108803295
11	0xbd285479	-0.041096184
12	0x3d536775	0.051612336
13	0x3d0237d8	0.031791538
14	0x3cf1aae5	0.029500434
15	0x3db7c6e9	0.08973486
16	0x3d6302dd	0.055422653
17	0xbdc1e6ae	-0.09467827
18	0xbbbced1e	-0.0057655713
19	0x3dbd55f8	0.09244913
20	0x3d4a7f9c	0.049438104
21	0xbdc4152b	-0.0957435
22	0x3d815155	0.06314341
23	0x3cdd68c7	0.0270275
24	0xbe027a2a	-0.12741914
25	0xbdf6a1ff	-0.12042617
26	0xbb292578	-0.0025809687
27	0xbe05a192	-0.13049915
28	0xbc9845bd	-0.018587941
29	0x3bce16a9	0.0062893224
30	0x3dc0b18c	0.094088644
31	0xbcf3e27c	-0.029771082
32	0xbdd93be8	-0.10607129
33	0xbc8b046c	-0.016969882
34	0x3c7b7015	0.015346547
35	0x3df4daab	0.1195577
36	0x3c9d10da	0.019173075
37	0xbdb72ca1	-0.08944059
38	0xbdcef3f0	-0.10105121
39	0xbddb6e57	-0.10714405
40	0xbca85d5b	-0.020552328
41	0xbd8c3df3	-0.068477534
42	0xbe02bbfa	-0.1276702
43	0x3c4702b7	0.012146643
44	0x3dbed491	0.093178876
45	0xbcfecdf5	-0.031104067
46	0xbc0baaa6	-0.0085245725
47	0xbda4f271	-0.080540545
48	0xbcec196d	-0.028820718
49	0xbde1cb32	-0.110250846

fc3.weight f4 [50, 50]
0	0xbdd3df2f	-0.10345303
1	0x3d636a3a	0.055521227
2	0xbd9eebb9	-0.07759804
3	0xbde031f3	-0.10947027
4	0xbc9f5dc8	-0.019453898
5	0xbd1d11d9	-0.0383471
6	0x3dbd1852	0.09233154
7	0xbd95957a	-0.07303901
8	0xbd4b57bf	-0.049644228
9	0x3d8bb9c6	0.06822543
10	0x3dddcdd7	0.108302765
11	0x3b89a6a1	0.004200772
12	0xbd4717bf	-0.04860663
13	0x3dadad64	0.08480337
14	0x3e0736f8	0.13204563
15	0x3c8e9774	0.017406203
16	0xbdc6a29d	-0.09698985
17	0x3ce96fdd	0.028495723
18	0x3dbee3ed	0.09320817
19	0xbdf336ae	-0.11875664
20	0x3d25dfd0	0.040496647
21	0xbdf69ef7	-0.12042039
22	0xbd7c3a05	-0.06157877
23	0x3cb64b41	0.02225268
24	0x3dd7e19d	0.10541079
25	0x3dbc357f	0.09189891
26	0x3d9d21c5	0.07672457
27	0x3cb4c9db	0.022068908
28	0xbcf4878d	-0.029849792
29	0xbd8199e7	-0.06328183
30	0xbd9fcb41	-0.078024395
31	0xbde099b3	-0.10966816
32	0x3d668087	0.056274917
33	0x3d02175e	0.031760566
34	0xbdec1d65	-0.11529044
35	0x3dcda70c	0.10041627
36	0x3cea4315	0.02859644
37	0xbda02852	-0.078201905
38	0xbda5d0c6	-0.08096461
39	0xbd98c135	-0.07458726
40	0xbdf58479	-0.11988158
41	0xbdc0272e	-0.09382473
42	0xbdbb0376	-0.091315195
43	0x3d9c2bc4	0.07625535
44	0x3d9eac9f	0.077477686
45	0xbdb552fe	-0.0885372
46	0xbd84f999	-0.064929195
47	0x3ddb5c46	0.10710959
48	0x3dbdf178	0.09274572
49	0x3c946bb6	0.018117767
50	0x3e031c3c	0.1280374
51	0xbcbe358a	-0.023218889
52	0xbdb3b399	-0.0877449
53	0xbdac7dd3	-0.084224366
54	0xbdd1f5d3	-0.102519654
55	0x3e04b702	0.12960437
56	0x3d88229f	0.066472284
57	0xbdc31a0d	-0.09526453
58	0x3db2135e	0.086951
59	0xbd77dd64	-0.06051387
60	0xbd566313	-0.05234058
61	0x3ddaa275	0.106755175
62	0x3dc1a030	0.094543815
63	0x3d935e95	0.071957745
64	0xbd94768f	-0.07249176
65	0xbdd202b2	-0.1025442
66	0xbd894d04	-0.06704143
67	0xbd9f18bb	-0.07768389
68	0xbc156310	-0.009117857
69	0xbcbd8041	-0.023132445
70	0xbda7c275	-0.081913866
71	0xbd84a8e9	-0.064775296
72	0xbc7f6630	-0.015588328
73	0xbd8d8828	-0.06910735
74	0x3a3df7b7	0.000724669
75	0xbdb565c4	-0.08857301
76	0x3d2f9490	0.04286629
77	0xbc38ca6b	-0.011278729
78	0xbd8b81da	-0.068118766
79	0x3cb8872b	0.02252539
80	0xbd45e819	-0.04831705
81	0x3dac2be6	0.084068105
82	0x3da3043b	0.07959791
83	0x3db41136	0.08792345
84	0xbd873695	-0.066022076
85	0x3d4fbc62	0.050716765
86	0xbda7aa1b	-0.08186742
87	0x3d0e777c	0.034781918
88	0x3ccaa2d2	0.024735842
89	0x3cf7e62a	0.030261118
90	0xbd04835e	-0.032351844
91	0x3d7d890f	0.061898287
92	0xbd331d04	-0.043728843
93	0xbc9a5b8b	-0.01884248
94	0xbd18dde2	-0.03732098
95	0xbd80abea	-0.0628279
96	0x3d9bb91b	0.076036654
97	0x3d918c1a	0.071068004
98	0x3dbec38f	0.093146436
99	0x3d8e43e1	0.069465406
100	0x3deb7c02	0.11498262
101	0x3d25491d	0.04035293
102	0x3dd9bebd	0.106320836
103	0x3cf4a3f8	0.029863343
104	0xbcd6edc9	-0.026236432
105	0xbd819375	-0.06326953
106	0x3de7ee51	0.11324752
107	0xbdd667be	-0.10469006
108	0x3d1eebb7	0.038799014
109	0xbd609c1b	-0.054836374
110	0xbd475624	-0.048666134
111	0x3d84c394	0.06482616
112	0xbdd12965	-0.102129735
113	0xbbfba80d	-0.0076799453
114	0xbc83b0c8	-0.016075507
115	0x3dd0d41d	0.101967074
116	0x3dcec8d4	0.10096899
117	0xbdf88f73	-0.12136736
118	0x3d91025d	0.07080529
119	0xbd87c0c7	-0.06628566
120	0x3d67bcd9	0.056576584
121	0x3de8f7c3	0.11375382
122	0xbcd75275	-0.026284436
123	0x3dc20de5	0.094753064
124	0xbbcaafcb	-0.006185507
125	0x3dbeaacb	0.0930992
126	0xbc72dd13	-0.014823216
127	0x3db3d837	0.08781474
128	0x3e063f39	0.13110055
129	0xbdea9e35	-0.11455957
130	0x3d1751a0	0.036943078
131	0xbde509b4	-0.11183491
132	0x3d828d1a	0.06374569
133	0x3d8aed49	0.0678354
134	0xbd7ef411	-0.06224448
135	0xbd838947	-0.06422668
136	0xbd4b85cc	-0.049688146
137	0xbd03c205	-0.032167453
138	0xbdbf9015	-0.09353653
139	0x3d4833af	0.048877414
140	0x3d9e1336	0.07718508
141	0xbc1ec6e7	-0.009690977
142	0xbde205cc	-0.11036262
143	0x3d647876	0.055778943
144	0x3daaabf2	0.08333577
145	0x3dbfeaaa	0.093709305
146	0x3dc6f1ab	0.09714063
147	0xbc69b2d0	-0.014263824
148	0x3d319ee1	0.04336441
149	0xbda4fb90	-0.08055794
150	0x3cfd0fba	0.030891288
151	0x3c4cf057	0.012508473
152	0xbbe633bb	-0.0070252097
153	0x3d49981b	0.049217325
154	0xbd6306f5	-0.055426557
155	0xbac8f624	-0.0015332145
156	0x3d36d0d1	0.044632737
157	0x3ca32843	0.01991666
158	0x3d094556	0.03351339
159	0x3dd11ee5	0.10210971
160	0xbd6b6e3a	-0.057478167
161	0xbdddec34	-0.10836068
162	0xbde7b022	-0.113128915
163	0xbc810b28	-0.01575239
164	0xbd353499	-0.044239614
165	0x3d94a66d	0.07258306
166	0x3da6654d	0.0812479
167	0xbdb258e9	-0.087083645
168	0x3dac8425	0.08423642
169	0x3d66e00d	0.056366015
170	0xbcfa79dc	-0.030575685
171	0x3d060c27	0.032726433
172	0xbc9df770	-0.019283026
173	0xbd8b631f	-0.06806015
174	0x3e095a0a	0.13413253
175	0xbca7f3da	-0.02050202
176	0x3d6b1c5a	0.057400085
177	0xbde657f1	-0.11247242
178	0x3dcc1f6a	0.09966929
179	0xbdb5ce0b	-0.0887719
180	0xbd6c20cb	-0.05764846
181	0x3cb95cd6	0.022627275
182	0xbd632d87	-0.05546334
183	0x3aea728e	0.0017886923
184	0xbc2e4899	-0.010637426
185	0x3de5eb3f	0.1122651
186	0x3d00a5b7	0.031408038
187	0xbcec14df	-0.028818546
188	0xbde142cf	-0.10999071
189	0x3d99aef4	0.07504073
190	0x3cce730a	0.02520134
191	0xbd4012e5	-0.04689302
192	0xbd69e65d	-0.057104457
193	0xbcc422e6	-0.023942422
194	0xbcb7eeae	-0.022452679
195	0x3cfd3320	0.030908167
196	0xbe0554dc	-0.13020653
197	0xbc8b3def	-0.016997306
198	0xbdb6b819	-0.089218326
199	0xbdfabfd6	-0.12243621
200	0x3c4ab541	0.012372316
201	0x3c5d4da7	0.013507283
202	0xbc7fa106	-0.015602356
203	0x3dbfc464	0.093636304
204	0xbddd111b	-0.10794278
205	0x3d923917	0.07139795
206	0xbdd6dcee	-0.10491358
207	0xbc82e976	-0.015980463
208	0x3c9fd98f	0.01951292
209	0xbd923e17	-0.07140749
210	0xbd979c52	-0.074028626
211	0x3d97f180	0.07419109
212	0x3dd7bbb5	0.10533849
213	0x3da51f6d	0.080626346
214	0x3d9e80d3	0.07739415
215	0xbe031db0	-0.12804294
216	0x3dd87c76	0.10570614
217	0xbd897857	-0.06712406
218	0x3cc79d85	0.024367103
219	0xbdb2aaba	-0.0872397
220	0xbde9604a	-0.11395319
221	0xbd2fd271	-0.042925302
222	0x3e08b36a	0.13349691
223	0x3d42b964	0.047540084
224	0xbd780e04	-0.06056024
225	0xbddb1ed4	-0.106992394
226	0x3c212d77	0.0098375
227	0xbb7e3abf	-0.003879234
228	0x3dd76753	0.105177544
229	0xbdb7ccda	-0.08974619
230	0xbd8f28b4	-0.069901854
231	0xbde69df3	-0.11260595
232	0xbb9971ab	-0.0046827397
233	0x3d3fc93c	0.04682277
234	0x3d102923	0.03519548
235	0x3c3d3442	0.011548104
236	0xbdde05d0	-0.108409524
237	0xbdcd017c	-0.10010049
238	0xbdfafd55	-0.122553505
239	0xbd1fd30d	-0.039019633
240	0xbdcfec02	-0.10152437
241	0x3dcc6d51	0.09981788
242	0xbdade803	-0.08491518
243	0xbd8c07c9	-0.068374224
244	0x3c445bc8	0.011984773
245	0x3ca86d76	0.020560008
246	0xbd3ca9df	-0.04606044
247	0xbdb72346	-0.08942275
248	0x3bfccf4f	0.007715143
249	0xbd013ac8	-0.0315502
250	0x3d51aee4	0.05119218
251	0x3d459bb3	0.04824419
252	0x3dc8d312	0.098058835
253	0xbe0b4969	-0.13602223
254	0xbd9bfc84	-0.07616523
255	0x3dc6ce7d	0.09707353

fc3.bias f4 [50]
0	0xbb610504	-0.0034335265
1	0x3d1efc1c	0.03881465
2	0xbd5b551d	-0.053547967
3	0xbdca93fa	-0.098915055
4	0x3c3bf5e7	0.011472202
5	0x3dcc950c	0.09989366
6	0xbd58076c	-0.052741453
7	0x3c23c718	0.009996198
8	0x3dda5758	0.10661191
9	0xbdf17b7d	-0.11791132
10	0xbd886646	-0.06660132
11	0xbd0cf857	-0.034416523
12	0xbd7a6925	-0.06113543
13	0x3dd7d43b	0.105385266
14	0xbd78d656	-0.06075128
15	0x3dde1535	0.10843889
16	0xbdd78113	-0.10522666
17	0x3c90ae9a	0.017661382
18	0x3bafab30	0.0053609833
19	0x3d30f07a	0.043198086
20	0x3d3c44e4	0.045964137
21	0xbdae4e74	-0.085110575
22	0x3c048a2b	0.008089582
23	0x3d9ebd82	0.077509895
24	0x3dffb5b7	0.12485831
25	0x3dc96e49	0.09835488
26	0x3ccc58e5	0.024944732
27	0xbda7dcd2	-0.08196415
28	0x3de44674	0.1114625
29	0x3c9e4f07	0.019324793
30	0x3d552f9c	0.052047357
31	0xbdc2bfd0	-0.095092416
32	0x3bfc9f91	0.0077094515
33	0xbc2150a2	-0.0098458845
34	0x3d0f2612	0.034948416
35	0x3bb3778e	0.0054768985
36	0x3c8e5569	0.017374711
37	0xbddaaa7f	-0.10677051
38	0xbd9fea3b	-0.07808348
39	0x3e0b8a83	0.13627057
40	0xbd96816c	-0.07348904
41	0xbc99eb72	-0.018789027
42	0x3d95fb2f	0.073233
43	0x3d6f7f66	0.058471106
44	0x3d49687a	0.049171902
45	0xbddc239f	-0.10748982
46	0x3d631590	0.055440485
47	0xbd14d4c2	-0.036335714
48	0xbddb0f80	-0.10696316
49	0xbd1cbd7d	-0.038266648
