checkpointing_test/sigmoid_example_s12345/models/eval_checkpoint_checkpoint_600.pt (torch, 95431 bytes, 24 tensors)

fc1.weight f4 [50, 7]
0	0xbef9c0f6	-0.4878003
1	0x3dec4c99	0.11538047
2	0xbe72fcd5	-0.2372926
3	0x3ec3aa48	0.38215852
4	0xbe5b9c79	-0.21446408
5	0x3e6d3510	0.23164773
6	0xbe06cd77	-0.13164316
7	0x3e0d1d06	0.13780603
8	0xbea6b99d	-0.32563487
9	0x3e02cbf2	0.12773111
10	0x3eb5bac3	0.3549405
11	0x3ddc861e	0.10767768
12	0x3ed514e1	0.41617492
13	0xbe753a57	-0.23948036
14	0xbe5471e2	-0.20746568
15	0xbe2e3fe6	-0.17016563
16	0xbeac10dd	-0.33606616
17	0x3e1ab159	0.15106715
18	0x3ea4bfe4	0.3217765
19	0x3e50f6bd	0.20406623
20	0xbe03401d	-0.12817426
21	0x3c9d555b	0.01920574
22	0x3e5364f5	0.20643981
23	0x3dc9c214	0.098514706
24	0x3ebee044	0.37280476
25	0xbdd1c486	-0.10242562
26	0x3e8dcbdb	0.27694592
27	0x3e7930bb	0.24334995
28	0x3eb406ca	0.3516143
29	0x3eaabb0a	0.33345824
30	0xbe1769cd	-0.14786454
31	0xbe794a05	-0.24344642
32	0xbe86ecb3	-0.26352462
33	0xbe8940f3	-0.26807365
34	0x3e6b019a	0.2294983
35	0xbe589cc5	-0.21153553
36	0x3e701f83	0.23449521
37	0xbe869503	-0.26285562
38	0x3cc48c8c	0.0239928
39	0xbebe2464	-0.3713714
40	0x3e4af2ed	0.19819231
41	0xbe02b639	-0.12764825
42	0x3ded52b2	0.115880385
43	0x3e829b86	0.2550928
44	0xbe1623a4	-0.14662033
45	0x3e9c4b0c	0.30526006
46	0x3e205045	0.1565562
47	0x3e6bcc00	0.23027039
48	0x3e1c356b	0.15254752
49	0x3e930d62	0.28721148
50	0x3d69da54	0.05709298
51	0xbe027efa	-0.1274375
52	0xbe4a87e5	-0.19778402
53	0x3e5f10a1	0.21783687
54	0x3c835c37	0.016035182
55	0x3e4350d1	0.19073798
56	0x3e857e5e	0.26072973
57	0xbd183d01	-0.037167553
58	0xbcc6b396	-0.024255555
59	0xbbd89367	-0.0066093686
60	0x3ebde744	0.37090504
61	0xbea5c9ce	-0.32380527
62	0x3ea1bb0e	0.31588024
63	0xbcd2655b	-0.025683096
64	0x3d15f80a	0.0366135
65	0x3e8c37c4	0.27386296
66	0xbe88154a	-0.26578742
67	0xbea766e3	-0.32695684
68	0x3eb73a05	0.35786453
69	0xbe3ca63d	-0.1842279
70	0x3cc2b0d7	0.023765964
71	0x3eb58a3a	0.3545702
72	0xbe0b2a2c	-0.13590306
73	0x3cd3867f	0.025820969
74	0x3e8ff1b6	0.28114098
75	0xbe8cc3e8	-0.27493215
76	0xbe9aeaf1	-0.3025737
77	0x3d0deb4b	0.03464822
78	0x3e33b96a	0.17551199
79	0x3d8db227	0.069187455
80	0xbe76e9af	-0.2411258
81	0xbe73385a	-0.23751965
82	0xbedd313b	-0.43201622
83	0x3d6019e9	0.05471221
84	0xbe2a1952	-0.16611221
85	0xbe70a0a7	-0.23498784
86	0x3ea6030b	0.32424197
87	0xbe81bbc5	-0.2533857
88	0xbd4989d5	-0.049203712
89	0xbe027b27	-0.12742291
90	0x3e914bd2	0.2837816
91	0xbe860687	-0.26176855
92	0x3e470ed1	0.19439246
93	0x3df2fd67	0.11864739
94	0x3e530a62	0.2060943
95	0x3d35b0f1	0.044358198
96	0xbdcec2ef	-0.100957744
97	0xbe2f9206	-0.17145547
98	0x3e34e096	0.17663798
99	0x3dc4117c	0.095736474
100	0x3e495f86	0.19665346
101	0xbe0a8217	-0.13526188
102	0xbdbf049e	-0.093270525
103	0xbe7829cf	-0.24234699
104	0xbe1b853f	-0.15187548
105	0xbb5fc133	-0.0034142255
106	0xbe65b3a5	-0.2243181
107	0x3e352289	0.17688955
108	0xbd4b716c	-0.049668714
109	0xbeb0770b	-0.34465823
110	0x3edda357	0.4328868
111	0xbe8f0a98	-0.2793777
112	0xbed407b5	-0.4141213
113	0x3d1e064f	0.038580235
114	0xbd7a07f3	-0.061042737
115	0x3dac270d	0.08405886
116	0xbdd7970d	-0.105268575
117	0x3ca0eccd	0.019644165
118	0x3eaaca85	0.33357635
119	0xbe82be95	-0.25536028
120	0x3ea3501a	0.3189705
121	0xbecc1b82	-0.39864737
122	0x3d8ee2ac	0.06976828
123	0x3eaf6de7	0.34263536
124	0xbcdc5602	-0.02689648
125	0xbdd3d7c6	-0.1034389
126	0xbf03dfde	-0.5151347
127	0x3d3067d4	0.04306777
128	0x3e164603	0.14675145
129	0x3e5856c3	0.21126847
130	0xbe3ce670	-0.1844728
131	0xbe23fb5c	-0.16013855
132	0x3e9f8e52	0.3116327
133	0xbd416577	-0.047215905
134	0xbeb78343	-0.35842332
135	0xbe84b409	-0.25918606
136	0x3edddeea	0.43334132
137	0x3d2195b8	0.039449424
138	0xbd2b6f46	-0.041854165
139	0xbe509819	-0.2037052
140	0x3e38dbb7	0.18052565
141	0xbea77adc	-0.32710922
142	0x3e4782c1	0.19483472
143	0x3e8dc2f3	0.27687797
144	0x3ea41428	0.32046628
145	0xbd520794	-0.05127676
146	0x3de8ef48	0.11373764
147	0x3ec3d6cb	0.38249812
148	0xbe31edf4	-0.17375928
149	0xbe921a6f	-0.28535792
150	0xbe7477c7	-0.23873816
151	0xbddc2916	-0.10750024
152	0x3e87ac4f	0.2649865
153	0x3e521553	0.20515947
154	0x3ebae0ed	0.3649973
155	0x3d7d85b9	0.061895106
156	0x3e8432e6	0.25820082
157	0xbe802724	-0.25029862
158	0xbe6da90a	-0.23209015
159	0x3dfc63de	0.12323736
160	0xbde4fb14	-0.11180702
161	0x3d38d96e	0.045129232
162	0x3d54c7de	0.05194842
163	0x3d1899b4	0.037255958
164	0xbca47e22	-0.020079676
165	0xbd1ac9f6	-0.03779026
166	0xbe1a92c4	-0.15095049
167	0x3eae3235	0.3402268
168	0xbe7d8204	-0.24756628
169	0x3e48469c	0.19558185
170	0x3e3b61a7	0.1829897
171	0xbd9c54eb	-0.07633384
172	0xbdb8b87c	-0.090195626
173	0x3e926e5b	0.2859982
174	0x3e935baf	0.28780887
175	0xbd233fec	-0.039855883
176	0xbe521103	-0.20514302
177	0xbe5757aa	-0.21029535
178	0xbd1f7893	-0.038933348
179	0xbea79929	-0.3273404
180	0x3e4ecff0	0.2019651
181	0x3e217606	0.15767679
182	0x3e84d969	0.2594712
183	0xbe9da687	-0.30791113
184	0x3e224fac	0.15850705
185	0xbe99788e	-0.29974788
186	0x3eba5108	0.36389947
187	0xbda58d20	-0.08083558
188	0x3ea50e1a	0.3223732
189	0xbded6343	-0.11591198
190	0xbe55d6d5	-0.20882733
191	0xbdf3d9d4	-0.11906782
192	0xbe694f3e	-0.22784135
193	0x3ed816a9	0.42204788
194	0x3ec98792	0.39361244
195	0xbdeb3427	-0.11484557
196	0xbe34b7e3	-0.17648272
197	0xbd27ac98	-0.040936083
198	0x3dac9309	0.08426482
199	0xbe42f985	-0.19040497
200	0x3e8bf47e	0.2733497
201	0xbd015cbd	-0.031582583
202	0x3ead32ca	0.3382781
203	0x3de74fa3	0.112944864
204	0xbe93a70e	-0.2883839
205	0x3e6c0b47	0.23051177
206	0x3d52e025	0.051483292
207	0xbedc142c	-0.4298414
208	0x3e91e62d	0.28495923
209	0xbe8db2cb	-0.2767547
210	0x3e34d5d7	0.17659698
211	0xbb4009e5	-0.0029302773
212	0xbd93a522	-0.07209231
213	0xbdfaac8e	-0.122399434
214	0x3db4a55c	0.08820602
215	0x3e83465f	0.25639626
216	0xbe83e42e	-0.25760025
217	0x3dcc3720	0.09971452
218	0x3d9c44fb	0.076303445
219	0x3e2f8a80	0.17142677
220	0xbd661a39	-0.05617735
221	0xbd408c79	-0.047008965
222	0xbe2b12bf	-0.1670637
223	0xbda6a4f5	-0.08136932
224	0x3e2c43bc	0.16822714
225	0x3da9248a	0.082589224
226	0x3e9833be	0.29726976
227	0xbe176c6c	-0.14787453
228	0x3e9deb77	0.30843708
229	0xbd57305a	-0.052536346
230	0xbd404049	-0.046936307
231	0xbf0a9f38	-0.541492
232	0xbd792864	-0.060829535
233	0xbe1a870c	-0.15090579
234	0x3ec66a0a	0.38752776
235	0x3e8e1dbe	0.27757066
236	0x3e6e6b57	0.23283134
237	0xbe1560b4	-0.1458767
238	0x3e06d333	0.13166504
239	0xbdcee0bd	-0.10101459
240	0xbe89d2d1	-0.26918653
241	0x3e30d319	0.17268027
242	0x3e737a64	0.23777157
243	0xbe623c9e	-0.22093436
244	0x3eb289a7	0.34870645
245	0xbdfe6f7a	-0.12423606
246	0x3e63e704	0.22256094
247	0x3d6df84a	0.058098115
248	0xbe9982f9	-0.29982737
249	0x3e4cfe3b	0.20018856
250	0x3eb526ab	0.35381064
251	0x3e7dcdca	0.24785534
252	0xbe35a6c0	-0.17739391
253	0xbe657cf7	-0.22410952
254	0x3e525b4f	0.20542644
255	0xbea62bed	-0.32455388

fc1.bias f4 [50]
0	0xbe49a705	-0.19692619
1	0xbe9080f9	-0.28223398
2	0x3e475932	0.19467619
3	0xbda2f2af	-0.079564445
4	0x3e8563a9	0.26052597
5	0xbbe5da4a	-0.0070145475
6	0x3d6a8be1	0.057262305
7	0x3eaaf277	0.3338811
8	0xbe7a9139	-0.2446946
9	0x3ea31ae9	0.31856468
10	0x3cad8d88	0.021185651
11	0x3efb2fa7	0.49059793
12	0x3bac8b17	0.0052656042
13	0x3ec04149	0.3754981
14	0x3e886c15	0.2664496
15	0xbd4e0cc6	-0.05030515
16	0x3dd854e1	0.10563064
17	0x3e1d2bb2	0.153487
18	0x3e27540d	0.16340657
19	0x3e8c3cbf	0.27390096
20	0x3e1f4104	0.15552145
21	0xbdff36c8	-0.124616206
22	0x3dc71973	0.09721651
23	0x3e955b71	0.29171327
24	0x3de84abb	0.11342379
25	0xbd7d2230	-0.061800182
26	0xbe8bb55b	-0.272868
27	0xbe66f17e	-0.2255306
28	0x3ea9c6b6	0.33159417
29	0x3c4c8994	0.012483973
30	0xbe8b248c	-0.2717632
31	0xbe2ce75e	-0.16885135
32	0x3cfa577b	0.030559292
33	0x3eaf726a	0.34266979
34	0xbeb6452a	-0.35599643
35	0xbea9988f	-0.33124205
36	0x3e9d058f	0.30668303
37	0xbe75deb2	-0.24010733
38	0xbd90c743	-0.07069256
39	0xbcfdc8c8	-0.030979529
40	0x3c837f5d	0.016051942
41	0xbe845bb2	-0.25851208
42	0xbcc6a788	-0.024249807
43	0xbe5bd6d8	-0.21468675
44	0xbc65021c	-0.013977554
45	0x3e4defaf	0.20110963
46	0x3ccd0d18	0.025030658
47	0xbd3d0579	-0.046147797
48	0x3eacb780	0.3373375
49	0x3ebb2482	0.3655129

fc2.weight f4 [50, 50]
0	0xbe94b0cf	-0.29041144
1	0x3d3c73ec	0.04600899
2	0xbd10c118	-0.0353404
3	0xbd8e69ca	-0.069537714
4	0xbc36d693	-0.011159557
5	0x3c7e4c72	0.015521156
6	0xbd93f26b	-0.07223972
7	0x3db7492c	0.08949503
8	0x3e1e1e02	0.15441135
9	0xbb3f6afc	-0.0029208055
10	0xbd293d95	-0.041318495
11	0x3db3bf0c	0.08776674
12	0xbd4a3a8b	-0.049372237
13	0xbda88032	-0.08227576
14	0xbdcc99db	-0.09990283
15	0x3d88b7d2	0.06675686
16	0xbe26fdb3	-0.16307716
17	0xbd58d9be	-0.05294203
18	0xbde9b5c5	-0.11411623
19	0x3e5d361d	0.21602674
20	0x3e236be1	0.15959121
21	0xbd2f3a4a	-0.0427802
22	0xbd454c91	-0.048168723
23	0xbdc39f1f	-0.09551834
24	0xbd569bca	-0.052394666
25	0xbd82997c	-0.06376931
26	0xbd423206	-0.047410987
27	0x3e4436d9	0.19161548
28	0xbdbbd005	-0.09170536
29	0xbdbed661	-0.09318233
30	0x3d5159ed	0.05111115
31	0xbd6291d8	-0.05531487
32	0x3dc175bc	0.09446284
33	0x3cb4257f	0.021990536
34	0x3cddbb2a	0.027066786
35	0xbc25b75b	-0.010114516
36	0x3bb19e62	0.005420492
37	0x3e04bf29	0.12963547
38	0x3dc42917	0.0957815
39	0x3df749af	0.12074601
40	0x3c47db16	0.01219823
41	0xbe188722	-0.14895299
42	0x3d6ae2d5	0.05734523
43	0xbdc1af3a	-0.0945725
44	0x3e0e102e	0.1387336
45	0x3d7021b8	0.058625907
46	0x3dc29ff6	0.095031664
47	0xbdf6bd7b	-0.12047859
48	0x3d763885	0.060112495
49	0x3dcc2e5a	0.09969778
50	0x3db967ca	0.09052999
51	0x3c5e962e	0.01358561
52	0xbdc23a89	-0.09483821
53	0x3deddd07	0.11614423
54	0x3e0a1b44	0.13486964
55	0x3d03c79f	0.032172795
56	0x3d92c275	0.07165996
57	0xbdb1e5da	-0.08686419
58	0x3d99eac8	0.07515484
59	0xbd82b8dd	-0.06382916
60	0xbb8f9fc4	-0.004383059
61	0xbd05634e	-0.032565407
62	0xbd4e3ac1	-0.050349
63	0xbe0c1951	-0.13681532
64	0x3da54d18	0.08071345
65	0x3d02a47d	0.03189515
66	0x3e23755e	0.15962741
67	0xbda1775e	-0.078840956
68	0x3b84e23a	0.0040552886
69	0x3dbe19b1	0.09282244
70	0xbddc3c4e	-0.1075369
71	0x3dacc869	0.08436663
72	0xbc97ea5b	-0.018544367
73	0xbd2140ec	-0.039368555
74	0xbe1eb855	-0.15500005
75	0xbb9f8364	-0.004867958
76	0xbd2c8951	-0.042123143
77	0xbdcaa58c	-0.09894857
78	0x3da7da52	0.08195938
79	0xbc5d4c4e	-0.013506962
80	0xbdc26142	-0.09491207
81	0x3d5bbc7d	0.053646553
82	0x3e0950b3	0.1340969
83	0xbe915c5f	-0.28390786
84	0x3d05781f	0.03258526
85	0x3c4e6c94	0.012599129
86	0x3d0ae4fe	0.03390979
87	0xbda10ec1	-0.07864142
88	0xbe1d3048	-0.15350449
89	0x3e73acbf	0.23796366
90	0xbde06d9d	-0.10958407
91	0xbe0515e5	-0.12996633
92	0xbe1e0f0e	-0.1543543
93	0x3cbd7d8d	0.023131156
94	0xbcf97301	-0.030450346
95	0x3dafb8f5	0.085802
96	0x3dd3725f	0.10324549
97	0x3cf92cd1	0.030416878
98	0x3d221746	0.039572977
99	0x3de9af5c	0.114104
100	0x3ce96217	0.028489156
101	0xbd1c3b14	-0.03814228
102	0x3da73917	0.08165186
103	0xbde1d5c1	-0.110270984
104	0x3d7d541d	0.061847795
105	0x3d58138d	0.05275302
106	0xbd91e376	-0.07123463
107	0x3dd4e902	0.10396005
108	0x3e111deb	0.14171569
109	0xbd94f262	-0.07272793
110	0x3dbcf11e	0.09225677
111	0x3b80e183	0.003933133
112	0x3cd848ea	0.026401956
113	0x3e3230d2	0.17401436
114	0x3ca79288	0.020455614
115	0xbe499c24	-0.19688469
116	0xbe16d24a	-0.14728656
117	0xbe046061	-0.1292739
118	0x3da0bf1d	0.07848952
119	0x3da75042	0.08169605
120	0x3d57d6a8	0.052694947
121	0x3ca05069	0.019569593
122	0xbd61d563	-0.055135142
123	0x3dc7c420	0.09754205
124	0xbc58c5a7	-0.013230718
125	0xbdb49fd8	-0.0881955
126	0x3dfcced3	0.12344136
127	0xbde46ead	-0.11153922
128	0xbcf80d19	-0.030279683
129	0xbdf12f68	-0.1177662
130	0xbe12fb71	-0.1435373
131	0x3d8eba9c	0.06969187
132	0x3dc39de3	0.09551599
133	0xbdd45e7e	-0.103695855
134	0x3d7600a4	0.060059205
135	0xbd5a16f2	-0.05324454
136	0x3df7277a	0.120680764
137	0xbd939354	-0.07205835
138	0x3a974ede	0.001154389
139	0xbcf7d40c	-0.030252479
140	0x3c351de0	0.011054486
141	0xbd907e9d	-0.070553996
142	0x3dfa597d	0.122241
143	0xbd819fd7	-0.06329315
144	0xbd6d6732	-0.057959743
145	0x3d4bbfbe	0.049743406
146	0x3d113464	0.035450354
147	0xbc904ec6	-0.017615687
148	0xbe21f348	-0.1581546
149	0xbaa512d3	-0.0012594111
150	0xbde3229f	-0.11090588
151	0x3d6b6d9c	0.05747758
152	0x3dbda47a	0.09259887
153	0xbd0730fb	-0.033005696
154	0x3dcf4808	0.10121161
155	0x3d5a647a	0.05331848
156	0x3ddac077	0.10681241
157	0x3d5893e7	0.052875426
158	0x3d7ee7c0	0.062232733
159	0xbd59c2fd	-0.05316447
160	0x3d40fc36	0.047115527
161	0x3e163c6f	0.14671491
162	0xbd482d66	-0.04887142
163	0xbd94a544	-0.072580844
164	0xbe090a11	-0.13382746
165	0x3c9acd0e	0.018896606
166	0xbc147fd7	-0.0090636825
167	0x3dd508d8	0.104020774
168	0x3da3b5b8	0.079936445
169	0xbe3c8520	-0.18410158
170	0xbde1b8f7	-0.11021607
171	0xbe1da71b	-0.15395777
172	0x3cdd2471	0.026994916
173	0x3ca3f632	0.020014856
174	0xbce89664	-0.028392024
175	0x3d06ca2d	0.032907654
176	0x3c6a57ec	0.014303189
177	0x3d0da275	0.03457876
178	0x3dcb819c	0.099368304
179	0x3d8d984b	0.06913813
180	0x3dd0fe05	0.102047004
181	0xbcb0934d	-0.021554613
182	0x3c7e37cd	0.015516234
183	0x3e07930f	0.13239692
184	0xbdc594af	-0.096475
185	0x3c51db1b	0.0128085865
186	0x3de7bceb	0.1131533
187	0x3dfee002	0.1244507
188	0xbcaec697	-0.02133493
189	0xbd999552	-0.07499184
190	0x3d919a35	0.07109491
191	0x3cda1188	0.026619688
192	0xbcde4fab	-0.027137598
193	0xbdd3e7c8	-0.10346943
194	0x3dd78728	0.10523826
195	0x3d489834	0.048973277
196	0xbc1ecf86	-0.009693032
197	0x3c11f475	0.008908381
198	0xbdb2637d	-0.08710382
199	0xbd55e6fc	-0.052222237
200	0xbdd4a586	-0.103831336
201	0xbddd2263	-0.10797574
202	0xbca2256b	-0.019793233
203	0xbde68845	-0.1125646
204	0x3d47b826	0.048759602
205	0x3d2a0afd	0.041514385
206	0x3d8f7b0b	0.070058905
207	0x3de69355	0.1125857
208	0xbd76e9e8	-0.060281664
209	0xbcad591a	-0.021160651
210	0x3dd8d27b	0.10587021
211	0xbd92ccdd	-0.07167981
212	0x3cbd57ec	0.023113213
213	0xbd5756f9	-0.052573178
214	0x3d45e029	0.04830948
215	0x3d22524e	0.039629273
216	0x3d1540c1	0.036438707
217	0x3d901ee8	0.07037145
218	0x3dc05866	0.09391861
219	0xbe10765d	-0.14107652
220	0xbb267462	-0.002539896
221	0xbd4fb248	-0.05070713
222	0xbdf53bb7	-0.1197428
223	0x3dab9f12	0.0837995
224	0x3d24db81	0.040248398
225	0xbcbcf67f	-0.023066757
226	0x3dff6b53	0.12471642
227	0xbda27ec1	-0.07934333
228	0x3d00ab4c	0.03141336
229	0x3de402a0	0.11133313
230	0x3e0b4cda	0.13603535
231	0xbdf239bf	-0.118274204
232	0xbd33c5aa	-0.04388968
233	0xbe85f37e	-0.26162332
234	0xbdf5f660	-0.12009883
235	0x3cceee79	0.025260197
236	0xbe00a636	-0.12563404
237	0xbdc8b0be	-0.09799336
238	0x3d84df8d	0.064879514
239	0x3d9a0492	0.07520403
240	0x3d8f3dcd	0.069942094
241	0x3e22584b	0.15853994
242	0x3ac1467d	0.0014745739
243	0xbcc026fb	-0.023456087
244	0x3d62f86b	0.05541269
245	0xbde68037	-0.11254924
246	0x3e5fa327	0.21839581
247	0x3cd02102	0.025406364
248	0xbd7efba3	-0.0622517
249	0x3d79fdb9	0.061032984
250	0x3ba533fc	0.0050415974
251	0x3e060ecd	0.13091584
252	0xbe25bc0f	-0.1618502
253	0x3db3d31a	0.08780499
254	0x3d6dd28c	0.05806212
255	0x3dcd3117	0.10019129

fc2.bias f4 [50]
0	0xbdbe0252	-0.09277786
1	0x3df4a458	0.119454086
2	0xbb81cb92	-0.003961035
3	0x3d0edf47	0.034880903
4	0x3e3cb50b	0.18428437
5	0xbdfb67f5	-0.122756876
6	0x3e1ef4a6	0.15523013
7	0xbdeb32cf	-0.114843
8	0xbda42291	-0.080144055
9	0xbe0c90ae	-0.13727066
10	0x3e195496	0.14973673
11	0x3db7b27e	0.089695916
12	0x3d1ddb88	0.03853944
13	0x3d420e5e	0.047376983
14	0x3dda0ae6	0.1064661
15	0x3e0e9c22	0.13926747
16	0x3d58fdd3	0.05297644
17	0xbe0a86dd	-0.13528009
18	0x3d423f7c	0.047423825
19	0x3e07c5aa	0.13258997
20	0x3d203816	0.039115988
21	0xbdba2c90	-0.09090531
22	0x3da1bf1f	0.078977816
23	0x3d580aa8	0.052744538
24	0xbe0bd1e3	-0.13654284
25	0xbe0bb3f7	-0.1364287
26	0xbbef1002	-0.0072956095
27	0xbe1124b2	-0.14174154
28	0x3d9586f8	0.07301134
29	0xbbf6c454	-0.0075307284
30	0x3e167891	0.1469443
31	0xbd8e4a01	-0.06947709
32	0xbd6460f3	-0.05575652
33	0xbc33161e	-0.010930566
34	0x3dafaab4	0.08577481
35	0x3ded1e4d	0.11578045
36	0x3d4f0951	0.050545994
37	0xbd9f2af3	-0.07771864
38	0xbe157c1b	-0.14598124
39	0xbdc8fc63	-0.09813764
40	0xbcebd60a	-0.028788585
41	0xbd89d7c5	-0.06730608
42	0xbe027e88	-0.1274358
43	0x3c2e1038	0.010623984
44	0x3dca9db0	0.09893358
45	0x3baff11e	0.0053693196
46	0x3bf3c928	0.007439751
47	0xbda7dfd7	-0.08196991
48	0x3c3e8fd9	0.011630976
49	0xbe0aea5c	-0.13565964

fc3.weight f4 [50, 50]
0	0xbdf98dae	-0.121852264
1	0x3e19770b	0.14986818
2	0xbd943a38	-0.07237667
3	0xbdb87eb9	-0.090085454
4	0xbc5a8573	-0.013337481
5	0xbcfd3b3c	-0.030912034
6	0x3e1027c6	0.14077672
7	0xbdc2e0cc	-0.09515533
8	0xbd24ee7e	-0.040266506
9	0x3d912859	0.07087774
10	0x3e254b6c	0.16142052
11	0x3d0b8942	0.034066446
12	0xbd2c8d75	-0.04212709
13	0x3de3b3db	0.11118289
14	0x3e368d7d	0.17827411
15	0x3d92094e	0.07130681
16	0xbdb73eb1	-0.08947504
17	0x3cfb51f2	0.030678723
18	0x3e031214	0.12799865
19	0xbdecd01b	-0.115631305
20	0x3d5dfa89	0.054194007
21	0xbdd85316	-0.105627224
22	0xbd332eb4	-0.04374571
23	0x3d633ce4	0.05547799
24	0x3dd34ddb	0.10317584
25	0x3e0a12a5	0.13483675
26	0x3de7856d	0.11304746
27	0x3cd72fd4	0.026267923
28	0xbb1bf12a	-0.0023794868
29	0xbdbd06cb	-0.09229811
30	0xbd63e640	-0.055639505
31	0xbde8cabc	-0.113667935
32	0x3daa30cf	0.08310091
33	0x3d2ca674	0.04215093
34	0xbd9a43e9	-0.07532484
35	0x3e1cd865	0.15316923
36	0x3d599a91	0.05312592
37	0xbd925a86	-0.07146172
38	0xbdeaff3e	-0.11474465
39	0xbd4d7449	-0.050159726
40	0xbdc9a7d2	-0.09846462
41	0xbe0393f8	-0.12849414
42	0xbd9cf33f	-0.07663583
43	0x3ddc5b5b	0.10759612
44	0x3dcb8cfb	0.09938999
45	0xbd355d44	-0.0442784
46	0xbd74216c	-0.059602186
47	0x3df16c77	0.11788266
48	0x3e1e1f66	0.15441665
49	0x3cb048c2	0.021519069
50	0x3e017281	0.12641336
51	0xbc0e75bd	-0.008695063
52	0xbdc252ec	-0.09488472
53	0xbd8306ba	-0.06397767
54	0xbd5ca784	-0.053870693
55	0x3e311094	0.1729148
56	0x3e2309ec	0.15921754
57	0xbde3f110	-0.111299634
58	0x3e52f963	0.20602946
59	0xbe05b0f1	-0.13055779
60	0xbd1c30cd	-0.038132478
61	0x3e37ed99	0.1796173
62	0x3dee00d4	0.11621252
63	0x3dbdb54d	0.09263096
64	0xbd17149d	-0.036884893
65	0xbd393c2f	-0.04522341
66	0xbdf0da1e	-0.117603526
67	0xbbe90f0e	-0.0071123904
68	0x3df9baed	0.121938564
69	0xbd8611e8	-0.06546384
70	0xbdc72218	-0.097233
71	0xbc78baa9	-0.015181222
72	0x3d809a5c	0.06279442
73	0xbdf89f90	-0.12139809
74	0xbd03830a	-0.03210739
75	0xbd86a3f4	-0.0657424
76	0x3dbd3be9	0.092399426
77	0xbcde73a9	-0.02715476
78	0x3c5a6c00	0.013331413
79	0x3d1d987e	0.038475506
80	0x3d615b9e	0.055019014
81	0x3dc9f1ae	0.0986055
82	0x3e345829	0.17611755
83	0x3db64e80	0.089016914
84	0xbde813f8	-0.11331934
85	0x3d2e2e83	0.042524826
86	0xbe050748	-0.12991059
87	0x3e2e8423	0.17042594
88	0x3d0b08b3	0.033943843
89	0x3c49ccca	0.012316892
90	0xbc968296	-0.018372815
91	0x3d902396	0.070380375
92	0xbc9d39a2	-0.01919252
93	0xbd16cd1e	-0.03681671
94	0xbd373ff6	-0.044738732
95	0xbd57530a	-0.052569427
96	0x3d9a2590	0.07526696
97	0x3e3601fc	0.17774194
98	0x3e17e2aa	0.14832559
99	0x3d79b8c9	0.06096724
100	0x3e1d9387	0.15388308
101	0x3dd2450d	0.10267077
102	0x3e0504d9	0.1299013
103	0x3ce63d01	0.02810526
104	0x3c8834e5	0.016626785
105	0xbd965f13	-0.07342353
106	0x3e2450e2	0.1604648
107	0xbdf1dba5	-0.11809472
108	0x3da1f56e	0.0790814
109	0xbe217781	-0.15768243
110	0xbd75a709	-0.05997375
111	0x3dd501dd	0.10400746
112	0xbe126fce	-0.14300463
113	0xb94f48f3	-0.00019768234
114	0xbc5dfeb1	-0.013549493
115	0x3de1e158	0.11029309
116	0x3e036f8d	0.12835522
117	0xbe5a1591	-0.2129729
118	0x3df89b74	0.12139025
119	0xbd976a57	-0.073933296
120	0x3bd30b49	0.0064405543
121	0x3dde6e3b	0.108608685
122	0xbd6ed119	-0.05830488
123	0x3e0a0a43	0.13480477
124	0x3c35074f	0.011049106
125	0x3dd7df4d	0.10540638
126	0xbb8108ff	-0.00393784
127	0x3de50fbb	0.11184641
128	0x3e6cce83	0.23125653
129	0xbdff587b	-0.12468048
130	0x3deff707	0.117170386
131	0xbe1eb8d8	-0.155002
132	0x3de3e85d	0.11128304
133	0x3d95c9ff	0.07313918
134	0xbcb1d927	-0.021709992
135	0xbdb6805c	-0.08911201
136	0xbdba1dc7	-0.09087711
137	0xbcfd2695	-0.030902186
138	0xbdb36f42	-0.08761455
139	0x3e04ab60	0.12956
140	0x3d9563a4	0.072943956
141	0x3ae8cced	0.0017761268
142	0xbe3487db	-0.1762995
143	0x3e77e5c5	0.24208744
144	0x3db011fb	0.085971795
145	0x3decd3d6	0.11563842
146	0x3dc0ae5b	0.09408256
147	0x3cb69045	0.02228559
148	0x3d8121b5	0.06305257
149	0xbdbf24a2	-0.09333159
150	0x3e34e1d1	0.17664267
151	0x3d4d787c	0.05016373
152	0xbc7028c8	-0.0146581605
153	0x3cef9b20	0.029248774
154	0xbd265cb5	-0.040615756
155	0x3d9c4781	0.07630826
156	0x3dfc14a2	0.12308623
157	0x3b8611d5	0.004091481
158	0x3da6d15a	0.081453994
159	0x3ddd4c72	0.108055964
160	0xbd480912	-0.048836775
161	0xbcb87ef3	-0.022521472
162	0xbdc4ab99	-0.09603042
163	0xbc1dd7cf	-0.009633972
164	0x3d334dde	0.04377543
165	0x3de7cb38	0.11318058
166	0x3ddb73a2	0.107154146
167	0xbe060bee	-0.13090488
168	0x3c8343ee	0.016023602
169	0x3e18a3d5	0.14906247
170	0x3de9174e	0.11381398
171	0xbbaafdeb	-0.0052182577
172	0xbd5fc3e5	-0.05463018
173	0xbc20183c	-0.009771403
174	0x3e3d4f49	0.18487276
175	0xbd7e458d	-0.062078048
176	0x3e0af16b	0.13568656
177	0xbe07e2d0	-0.13270116
178	0x3e139f23	0.14416175
179	0xbdfde0e2	-0.123964086
180	0xbe277e84	-0.16356856
181	0xbdbeb257	-0.093113594
182	0xbb6a4b36	-0.0035750396
183	0xbbc473d7	-0.0059952545
184	0x3d42028c	0.04736571
185	0x3e3317e6	0.17489585
186	0x3d90349d	0.07041285
187	0xbcb0a302	-0.021562103
188	0xbdea1359	-0.114294715
189	0x3dc5caff	0.09657859
190	0x3db7d1ac	0.089755386
191	0x3c3f530a	0.011677513
192	0xbd02d19d	-0.031938184
193	0x3d10d1b2	0.03535623
194	0xbd1100cf	-0.03540116
195	0x3da9a841	0.08284045
196	0xbe0fd86b	-0.140474
197	0x3ca1211c	0.019669108
198	0xbda9f906	-0.082994506
199	0xbe050ce4	-0.12993199
200	0x3dcebfc0	0.10095167
201	0x3d8b5e52	0.068050995
202	0x3d7dea28	0.061990887
203	0x3e466c9a	0.19377366
204	0xbd79270f	-0.060828265
205	0x3e175fce	0.1478264
206	0xbd577f3c	-0.052611575
207	0xbce693ef	-0.028146712
208	0x3db6572b	0.08903345
209	0xbdbe1732	-0.09281768
210	0xbd521f9a	-0.05129967
211	0x3e164936	0.14676365
212	0x3dd183fc	0.10230252
213	0x3dc65d7c	0.096857995
214	0x3df461c0	0.11932707
215	0xbd82aa65	-0.063801564
216	0x3d8e41bf	0.06946134
217	0xbd8f1a02	-0.069873825
218	0xbda6621b	-0.08124181
219	0xbd962b59	-0.07332487
220	0xbe0697f0	-0.13143897
221	0xbd34a4c9	-0.044102464
222	0x3e0c90e4	0.13727146
223	0x3de5506f	0.11196982
224	0x3db2484c	0.08705196
225	0xbc90c517	-0.017672105
226	0x3d9b3fe4	0.075805455
227	0xbcbbb113	-0.022911584
228	0x3e0dac76	0.1383532
229	0xbdcabdda	-0.098994926
230	0xbde0585c	-0.10954353
231	0xbd83d9c1	-0.06438018
232	0xbb922996	-0.004460524
233	0x3d3de4a8	0.04636064
234	0x3dc7c509	0.09754378
235	0x3d576e4b	0.052595418
236	0xbcffa873	-0.031208253
237	0xbd690a26	-0.056894444
238	0xbdfb9034	-0.12283364
239	0x3cae87e4	0.021305032
240	0xbd301a83	-0.042994034
241	0x3e2c0708	0.16799557
242	0xbd4435d2	-0.04790289
243	0xbd3a6b65	-0.045512576
244	0x3b97bb37	0.004630472
245	0x3d94c31f	0.07263779
246	0xbd84e5ef	-0.06489169
247	0xbdc62a80	-0.09676075
248	0x3d4565e0	0.04819286
249	0xbd697000	-0.056991577
250	0x3d2c591d	0.042077173
251	0x3d8a9ae3	0.067678235
252	0x3d84294b	0.064531885
253	0xbdff879c	-0.12477037
254	0xbe266f2c	-0.16253346
255	0x3dff6aad	0.12471519

fc3.bias f4 [50]
0	0x3d0e8ee0	0.034804225
1	0x3db5db86	0.088797614
2	0xbd0c2301	-0.03421307
3	0xbd91ac4f	-0.071129434
4	0x3d1cf40e	0.038318686
5	0x3dd9278d	0.10603247
6	0xbd5a8ebb	-0.053358775
7	0x3c9bdf94	0.019027509
8	0x3de32329	0.11090691
9	0xbdad5a10	-0.08464444
10	0xbd439b19	-0.047755335
11	0x3be3cdb5	0.0069520124
12	0xbdb135df	-0.08652853
13	0x3df34bf2	0.1187972
14	0x3c2b346e	0.010449512
15	0x3df0ab4a	0.11751421
16	0xbdeae92b	-0.114702545
17	0x3d19bcf5	0.03753372
18	0x3d43d164	0.047807112
19	0x3e06bd75	0.1315821
20	0x3d88aff1	0.06674183
21	0xbd9ff98d	-0.0781127
22	0x3c3d75f3	0.011563766
23	0x3e19982c	0.14999455
24	0x3e5a43ef	0.21314977
25	0x3e187902	0.14889911
26	0x3d801432	0.06253852
27	0xbd3055a8	-0.04305044
28	0x3e1b15d7	0.1514505
29	0x3c9f09da	0.019413877
30	0x3df28648	0.11842018
31	0xbddb83d5	-0.10718504
32	0x3c7ec54f	0.015549972
33	0x3b87227a	0.004123983
34	0x3dcb4757	0.09925716
35	0x3d8099e0	0.06279349
36	0x3d8b1d3e	0.06792687
37	0xbd40205d	-0.046905864
38	0xbd66bb5d	-0.056331027
39	0x3e6b168a	0.22957817
40	0xbb17432f	-0.0023080816
41	0x3d5223db	0.051303726
42	0x3de62dd0	0.11239207
43	0x3d906ef1	0.070524104
44	0x3dbb5952	0.09147896
45	0xbdf418be	-0.11918782
46	0x3dc54655	0.096325554
47	0xbd800700	-0.06251335
48	0xbdc3deac	-0.09563956
49	0xbcb9c744	-0.022678025

fc1.weight f4 [50, 7]
0	0xbee49ab3	-0.44649276
1	0x3d9301bb	0.071780644
2	0xbe8693aa	-0.26284534
3	0x3ebf2d17	0.37339088
4	0xbe399488	-0.18123066
5	0x3e5999bf	0.21250056
6	0xbe16e076	-0.14734063
7	0x3dea7ca2	0.11449553
8	0xbea58d25	-0.32334247
9	0x3e06f014	0.1317752
10	0x3eafc223	0.34327802
11	0x3de5f1a7	0.11227732
12	0x3ed24ff4	0.41076624
13	0xbe742dfe	-0.2384567
14	0xbe606318	-0.21912801
15	0xbe2b8129	-0.1674849
16	0xbeaa187a	-0.332218
17	0x3e0a41b7	0.1350163
18	0x3ea33336	0.31875008
19	0x3e48a435	0.1959389
20	0xbdf7e2e8	-0.12103826
21	0x3c33d266	0.010975456
22	0x3e55d387	0.20881473
23	0x3dcb9cf2	0.09942044
24	0x3ebe6abe	0.37190813
25	0xbdbf08fc	-0.093278855
26	0x3e8cd304	0.27504742
27	0x3e798a9c	0.24369282
28	0x3eb0977b	0.3449057
29	0x3ea97929	0.3310025
30	0xbe10a9fc	-0.14127344
31	0xbe82b1c3	-0.25526246
32	0xbe8647a0	-0.2622652
33	0xbe8970bc	-0.26843822
34	0x3e6f9f6f	0.23400663
35	0xbe5a4c9d	-0.21318288
36	0x3e600e35	0.2188042
37	0xbe7ccd2b	-0.2468764
38	0x3bc5e732	0.0060395235
39	0xbeb8d7a2	-0.36102015
40	0x3e442c2c	0.19157475
41	0xbdf6d858	-0.12052983
42	0x3ddb3b0b	0.10704621
43	0x3e82d990	0.25556612
44	0xbe1539da	-0.1457285
45	0x3e955504	0.29166424
46	0x3e22c243	0.15894417
47	0x3e68f3b3	0.22749214
48	0x3e1c05b1	0.15236546
49	0x3e8e3bf5	0.2778012
50	0x3d68724c	0.056749627
51	0xbdff34bf	-0.124612324
52	0xbe4f8648	-0.20266068
53	0x3e56fbb1	0.2099445
54	0x3c967875	0.018367985
55	0x3e4536fd	0.19259258
56	0x3e803261	0.25038436
57	0xbd0cb9c3	-0.034356844
58	0xbc8faa3f	-0.017537234
59	0xbc2d0b39	-0.010561758
60	0x3ebb4c65	0.36581722
61	0xbea4a29a	-0.32155305
62	0x3ea30833	0.31842193
63	0xbc6d7ebc	-0.014495548
64	0x3d578758	0.05261931
65	0x3e8c693f	0.27424046
66	0xbe862217	-0.26197883
67	0xbea1d6c6	-0.31609172
68	0x3eb58c19	0.3545845
69	0xbe3ce069	-0.1844498
70	0x3cb1ea42	0.021718148
71	0x3eb6f153	0.3573099
72	0xbdeeaf37	-0.11654513
73	0x3d1210fd	0.035660733
74	0x3e8dd073	0.27698097
75	0xbe8a9c85	-0.2707254
76	0xbe994420	-0.29934788
77	0x3cd9af8a	0.026572961
78	0x3e29dc17	0.16587864
79	0x3d692d2c	0.056927845
80	0xbe851d6c	-0.2599901
81	0xbe645ce1	-0.22301055
82	0xbecb8043	-0.39746293
83	0x3d3dc84c	0.046333596
84	0xbe2da3e5	-0.16957052
85	0xbe71ecc6	-0.23625478
86	0x3ea76c79	0.32699946
87	0xbe7efe97	-0.24901806
88	0xbd52f27a	-0.051500775
89	0xbe0d695d	-0.13809724
90	0x3e8cf9e8	0.27534413
91	0xbe7d9548	-0.24763978
92	0x3e463214	0.19355041
93	0x3df320ad	0.11871467
94	0x3e58101b	0.21099894
95	0x3d06bfbc	0.032897696
96	0xbdbdd3a5	-0.092688836
97	0xbe209459	-0.1568159
98	0x3e3c0553	0.18361406
99	0x3dcc840e	0.09986125
100	0x3e4e34ba	0.20137301
101	0xbe10818a	-0.14111915
102	0xbdb88e2f	-0.09011494
103	0xbe760458	-0.24025095
104	0xbe13fc1e	-0.14451644
105	0x3bae084c	0.0053110477
106	0xbe669c0d	-0.22520466
107	0x3e324aa1	0.17411281
108	0xbd6f4521	-0.058415536
109	0xbea484c0	-0.3213253
110	0x3edcc867	0.43121645
111	0xbe9556e3	-0.29167852
112	0xbec6ddd6	-0.38841122
113	0x3cfc0ac4	0.030766852
114	0xbd6cbcfe	-0.057797424
115	0x3dc2a111	0.09503377
116	0xbdf611c5	-0.12015108
117	0x3c073e66	0.008254623
118	0x3ea81171	0.32825807
119	0xbe7e5c2b	-0.24839847
120	0x3ea5d634	0.32389987
121	0xbec68dae	-0.38779968
122	0x3da54abd	0.08070896
123	0x3eb1b208	0.3470614
124	0xbcb92489	-0.02260043
125	0xbdd61b5b	-0.104544364
126	0xbef33f18	-0.47509074
127	0x3cb4bf36	0.022063833
128	0x3e0da6c6	0.1383315
129	0x3e6a345c	0.22871536
130	0xbe429698	-0.1900276
131	0xbe2c5f39	-0.168332
132	0x3e9f8fd6	0.31164426
133	0xbd88c0fd	-0.066774346
134	0xbeaeec47	-0.3416464
135	0xbe899e3c	-0.26878536
136	0x3ed1de5c	0.4098996
137	0x3d451f7e	0.048125736
138	0xbd5ebb10	-0.054377615
139	0xbe540efe	-0.20708844
140	0x3e3419b8	0.17587936
141	0xbea5b819	-0.32367018
142	0x3e438165	0.19092329
143	0x3e8a8e9f	0.27061936
144	0x3ea4c45f	0.3218107
145	0xbd5b472b	-0.053534668
146	0x3ded908b	0.11599835
147	0x3ebf7f5e	0.3740186
148	0xbe2f492d	-0.17117758
149	0xbe8ceba2	-0.27523524
150	0xbe7e0080	-0.24804878
151	0xbdd88964	-0.1057308
152	0x3e847814	0.25872862
153	0x3e59d149	0.21271242
154	0x3eb8da15	0.36103883
155	0x3d6aacd9	0.057293747
156	0x3e83efe0	0.25768948
157	0xbe7ea9af	-0.24869417
158	0xbe70066b	-0.23439948
159	0x3df1950c	0.117960066
160	0xbdde9ed8	-0.10870141
161	0x3d55b29c	0.05217229
162	0x3d65c9c9	0.05610064
163	0x3d0059ce	0.031335644
164	0xbbe37ea5	-0.0069425874
165	0xbd13ce6b	-0.036085527
166	0xbe1373e9	-0.14399685
167	0x3eadc2b3	0.33937606
168	0xbe734566	-0.23756942
169	0x3e463b86	0.19358644
170	0x3e3c1d1d	0.18370481
171	0xbd77b6ee	-0.06047719
172	0xbdbe0a81	-0.09279347
173	0x3e9192fc	0.28432453
174	0x3e92ffb9	0.28710726
175	0xbd5be256	-0.053682648
176	0xbe55816b	-0.2085015
177	0xbe6131ad	-0.21991606
178	0xbd51454d	-0.05109148
179	0xbe9b518b	-0.3033565
180	0x3e44da52	0.19223908
181	0x3e0e9147	0.13922606
182	0x3e84c1cf	0.25929114
183	0xbe9a43fb	-0.3012999
184	0x3e19edb7	0.15032087
185	0xbe999b46	-0.30001277
186	0x3eb9bbd5	0.36276117
187	0xbd8f8ef7	-0.0700969
188	0x3ea88284	0.32912076
189	0xbe0a0f6d	-0.13482447
190	0xbe4ed901	-0.20199968
191	0xbdd7e047	-0.105408244
192	0xbe63ebe7	-0.22257958
193	0x3ed53d1a	0.4164818
194	0x3eca2926	0.3948452
195	0xbddc591c	-0.10759184
196	0xbe337855	-0.17526372
197	0xbd26e783	-0.04074813
198	0x3db7a307	0.08966642
199	0xbe3c31f8	-0.18378437
200	0x3e8d7d61	0.2763472
201	0xbcccdd9e	-0.025008019
202	0x3eafa043	0.34301957
203	0x3dea7b76	0.114493296
204	0xbe8eadf9	-0.27867106
205	0x3e7080bc	0.23486608
206	0x3d1f6bfa	0.038921334
207	0xbed8fe79	-0.42381647
208	0x3e8a5d02	0.27024084
209	0xbe8dd9bf	-0.2770519
210	0x3e328406	0.17433175
211	0xbbb54e49	-0.005533014
212	0xbd434286	-0.047670864
213	0xbdfc591a	-0.12321682
214	0x3dae5b26	0.08513479
215	0x3e7e92b5	0.24860652
216	0xbe7f6776	-0.24941811
217	0x3dc9f3cd	0.098609544
218	0x3da5db8c	0.08098516
219	0x3e2ada16	0.16684756
220	0xbd45eaf9	-0.04831979
221	0xbd3ff61c	-0.046865568
222	0xbe2659ef	-0.16245244
223	0xbd9dd963	-0.07707479
224	0x3e2561c9	0.16150583
225	0x3daa6227	0.08319502
226	0x3e92fccd	0.28708497
227	0xbe219f50	-0.15783429
228	0x3e9da609	0.30790737
229	0xbd6405bc	-0.05566953
230	0xbd27e0cb	-0.040985864
231	0xbf00013b	-0.5000188
232	0xbda73fb4	-0.08166447
233	0xbe1dd31b	-0.15412562
234	0x3ec9b5d1	0.39396527
235	0x3e81fb9e	0.2538728
236	0x3e60da4a	0.2195827
237	0xbe279ce2	-0.1636844
238	0x3e009871	0.12558152
239	0xbdc951cc	-0.09830055
240	0xbe89d61d	-0.26921168
241	0x3e26c6ce	0.16286775
242	0x3e711bff	0.23545836
243	0xbe610daa	-0.21977869
244	0x3eb28472	0.34866673
245	0xbe0133a2	-0.12617353
246	0x3e61d69c	0.22054523
247	0x3d5f1a8f	0.054468688
248	0xbe9c4994	-0.30524886
249	0x3e4a7c5c	0.19774002
250	0x3eb3d407	0.35122702
251	0x3e7d94bb	0.24763767
252	0xbe34ea94	-0.1766761
253	0xbe5f6bc9	-0.2181846
254	0x3e58a232	0.21155623
255	0xbea3fcab	-0.32028708

fc1.bias f4 [50]
0	0xbe60eb89	-0.2196485
1	0xbe9621df	-0.29322717
2	0x3e3ee225	0.18640955
3	0xbdaac048	-0.08337456
4	0x3e84a62e	0.25908035
5	0xbcc8ffc9	-0.02453603
6	0x3d3cf6e8	0.046133906
7	0x3ea55bf5	0.3229672
8	0xbe809bc3	-0.25118837
9	0x3ea4c3f1	0.3218074
10	0x3c96dd27	0.018416
11	0x3eef11b3	0.4669319
12	0xb928d3d0	-0.00016100635
13	0x3ec1d213	0.37855586
14	0x3e8debab	0.27718863
15	0xbd5d08e7	-0.053963568
16	0x3dddd304	0.10831264
17	0x3e230acb	0.15922086
18	0x3e214092	0.15747288
19	0x3e814a8e	0.25252193
20	0x3e18b340	0.14912128
21	0xbe0e3ca8	-0.13890326
22	0x3db2c524	0.08729008
23	0x3e97d661	0.29655746
24	0x3df7837e	0.12085627
25	0xbdadaaf2	-0.08479871
26	0xbe89ea5d	-0.26936617
27	0xbe6724a8	-0.22572577
28	0x3eabad14	0.33530486
29	0x3be0b4c9	0.006857489
30	0xbe8f3b54	-0.2797495
31	0xbe2d2af2	-0.16910914
32	0x3cc50e23	0.024054592
33	0x3ea72dca	0.32652122
34	0xbeb70060	-0.35742474
35	0xbea93100	-0.33045197
36	0x3e9e471a	0.3091362
37	0xbe7bc6b4	-0.24587518
38	0xbd847405	-0.064674415
39	0xbd5ab636	-0.053396426
40	0x3c89e1f8	0.016831383
41	0xbe8aa1d4	-0.2707659
42	0xbcba6c83	-0.02275682
43	0xbe5cd504	-0.21565634
44	0xbd0d1c60	-0.03445089
45	0x3e33e57e	0.17568013
46	0x3cfe4ef3	0.031043505
47	0xbd33af52	-0.04386837
48	0x3eafd66e	0.34343284
49	0x3eb5ef3c	0.35534084

fc2.weight f4 [50, 50]
0	0xbe86e388	-0.26345468
1	0x3d15a6b5	0.036535937
2	0xbd2d8eef	-0.04237264
3	0xbd9be5ad	-0.076121666
4	0xbc71a739	-0.014749342
5	0xbc7842e6	-0.015152669
6	0xbda0681c	-0.07832357
7	0x3da9e748	0.082960665
8	0x3e191382	0.14948848
9	0x3c260a8d	0.010134351
10	0xbd3dde92	-0.046354838
11	0x3d3831ed	0.044969488
12	0xbd579450	-0.052631676
13	0xbd813df3	-0.06310644
14	0xbdd42e20	-0.1036036
15	0x3d9dcf14	0.07705513
16	0xbe0248e7	-0.12723123
17	0xbd5873c4	-0.052844778
18	0xbda326de	-0.07966398
19	0x3e414053	0.18872194
20	0x3e1a85ad	0.15090056
21	0xbd782744	-0.06058432
22	0xbd5fb824	-0.05461897
23	0xbdcb152a	-0.09916146
24	0xbd45b275	-0.048265893
25	0xbd6f3159	-0.05839667
26	0xbd51c2f2	-0.051211305
27	0x3e34b73d	0.17648025
28	0xbdba07d3	-0.090835236
29	0xbdcf1417	-0.10111254
30	0x3d3897d3	0.045066666
31	0xbd680862	-0.05664862
32	0x3dbabef5	0.091184534
33	0x3d389775	0.045066316
34	0x3cb590c9	0.022163766
35	0xbc0898e4	-0.008337233
36	0x3be7155f	0.007052108
37	0x3e029bf8	0.1275481
38	0x3dcacc7d	0.09902284
39	0x3e02ec6f	0.12785505
40	0x3c2b186a	0.0104428325
41	0xbe167975	-0.1469477
42	0x3d70108e	0.058609538
43	0xbdcde8d2	-0.100541726
44	0x3df14f22	0.117826715
45	0x3da211d8	0.0791356
46	0x3ddee5a8	0.10883647
47	0xbdf799ef	-0.120899074
48	0x3d6601d3	0.056154083
49	0x3dbe3526	0.09287481
50	0x3dd6ef0d	0.10494814
51	0xbb829cbd	-0.00398597
52	0xbdc20f51	-0.094755776
53	0x3de89145	0.11355833
54	0x3e060ba4	0.13090378
55	0x3d07d48c	0.033161685
56	0x3d880e43	0.06643345
57	0xbdb93f5f	-0.0904529
58	0x3d9587d3	0.07301297
59	0xbd2a9f25	-0.04165568
60	0xbbe7cd88	-0.007074062
61	0xbcbd2d3c	-0.023092858
62	0xbd015943	-0.031579267
63	0xbe08696f	-0.1332147
64	0x3d9bf1cd	0.07614479
65	0x3d6830ec	0.05668728
66	0x3e2136fc	0.15743631
67	0xbda138f3	-0.0787219
68	0x3ba95195	0.005167196
69	0x3db65662	0.08903195
70	0xbde82087	-0.11334329
71	0x3d92049e	0.07129787
72	0xbca0c61f	-0.019625721
73	0xbd255450	-0.04036361
74	0xbe152316	-0.14564165
75	0xbcc402f9	-0.023927199
76	0xbd2b5888	-0.041832477
77	0xbdd214e8	-0.10257894
78	0x3db6ebab	0.08931669
79	0xbb9c98ed	-0.0047789724
80	0xbdcad4ce	-0.099038705
81	0x3d4c3d29	0.049863014
82	0x3e07a5ea	0.13246885
83	0xbe7c420f	-0.24634574
84	0x3ce7c9c3	0.02829445
85	0x3c9b63e6	0.018968534
86	0x3d12f401	0.03587723
87	0xbda34649	-0.0797239
88	0xbe12eaee	-0.14347431
89	0x3e5e33eb	0.21699493
90	0xbdd2a682	-0.10285665
91	0xbe11916a	-0.14215627
92	0xbe169cf0	-0.14708304
93	0x3c66f0b9	0.014095479
94	0xbd35a74f	-0.04434901
95	0x3db6ebbe	0.08931683
96	0x3dda5d1a	0.10662289
97	0x3d0d5de6	0.034513377
98	0x3d1262cf	0.035738762
99	0x3de04f9a	0.10952683
100	0x3ceb62f2	0.028733704
101	0xbd2e5dc3	-0.042569887
102	0x3da0a94e	0.07844792
103	0xbddb7f3b	-0.10717627
104	0x3d80cda9	0.062892266
105	0x3d497ec2	0.04919315
106	0xbd904eb4	-0.070462614
107	0x3dd36267	0.10321503
108	0x3e10c53d	0.1413774
109	0xbd925bb7	-0.071463995
110	0x3db9ee95	0.09078709
111	0x3bb410fc	0.0054951888
112	0x3d0437be	0.032279722
113	0x3e30885a	0.17239514
114	0x3cbcd128	0.023048952
115	0xbe3fbda0	-0.1872468
116	0xbe046548	-0.1292926
117	0xbe04fb7a	-0.12986556
118	0x3dbacde4	0.09121302
119	0x3d893d70	0.067011714
120	0x3d539e05	0.05166437
121	0x3c2caf57	0.010539851
122	0xbd67316e	-0.056443624
123	0x3dca7491	0.098855145
124	0xbc31fd52	-0.010863619
125	0xbdbdade3	-0.09261682
126	0x3dfa81a9	0.12231762
127	0xbde3e6a8	-0.111279786
128	0xbcf361f3	-0.029709792
129	0xbdeb0578	-0.114756525
130	0xbe126f39	-0.1430024
131	0x3d9474f3	0.07248869
132	0x3dc3097e	0.09523295
133	0xbdde351b	-0.10849973
134	0x3d718a57	0.05896982
135	0xbd556137	-0.052094664
136	0x3df646c0	0.12025213
137	0xbd930dcc	-0.07180366
138	0x3bff3830	0.0077886805
139	0xbd0ee091	-0.034882132
140	0x3c5ae3a6	0.01335994
141	0xbd900aeb	-0.070333324
142	0x3dfbbb9b	0.12291642
143	0xbd8c8554	-0.06861368
144	0xbd77d6e8	-0.060507685
145	0x3d78d461	0.060749415
146	0x3d06421d	0.032777894
147	0xbc68d85c	-0.01421174
148	0xbe1f7b73	-0.15574436
149	0xba8a2cd4	-0.0010541924
150	0xbdada36b	-0.08478435
151	0x3d5ee19c	0.054414377
152	0x3dbf1430	0.09330022
153	0xbd19b40b	-0.037525218
154	0x3db9a14c	0.09063968
155	0x3d6df71d	0.058096994
156	0x3dceaef4	0.100919634
157	0x3d463d30	0.048398197
158	0x3d6b9063	0.057510745
159	0xbd2c3b23	-0.042048585
160	0x3d2fdff0	0.042938173
161	0x3df4a945	0.11946348
162	0xbd1d499b	-0.038400274
163	0xbd73b3a6	-0.059497498
164	0xbe0a967a	-0.13533965
165	0x3c90f06b	0.017692765
166	0x3aa4be38	0.0012568897
167	0x3dcfc3ba	0.10144754
168	0x3dc5956e	0.09647642
169	0xbe3457bc	-0.17611593
170	0xbde5a164	-0.112124234
171	0xbe1f5499	-0.15559615
172	0x3cdffac3	0.027341252
173	0x3c7b0a5c	0.015322294
174	0xbce5871a	-0.028018523
175	0x3d0bf5d4	0.034169987
176	0x3c4fc502	0.012681248
177	0x3d2ae8bf	0.04172587
178	0x3dc5ba59	0.096546836
179	0x3d845f52	0.064634934
180	0x3dcc9189	0.09988696
181	0xbcaa6e7b	-0.020804634
182	0x3c742c13	0.014903086
183	0x3e0f7336	0.14008793
184	0xbdd2b90d	-0.10289202
185	0x3c42b018	0.011882804
186	0x3de21ae4	0.11040285
187	0x3df7ea52	0.1210524
188	0xbc8d6117	-0.01725821
189	0xbdb71994	-0.089404255
190	0x3d905268	0.07046968
191	0x3ca91102	0.020637993
192	0xbcf19302	-0.029489044
193	0xbddabdff	-0.1068077
194	0x3dc17756	0.0944659
195	0x3d898cb6	0.067162916
196	0xbc6426c1	-0.013925255
197	0x3b9ee1f6	0.004848714
198	0xbdb7709e	-0.08957027
199	0xbd627b92	-0.055293627
200	0xbdbda85c	-0.092606276
201	0xbddfd355	-0.1092898
202	0xbc1f21c5	-0.009712641
203	0xbdf45b25	-0.11931447
204	0x3d4b98a0	0.0497061
205	0x3d10b223	0.035326134
206	0x3d87a5a5	0.06623391
207	0x3de36558	0.11103314
208	0xbd800e7c	-0.06252763
209	0xbd05f16c	-0.03270094
210	0x3dd32e01	0.10311509
211	0xbd858f2c	-0.065214485
212	0x3caaee92	0.020865712
213	0xbd8083c5	-0.06275133
214	0x3d37d829	0.04488388
215	0x3c73e012	0.0148849655
216	0x3d219117	0.03944501
217	0x3d99051d	0.074716784
218	0x3db52745	0.08845381
219	0xbe10a836	-0.14126667
220	0xbc43e1f2	-0.011955725
221	0xbd549b02	-0.05190564
222	0xbdf8e912	-0.1215383
223	0x3da5ae6a	0.080899075
224	0x3d0ebc03	0.03484727
225	0xbca47e3b	-0.020079723
226	0x3dfb55eb	0.12272247
227	0xbd8bf605	-0.06834034
228	0x3d03778a	0.032096423
229	0x3dcc2dc5	0.09969667
230	0x3e06d845	0.13168438
231	0xbdf54732	-0.1197647
232	0xbd3cd6be	-0.04610323
233	0xbe77d706	-0.24203119
234	0xbdf7f623	-0.12107494
235	0x3cf04ad9	0.029332565
236	0xbdfe9d09	-0.12432296
237	0xbdcddd8f	-0.100520246
238	0x3d2e4372	0.04254479
239	0x3d83f037	0.06442302
240	0x3d966cd0	0.07344973
241	0x3e193112	0.14960125
242	0x3c3c2ff0	0.011486039
243	0xbcb5d282	-0.022195105
244	0x3d5cf6b6	0.05394622
245	0xbda544b6	-0.08069746
246	0x3e5b08de	0.21390101
247	0x3cb907ab	0.022586664
248	0xbd846317	-0.064642124
249	0x3d5ce734	0.05393143
250	0x3be3137f	0.0069298143
251	0x3df407b5	0.119155325
252	0xbe17951e	-0.14802977
253	0x3db1f716	0.08689706
254	0x3d7b3934	0.06133385
255	0x3dcc0fc9	0.09963948

fc2.bias f4 [50]
0	0xbdd69c00	-0.104789734
1	0x3de1c401	0.11023713
2	0xbbb1d612	-0.0054271305
3	0x3d09ec22	0.03367246
4	0x3e3186db	0.173366
5	0xbdfb6924	-0.12275913
6	0x3e14364a	0.14473835
7	0xbdeac5b0	-0.11463487
8	0xbdbc0689	-0.09180934
9	0xbe0146df	-0.12624691
10	0x3e15ddca	0.14635387
11	0x3d8a5efc	0.06756398
12	0x3d11da02	0.0356083
13	0x3d46e9b1	0.04856271
14	0x3dad92ff	0.08475303
15	0x3e043895	0.1291221
16	0x3d58b318	0.052905172
17	0xbe034b36	-0.1282166
18	0x3d22fd65	0.039792437
19	0x3e01c5b9	0.12673081
20	0x3d2db1e9	0.042405996
21	0xbdb77355	-0.08957545
22	0x3d9db5ec	0.077007145
23	0x3d35aa15	0.044351656
24	0xbe0e8223	-0.1391683
25	0xbe0e178d	-0.13876171
26	0xbc509dce	-0.012732936
27	0xbe10efc7	-0.14153968
28	0x3d80192d	0.06254802
29	0xbbe3a752	-0.0069474364
30	0x3e10a1ec	0.14124268
31	0xbd8441bd	-0.06457851
32	0xbd861ffa	-0.06549068
33	0xbc34dcd4	-0.011038978
34	0x3d925b73	0.07146349
35	0x3deae188	0.11468798
36	0x3d2cd3f0	0.042194307
37	0xbd9d1b03	-0.07671168
38	0xbe13027f	-0.14356421
39	0xbdd4a48f	-0.103829496
40	0xbcdb90c0	-0.02680242
41	0xbd92ab12	-0.07161535
42	0xbe02a67e	-0.12758824
43	0x3c88f78d	0.016719604
44	0x3dca6044	0.098816425
45	0xbaad9f38	-0.0013246303
46	0x3bf02606	0.0073287515
47	0xbdb4cd21	-0.08828188
48	0x3b919552	0.004442849
49	0xbe0a72ee	-0.13520405

fc3.weight f4 [50, 50]
0	0xbe08c3d5	-0.13355954
1	0x3dfed9c2	0.12443878
2	0xbdacfbf5	-0.084464945
3	0xbdd2d023	-0.10293605
4	0xbca54573	-0.020174718
5	0xbd2f7a56	-0.042841278
6	0x3e04410c	0.12915438
7	0xbdc21096	-0.0947582
8	0xbd56f5ed	-0.052480627
9	0x3d910f3e	0.07082985
10	0x3e14922b	0.14508884
11	0x3ca62efc	0.020286076
12	0xbd5bae57	-0.05363306
13	0x3dca0fad	0.09866271
14	0x3e259987	0.16171847
15	0x3d65be2e	0.056089573
16	0xbdcf04d2	-0.10108341
17	0x3ceb6bbe	0.028737899
18	0x3df9f35a	0.12204619
19	0xbe02ca45	-0.12772472
20	0x3d3cb198	0.046067804
21	0xbded2676	-0.115796015
22	0xbd434d7c	-0.047681317
23	0x3d22395e	0.03960549
24	0x3dd362d6	0.10321586
25	0x3e05de02	0.1307297
26	0x3dcf4c0c	0.10121927
27	0x3cd691e1	0.026192607
28	0xbc8b6ad7	-0.017018719
29	0xbdbbf59c	-0.09177706
30	0xbd7fd6bf	-0.062460657
31	0xbde9f765	-0.1142414
32	0x3d96f2a7	0.07370501
33	0x3d2be2ed	0.04196446
34	0xbdbb200a	-0.0913697
35	0x3e0eaab0	0.139323
36	0x3d26b6cf	0.040701684
37	0xbdab3875	-0.08360378
38	0xbde9c180	-0.1141386
39	0xbd5a82f3	-0.05334754
40	0xbde10216	-0.10986726
41	0xbe0acdcb	-0.13555066
42	0xbdad7b75	-0.08470813
43	0x3dc2a77a	0.095046
44	0x3dca017c	0.09863564
45	0xbd789e9c	-0.060698137
46	0xbd74859a	-0.059697725
47	0x3dd83eb1	0.105588324
48	0x3e12cc7c	0.14335817
49	0x3cafc8e7	0.021458102
50	0x3e0b3ef8	0.1359824
51	0xbc9c3f9e	-0.019073304
52	0xbdc798b8	-0.09745926
53	0xbd7e7058	-0.062118858
54	0xbd78f710	-0.060782492
55	0x3e320554	0.17384845
56	0x3e1b2b9b	0.15153353
57	0xbde35a46	-0.11101203
58	0x3e3bb865	0.1833206
59	0xbdf8922f	-0.12137257
60	0xbd4d9bb7	-0.05019733
61	0x3e35b8e4	0.17746311
62	0x3ddb0a1b	0.10695287
63	0x3d94273f	0.07234048
64	0xbd3f2524	-0.04666628
65	0xbd4bf451	-0.049793545
66	0xbdcd2210	-0.100162625
67	0xbca42576	-0.020037394
68	0x3dd1884d	0.102310754
69	0xbd80a4ab	-0.06281408
70	0xbdbe43c6	-0.092902705
71	0xbcdf12e3	-0.027230686
72	0x3d46de81	0.04855204
73	0xbdd5349d	-0.10410426
74	0xbd5ed872	-0.054405637
75	0xbd8ff01a	-0.070282176
76	0x3dae19e7	0.08501034
77	0xbcdc1e0b	-0.026869794
78	0x39bf363a	0.0003647076
79	0x3d1c6c59	0.038189266
80	0x3d2bfb94	0.04198797
81	0x3dc2c0ad	0.09509406
82	0x3e2c2556	0.16811118
83	0x3db64415	0.08899704
84	0xbde2b3c8	-0.11069447
85	0x3d5c2464	0.053745642
86	0xbdf28b96	-0.1184303
87	0x3e0b6fec	0.13616914
88	0x3d0a5b51	0.033778492
89	0x3b1d4083	0.002399475
90	0xbc929fc1	-0.017898442
91	0x3d861daa	0.06548627
92	0xbcde6900	-0.027149677
93	0xbd2083f5	-0.039188344
94	0xbd36b987	-0.044610526
95	0xbd50c14f	-0.050965603
96	0x3d9a2d00	0.07528114
97	0x3e16106b	0.146547
98	0x3e112009	0.14172377
99	0x3d7a58e6	0.061119936
100	0x3e10204e	0.14074823
101	0x3db7eb35	0.08980409
102	0x3e02bf98	0.127684
103	0x3cf056a5	0.02933819
104	0x3be4430b	0.006966
105	0xbd9a5934	-0.075365454
106	0x3e1a9e6b	0.15099494
107	0xbdf15d88	-0.11785418
108	0x3d911dbf	0.07085752
109	0xbe1b9869	-0.15194859
110	0xbd84fa8e	-0.06493102
111	0x3dbf9ace	0.093556985
112	0xbe0dc83d	-0.13845916
113	0x3a6be9a7	0.00089993555
114	0xbc98bdb5	-0.018645147
115	0x3dde2416	0.108467266
116	0x3e063c73	0.13108997
117	0xbe4dbe94	-0.20092231
118	0x3df25163	0.118319295
119	0xbd999cb6	-0.07500593
120	0x3c3f2ff5	0.011669149
121	0x3de29a4a	0.110645846
122	0xbd5712f6	-0.052508317
123	0x3de6efeb	0.112762295
124	0x3c2fa532	0.010720538
125	0x3dd7ecaf	0.10543191
126	0xbc3ac005	-0.01139832
127	0x3de42dbb	0.11141535
128	0x3e5c6a1d	0.21524854
129	0xbdfef92a	-0.12449868
130	0x3dc2ce3d	0.09511993
131	0xbe189596	-0.14900813
132	0x3dd18f9e	0.10232471
133	0x3d959837	0.07304423
134	0xbcfefbae	-0.03112587
135	0xbdb4c42b	-0.088264786
136	0xbdaa3d26	-0.083124444
137	0xbd06a913	-0.032876085
138	0xbdb3a6ee	-0.08772074
139	0x3dc1c7e5	0.09461955
140	0x3d9b7e6b	0.07592472
141	0xbb104e27	-0.0022019239
142	0xbe2c48ef	-0.16824697
143	0x3e483eba	0.19555178
144	0x3daff912	0.08592428
145	0x3ddf43a2	0.10901572
146	0x3dc0cb01	0.0941372
147	0xbafa6ef6	-0.0019106555
148	0x3d750a6b	0.05982439
149	0xbdbeaca5	-0.09310273
150	0x3e2012c7	0.15632163
151	0x3d517242	0.051134355
152	0xba8a8605	-0.0010568505
153	0x3b19cc87	0.0023467855
154	0xbd33ca7f	-0.043894287
155	0x3d849270	0.06473243
156	0x3dec3ddf	0.115352385
157	0x3b8f60dd	0.0043755607
158	0x3da9e2ea	0.082952335
159	0x3df2d96a	0.11857875
160	0xbd2f059d	-0.042729963
161	0xbd190dc7	-0.037366655
162	0xbdc3cf71	-0.09561051
163	0xbb900d34	-0.004396105
164	0x3d22aa02	0.039712913
165	0x3dd5065d	0.10401604
166	0x3de8793a	0.11351247
167	0xbe05bc2a	-0.1306006
168	0x3c671fe6	0.014106726
169	0x3e0d3c66	0.13792571
170	0x3db8acea	0.09017356
171	0xbc1f5a35	-0.009726097
172	0xbd3f8c21	-0.046764497
173	0xbd1699e2	-0.036767848
174	0x3e3c3437	0.18379293
175	0xbd8b237c	-0.067938775
176	0x3e03afda	0.12860051
177	0xbe078390	-0.13233781
178	0x3e179837	0.14804159
179	0xbdfc95d0	-0.12333262
180	0xbe280090	-0.16406465
181	0xbdb1a3ad	-0.08673797
182	0x3b83d85d	0.0040235952
183	0xbbbfdfbe	-0.0058555296
184	0x3d097950	0.03356296
185	0x3e2ee019	0.17077674
186	0x3d648555	0.055791218
187	0xbd095540	-0.033528566
188	0xbde9eb9e	-0.114218935
189	0x3da69f80	0.08135891
190	0x3d8d5596	0.0690109
191	0x3bfe0c1f	0.00775291
192	0xbcd0a206	-0.025467884
193	0x3d2b23e9	0.041782293
194	0xbd100d05	-0.035168666
195	0x3d927365	0.07150916
196	0xbe0fa852	-0.14029053
197	0x3ccad729	0.0247608
198	0xbdb01e24	-0.08599499
199	0xbe04e9b4	-0.12979776
200	0x3da56b4c	0.08077106
201	0x3d8b7a00	0.06810379
202	0x3d65c34b	0.05609445
203	0x3e220642	0.158227
204	0xbd782354	-0.060580567
205	0x3e08b0aa	0.13348642
206	0xbd809e69	-0.06280214
207	0xbce4c9fe	-0.027928349
208	0x3d9e8a24	0.07741192
209	0xbdbd4dd3	-0.092433594
210	0xbd5322f6	-0.051547013
211	0x3e04332f	0.1291015
212	0x3de30043	0.11084034
213	0x3dc8ceb0	0.098050475
214	0x3deb68d0	0.11494601
215	0xbd9cb44e	-0.07651578
216	0x3d9377f5	0.07200614
217	0xbd96a4c5	-0.07355646
218	0xbd5fae59	-0.05460963
219	0xbd93bde0	-0.0721395
220	0xbe0161cb	-0.12634961
221	0xbd4d9f46	-0.050200723
222	0x3e125c2b	0.14292972
223	0x3dbe9dff	0.09307479
224	0x3c85c851	0.01633087
225	0xbd2dc962	-0.04242838
226	0x3d8737bd	0.06602428
227	0xbcb8e4c8	-0.022570029
228	0x3e12d8a8	0.1434046
229	0xbdca66f2	-0.098829165
230	0xbdd97fd4	-0.106200844
231	0xbd9c580a	-0.076339796
232	0x3afd4474	0.0019322769
233	0x3d3ded3f	0.046368834
234	0x3db119c2	0.08647491
235	0x3d4ffcfd	0.050778378
236	0xbd625e69	-0.055265818
237	0xbd8086fc	-0.06275746
238	0xbdfb8dcf	-0.12282907
239	0xbd04b036	-0.03239461
240	0xbd99e351	-0.0751406
241	0x3e218d58	0.15776575
242	0xbd0c91cb	-0.034318727
243	0xbd04c633	-0.03241558
244	0x3b9c0ecf	0.0047625075
245	0x3d8a9fa5	0.06768731
246	0xbd8434b2	-0.06455363
247	0xbdd52f40	-0.10409403
248	0x3d26e7bc	0.040748343
249	0xbd679154	-0.05653508
250	0x3cf50c7e	0.029913183
251	0x3d7f0515	0.062260706
252	0x3d921e00	0.07134628
253	0xbe073975	-0.13205512
254	0xbe10a37b	-0.14124863
255	0x3deb6247	0.11493354

fc3.bias f4 [50]
0	0x3cb83cca	0.022489924
1	0x3da245c0	0.0792346
2	0xbd2de5f8	-0.042455643
3	0xbd98e783	-0.07466032
4	0x3d0d3af1	0.03448004
5	0x3dcd967d	0.10038469
6	0xbd6784b2	-0.056523032
7	0x3c8ea293	0.017411506
8	0x3de9ee1d	0.1142237
9	0xbdc71eb5	-0.09722654
10	0xbd56d069	-0.05244485
11	0x3a953292	0.0011382869
12	0xbdb04713	-0.08607306
13	0x3df2c37d	0.11853693
14	0x395a7f93	0.00020837625
15	0x3dedc756	0.11610286
16	0xbdf41d4d	-0.11919651
17	0x3cfd1451	0.030893477
18	0x3d572a2a	0.052530445
19	0x3df7250e	0.120676145
20	0x3d6cee27	0.057844307
21	0xbdaff3b6	-0.08591406
22	0x3c3c9ee5	0.011512493
23	0x3e112104	0.1417275
24	0x3e55678f	0.20840286
25	0x3e20ab48	0.15690339
26	0x3d49bd52	0.049252816
27	0xbd4c6bf8	-0.049907655
28	0x3e16f5cd	0.14742203
29	0x3c9ca306	0.019120704
30	0x3ddd709f	0.108124964
31	0xbddff7e1	-0.10935951
32	0x3c9376b6	0.018000942
33	0xba94f4fc	-0.0011364515
34	0x3dc8e6b6	0.098096296
35	0x3d6da2d1	0.058016602
36	0x3d6a6b0a	0.057230987
37	0xbd56cfea	-0.052444376
38	0xbd7e96a8	-0.062155396
39	0x3e5c784c	0.21530265
40	0xbc87991a	-0.016552497
41	0x3d35bfeb	0.04437248
42	0x3dddb4d2	0.10825504
43	0x3d8baabf	0.068196766
44	0x3d9de7a1	0.07710195
45	0xbdf87f86	-0.12133698
46	0x3db4da64	0.08830717
47	0xbd7e2153	-0.0620435
48	0xbdc8a319	-0.097967334
49	0xbcec6a30	-0.028859228
