checkpointing_test/sigmoid_example_s12345/models/eval_checkpoint_800.pt (torch, 95431 bytes, 24 tensors)

fc1.weight f4 [50, 7]
00000000: 6d85 8ebe 50e4 933e 61f6 da3e 3dff 343e
00000010: 5709 e2be f020 043d 510b 49be 0c01 89be
00000020: 913f 07be 4748 a5be 0367 bdbe 42bd f4bd
00000030: 2293 bebd e578 b4be e492 b5bd c98d 37be
00000040: 1484 90bd dbc5 8d3e fcd6 ba3e 7418 a03c
00000050: 3b3e 18be c25a c5bd 580e b83e 215b dabe
00000060: 0c03 893d 6e01 3cbe e74b 84bd 5bee abbd
00000070: 4f5a 82be 6a1e 64be 0149 38be b7f9 eabe
00000080: 592d d33e 3d97 83bc 102f 473e cb2a b83e
00000090: f457 743e 1dfe 083e a791 b03e 0804 973d
000000a0: 23d6 70bd 275c 0a3e c6a5 7bbd ad03 23be
000000b0: 6b4c fc3c 8c9d c53e 57e3 3e3e 41f6 183e
000000c0: f4fd 2c3e 02a4 59be dd8e a13e f844 303e
000000d0: 2432 06be 1f5a 743b 1ab7 3e3e 06ee ddbd
000000e0: 45a5 913c 2aa5 303e 8cd2 b3be 1101 b33d
000000f0: c6fe 1b3e 15d9 553e 288d 96be cb8e 87be
00000100: 734d 593e 1ff5 bc3e 5276 ac3e 147e ff3d
00000110: 40b7 e4bd 2039 633d 224c 05bf 644f 80bd
00000120: 987e 643e 716b 66be 63e1 bbbe 9339 893e
00000130: 85d8 4bbd e81a bfbe 2dd5 63bd 9820 a03e
00000140: 57f1 913e 3d6e e23d 7f7c 14be 2ed6 bcbe
00000150: b447 c93e ed53 5fbe 8c80 68bd 4cc9 50be
00000160: 3190 7bbe f489 bcbe b0fc 643e eb9b 8abe
00000170: 76ff 8a3d 9de0 2b3e 0564 8c3e a9c8 d3be
00000180: 32d1 03be f8fc ddbe 1cea cebe 0577 873e
00000190: 4bb4 673e 0b70 47bd 4047 7dbe 9e76 afbe
000001a0: 9cee b83e e14c be3e e8d8 0cbe 3da5 c9bd
000001b0: 0451 6dbe 0d09 883e 37e0 0bbe 9cd5 3fbe
000001c0: 2e27 a5be 655d bdbe 1cbb 983d 28db d73e
000001d0: 538b 92be 149d a53e 02a3 573e 9871 edbc
000001e0: 29d3 79be d203 7d3e a357 993e d2d1 c33e
000001f0: 8596 b03e 8200 9d3d 2a67 00be 1b55 6a3e
00000200: 33f3 b3bd 8c5c bdbc 0300 603e d4ec 243e
00000210: 6501 fc3c 7177 26bf 1ba0 b63e 1a92 36bc
00000220: 02ad 263e 540d c0bd ec38 323d 64e7 a33d
00000230: 7231 48be 6a27 ab3d 6ba8 123c 88a3 c63e
00000240: 9f5f 0abe 14f9 47be 1e14 05be 5a33 283e
00000250: 4cf4 81be 212a 4b3e 005d d93d 9e7d a7be
00000260: 2ef7 903d a769 43be 5152 26bf 09ce 143c
00000270: 2063 49be 1edb ac3e 45f4 803e a16f a7bc
00000280: 440b 703d 8692 be3e 527b 453e a8ed 26be
00000290: 5be0 d3be 4bfb 6dbe ca58 1abd 425d 833c
000002a0: e6b5 a33e e410 c7bb f63b 413e f315 733e
000002b0: eaa5 87be f5d8 fbbd 8e15 843d 8c13 cc3e
000002c0: 3921 3d3e bb28 86be 6352 11bc 1c2f 083e
000002d0: dbed 143e 9333 863e 203a a6bd 5f43 df3d
000002e0: 60ce 5abe 1813 863e 4b02 d6bb 8328 b4be
000002f0: 8939 04be 4ee4 bbbc 134f a83e 2327 00bc
00000300: 5749 83be ae47 d7be 98fa b6be c62c 9a3e
00000310: 4d8d 2c3e 4697 c6be 7396 b2ba 714d 823e
00000320: bbee 643d fb36 b1be bd02 8c3e 7b5f 8f3e
00000330: f7a9 acbe 2d5d d8be b44f 99be 7d70 133e
00000340: 3bee 5bbe 26b7 ba3e dc40 613e 67fb 9cbe
00000350: 334a e4be 9f07 31be e9f3 37be 077f 4e3e
00000360: 9cc3 1bbd 66ff aabd 76d6 c1bd 54b3 c43e
00000370: 6e78 cc3e 9e12 d8be 0bdb b53c 93f7 91be
00000380: da47 12bf b9a8 d33d f6d7 ac3e c275 403d
00000390: 6c1b 263c 3cba 3f3d 2b74 b83d 36f5 7abe
000003a0: c4ae 41be ed01 f7be 9fd3 65be b630 99be
000003b0: a6fc d2be 9054 0f3e 741d 44bd 9736 e4be
000003c0: f2fc 6ebe 1431 bfbd 00be 7ebc 91d7 a43e
000003d0: 16e9 9e3e 9dee e53d 8e9b e4be 829b 90bd
000003e0: 26c2 003e d818 063e 0537 38be 5c0c 583c
000003f0: 8782 8a3d cc18 cd3e 54df 90be ade7 92be
-0.2783617 0.28885126 0.42766097 0.1767549 -0.4414775 0.032257974 -0.19633223 -0.2675861
-0.13207842 -0.32281706 -0.36992654 -0.119501606 -0.09305407 -0.35248485 -0.08865908 -0.1792518
-0.07056442 0.27690014 0.36492145 0.01954291 -0.14867489 -0.09636451 0.35948443 -0.4264765
0.06690034 -0.1835992 -0.0645979 -0.08395072 -0.25459525 -0.22277227 -0.17996599 -0.45893642
0.41245535 -0.016063327 0.19451547 0.35970148 0.23861676 0.13378187 0.34486124 0.07373816
-0.058797967 0.13511716 -0.06143739 -0.15919371 0.030798158 0.3859676 0.18641411 0.14937688
0.1689375 -0.2125397 0.3155431 0.1721381 -0.13105065 0.0037285162 0.18624535 -0.10836415
0.017779002 0.17250505 -0.35121572 0.08740438 0.15233907 0.20883591 -0.2940457 -0.2647613
0.21220951 0.36905763 0.3368402 0.12475219 -0.11167765 0.0554744 -0.52069294 -0.062651426
0.22313917 -0.22501923 -0.36695394 0.26801738 -0.049767036 -0.37325215 -0.055623222 0.31274867
0.2850444 0.110561825 -0.14500616 -0.36882156 0.39312518 -0.21809359 -0.056763217 -0.20389289
-0.24566723 -0.36824 0.22362018 -0.2707208 0.067870066 0.16784902 0.2742006 -0.4136403
-0.1287277 -0.43357062 -0.40412986 0.26457992 0.2262737 -0.048690837 -0.24734211 -0.34270185
0.36119545 0.3716803 -0.13754618 -0.0984597 -0.23175436 0.26569405 -0.1365975 -0.1873383
-0.32256454 -0.36985317 0.07457563 0.4215939 -0.2862192 0.32346404 0.21058276 -0.02898483
-0.24396957 0.24708489 0.29949674 0.38246018 0.34489837 0.076661125 -0.12539354 0.22884028
-0.08786621 -0.023115419 0.21875004 0.16105968 0.030762384 -0.65026003 0.35669026 -0.011143232
0.16276935 -0.09377542 0.043511316 0.08003119 -0.19550112 0.08357127 0.008951287 0.3879664
-0.13513039 -0.1952861 -0.12995955 0.16425839 -0.25381696 0.1984029 0.106134415 -0.32713026
0.07078396 -0.19083272 -0.64969355 0.009082326 -0.1966672 0.33760923 0.25186363 -0.020438971
0.058604494 0.37221164 0.19285324 -0.16301596 -0.41382107 -0.23240392 -0.037682332 0.01603568
0.31974715 -0.0060750116 0.1887053 0.23738842 -0.2649377 -0.12297241 0.06449424 0.39858663
0.18469705 -0.2620295 -0.00886974 0.13299221 0.1454386 0.26211223 -0.08116555 0.10901522
-0.21367788 0.26186442 -0.006531035 -0.35187158 -0.12912573 -0.022936013 0.3287283 -0.007821831
-0.2564189 -0.42046875 -0.35738063 0.30112284 0.16850777 -0.38787287 -0.001362516 0.25449708
0.055891734 -0.3461226 0.2734584 0.28002533 -0.33723423 -0.42258587 -0.2994362 0.1439838
-0.21477596 0.36467856 0.21997398 -0.30660555 -0.4458786 -0.17288063 -0.17964138 0.20165645
-0.038028345 -0.08349495 -0.09464733 0.38418067 0.3993563 -0.42201704 0.022199174 -0.28509197
-0.57140887 0.10334916 0.33758515 0.046987303 0.010138374 0.046808466 0.09006532 -0.24507603
-0.18914324 -0.48243657 -0.22444008 -0.29919976 -0.4120838 0.13997102 -0.04787965 -0.445729
-0.23338678 -0.09335533 -0.015548229 0.32195714 0.31037205 0.112271525 -0.4464993 -0.07060911
0.12574062 0.13095415 -0.17989738 0.01318654 0.06763177 0.4005798 -0.28295386 -0.2869238

fc1.bias f4 [50]
00000000: e1db b6be a433 67be ab16 11bc bd57 ec3d
00000010: 6e34 ee3e d591 c43d 479f a5bd 8595 d13e
00000020: 18f8 42be cd22 433d 3adb 1bbe 5fe1 45be
00000030: c87b 0a3e 9359 683e 4bb3 033c 90e5 05bd
00000040: d923 84be 09ea d93e ccca b53d 60fc bb3d
00000050: 71db 30bd 78c1 663d fd41 bc3e b6f0 acbd
00000060: 0fd1 b03e 64e0 753e 7d48 2f3e f8ca 5a3d
00000070: 57d3 f2bb d648 b5bd 311a 963d d511 debd
00000080: d2f6 f7bc 02d0 f5bd e207 853e fa5e 5cbe
00000090: e43d d6bd dd4f f9bc 3940 4a3e 4760 c63e
000000a0: 3bf8 b13e 3dd0 2dbe ff0b 313d dc03 d03d
000000b0: 7187 5fbd f61e 9cbe 34e3 06bc 71e5 81be
000000c0: b80c f2bd d5c4 313e
-0.3571463 -0.22578293 -0.008855502 0.11540172 0.46524376 0.09598128 -0.0808702 0.40934387
-0.19039953 0.04764061 -0.15220347 -0.19324253 0.13523781 0.2269042 0.008038352 -0.03268963
-0.258086 0.42561367 0.08876571 0.09178996 -0.043178026 0.05633685 0.36769095 -0.084443495
0.345345 0.2401138 0.17117496 0.053416222 -0.0074104476 -0.08851783 0.07329214 -0.10843245
-0.03026906 -0.12002565 0.25982577 -0.21520606 -0.104610234 -0.03043359 0.19751061 0.3874533
0.34759697 -0.16973968 0.04322433 0.10156986 -0.054572526 -0.3049237 -0.00823288 -0.25370362
-0.11818832 0.17360242

fc2.weight f4 [50, 50]
00000000: 2542 823d dcd1 643a 9c01 703d f991 afbd
00000010: 1c00 333e 2d23 883d 032a d7bd 5073 ecbc
00000020: ff07 21bc 81f6 47be 9c40 60be 87f1 5cbe
00000030: f193 753d d70b d93c f462 a4bd 21dd cc3d
00000040: cc4b 2cbe ffaf fe3c 2304 4fbd 269e ce3d
00000050: 1653 8e3d 2bf3 893e 86a6 0dbe 1d9d 1a3e
00000060: d135 ae3c 070d 4a3c c500 8abd 3edb 66be
00000070: db45 61be ba18 babb 6fba 03bd 373b e0bc
00000080: 9fae 6f3d 8e39 5e3d 58cd 23be 8113 1fbe
00000090: fc6a 80bd c17a 16be 9eff 623d 62c5 053d
000000a0: c1e4 99bc ffb4 f83d a2e7 0bbe 43b5 23be
000000b0: 5da3 bb3d c565 88bd 32b3 c33d 084b c1bc
000000c0: fdb1 783c f9bd 703d c2bb 943d 4f7e e13d
000000d0: bc9b 433e aeb8 ef3d fd26 9c3e e843 a9bd
000000e0: da63 81bd fdff 263e a236 013e 9b36 46bd
000000f0: 2e6c c5bd afac 48be 04a1 29be c1e1 f63d
00000100: b7c9 083d 2c3c c23d e095 8739 f66e 02bd
00000110: b1df a83d 2159 d1bd 3ec8 43be 15c8 3ebd
00000120: 7ae5 77bd 5f66 bdbd fa87 20bb d907 ea3d
00000130: f362 053e 4a7b c33a 3c0a 773d 57d6 56bd
00000140: 2431 49be d73a a0bd 17c9 3ebe 59fc d3bd
00000150: cdb9 14be 5c25 28be d9c0 c8bb 84d6 a7be
00000160: a99c 023e 9e9a 1e3d ba26 b63b e810 8d3d
00000170: 3e65 f4bd a739 933d 6c37 1bbe a1f2 78be
00000180: 0a67 b8bc 79a7 da3c 8089 1cbd 6422 e83d
00000190: b9a2 babd e062 68bd ddaf 283d 525c 50bd
000001a0: 7539 f1bd 2301 0dbe 83e1 9bbd 137c 893d
000001b0: 01e1 ebbd 61e6 0a3e 3bf0 ed3c 0bce 81bd
000001c0: 722e a73d b2a7 d1bd c300 97bd 6551 bbbd
000001d0: 2d97 0dbe 98bb 98bd 112d 02be 11ae 533d
000001e0: 0a02 093e bc96 a8bd b61b 0cbe 884f cc3d
000001f0: 2452 98bd 908e 62bd 736f c3bd bdd2 aabd
00000200: ea40 c3bd f4ea 6ebd bb85 823c 8e26 043d
00000210: 48ed 883d 4458 e43d 278b 883d 3d87 54bd
00000220: a381 5b3d c934 f83d 379c 04bd d531 cdbc
00000230: 40ba 233d 775f 07bd d6fa afbc 8b23 bf3c
00000240: ed79 093e 9e87 3dbc 01bc 01be fe96 833c
00000250: 2652 efbd c849 013e d3b7 3d3e 336f 1bbd
00000260: ca94 1abd 8947 143e be3c e0bd 194a 78bc
00000270: 07ec 8ebd 2b98 da3d 87bc ecbd d583 04be
00000280: c988 173c 397a c8bc df76 39be eb43 2f3e
00000290: f914 b7bd af8e cbbb 1160 51be 9008 303d
000002a0: 115c ea3d 980d 713e 03f6 bc3d 759d ed3c
000002b0: 8df5 de3a 9440 a0bd d179 ed3c 81d4 b53d
000002c0: ce0f 413d 04ec 0e3d ae3c 973d 9a34 0abe
000002d0: 2ac6 f6bd ab45 a53d f932 98bb 720a 223e
000002e0: 38a9 303c 02f3 da3b 459f a2bd 9f12 80bc
000002f0: 929a 10bc 055b b6bd 500c 1abe 449c b0bd
00000300: d760 28bd 3958 d03d 600b 0fbe 344b 0d3e
00000310: 0531 c03d a00e e8bd 8567 003e d9ad e6bc
00000320: ffd2 92bd 4df1 35bd 7f00 703d 9278 b2bd
00000330: 586c 86bd e018 a83d 0a74 403d 70a4 98bd
00000340: c6aa 94bc 7fa8 e43d da8c 7dbe ffc5 29be
00000350: d023 573c da12 e2bd 3fb1 b3bd 5853 483e
00000360: 4de1 0a3e 94c1 be3d 80c8 323e f4ba d3be
00000370: d6c2 123e 88c9 273e 0ce1 45be b13e 823d
00000380: 9429 8b3e 8389 f13d eea1 6d3d 4e25 c73d
00000390: 7074 0a3e 74f2 8dbd c42e 063e d07e 133e
000003a0: fd07 f2be 3816 903e b75c bf3d cfac 2e3e
000003b0: f142 35bd 79f4 1b3e 8f05 773d a2ba 453d
000003c0: 55f2 83bc 1f43 7dbd 4657 663d 1e4b 98be
000003d0: 74a4 ff3d 3f32 443d ec53 6e3d 2a35 abbd
000003e0: 454c 563e b338 2e3e 27b5 06be 8387 6bbd
000003f0: 8933 a63c 9c3f 373d 0744 f33c e885 06be
0.06360272 0.0008728781 0.058595285 -0.08572764 0.1748051 0.06647334 -0.1050606 -0.028863579
-0.009828567 -0.19527628 -0.21899647 -0.2157651 0.05995554 0.026494903 -0.08026686 0.100031145
-0.16825789 0.03108978 -0.050541054 0.10088758 0.06949441 0.26943335 -0.13833055 0.15098996
0.021265896 0.0123322075 -0.06738428 -0.22544572 -0.21999304 -0.005679217 -0.03216022 -0.027371986
0.05851614 0.054254107 -0.15996301 -0.15534784 -0.06270406 -0.14695264 0.055419557 0.032658942
-0.018785836 0.12143897 -0.1366258 -0.15987115 0.091620184 -0.06660036 0.09555663 -0.023595348
0.015179154 0.058774922 0.072623745 0.110104196 0.19102377 0.11705147 0.30498496 -0.08264905
-0.06317873 0.1630859 0.12618497 -0.04839192 -0.09639774 -0.19597124 -0.16565329 0.12054778
0.033395495 0.09484133 0.00025860872 -0.0318441 0.08245791 -0.10222078 -0.19119355 -0.04657753
-0.06052158 -0.09248041 -0.002449511 0.11427278 0.13026027 0.0014914062 0.060312495 -0.052450504
-0.19647652 -0.07823723 -0.18631397 -0.10350866 -0.14524002 -0.16420501 -0.006126505 -0.3278085
0.12755074 0.038721673 0.005558816 0.0688799 -0.11933373 0.07188731 -0.1515786 -0.24311306
-0.02251007 0.026691185 -0.038217068 0.113346845 -0.09113068 -0.05673492 0.04118334 -0.050869294
-0.11778537 -0.13769965 -0.07611372 0.067131184 -0.115175255 0.13564445 0.029045215 -0.06338128
0.081631556 -0.102370635 -0.07373192 -0.09146384 -0.138272 -0.07457656 -0.12712504 0.051679675
0.13379684 -0.08231875 -0.13682446 0.09976107 -0.07437542 -0.05531174 -0.095427416 -0.083409764
-0.09533866 -0.058329538 0.015932908 0.03226333 0.06685883 0.11149648 0.06667166 -0.051886786
0.053590428 0.12119443 -0.03237554 -0.025048176 0.039972544 -0.033050027 -0.021481913 0.023332378
0.13425417 -0.011567978 -0.12669374 0.01606321 -0.116855904 0.12625802 0.18527155 -0.037947845
-0.037739553 0.14480413 -0.10949086 -0.015154385 -0.069786124 0.10673555 -0.11559396 -0.12940915
0.009248921 -0.024472343 -0.18111752 0.17115752 -0.08939547 -0.0062120776 -0.20446803 0.042976916
0.114433415 0.23540342 0.092266105 0.029005745 0.0017010436 -0.07824817 0.02898875 0.088784225
0.047134213 0.03489305 0.073846206 -0.13496628 -0.120495155 0.08069929 -0.0046447483 0.15824297
0.010782532 0.006681801 -0.079405345 -0.01563388 -0.008825915 -0.08904079 -0.1504376 -0.08623555
-0.04110798 0.10173077 -0.13969183 0.13798219 0.0938435 -0.113309145 0.1253949 -0.028159069
-0.071691506 -0.044419575 0.058594223 -0.08714403 -0.06563634 0.082078695 0.046985663 -0.07453239
-0.018147837 0.111649506 -0.24760762 -0.16579436 0.013131097 -0.11038752 -0.087740414 0.19563043
0.13562508 0.09314266 0.17459297 -0.4135357 0.14332137 0.16385472 -0.1932413 0.06359614
0.2718016 0.117938064 0.058015756 0.09723912 0.1352098 -0.0693101 0.13103777 0.14403844
-0.4727172 0.28141952 0.09343856 0.17058109 -0.044253293 0.15229978 0.060308035 0.04827369
-0.016106764 -0.06183159 0.056235574 -0.2974481 0.12482539 0.04789948 0.058185503 -0.083597496
0.20927532 0.17013817 -0.13155042 -0.05750228 0.020288246 0.044738397 0.029695524 -0.13137019

fc2.bias f4 [50]
00000000: 427e fd3c 37e2 163e 4844 b6bd c74b d2bd
00000010: 0d50 883d 969a 8abd 2707 243e 7f8c 2abe
00000020: 2402 3d3d 8663 ddbd 7c45 07be 9142 803d
00000030: 5fef a03b e30b 9f3c b939 2c3e ab39 eb3c
00000040: 4131 4cbc 46ef 39bb 529c 37bc e27f 493e
00000050: 113c 85bc abde 453e bbb4 1abc 201e a0bb
00000060: ca07 653d 9ecd 45bd 19ad f1bd 832f 313d
00000070: 3f05 6a3e ab01 fabd fa54 95bd cb6d 31bd
00000080: 63ff 2d3e 93f8 4b3d 1743 503e d5f8 523d
00000090: 237a 47bd c6d8 1cbe 7fbe 863d fde0 ebbc
000000a0: 43f5 bd3c 62a5 b63d b320 4dbb dce9 d3bd
000000b0: 6c20 ccbd fc38 303d 3992 05be abe8 b0bd
000000c0: 9e35 8f3d ea05 d3bd
0.030943993 0.14734732 -0.08899742 -0.1026836 0.066558935 -0.06767766 0.16018353 -0.16655158
0.04614462 -0.10809998 -0.132101 0.062626965 0.0049113478 0.019414848 0.16818894 0.028714022
-0.012462915 -0.0028371378 -0.011206703 0.1967769 -0.016263993 0.19323222 -0.009442504 -0.0048864037
0.05591563 -0.048291795 -0.11800594 0.0432582 0.22853564 -0.122073494 -0.072915986 -0.043317597
0.16991954 0.049797606 0.20338093 0.051506836 -0.048700463 -0.15317068 0.06579303 -0.028793806
0.023188239 0.08918263 -0.0031300008 -0.103473395 -0.099671215 0.043023095 -0.13044061 -0.08638128
0.069926485 -0.103038624

fc3.weight f4 [50, 50]
00000000: b880 4cbd 7948 5bbd 0447 903b b1d4 dc3c
00000010: efef b23d 480f 81bc aae7 11bc 6c4f 0ebe
00000020: f03c f73d 4ab3 d9bd a1f6 b63d fb95 1dbc
00000030: c6f1 4ebd b541 223e 9946 5cbd e18c dc3d
00000040: 683e b23d 0074 7ebc 14f6 003d 8249 b8bd
00000050: 38dc f03d cc23 2bbc 4eee 9d3d 7709 0c3e
00000060: 475a 583d b2c8 123d 40d3 d5bd 1b32 1bbc
00000070: be82 ec3d 4437 1c3d 4fa2 17bd 1eaa c5bc
00000080: 831b 9a3d 2be4 c03c f77b 253e 6afa 39be
00000090: db5b f33d 1d2a f43d a3db 8dbc 0c0e 553e
000000a0: 8ae1 a0bd 1a21 8c3d 2678 203d b7e2 d6bb
000000b0: 2a80 8c3d 58cd 393e 411e 6b3d ad76 ebbd
000000c0: 38aa b03d 338a dcbc 4b82 62bd b857 73bd
000000d0: 09d2 0dbe 2b95 95bd c94b bd3d cf41 ebbc
000000e0: 4ca0 b53d dade 72bd f3bc 833b ee93 3e3d
000000f0: e118 de3c f327 e63d 7f33 1fbd 420f 743e
00000100: 0d8b c9bd d656 1abd 38c7 3f3b f794 173d
00000110: b803 eb3d 9c07 953d 2bd8 4dbb 20ee 1d3e
00000120: cb7f b83d 78bd bb3d d103 0abd c799 813e
00000130: d3a5 0c3d 1a91 603e 7e5f 9f3d ce00 ba3c
00000140: 685f f1bd d816 5bbd 269f 5b3d 452c 9fbd
00000150: 50d1 2f3e 8a0b cd3d cf03 093e 0dff 6b3a
00000160: 5bb7 32be f2ab 633e 1974 2b3b 35fa 613e
00000170: ce67 423d 2023 3abd b864 c73d 15f4 8ebe
00000180: 15a9 2a3c 368b ea3d f9bf b2bd 51f1 983d
00000190: 592b d7bd e65a 843c e1f9 073e a230 073e
000001a0: e9c3 013e cfe8 08bc 45d1 de3c 316d b1bd
000001b0: 55cb 57bc 612b afbd 3518 a7bc 308d a93d
000001c0: 9011 1c3d b23a 263d 74c0 19bb 2dbf 303e
000001d0: c44b 063e 9ad8 4f3d bd12 bebd 25b1 a9bd
000001e0: 162a 2bbd 1908 b53c a346 35be 17a3 12bd
000001f0: 86ba 703d ea5b 633e 9b1a 58bd 8683 9a3d
00000200: c48c 433e cd05 8ebe e05e d93c c0b5 893d
00000210: 19f1 503d 6397 25bd 1ace c73d 107c 353e
00000220: 9ab6 733c 15f4 68bd 653a ccbd c8cc b1bd
00000230: 0d6e 253e 7944 95bd 64ab 9c3d ad23 f3bd
00000240: 9df8 523e 5958 c43d 147b dc3c b921 2cbb
00000250: 48fe 803d 5499 0c3d 54e2 92bd 9f85 703e
00000260: d60e 943d 2886 d93a d1cf a8bd e47c e7bd
00000270: 4241 873d 9e19 063e b677 0fbe d86c 0abe
00000280: 6d23 b9bd 8ab5 313c ff62 343e 5b3e 713e
00000290: 9a42 a2bd d03a 423e fc6b 85bd 3fcd 3b3e
000002a0: a82a 69bb 962c 343e 57e9 2a3e 1254 8c3d
000002b0: 2fb3 35bd 5bf4 613a a7ab f53c b89b 183c
000002c0: bd26 59bd 0686 1b3e b890 a53d c40a d93d
000002d0: d886 803d 0b35 eb3c b9e8 be3b 54ba 843d
000002e0: 58a5 5b3d caec 3dbd 68d4 963c 4233 e83c
000002f0: 00b0 683d ae37 403d 3bd4 65be 5ede 7d3c
00000300: 14ab 0c3c 5102 ad3d 3a21 89bd 69e5 853d
00000310: 3e94 dcbd 3733 00bd 7190 26be 72d3 a03d
00000320: f461 5a3d e5e0 893d a79e a6bd 5f63 8fbd
00000330: 37cb a23d 7cb0 c5bd 06cb b03d f9e1 d4bd
00000340: 21d5 663d 4142 dcbd e555 53bb 5488 f7bd
00000350: 694c 81bd e027 903d 5a58 823d 2eca 4c3d
00000360: acda 783d 772d 5e3c cfc7 f93d e26d af3c
00000370: 84ba cf3d ae12 263e 0f05 0c3e c60a ac3d
00000380: 4125 b1bd 44ec 04bd 97ae d0bd ad2c 163e
00000390: 4079 15be 8eea 613c 79d2 e0bb be49 2b3e
000003a0: c33e c2bd 8c21 55bd 50ca b73d 527d 0ebd
000003b0: 7b75 ecbc be77 b4bd 531e 323e c555 e83d
000003c0: 07bb 9dbd 3e52 c93d 4978 71bd df4f 823d
000003d0: beed 70bc 45f1 a0bd def4 78bc 0520 943d
000003e0: 5f3c 2c3d 6e4a dbbd 0601 1cbd b589 33bd
000003f0: 36e7 9ebd c80a d23d 7681 893d 36c8 203d
-0.049927443 -0.053535912 0.004402997 0.026956888 0.0873717 -0.015754357 -0.008905331 -0.13897485
0.1207217 -0.106299 0.089337595 -0.009618278 -0.050523542 0.15845378 -0.053778265 0.10769058
0.08703309 -0.015530586 0.03148468 -0.089983955 0.117607534 -0.010445546 0.07711469 0.13675486
0.05282047 0.03583593 -0.10440683 -0.009472395 0.115483746 0.038138643 -0.037020024 -0.02412897
0.07524779 0.023546299 0.1616057 -0.18161932 0.118827544 0.11922095 -0.017316645 0.2080614
-0.07855518 0.06842251 0.039177082 -0.0065577882 0.06860383 0.18144739 0.0574019 -0.11497245
0.08626217 -0.026921367 -0.05530004 -0.059409827 -0.13849653 -0.07303842 0.092429705 -0.028717903
0.08868465 -0.05929456 0.0040203272 0.046527795 0.027111473 0.112380885 -0.03886747 0.23833945
-0.09840975 -0.03768047 0.002926303 0.0370073 0.11475319 0.07276842 -0.0031409364 0.15422869
0.090087496 0.09166998 -0.033695046 0.25312635 0.03433783 0.21930352 0.077818856 0.022705462
-0.117857754 -0.053488582 0.053618573 -0.077721156 0.1716969 0.100119665 0.13380359 0.0009002544
-0.17452757 0.2223356 0.002616173 0.22068103 0.047462277 -0.045443654 0.097360075 -0.27920595
0.010416289 0.11452334 -0.08728022 0.074679025 -0.10506315 0.016156625 0.13278915 0.13202146
0.1267239 -0.008356287 0.027199397 -0.08663405 -0.013171037 -0.08553196 -0.020397285 0.082788825
0.038102686 0.04058332 -0.0023460658 0.17260428 0.1311484 0.050743677 -0.09280918 -0.08285741
-0.041788183 0.022098588 -0.17702727 -0.035800066 0.058771633 0.22203031 -0.052759748 0.07544617
0.19096667 -0.277388 0.026534498 0.06724119 0.05101118 -0.040427577 0.09756108 0.17723107
0.014875079 -0.0568734 -0.099720754 -0.08681637 0.16155262 -0.07288451 0.07649878 -0.11872039
0.20602651 0.095871635 0.026914157 -0.0026265217 0.062985 0.034325913 -0.07172075 0.23488472
0.07229392 0.0016595768 -0.08242763 -0.11303118 0.06604244 0.1309571 -0.1401051 -0.13518083
-0.0903996 0.010846505 0.17615889 0.23558943 -0.079228595 0.18967748 -0.06514737 0.18340014
-0.0035578404 0.17595133 0.16690575 0.06851973 -0.044360336 0.00086194806 0.029989077 0.00931447
-0.05301546 0.15187845 0.080842435 0.105977565 0.062757194 0.028711816 0.0058260825 0.06480852
0.05362448 -0.046368398 0.01841183 0.028344754 0.05680847 0.0469281 -0.22444241 0.015494911
0.00858571 0.084477074 -0.066957906 0.06537897 -0.107704625 -0.031298842 -0.16266038 0.0785283
0.05331607 0.06732348 -0.08135729 -0.070013754 0.079489164 -0.09652802 0.08632474 -0.10394663
0.0563556 -0.107548244 -0.0032247242 -0.120865494 -0.06313402 0.070388556 0.06364508 0.0499975
0.060755417 0.013560644 0.121963136 0.0214147 0.10142997 0.16218063 0.13673805 0.08400492
-0.08649684 -0.032451883 -0.1018955 0.1466548 -0.14597034 0.013788832 -0.006861028 0.16727349
-0.09484627 -0.052033946 0.08974135 -0.034787484 -0.028864613 -0.088119015 0.1739438 0.11344484
-0.07701688 0.098301396 -0.058952603 0.063628905 -0.01470512 -0.078585185 -0.0151951 0.0723267
0.04204976 -0.10707556 -0.038086914 -0.0438325 -0.07758944 0.102559626 0.06714146 0.039253436

fc3.bias f4 [50]
00000000: 3cce 9a3d d032 d23c f469 613d f6f3 873c
00000010: bd36 483e 738e 373d d73a 363e 7f65 193d
00000020: b916 e83c fd95 493e 8871 a7bc d3ef 783d
00000030: 66a8 ee3c 7abf 9fbd 19e3 aebc d9dd f73d
00000040: 0f20 d43d 7f43 0d3e 76ec b13d f50f 513e
00000050: 3333 2e3e a0be c63d 8e7d d13d 3c93 763d
00000060: 01e1 1b3e 8d8c 913d 63f6 11bc 4a9d b43d
00000070: 6cc1 8b3d e4d6 883d 502f 103e fb8d 033e
00000080: 4752 103e 544c e93b 8b91 1dbd d9f9 d93d
00000090: 22c6 943d 127a b23c 1e4e c73d 690e 323e
000000a0: 3302 3d3d eae5 f0bc affb 063e 9713 383e
000000b0: c142 4c3b 7b37 b2bd 7db6 d4bc 4a8a 193d
000000c0: 1f50 b53d 7597 173e
0.07558867 0.025658995 0.055032685 0.016595822 0.19552131 0.044813585 0.17795883 0.03745031
0.028331148 0.19686122 -0.020439878 0.06077559 0.029133033 -0.07800193 -0.021348523 0.12102861
0.10357677 0.13795279 0.086876795 0.20416243 0.17011718 0.097043276 0.10229026 0.060199007
0.15222551 0.07106886 -0.008908841 0.08819063 0.06824002 0.06681612 0.14080548 0.1284713
0.14093886 0.0071196947 -0.03846888 0.10643358 0.07264353 0.021786723 0.097316965 0.1738831
0.046144675 -0.029406507 0.13181947 0.17976223 0.0031167718 -0.08701988 -0.025965923 0.0374854
0.088531725 0.1480387

fc1.weight f4 [50, 7]
00000000: 3c0a 93be a87e 973e 1ccb d63e 1447 313e
00000010: 32e2 e5be 681e 373d 09cc 49be 48f6 88be
00000020: 1f30 07be 5f40 a5be 5c4d bdbe 18cc f4bd
00000030: 84ba bebd 275c b4be b45c c5bd c48c 3dbe
00000040: 517d 97bd 6b2a 8f3e dcdd b93e 1a84 c63c
00000050: f0db 15be 40ee dbbd f565 b33e d59a debe
00000060: c1a5 8e3d 0605 1cbe 30e7 44bd e491 a7bd
00000070: a47d 8cbe 5648 7dbe 84af 4cbe 9a08 e1be
00000080: a952 cf3e 3deb e8bc 7cc3 4b3e 173e b13e
00000090: 6118 703e a699 063e 4b60 b03e c17c 943d
000000a0: 035d 5ebd 02b3 0c3e 90e3 68bd a62c 1fbe
000000b0: e9b0 e13c d0aa c63e 737e 3c3e 892b 1f3e
000000c0: dcf6 2c3e bba8 5fbe 1547 a03e 2780 2d3e
000000d0: c5b4 f4bd 6e10 e63a 7c1d 3d3e 0139 e5bd
000000e0: 503a 883c c4fc 2e3e f789 b3be 9a5e e13d
000000f0: a18a 203e e09b 603e 4765 98be d5f6 88be
00000100: 25b8 533e 652b bf3e 6373 aa3e 7436 fd3d
00000110: 9ef0 d1bd b830 5c3d 915b 00bf a0f1 87bd
00000120: 4fd1 523e 876a 6fbe 22b4 b7be 90de 803e
00000130: 23cd 8cbd 4aa1 bbbe 25ad a1bd 9ef6 a13e
00000140: 1242 923e 3851 bf3d 755e 1ebe f91f b4be
00000150: ed7f c73e aa2c 58be 6154 80bd f51f 4abe
00000160: a045 72be 7c7b b8be 61e1 6c3e ee9e 89be
00000170: d706 8c3d af17 2c3e a5dc 873e e4a3 d3be
00000180: dbf3 03be a65a d7be 33cf c1be 5ecf 8c3e
00000190: 5a89 743e f70f 46bd 0e95 69be 8e4e adbe
000001a0: b0d9 bb3e 15ef bc3e 6359 12be a1f3 b8bd
000001b0: 5682 67be 35ac 833e 57f5 1abe baf2 38be
000001c0: 9423 a2be 855e babe 6163 973d 717e d33e
000001d0: b5e9 95be 34bd a53e 1fd2 573e 4753 0abd
000001e0: 52ee 77be 7bd5 743e 6d49 9a3e c10d c23e
000001f0: b58e ae3e ea75 9b3d b501 01be a551 6c3e
00000200: 019b babd 374a babc 30a4 603e 22cb 243e
00000210: 4f16 0d3d f149 16bf 7640 b23e ac58 59bc
00000220: 2e6a 183e 3a44 f3bd 68e3 28bc 285e 383d
00000230: 0c5e 45be decf ad3d 73d0 2a3c f82d c33e
00000240: ea06 16be a59b 3fbe 95cc 01be c640 1e3e
00000250: f352 7cbe 9d54 493e a45a c63d be04 adbe
00000260: 3a7b 9c3d 2dbd 38be 6fab 18bf fbab d7bb
00000270: ccb8 55be 996b b03e 04ee 793e 53f9 3abd
00000280: 9b0a 593d cad2 be3e 9a1d 473e fdd7 22be
00000290: 82b4 d2be 2d31 6ebe 4cef efbc ab30 813c
000002a0: aca8 9b3e 9116 67bc ffe8 483e 55b1 6f3e
000002b0: df8b 88be ca8b f0bd 2a81 753d 4bc0 c53e
000002c0: 9bde 363e da35 89be 1046 6dbc fd8e 083e
000002d0: 845c 193e 4d52 863e 4220 a9bd e336 ce3d
000002e0: 09bb 46be acbb 873e 906c 51bc f4c7 afbe
000002f0: a8bb 0fbe 0ed4 f5bc 312d a33e 9e77 703a
00000300: 1a02 87be b49d d9be 14e0 b7be 46a6 993e
00000310: e13b 293e b092 c7be 146d 8ebb 9995 7a3e
00000320: bdb7 5f3d 0f67 afbe 633f 8d3e f5fe 8f3e
00000330: 5ff5 aebe 2c3d d2be 73f2 9bbe df8c 133e
00000340: 8834 58be d874 b83e 16ac 673e 24c1 9dbe
00000350: 86a4 cfbe 7625 3bbe 9ba9 52be c99d 5d3e
00000360: 6e4c 2cbd 20ce b1bd e6d6 98bd ac21 bf3e
00000370: f1f5 c63e 66bd debe 3b20 fa3c 1ce4 94be
00000380: f654 0abf de17 a63d 602f b03e dd7c 133d
00000390: 0c00 aa3b c1df 953c 357a 983d f3fa 7ebe
000003a0: a604 43be 9af2 ecbe 0c17 67be f601 95be
000003b0: 980e d0be 8e40 ff3d 2055 51bd 88a4 e0be
000003c0: 4377 6bbe 8af1 b7bd 8ade 27bc dc63 a93e
000003d0: 2eec a53e a29f e13d db0f dfbe 0db9 8fbd
000003e0: a45a f93d 7739 0c3e 5833 3bbe 9ec0 7c3c
000003f0: b541 873d a603 c63e e560 8cbe 35e5 92be
-0.28718746 0.2958882 0.41951835 0.1731227 -0.44899136 0.044706732 -0.1970674 -0.26750398
-0.1320195 -0.32275674 -0.36973083 -0.1195299 -0.09312919 -0.35226557 -0.09636822 -0.18510729
-0.07396949 0.2796205 0.36302078 0.024232913 -0.14634681 -0.10738802 0.35038725 -0.43477502
0.06965209 -0.15236291 -0.04807204 -0.08182123 -0.27439606 -0.24734625 -0.19988829 -0.43951875
0.40492752 -0.028432483 0.1989879 0.34617683 0.234468 0.1314455 0.34448466 0.072503574
-0.05428792 0.13740161 -0.056857646 -0.15544376 0.027550178 0.38802195 0.18407612 0.15543951
0.16891044 -0.2184171 0.3130423 0.16943417 -0.119485416 0.0017552504 0.18468279 -0.11192513
0.016629368 0.1708861 -0.35066196 0.11004372 0.15677883 0.21934462 -0.29764768 -0.26750818
0.20675714 0.37337795 0.33291158 0.12363902 -0.10250972 0.0537574 -0.5013972 -0.06637883
0.20587657 -0.2338048 -0.35879618 0.25169802 -0.06875064 -0.3664649 -0.07894353 0.31633466
0.28566033 0.09341663 -0.1546572 -0.35180643 0.38964787 -0.21110788 -0.06266094 -0.19738753
-0.23659372 -0.3603171 0.2313285 -0.26879066 0.06837242 0.1680591 0.26535526 -0.41335976
-0.12885992 -0.42061347 -0.37853393 0.2750196 0.2388052 -0.04835507 -0.22810766 -0.33848995
0.3668952 0.36901155 -0.14291911 -0.090308435 -0.22608313 0.2571732 -0.15132652 -0.18061343
-0.3166777 -0.36400238 0.07392002 0.41307405 -0.29279867 0.32370913 0.21076249 -0.033770826
-0.24212006 0.23909561 0.30134144 0.37901118 0.34093252 0.0759085 -0.12598307 0.2307802
-0.09111596 -0.022740467 0.21937633 0.16093114 0.034445103 -0.58706576 0.34814805 -0.01326577
0.14884254 -0.118782476 -0.010308124 0.04501167 -0.19274157 0.08486913 0.010425675 0.3812101
-0.14651075 -0.18711717 -0.12675698 0.15454397 -0.24641018 0.19661184 0.09685257 -0.3379268
0.07640691 -0.18040915 -0.59636587 -0.006581781 -0.20871276 0.3445709 0.24407202 -0.04564793
0.05298863 0.37270194 0.19444886 -0.15902705 -0.41153342 -0.23260947 -0.02928891 0.015770277
0.30402124 -0.014104501 0.19620131 0.2340749 -0.26669213 -0.11745413 0.059937634 0.3862327
0.17858355 -0.26798898 -0.014482036 0.13335796 0.14976698 0.26234666 -0.08258106 0.100690626
-0.19407286 0.2651037 -0.012782231 -0.3433224 -0.14036429 -0.030008342 0.31870416 0.0009173098
-0.2636879 -0.4250313 -0.35913146 0.3000967 0.16526748 -0.389791 -0.004346499 0.2447113
0.054618586 -0.34258315 0.27587423 0.28124204 -0.34171578 -0.41062295 -0.30458412 0.14409207
-0.21113789 0.36026645 0.2262424 -0.30811417 -0.4055521 -0.18276009 -0.20572512 0.21642222
-0.042065077 -0.08681893 -0.074628636 0.37330377 0.38859513 -0.43503875 0.030532947 -0.29080284
-0.5403589 0.08110021 0.34411144 0.03600775 0.005187994 0.01829517 0.07445184 -0.24900417
-0.19044742 -0.4627884 -0.22567385 -0.2910306 -0.40636134 0.12463485 -0.051106572 -0.43875527
-0.22994713 -0.08981617 -0.010245929 0.33084 0.32406753 0.11016776 -0.43566784 -0.070177175
0.121754915 0.13693796 -0.18281305 0.015426783 0.066043295 0.3867466 -0.27417675 -0.28690496

fc1.bias f4 [50]
00000000: 3bc5 b5be 8412 67be c82a 65bc 6f1c f03d
00000010: 4824 e93e 5ced a63d 5152 a7bd 0539 cf3e
00000020: f950 44be 604d 273d 9f7d 28be ea88 49be
00000030: 54fc 133e bf75 623e 8d34 983c 4435 35bd
00000040: 168a 82be d8ec d63e 9235 b43d 726a 813d
00000050: be96 4ebd 030b 683d c1f5 b33e 7f61 a7bd
00000060: de7e a93e 4ee4 6b3e c833 2a3e af3c 5e3d
00000070: 8d85 31bc e6fa b5bd b02b 9b3d 871c d4bd
00000080: 7039 36bd 01aa efbd a9f5 883e c9fb 60be
00000090: 8d66 e6bd 59c3 2ebd 5d4d 553e 1ea8 bb3e
000000a0: a582 ac3e 33c5 2bbe ea8b 253d 8121 b73d
000000b0: 87f1 75bd 94f6 9abe 52ed 64bb 5b9e 85be
000000c0: 5c63 09be 48b3 2b3e
-0.35502037 -0.22565657 -0.013987251 0.11724173 0.45535493 0.081507415 -0.081699975 0.4047319
-0.19171514 0.040845275 -0.1645417 -0.19681135 0.14451724 0.22115229 0.018579746 -0.04424025
-0.25495976 0.41977572 0.0879928 0.06319131 -0.050436728 0.056651127 0.35148433 -0.08172893
0.33104604 0.2303631 0.16621315 0.05425709 -0.010835064 -0.08885746 0.07576692 -0.10357004
-0.04448837 -0.117023475 0.26749924 -0.21971048 -0.11250029 -0.042666767 0.20830293 0.366517
0.33693424 -0.16774444 0.040416636 0.08941937 -0.06004479 -0.3026625 -0.0034931493 -0.26097378
-0.13416809 0.16767609

fc2.weight f4 [50, 50]
00000000: d449 8b3d e406 5c3a 05cd 613d 0642 acbd
00000010: f9d4 333e 3b9d 8b3d 0c5c cabd e21d b0bc
00000020: f91f 49bc 9914 39be 9ac8 59be 8a34 52be
00000030: 53d4 6d3d 4638 f13c a10f 98bd 4fd4 c23d
00000040: 8f56 2fbe d68a 193d 1728 5cbd 1725 d53d
00000050: 230c 8a3d 9dec 843e d937 06be 972a 113e
00000060: a01c b63c ba08 083c 20c2 6ebd d7b6 67be
00000070: 32df 58be 0cf0 34bc bd48 2bbd c566 eebc
00000080: 1dc6 813d af51 693d 4e54 22be 09f8 2bbe
00000090: c084 9fbd 3bb2 00be 8385 4c3d c5b1 143d
000000a0: 6dec a4bc f180 e43d c982 fcbd 484e 10be
000000b0: cc09 d23d 0356 8cbd 76a1 c03d 17c4 84bc
000000c0: 6fd2 073c d4ae 793d e1c4 933d a16a e13d
000000d0: db9d 483e 09a1 f23d 54bc a13e 3510 b9bd
000000e0: fd1a 56bd ec3b fa3d f32a fa3d 7be0 4bbd
000000f0: 8b63 c4bd e40e 16be 4d31 1bbe 1b08 cd3d
00000100: 72dc 5b3d 895b a13d bafd ce3c 27cf 02bd
00000110: 253a 973d 5b3f 96bd cb31 44be 678a 4dbd
00000120: e383 dfbc 2ed9 cfbd 7fdb 61ba e1bc df3d
00000130: b6ff 023e 34c7 b9ba 4a2a a73d 6aed 1bbd
00000140: 5663 33be 841c a0bd 6d1b 1cbe 9d73 a8bd
00000150: 11a9 fabd 4558 25be abd7 19bc b266 99be
00000160: bc21 173e 866f ef3c 8555 4c3c d715 613d
00000170: 47aa 00be 7b33 933d 095d dfbd d67c 6dbe
00000180: 0dd5 22bd 263b be3c 0ec3 46bd 316d e53d
00000190: 88a8 babd e171 68bd d5bf 283d 6331 50bd
000001a0: a723 f1bd 83ec 0cbe 95c3 9bbd 3376 893d
000001b0: 43c8 ebbd 99e2 0a3e 15dd ed3c 92c4 81bd
000001c0: 9435 a73d f88f d1bd 8cf1 96bd d830 bbbd
000001d0: 5091 0dbe cfab 98bd fd2d 02be d0c1 533d
000001e0: f4ec 083e d689 a8bd d20d 0cbe df36 cc3d
000001f0: 6b32 98bd 4183 62bd 5b53 c3bd 9bc6 aabd
00000200: 082c c3bd 34e8 6ebd 9d55 823c bcf5 033d
00000210: b3f0 883d 5b53 e43d 5f6c 883d 096a 54bd
00000220: a874 5b3d 4415 f83d 2ca2 04bd e923 cdbc
00000230: 0fca 233d db73 07bd b02a b0bc f962 bf3c
00000240: 4670 093e 76d8 3dbc e7bc 01be 2ac5 833c
00000250: 7f3c efbd c939 013e 5195 3f3e 3f6f 1bbd
00000260: c70f 22bd bbef 183e c312 01be 136b 7bbc
00000270: b1de 90bd eb07 de3d 3123 e1bd 8f17 05be
00000280: bc32 993c 02d5 9dbc c476 2abe 8bb3 333e
00000290: 0db8 abbd 22b6 34bc 7555 51be 2e44 2a3d
000002a0: f71f ec3d 0db6 6d3e 81ae c13d b903 d53c
000002b0: 8c28 8c3c 1152 8dbd 9a6d f23c 1ecd b73d
000002c0: 4b96 6b3d d33d 393d 5cbb 893d 616d 0abe
000002d0: 3057 efbd acd1 a13d 96ef 16bc 2f65 233e
000002e0: 0e26 d53b 770e bf3a fa8f 82bd ebda 2cbb
000002f0: 48b2 e43a d0d8 adbd ba86 1abe 14a4 a5bd
00000300: 069e 25bd dee5 f03d 62cc 0dbe 5595 103e
00000310: f1ef ba3d b73c eabd 9205 003e 6146 00bd
00000320: a64e 8ebd b4f6 35bd 248d 523d 90b3 c2bd
00000330: 253e 77bd b3e9 8f3d edc7 2a3d c5d8 8ebd
00000340: 9dd0 e5bc dbb4 d63d f1ad 54be 0420 1bbe
00000350: 5910 ae3c 4aa0 c2bd a763 8dbd bfe0 3d3e
00000360: 3a82 093e c4db aa3d 1721 303e a8fe b2be
00000370: 7fc4 133e a5aa 1f3e 83a9 35be 00de 7a3d
00000380: 26ab 843e 5e4e dd3d a69e 4b3d cf55 dc3d
00000390: 833e 043e ba1e 7dbd c528 013e a93a 0c3e
000003a0: ecb5 e1be db79 893e b3c1 e43d 119d 2d3e
000003b0: b70d 51bd 0c86 233e 78e2 5d3d 3227 253d
000003c0: 429d debc 8f60 65bd 5fec 513d 2aae 83be
000003d0: fa07 1c3e 027b 2b3d 21fc 433d e7a8 bbbd
000003e0: dc68 473e 55f0 243e e9ae 06be 7aa1 6bbd
000003f0: 4e48 a63c 4d09 373d d67a f33c 2c7f 06be
0.06801191 0.0008393361 0.055127162 -0.084110305 0.17561711 0.06817099 -0.09880838 -0.021498624
-0.012275689 -0.18074264 -0.2126793 -0.20527855 0.058063816 0.029445779 -0.07424856 0.09513151
-0.17122863 0.03748592 -0.05374917 0.10407465 0.06740596 0.25961772 -0.13107242 0.14176403
0.022230446 0.008302862 -0.0582906 -0.22628342 -0.21178892 -0.01104356 -0.041817416 -0.029101739
0.06336615 0.056962665 -0.15852472 -0.16793837 -0.07788992 -0.1256799 0.049932014 0.036302347
-0.020132268 0.11157406 -0.12329633 -0.14092362 0.10255775 -0.06852343 0.09405796 -0.016206784
0.008289917 0.060957745 0.07215286 0.11006666 0.19591467 0.11847121 0.31588995 -0.09036294
-0.05227183 0.122184604 0.12215223 -0.049774628 -0.09589299 -0.14654118 -0.15155526 0.100113116
0.05367703 0.07878787 0.02526747 -0.031935837 0.07384137 -0.07336303 -0.1915962 -0.05018082
-0.027284568 -0.101488456 -0.00086157763 0.10924698 0.12792858 -0.0014173747 0.08162363 -0.038068213
-0.17518362 -0.07817939 -0.15244837 -0.082251765 -0.12239278 -0.16146953 -0.009389798 -0.29961163
0.14758962 0.029227983 0.012471561 0.05495247 -0.12564956 0.071875535 -0.10906417 -0.23192152
-0.039753962 0.023221564 -0.048525862 0.11202467 -0.09114176 -0.05674923 0.04119857 -0.05082835
-0.11774378 -0.13762097 -0.07605664 0.06711998 -0.11512806 0.13563003 0.029036084 -0.06336321
0.08164516 -0.10232538 -0.0737029 -0.091401756 -0.13824964 -0.07454645 -0.12712856 0.051698506
0.1337164 -0.08229415 -0.13677147 0.09971403 -0.074314915 -0.055300955 -0.09537383 -0.08338662
-0.09529883 -0.058326915 0.015909964 0.032216772 0.06686535 0.11148711 0.06661295 -0.051858936
0.05357805 0.12113431 -0.03238122 -0.025041537 0.03998762 -0.033069473 -0.02150473 0.023362624
0.13421735 -0.011587253 -0.12669717 0.016085226 -0.116814606 0.126197 0.18709303 -0.03794789
-0.039565828 0.149352 -0.12604813 -0.015345353 -0.07073725 0.10841354 -0.1099304 -0.12997268
0.01870095 -0.01926661 -0.16646868 0.17548959 -0.08384714 -0.011029752 -0.20442756 0.041568927
0.11529534 0.23213978 0.09457112 0.026002752 0.017109178 -0.069004185 0.029593278 0.0897467
0.057516377 0.045224976 0.06725189 -0.13518287 -0.116865516 0.0790132 -0.009212395 0.15956567
0.0065047806 0.0014576454 -0.063751176 -0.0026375602 0.0017448151 -0.08488619 -0.15090457 -0.08087936
-0.040433906 0.11762594 -0.13847497 0.14119466 0.091277964 -0.11437362 0.12502125 -0.03131712
-0.06948595 -0.044424728 0.051404133 -0.09506905 -0.060362 0.070269965 0.04169457 -0.06974939
-0.028053576 0.10483714 -0.20769478 -0.15148932 0.02124803 -0.09503229 -0.06903773 0.18542765
0.13428584 0.08342698 0.17200123 -0.34959912 0.14430426 0.1559244 -0.17740445 0.061246872
0.25911826 0.10805963 0.049711846 0.10758554 0.12914471 -0.06179688 0.12613209 0.13694252
-0.44084108 0.2685078 0.11169758 0.16954447 -0.05103847 0.15969104 0.054171056 0.040320583
-0.027174596 -0.05600029 0.05125081 -0.25718814 0.15237418 0.041865356 0.04784787 -0.09163075
0.19473594 0.16107304 -0.1315266 -0.057527043 0.02029815 0.044686604 0.029721659 -0.1313445

fc2.bias f4 [50]
00000000: b027 eb3c d79c 103e e04b b6bd 407c c8bd
00000010: 6755 553d 2777 8abd dbfc 1d3e a4f4 22be
00000020: cc9c 4b3d d93c e2bd 7ec3 08be 9cdd 873d
00000030: 9e60 a43b 4746 b43c de8b 263e 2941 9b3c
00000040: 9033 d8bc 0201 a6bb d917 7dbc 6521 433e
00000050: 0e08 bebc 4cec 3c3e c753 4ebc 34a2 1bbc
00000060: 1ddb 663d 99e2 3abd 397b f1bd c400 103d
00000070: d1db 5b3e adf6 f5bd e371 9fbd 441b 31bd
00000080: e8b3 273e 67ed 4b3d fd0f 473e 4d34 653d
00000090: 8625 66bd 14c9 1ebe befe 6d3d 5a8f ecbc
000000a0: e22f b83c a749 b03d 1063 f1bb 9b16 d7bd
000000b0: 94b8 d3bd 1808 503d b450 02be a079 c7bd
000000c0: 4d46 953d b413 dabd
0.028705448 0.1412233 -0.08901191 -0.09789324 0.0520834 -0.06761008 0.15428488 -0.15913635
0.04971008 -0.11046762 -0.13355824 0.066340655 0.0050164005 0.022006167 0.16264293 0.01895197
-0.026391774 -0.005066038 -0.01544758 0.19055708 -0.0231972 0.18449515 -0.012593216 -0.009499121
0.056361306 -0.045626257 -0.11791081 0.03515698 0.21470572 -0.1200994 -0.07785394 -0.043238893
0.16377223 0.04978695 0.19439693 0.05595808 -0.05618813 -0.15506393 0.05810427 -0.02887695
0.02248377 0.08607798 -0.0073665455 -0.105023585 -0.1033794 0.05078897 -0.12726098 -0.09739995
0.072887994 -0.10648289

fc3.weight f4 [50, 50]
00000000: 9953 76bd a3e9 96bd ab9f 903b b909 673c
00000010: ad39 a73d b2e6 80bc 01c8 15bc d12f 02be
00000020: 6f35 f73d cc50 edbd 8eed b93d f5c3 40bc
00000030: 2ba5 6bbd 6bd2 1b3e 7eb4 6ebd 9429 d93d
00000040: ba0c b33d 2c5c d2bc 89d1 303d 1764 b0bd
00000050: 8875 e43d 39e4 a1bc a353 b33d 9ab3 073e
00000060: 426a 463d bf8d 3c3d c2b0 d5bd 038d 91bc
00000070: 0039 dd3d abf3 ff3c 9c90 4cbc 7f14 ccbc
00000080: 5cf5 9e3d 5ea6 c03c bed5 213e 9d4c 2abe
00000090: e0ad ea3d ad34 f43d 55d4 7dbc 6f07 493e
000000a0: 4a20 a4bd 5f0e 1a3d a87e 203d 992c 6bbc
000000b0: bcea 813d da61 213e 959b 7f3d 6058 d4bd
000000c0: 8ff3 ac3d 3c33 dcbc 839c 71bd e240 7fbd
000000d0: 29c1 0dbe d031 6dbd f3c1 a63d 4dfd eabc
000000e0: af67 a53d 97ee 15bd 7b1f 073d bc02 cb3c
000000f0: be23 eb3c 31bc f03d a6a2 3fbd 4649 493e
00000100: a359 cdbd 3cc1 38bd 4b76 24bb e197 c63c
00000110: a035 e53d 18e8 863d 2d82 60bc 001c 143e
00000120: 59a7 af3d 2efc 9c3d b4bd eebc 8bf0 813e
00000130: 386c 0c3d 80b9 573e ec69 943d 273e f63b
00000140: 1fd8 dbbd b38d 3cbd 75f4 5f3d 1331 9fbd
00000150: 6476 2b3e 176d d43d fd5d e63d 8325 973b
00000160: 08d9 21be 3779 5a3e 139b 95bb 1057 4d3e
00000170: 9285 423d 345e 5dbd 6b8b a73d 86b1 81be
00000180: 55b4 1b3d 1c49 c03d 9fd2 90bd 4bf3 983d
00000190: bcbd babd 127b 823c 82e9 073e d217 c23d
000001a0: dbd3 fe3d b57c 08bc e204 4e3c 8ad2 a8bd
000001b0: 13e5 e0bc bc29 afbd e44b cebc 1ed3 a93d
000001c0: 1661 083d 4b0c 1f3c 605c fdbc 8262 2d3e
000001d0: 4fce 003e 35d7 553d 6855 a6bd 708a a7bd
000001e0: 2d23 39bd 15b1 0fbb fcc8 26be 4f59 20bd
000001f0: 2cf2 623d 6a85 6b3e 9521 58bd ac7f 9c3d
00000200: 8ef0 393e 2389 85be 5950 a83c 85db 9b3d
00000210: 4359 4f3d c8aa 25bd ad9f 9f3d 3afa 383e
00000220: 6be0 933b 87be 06bd df7b ecbd 9de9 b1bd
00000230: 3d37 383e 073a cfbd 24a6 9c3d be53 eebd
00000240: ab36 4d3e 94cc 913d e178 703d 0987 efbc
00000250: 42e2 5f3d fc6c 0c3d 1a9a 9fbd dd19 683e
00000260: 8ef6 933d 310a 203c 71f4 c1bd 8a59 e7bd
00000270: 5e79 6c3d 19b6 e03d 2875 0fbe 96f1 e8bd
00000280: f31e b8bd 6b93 293c 8d6c 2a3e f42c 663e
00000290: 4b34 3dbd e4ca 353e 8987 a5bd 5f58 293e
000002a0: 9074 05bd 449e 263e 9c09 213e 7c02 843d
000002b0: 9064 073a 891f 73bc 85c2 7b3c 5f3c a43b
000002c0: b841 59bd 3737 2f3e f907 9d3d a961 103e
000002d0: dd49 103d 09c4 913c b7b6 c13c dbb5 843d
000002e0: 2f27 3d3d 0219 34bb 1419 aeb9 9069 5d3d
000002f0: da7b 633d fa21 0a3d 3fe3 70be 0727 38bc
00000300: 4f8a 863d c793 973d 7077 adbd bf8f b93c
00000310: 4aa4 f9bc 9d37 42bd 3d0c 30be 4b39 863d
00000320: 1146 4f3d d755 6d3d bfa6 a6bd 8e10 96bd
00000330: 2af1 a33d 02b3 c5bd d96c a83d ffee c5bd
00000340: 38a8 663d 0838 dcbd e4d6 d7bb c16f fcbd
00000350: ff39 75bd 9c55 4c3d d97d 8a3d 4dd2 483d
00000360: 8879 7d3d a266 b83c 285a fa3d 2816 ba3c
00000370: 4126 d43d 06aa 1f3e 2882 053e 94d1 af3d
00000380: 4f0d b4bd 7e1e 0bbd 4993 d0bd f7d4 0e3e
00000390: 1016 13be 58a1 543c 8143 8dbb 9124 2d3e
000003a0: 8531 d1bd d0f3 54bd 0f40 c03d 07a6 24bd
000003b0: bd60 89bc 8dae a0bd b2cd 2f3e 83c8 e73d
000003c0: 68c5 8dbd a83e c93d c58e 71bd 6b3f 7a3d
000003d0: 1955 9abc 4577 83bd d593 fbbb d852 8e3d
000003e0: f7bb 3b3d 3247 dbbd 50d4 b7bc 7432 31bd
000003f0: abdd 9ebd d364 cf3d 500a 893d a2c4 203d
-0.06013832 -0.073687814 0.004413565 0.014101439 0.08165298 -0.015735004 -0.009141923 -0.12713553
0.120707385 -0.115876764 0.09078513 -0.01176547 -0.057530563 0.15216987 -0.0582776 0.106036335
0.08742662 -0.025678717 0.04316858 -0.086128406 0.1115523 -0.019762145 0.08756187 0.13252106
0.04844118 0.046033617 -0.104341045 -0.017767435 0.108018875 0.03124412 -0.012485649 -0.024912117
0.07761642 0.02351683 0.15804192 -0.16630788 0.11458945 0.119241096 -0.015492518 0.19631742
-0.08013971 0.03761136 0.03918329 -0.014353895 0.063436 0.15759984 0.062404234 -0.10368419
0.084448926 -0.0268799 -0.05898715 -0.062317736 -0.13843216 -0.057908833 0.08142462 -0.028685236
0.08076417 -0.03660449 0.032989006 0.024781577 0.028703567 0.11754645 -0.046785973 0.19656858
-0.100268625 -0.045106158 -0.0025094922 0.024242343 0.11191869 0.06587237 -0.013702911 0.14463806
0.08576841 0.07665287 -0.029143192 0.25378832 0.034282893 0.21066856 0.072467655 0.0075147334
-0.10734581 -0.046033572 0.05467649 -0.07773032 0.16744381 0.1037237 0.112483956 0.004612626
-0.15805447 0.21335302 -0.0045656054 0.20052743 0.047490664 -0.054044917 0.08180889 -0.25330752
0.038013775 0.093889445 -0.07071423 0.074682795 -0.0911822 0.015927825 0.1327267 0.094771996
0.12442752 -0.008330514 0.012574406 -0.08243282 -0.027452981 -0.08552882 -0.025182672 0.082922205
0.033295713 0.009707521 -0.030927837 0.16932109 0.125787 0.05220719 -0.08121759 -0.08180702
-0.045199562 -0.0021925617 -0.16287607 -0.03914767 0.055406734 0.23000112 -0.0527664 0.07641539
0.1815817 -0.2608119 0.020546125 0.076102294 0.050622236 -0.040446073 0.077941276 0.18064204
0.0045128367 -0.032896545 -0.11547064 -0.08687136 0.17989822 -0.1011849 0.07648876 -0.11637066
0.20040385 0.07119098 0.05870903 -0.029239194 0.054659136 0.034283623 -0.077930644 0.22666116
0.07224761 0.009768055 -0.094704516 -0.11296375 0.057732932 0.10972232 -0.14009535 -0.11374204
-0.08990278 0.010350089 0.16642971 0.22478086 -0.04619245 0.17753178 -0.08082492 0.16537617
-0.032581866 0.16271311 0.15726322 0.06445786 0.0005164826 -0.014839062 0.015366201 0.0050120796
-0.05304119 0.17110907 0.07667536 0.14099754 0.03522669 0.017793672 0.023646696 0.06479999
0.046179947 -0.0027480726 -0.0003320655 0.05405575 0.055538036 0.03372381 -0.23524188 -0.011239774
0.06569349 0.07401233 -0.084700465 0.022651551 -0.030473847 -0.04741632 -0.17192169 0.065538965
0.05060393 0.05794319 -0.08137273 -0.07327376 0.08004983 -0.09653284 0.08223886 -0.096647255
0.05631277 -0.107528746 -0.0065868963 -0.12326003 -0.059869763 0.04988633 0.06762285 0.049028683
0.06188348 0.022509877 0.12224227 0.022715643 0.10358859 0.15592203 0.13037932 0.08584896
-0.08791601 -0.033964626 -0.101843424 0.13948427 -0.14363885 0.0129779205 -0.0043110256 0.1690848
-0.10214523 -0.05199033 0.09387218 -0.0401974 -0.016769761 -0.07845793 0.1716831 0.113175415
-0.06922418 0.09826404 -0.058974046 0.061095636 -0.018839406 -0.06419233 -0.007677535 0.06949395
0.045833554 -0.10706939 -0.022440106 -0.043261006 -0.077571236 0.101266526 0.0669142 0.039250024

fc3.bias f4 [50]
00000000: a1ef 973d 88bb f03c b047 613d e0c1 c33c
00000010: 7fe3 463e 5f2e 343d 8a29 3e3e e83f 0b3d
00000020: 8b4a 063d 4290 413e a5cf 83bc 929b 7e3d
00000030: 5036 ee3c c62b acbd 015a d0bc 5b4d f33d
00000040: 46ad d03d a776 073e aa1e ad3d 454b 473e
00000050: 9244 293e 1133 c83d fad6 d43d fd23 6a3d
00000060: ff43 143e c205 9b3d 81d2 39bc 5d06 a93d
00000070: 46a0 933d fb9d 6f3d 0f2c 0f3e 93f7 f43d
00000080: 5652 183e 5641 933b 8c7d 35bd 576f e53d
00000090: 6cdc 923d 69a7 8d3c 730d c93d 6e45 2b3e
000000a0: 30b1 3c3d 4335 10bd 92d1 fb3d 7e98 333e
000000b0: 50dd 2f3c d4b8 c0bd 866d 04bd cc0b 083d
000000c0: 3f23 b33d 6f12 163e
0.074187525 0.029386297 0.055000007 0.023896158 0.1942272 0.043989535 0.18570533 0.033996493
0.032785933 0.18902686 -0.016090224 0.062160082 0.029078633 -0.084067866 -0.025433542 0.11879989
0.10189299 0.13228856 0.08453114 0.19462307 0.16530064 0.09775365 0.10392566 0.057163227
0.14479063 0.075694576 -0.011341692 0.08253167 0.07208304 0.05850027 0.13981651 0.119612835
0.14875159 0.0044938726 -0.044309184 0.11202877 0.071709484 0.017291741 0.09817018 0.16725704
0.046067417 -0.035207044 0.12295832 0.1753864 0.010733917 -0.09410253 -0.032331012 0.033214375
0.08746957 0.1465547
