checkpointing_test/sigmoid_example_s12345/models/eval_checkpoint_checkpoint_300.pt (torch, 95431 bytes, 24 tensors)

fc1.weight f4 [50, 7]
00000000: c2bf c4be 564b 113b 7a02 8bbe a2e3 bb3e
00000010: 8a0c 53be f3bf 3a3e e50d 39be 8a40 8c3d
00000020: 902c 9cbe badb 1b3e 06b3 a53e 3c53 fa3d
00000030: 0373 ca3e 64ee 75be 1e13 75be fdb0 28be
00000040: 1ba6 aebe 9eb2 d03d 9f64 9b3e c01a 423e
00000050: cc66 e6bd 92ed a2bb 5f5a 543e e3ef e73d
00000060: df16 bd3e bd58 aabd 22f3 833e 3cc5 793e
00000070: de60 b13e e8b8 af3e 7e29 09be 0b72 7dbe
00000080: ff72 86be 4715 88be 4f09 7a3e 1ed9 59be
00000090: 67cd 413e 73bf 75be d07e 6bbc bb0f a4be
000000a0: 8118 343e 1210 c7bd 2ced bf3d cc4b 843e
000000b0: c453 0abe ac2b 8d3e fc20 273e 93d3 5a3e
000000c0: d8d7 1b3e fd57 893e 40b4 4f3d c42b e5bd
000000d0: fa0e 46be 6460 523e cc44 8b3c 1b23 453e
000000e0: 3e65 6d3e 1072 02bd a227 a73b f88b c5bc
000000f0: 5405 b73e 6544 a1be b93e a63e b792 973c
00000100: ef40 cd3d 59bf 893e b4d4 7fbe 59b5 9bbe
00000110: 76b3 be3e 0af4 32be a81e a73c bd44 ba3e
00000120: 283b b7bd 3fcb 553d f04b 8d3e b86a 80be
00000130: 3a44 92be b80c aaba b12a fd3d 0960 ff3c
00000140: d94c a9be 72d4 59be 8287 b6be 1a1b bd3c
00000150: 86bd 2ebe 4670 53be 22e0 ad3e 9cc8 78be
00000160: feb6 72bd 3aa7 0bbe 842f 923e 9649 69be
00000170: d5f7 3c3e 60de ff3d dab8 5a3e 1130 e3bc
00000180: 0137 93bd 3531 0bbe 3bb9 413e fa7e c63d
00000190: 3ffc 513e f87e 3cbe 3aa2 a4bd 77fa 75be
000001a0: 1277 17be 7f64 363d 01ee 5cbe 7a03 4d3e
000001b0: aa1b 92bd e834 81be 7761 db3e 9d06 a1be
000001c0: b409 b6be 6063 483c 9859 aabd 758d d13d
000001d0: 12db 47be 7074 a7bc 7cf4 9d3e ccd3 72be
000001e0: 0315 ae3e 87f9 bdbe f616 b63d f4f6 b43e
000001f0: 7ffb 0abc 6f30 cabd 3e31 cabe 9748 dabc
00000200: f715 ad3d 1622 623e b2d9 6bbe e302 54be
00000210: 6c79 9b3e 3724 cebd b9db 91be 3799 79be
00000220: 21a6 c93e b7c9 863d 3964 ebbc e12e 45be
00000230: ed3a 303e d16e a2be 0a86 503e ed5b 8c3e
00000240: 1297 a33e 19a0 70bd 3231 fb3d 6bd0 bb3e
00000250: 4838 31be a7c8 82be 3743 86be 7372 dabd
00000260: 5d22 753e 0dae 5f3e d5d0 b53e c3e3 613d
00000270: 14f8 8e3e 1990 77be daa3 74be d031 f33d
00000280: 8d35 e2bd e456 803d 2162 713d fe0b 9a3c
00000290: c41b cc3b 10ad 1abd 501b 04be c637 b03e
000002a0: 83f1 5dbe 1d73 433e 1a5b 383e a0a9 4bbc
000002b0: d55e c0bd a6f1 943e b3ef 923e 85db acbd
000002c0: 6804 65be f7dc 6abe b7bf 79bd a43f 7bbe
000002d0: 5782 2e3e 6899 f73d 8769 853e 383a 95be
000002e0: d042 0f3e 20a6 9abe f959 b83e b7bf 78bd
000002f0: c5b4 af3e b04f 48be 481d 4bbe d200 90bd
00000300: 39ed 4fbe bdc7 cc3e 1a6c ca3e ea63 c5bd
00000310: 1081 31be eee1 20bd 37fe e03d 2f60 39be
00000320: 6f0b 8f3e 1c6a 84bc 22f8 b23e ba3c e23d
00000330: bd53 89be 62ad 843e b1f6 683b 3e05 ccbe
00000340: b9bc 7c3e e44d 85be 8617 303e 0e71 e8bb
00000350: a9c2 d1bc 7271 e4bd 1e60 9e3d 73d5 653e
00000360: debd 81be 6924 c53d 9773 b23d dbd8 353e
00000370: e181 bcbc b881 4dbd beab 27be dd0a 8dbd
00000380: d926 163e 15e9 a63d 55c8 963e 0e38 50be
00000390: 7c46 9b3e 7aa0 86bd d619 03bd 1588 d7be
000003a0: 8c5f 6abd 84a9 27be d5aa c93e 4786 673e
000003b0: cd1b 523e ddc1 4cbe 240d ef3d 0827 bfbd
000003c0: 6a7e 8abe cc42 133e 16f6 6f3e 32c2 64be
000003d0: 1eee b43e 726e 0bbe 20b4 683e 843a 883d
000003e0: 8783 9bbe 4228 493e fd99 ae3e 0519 7f3e
000003f0: 2934 3ebe ca40 53be da9d 7e3e d8a3 95be
-0.3842755 0.0022170148 -0.27150327 0.36697108 -0.20610252 0.18237285 -0.18071707 0.06848247
-0.30502748 0.15220538 0.32363147 0.12222907 0.39540872 -0.2401672 -0.23933074 -0.16473766
-0.34111103 0.101903185 0.30350205 0.18955517 -0.11250076 -0.0049721682 0.20737599 0.11325052
0.36931512 -0.08317707 0.25771433 0.24391645 0.34644216 0.3432076 -0.13394734 -0.24750535
-0.2625961 -0.26578733 0.24417613 -0.2127423 0.18926011 -0.23998813 -0.014373496 -0.3204325
0.17587472 -0.09719862 0.09371409 0.25839078 -0.13508517 0.27572381 0.16321176 0.21369772
0.15219057 0.26824942 0.05070901 -0.11189988 -0.1934165 0.20544583 0.017000578 0.19251673
0.23183152 -0.03184706 0.00510116 -0.024114594 0.35746253 -0.31497493 0.3246973 0.018502576
0.10022151 0.269038 -0.24983484 -0.30411795 0.37246293 -0.17475906 0.02040036 0.36380568
-0.0894683 0.052195784 0.27596998 -0.2508142 -0.28567678 -0.0012973761 0.12361658 0.031173723
-0.33066443 -0.21272448 -0.3565026 0.023084212 -0.17064485 -0.20648298 0.33960062 -0.24295276
-0.059256546 -0.1363801 0.28551877 -0.22781977 0.18453915 0.124935865 0.21359578 -0.02773288
-0.071882255 -0.1359299 0.18918316 0.096921876 0.2050638 -0.1840781 -0.08038755 -0.24021326
-0.14791515 0.044529434 -0.21575166 0.20020857 -0.07134183 -0.25235677 0.42847797 -0.31450358
-0.35554278 0.012230724 -0.0831787 0.10232059 -0.19517162 -0.020441264 0.3085059 -0.23713607
0.34000406 -0.37104437 0.08891098 0.3534466 -0.008482813 -0.09872519 -0.39490694 -0.026645942
0.08451455 0.22083315 -0.23032263 -0.20704226 0.30366075 -0.10065501 -0.28487948 -0.24374853
0.3938456 0.06581443 -0.028734313 -0.19256164 0.17209978 -0.3172517 0.20363632 0.27413884
0.31951195 -0.05874643 0.12265243 0.36682448 -0.17306626 -0.2554371 -0.26223156 -0.10666361
0.2393889 0.21843739 0.3551089 0.05514885 0.27923644 -0.24176063 -0.2389063 0.11874735
-0.1104537 0.06266573 0.058931474 0.018804546 0.006228896 -0.0377627 -0.12901044 0.34417552
-0.2167416 0.19086881 0.18003502 -0.0124305785 -0.09393088 0.29090613 0.286985 -0.084403075
-0.22364962 -0.22935854 -0.06097385 -0.24535996 0.17041908 0.12089807 0.26057073 -0.2914598
0.1399033 -0.30204868 0.36006144 -0.06072971 0.34317604 -0.19561648 -0.19835389 -0.070314065
-0.20305337 0.39996138 0.395356 -0.09638198 -0.1733439 -0.039277963 0.10985988 -0.18103097
0.2793841 -0.016163878 0.34954935 0.11046739 -0.268217 0.2591353 0.003554743 -0.3984775
0.24681367 -0.26035988 0.17196473 -0.0070935553 -0.025605517 -0.111544505 0.07733177 0.22444706
-0.2534017 0.09626085 0.08713453 0.17758505 -0.02301115 -0.050172538 -0.16374108 -0.06886838
0.14663257 0.081499256 0.29449716 -0.20333883 0.30327213 -0.06573577 -0.03200706 -0.4209601
-0.057220027 -0.16373259 0.39388147 0.22609816 0.20518418 -0.19995828 0.11672428 -0.093336165
-0.2704957 0.1438095 0.23433718 -0.22339705 0.3533792 -0.1361635 0.22724962 0.06651786
-0.30373785 0.19644263 0.3410186 0.24911888 -0.18574585 -0.20630184 0.24864903 -0.29226565

fc1.bias f4 [50]
00000000: 99c0 71be c73b a3be 0c61 2c3e 839c c7bd
00000010: 30e8 893e 42b1 88bd 4b31 ae3c 9608 9a3e
00000020: 814e 87be 4fad b43e d09b 4f3c 2253 ce3e
00000030: 5206 6b3c 394b c33e acfc 943e 9417 65bd
00000040: f5cd d43d d0b9 2d3e b489 033e 2c12 6d3e
00000050: 5cda 0f3e 919b 2dbe d4de 923d 0ea7 993e
00000060: 877c 0e3e a1a3 febd ca00 8cbe 00f9 73be
00000070: 5d41 ad3e 551a 18bc dbe4 95be 4d58 29be
00000080: 6636 c83a fa28 a83e 961f b7be 195c abbe
00000090: e08e a23e 0aeb 7ebe ff92 79bd 74fe ddbd
000000a0: 21f0 a83c 040a 97be 41de e1bc babc 63be
000000b0: e283 8cbd 80db 393e d966 cb3a d29e 35bd
000000c0: 2858 b83e 2143 ab3e
-0.23608626 -0.31881544 0.16833895 -0.09746649 0.26934958 -0.06674434 0.02126374 0.30084676
-0.2642708 0.35288474 0.012671426 0.402978 0.014344769 0.38143328 0.29099023 -0.05593069
0.10390846 0.16965413 0.12845498 0.23151463 0.14048141 -0.16953875 0.07171407 0.30010265
0.13914691 -0.124335535 -0.27344352 -0.23825455 0.3383893 -0.009283622 -0.29276165 -0.1653759
0.0015275001 0.32843763 -0.35766286 -0.33468702 0.3174963 -0.24894348 -0.060931202 -0.10839549
0.020622315 -0.2949983 -0.0275718 -0.22239962 -0.06861092 0.18150139 0.0015518322 -0.044340916
0.36004758 0.33449653

fc2.weight f4 [50, 50]
00000000: 3062 38be 16de 433c 3356 87bd d40c a8bd
00000010: 06fe 8dbc 710c a7bc e3a7 bcbd e817 8d3d
00000020: 5cee 0e3e 0377 9d3d 4521 77bd 0a1f 873d
00000030: 61a3 01bd 5e40 9ebc f277 cdbd c6aa eb3d
00000040: bffb 23bd 3d8a 82bd d05a a93c 670b 103e
00000050: a3d0 0c3e d9f7 bebd 05ba 5bbd 4ae4 d3bd
00000060: cccc 0bbd b5a5 adbd ab9e 74bd 92cb 053e
00000070: e64e babd 2406 81bd 6d82 143d dcbf 46bd
00000080: 8880 b03d 5130 9f3d 31e2 133c 1d6d 07bc
00000090: a55a 103c f465 ef3d 3a14 033e 4444 073e
000000a0: b8f0 1a3c e471 16be 6024 6b3d 997c fbbd
000000b0: b5df ae3d f64b dc3d 42d8 023e 4910 f4bd
000000c0: 32c6 6a3d ac75 ac3d f58b f73d 7dd8 19bd
000000d0: ef53 c9bd 6387 e93d c7cb 013e f8ea a13c
000000e0: 6ed8 753d 1a07 c4bd 5260 943d c7e6 49bc
000000f0: ba85 50bc e6dc 703c e44c 0a3d 1da7 f6bd
00000100: 6cf0 903d 3f87 483d 84cb 1c3e a9f1 a7bd
00000110: 81ee 993c 6641 933d 24c0 f8bd 847a 163d
00000120: 7570 94bc ab3e 1dbd 8b90 fdbd c40b 58bd
00000130: 9a00 20bd 53b7 f0bd e134 df3d fdb4 49bc
00000140: d3e9 d8bd 1910 403d eb48 093e b107 28be
00000150: a30a 9e3c e998 0d3d 750d 193d 60ef 9fbd
00000160: 95d9 eabd 9ff9 1b3e abdd adbd 256d 2cbe
00000170: 3b69 0abe 741a 5cbc 8f06 b3bd ab3d ea3d
00000180: 8628 833d 27ac 563d 0def ff3c efea da3d
00000190: 2cd5 8a3a 5a96 4cbd af56 8a3d 6ab9 d6bd
000001a0: df5b 873d a7dc 523d 6b88 92bd 52aa d13d
000001b0: 9f58 113e a4ab 89bd 590d b03d a885 d0bc
000001c0: ce98 3f3d 0a72 193e 586b e43c 534f fcbd
000001d0: e504 f1bd d29f 07be b20a a83d 4a33 fb3c
000001e0: dde9 483d 0df5 43bb ba38 5ebd 1c58 ce3d
000001f0: c47b b8bb 23fe fdbd e4b8 fb3d 9dbb 0bbe
00000200: 58da e2bc ec91 c1bd ae4f 17be 9fec a03d
00000210: 8db9 c53d 69aa 11be c6f5 693d d2dc 4bbd
00000220: 91fe f33d 0607 9abd 9cc5 733c a09c bfbd
00000230: d635 9f3c 6379 a5bd 2cf4 013e c912 a8bd
00000240: 8b7a 95bd 581e 9a3d 8cc5 d0b9 7b45 17bc
00000250: a874 1bbe 33fe 68ba 7600 8dbd abac 963d
00000260: b007 cc3d 9bdb 43bd c97c 933d 062a 7f3d
00000270: bedf bd3d f552 2f3d 567a 523d 53a8 da3b
00000280: 63f1 193d 9faf ea3d ed98 dabc b326 35bd
00000290: 2565 09be 243c 3a3d b872 5c3c 6569 d03d
000002a0: f264 db3d 3fbd 31be fa9e e6bd 4fdb 1abe
000002b0: f13e dd3c ac80 d43b 8bc5 e7bc 7969 423d
000002c0: 4bbd 203c e446 c73d 3429 c13d 15e3 bc3d
000002d0: a9c6 cb3d 3328 48bc 651b 7e3c 78ee 0c3e
000002e0: 9f35 e3bd 4a55 3d3c a507 f53d 893b f93d
000002f0: 52a2 96bc 9095 d1bd 8f23 943d 6a22 213c
00000300: d181 e7bc 3813 d6bd 375b a83d 2025 a83d
00000310: 30cd ed3c ee51 12bc 2f02 bcbd e4b4 70bd
00000320: 4297 b0bd c744 d8bd 289b 543c b67d 02be
00000330: 1d7a 3b3d 2839 313b 89ce 703d 8bae d73d
00000340: 53c4 86bd 6b42 d6b9 4ea4 c43d 1f12 94bd
00000350: e20d 893d 936d cabd 7053 223d 7b02 74bc
00000360: d535 233d 3eac a13d 9a89 bf3d 9cee f6bd
00000370: 17c8 b9bc cddc 94bd ff30 fabd fc9b 9d3d
00000380: 60be 003d 026a b2bc 8d60 f43d 6307 a9bd
00000390: bcf3 f33c 9753 983d 284a ff3d 3e0b f5bd
000003a0: ffbb 49bd 5f5b 46be c3fc febd e8c4 013d
000003b0: 67e6 01be aaee d7bd d7f8 c23c 63dd c33c
000003c0: ae14 a03d 9c46 e33d 7ccb 953c b6ae 09bd
000003d0: 0635 0c3d 77e8 d9bc b1bf fd3d 8a07 af3c
000003e0: 1838 8dbd 9e1f 3e3d 27b5 cb3c 1df7 d63d
000003f0: 8854 01be 303c b33d cb7d 8e3d 2c21 e53d
-0.18006206 0.011954805 -0.06608238 -0.08205572 -0.017333042 -0.020391675 -0.09211709 0.068893254
0.13958114 0.07688715 -0.060334463 0.06597717 -0.03164995 -0.019317802 -0.100326434 0.11507182
-0.040035006 -0.06374023 0.020673186 0.1406685 0.13751464 -0.09324617 -0.0536442 -0.10346277
-0.034130856 -0.08478872 -0.05972163 0.13065937 -0.0909708 -0.06299999 0.036257196 -0.048522815
0.086182654 0.077728875 0.009026096 -0.008265761 0.008810674 0.11689368 0.12800685 0.13209635
0.009456806 -0.14691883 0.057407737 -0.122796245 0.085387625 0.10756676 0.12777808 -0.11917169
0.05731792 0.08420882 0.120872416 -0.037559975 -0.09830462 0.11402776 0.12675391 0.019765362
0.060020857 -0.09571667 0.07244934 -0.012323088 -0.012727195 0.014701104 0.033764735 -0.12043593
0.07077107 0.048957106 0.1531201 -0.0820039 0.018790485 0.07190208 -0.12146023 0.036737934
-0.01812003 -0.038389843 -0.12381085 -0.052745596 -0.039063074 -0.11753716 0.10898758 -0.012311217
-0.105914734 0.046890352 0.13406722 -0.16409184 0.019292181 0.034569655 0.03736635 -0.07809329
-0.11467282 0.15231942 -0.084895454 -0.1683851 -0.13516705 -0.013434041 -0.08741485 0.114375435
0.064042136 0.05241027 0.031241918 0.10689341 0.0010592095 -0.049948074 0.06754815 -0.10484584
0.0660932 0.05147996 -0.07154926 0.10237564 0.14193963 -0.06722191 0.08596296 -0.025454357
0.046776585 0.14984909 0.027883217 -0.123198174 -0.11768512 -0.1324456 0.08205165 0.030664105
0.049051154 -0.00299007 -0.054253317 0.10075399 -0.0056299884 -0.12401988 0.122911245 -0.13645788
-0.027692005 -0.094516605 -0.14776489 0.07857632 0.09654532 -0.14225163 0.057119153 -0.049771138
0.11913789 -0.07520871 0.014878657 -0.09356046 0.01943485 -0.08079793 0.126908 -0.08206708
-0.07298764 0.07525319 -0.00039820035 -0.009232874 -0.1518122 -0.00088879763 -0.068848535 0.073571526
0.09962404 -0.047816854 0.07201535 0.062295936 0.09271191 0.042803723 0.0513862 0.006672898
0.03758372 0.11459278 -0.026684249 -0.04422636 -0.1341749 0.04546751 0.013455085 0.101763524
0.10712613 -0.17357348 -0.11260791 -0.15122722 0.027007552 0.0064850654 -0.028292438 0.047463868
0.009810756 0.09730318 0.09431687 0.09223 0.09950001 -0.0122166155 0.015509461 0.13762844
-0.11094212 0.011555979 0.11964349 0.121695586 -0.018387947 -0.10233605 0.07233345 0.009834865
-0.028260143 -0.104528844 0.08220523 0.08210206 0.029028505 -0.008930666 -0.09180104 -0.05876626
-0.086226 -0.10559993 0.012976445 -0.12743267 0.045770753 0.0027042124 0.058790717 0.10531338
-0.065804146 -0.00040866746 0.09601651 -0.07230019 0.06692101 -0.09884181 0.039630353 -0.0148931695
0.03984626 0.07894181 0.09352417 -0.1205723 -0.022678418 -0.07268677 -0.122163765 0.07695767
0.031431556 -0.021779064 0.11932478 -0.08253362 0.029779308 0.074378185 0.12465316 -0.11965035
-0.049251553 -0.19370793 -0.12450554 0.031681925 -0.12685548 -0.105435684 0.023800297 0.023909276
0.07816444 0.11097452 0.018285505 -0.033613883 0.034230255 -0.026600106 0.12390078 0.0213659
-0.06895465 0.04641687 0.024866654 0.10496352 -0.12629902 0.08751714 0.06957587 0.11187968

fc2.bias f4 [50]
00000000: 7162 fcbd df40 b63d d654 50bc a8e7 013d
00000010: a5a1 153e ac48 f9bd 2ebc ec3d cf32 ebbd
00000020: 2443 eebd 85cb d7bd fca5 0b3e 9e2a 913c
00000030: 24e0 0c3d bafd 553d 0728 043d 50eb df3d
00000040: a42a 713d 94a2 e0bd 22a6 8b3c 8272 e13d
00000050: 1e5f 563d 388f c1bd e917 753d 7f75 a23c
00000060: 8d9d 15be 7955 10be c8b1 a0bc b224 11be
00000070: 8e2e d63c 54b5 53bb a778 fa3d aa90 53bd
00000080: d107 a2bd 1e16 33bc 0307 013d 3189 f43d
00000090: 3097 0b3d db77 a3bd 2f6c 11be 9e3f debd
000000a0: 0cd5 b1bc 2201 a9bd c33a 0cbe fc5d c43c
000000b0: 04a7 ca3d 0251 8abc 6d94 f43b 542e bfbd
000000c0: 2c59 18bc 5cea 0abe
-0.12323464 0.08899092 -0.012715539 0.031715065 0.14612444 -0.12172064 0.1155933 -0.114843
-0.116339 -0.10536865 0.13637537 0.017720517 0.034393445 0.052243926 0.032264736 0.10933554
0.058878556 -0.10968509 0.017046992 0.11008169 0.052336805 -0.09451145 0.059837256 0.019831417
-0.14610882 -0.14095105 -0.019616023 -0.14174154 0.026145246 -0.0032304125 0.12230044 -0.051651634
-0.07911647 -0.010930566 0.031500828 0.1194023 0.03407973 -0.07981845 -0.14201425 -0.10851978
-0.021708034 -0.08252169 -0.13694291 0.023970596 0.09895137 -0.01688433 0.007463983 -0.09335008
-0.009298604 -0.13565964

fc3.weight f4 [50, 50]
00000000: 5bc6 09be 6b1d a13d a621 aebd 2dd8 d6bd
00000010: 396d fbbc adf0 42bd e7d5 fb3d cce0 c2bd
00000020: 8bf5 58bd 5928 913d 63f4 083e 02ca 5a3c
00000030: 9d6c 6dbd d6af c93d 02d8 1c3e 860a 453d
00000040: 7cff c5bd b2f8 c23c f5ac f03d 8567 03be
00000050: a3c7 2a3d 01e5 efbd 99f3 59bd 6785 ee3c
00000060: db4d d33d 1b98 013e b306 c43d d42f d73c
00000070: cfbe 93bc cb06 bdbd 359f 92bd b6fd fdbd
00000080: de53 903d 74a6 2c3d 4ac5 d8bd d3e7 093e
00000090: b4cf 253d 9350 acbd 3eff eabd f513 90bd
000000a0: 0c37 e4bd 7efb 02be e0a4 c2bd 8077 c23d
000000b0: 2be5 c53d ff93 99bd 6c21 74bd 004b d73d
000000c0: 240f 0d3e c248 b03c 7bcd bc3d 411d 4bbd
000000d0: 5c29 0dbe 83aa 41bd d55b 6abd 2075 333e
000000e0: 0c66 0b3e 10f1 e3bd c9e1 db3d 1ce2 efbd
000000f0: 009d b7bd 46f7 313e 0dc7 903d b280 a83c
00000100: c0d9 c6bd 62fe 96bd a38a 6dbd b3d0 2bbd
00000110: 9afa 5f3d fb34 6cbd 46a3 96bd 21cd 4abd
00000120: dadb 1a3c d142 13bd e020 afbd 96f9 94bd
00000130: 4929 a03d a973 debc 2b33 24bd 7e98 1d3d
00000140: 5e10 0a3c 33ae a43d 5af3 163e 804e b63d
00000150: e317 d6bd aba3 803d b4e2 01be 9cdb 783d
00000160: b308 0b3d 87d0 8ebb 2206 98bc bc42 833d
00000170: 33f6 eebc 6707 88bd 0940 37bd 9058 44bd
00000180: 9025 9a3d 5125 a13d e1bb ff3d c9b8 793d
00000190: 11a4 fc3d f3d3 8f3d e1ef fd3d 7946 fa3c
000001a0: b196 88bb 0bf1 a3bd 0ccf 093e a5db f1bd
000001b0: f6c4 8a3d e249 fcbd 88b2 91bd ab8c 9d3d
000001c0: 5111 03be be74 0c3c 3e97 90bc 3b02 de3d
000001d0: ab3f 123e ffde 32be b308 ee3d ee16 9bbd
000001e0: a28e e13c aacb ef3d 63a8 11bd 429a c23d
000001f0: a07c 343c 89ab dd3d 5961 b4bc bb0f e53d
00000200: 2ac9 3b3e 7b58 ffbd ef8b 913d 356b 0fbe
00000210: 3cea bd3d ffc9 953d 5b4c 38bd 6e0e b1bd
00000220: 2d7a 6ebd 48a7 01bd 426f b3bd 5188 8b3d
00000230: 975c a43d d646 a9bb d32a 22be 951a db3d
00000240: fb11 b03d b9f5 d03d 5bae c03d 4cdf b03c
00000250: 6c6a 6d3d a224 bfbd ec6c db3d 8b03 f93c
00000260: 1f32 113d 049e d2bc 1235 49bd 2451 c53c
00000270: bcf8 7f3d d511 863b 0728 a93d 98d5 0e3e
00000280: 2022 08bd 1154 7fbd 5099 c0bd bece cdb8
00000290: 5b8e d23b 7165 d43d 15c4 df3d 1bad 21be
000002a0: 741e c43b bc97 dc3d 2ef8 bdbb 9c27 bebc
000002b0: 3a77 77bd 3500 89bd 3e71 383e 719a e2bc
000002c0: faaf d63d d0e2 07be 7f2f 003e e2e0 fdbd
000002d0: 55a5 26be ec30 1cbd 8f6f 6bbc d773 c4bb
000002e0: c32c b33c 2b88 303e 4ac8 323c c002 ffbc
000002f0: 5913 eabd 1621 633d 53fc b83c a922 08bc
00000300: 0c12 72bd 7685 9f3c cf00 11bd 6912 413d
00000310: 6bd8 0fbe b9bd d43c 2397 c2bd e40c 05be
00000320: 5dc1 3ebb 9dc5 303d aa76 b33b f7fb e23d
00000330: b9ea c7bd 58de ae3d 6db5 b4bd ef93 e6bc
00000340: f1cc 173d 3217 bebd 864a 98bd f30a a83d
00000350: aa3b e33d 307b cf3d 1550 bf3d 7074 fbbd
00000360: 9e5d ea3d 8fa0 8bbd 200b e63c 0566 ccbd
00000370: 7a0c 00be 5847 65bc 47a9 1a3e 752e 813d
00000380: b446 8cbd 7de1 f1bd 5f57 2f3d 13b1 bbbc
00000390: 309f 1d3e dabd cabd afab a7bd 1efd ecbd
000003a0: 3436 ab3b a8e4 3d3d 6d87 3a3d 0289 de3c
000003b0: bca6 f4bd 965e c6bd 3490 fbbd d892 87bd
000003c0: 81b5 fdbd 1373 0b3e b922 a0bd 0e3f 4ebd
000003d0: 37bb 973b 1763 243d efe5 84bd 40eb 83bd
000003e0: db3c e63b 0070 69bd 415d ed3c 398f 7b3d
000003f0: 975e bc3d 65b7 10be f2b8 95bd ffa0 d53d
-0.13454573 0.07866939 -0.08502512 -0.10490451 -0.03069173 -0.047592808 0.12296658 -0.09515533
-0.052968543 0.07087774 0.13374476 0.0133538265 -0.05796491 0.09847991 0.15316775 0.04810574
-0.096678704 0.023800228 0.11751739 -0.12832458 0.041694295 -0.11713601 -0.05321083 0.029116346
0.10317584 0.1265568 0.0957159 0.026267923 -0.01803532 -0.09229811 -0.071592726 -0.12401907
0.070472464 0.04215093 -0.10584505 0.1346734 0.040481284 -0.08413806 -0.11474465 -0.070350565
-0.11143312 -0.12791249 -0.09504104 0.09495449 0.09662851 -0.07498931 -0.059602186 0.10512352
0.13775307 0.021519069 0.0921888 -0.049588446 -0.13785309 -0.047281753 -0.057216484 0.17525148
0.13613147 -0.111299634 0.107364245 -0.11713049 -0.08965492 0.17379484 0.07069216 0.02056918
-0.09709501 -0.073727384 -0.057993542 -0.041947078 0.05468235 -0.057667714 -0.07355361 -0.049512032
0.009451831 -0.035952393 -0.08551192 -0.07274167 0.078203745 -0.02715476 -0.04008786 0.038475506
0.008426754 0.08041038 0.14741269 0.089016914 -0.10453775 0.06281217 -0.12684137 0.06075631
0.033943843 -0.0043583545 -0.018557612 0.06409213 -0.029170131 -0.06642037 -0.044738803 -0.047936022
0.07526696 0.07868446 0.12487007 0.06096724 0.12335981 0.07022848 0.12399269 0.030551182
-0.0041683544 -0.0800496 0.13457888 -0.11809472 0.067758486 -0.123187795 -0.0711413 0.07692846
-0.12799574 0.008572755 -0.017650243 0.10840269 0.142821 -0.17467879 0.11622753 -0.07572733
0.027533833 0.11708768 -0.035560977 0.095020786 0.011016041 0.10823733 -0.022019075 0.11184641
0.18338457 -0.12468048 0.07106768 -0.1400574 0.09273192 0.07313918 -0.044994693 -0.0864533
-0.058221985 -0.031653672 -0.08761455 0.0681311 0.080254726 -0.005165915 -0.15836649 0.106984295
0.085971795 0.10203118 0.09408256 0.021590851 0.05796282 -0.09333159 0.107141346 0.030397197
0.03544819 -0.025710113 -0.049122877 0.024086542 0.06249307 0.004091481 0.08259588 0.13948667
-0.03323567 -0.06233603 -0.09404242 -9.8136705e-05 0.0064256615 0.10370911 0.109260716 -0.15788691
0.0059850756 0.107711285 -0.0057974076 -0.023212247 -0.060416438 -0.066894926 0.18011948 -0.027661534
0.104827836 -0.13270116 0.12518118 -0.123964086 -0.16274007 -0.038132593 -0.014369859 -0.0059952545
0.02187193 0.17239444 0.01091201 -0.031129241 -0.114294715 0.055451475 0.022581255 -0.008309045
-0.059099242 0.019472819 -0.03540116 0.047136698 -0.140474 0.025969373 -0.09501483 -0.12993199
-0.0029106953 0.04315721 0.0054767923 0.11083215 -0.09761567 0.085385025 -0.08823667 -0.028146712
0.03706068 -0.09281768 -0.07436089 0.082052134 0.110953644 0.10130918 0.09341446 -0.12278068
0.11443637 -0.068177335 0.028081477 -0.09980396 -0.1250476 -0.01399406 0.15103637 0.06307689
-0.06849423 -0.118105866 0.042807933 -0.022911584 0.15392756 -0.098994926 -0.08187043 -0.11571716
0.0052249674 0.04636064 0.04553931 0.02716494 -0.119458646 -0.096860096 -0.12283364 -0.06619805
-0.12388135 0.13618116 -0.07819123 -0.050353102 0.004630472 0.040133562 -0.06489169 -0.06441355
0.0070262975 -0.056991577 0.028975131 0.061415885 0.09197729 -0.1413246 -0.07310666 0.10431098

fc3.bias f4 [50]
00000000: 92ef 943c 80a9 673d b513 6cbd fb11 acbd
00000010: d434 033d 6acf cb3d 7847 7cbd ba6e d8ba
00000020: cd92 ea3d 6143 c2bd 35e1 88bd 72f1 f9bc
00000030: df35 b1bd ff0f f03d bcbb d0bc 7067 e93d
00000040: 3ed1 02be 4620 aa3c 319c 713d f721 cc3d
00000050: 66a4 2d3d c359 ecbd ef5b 843c 294e f13d
00000060: 18d0 3d3e bb28 1f3e fc43 d33c 51fe c9bd
00000070: bc2e 113e 192a 963c 9aff 973d dd2d ddbd
00000080: 3a33 e03c 509d 31bc cde5 503d 126c 253d
00000090: 3eeb 403d b66e adbd d81d a3bd 362d 353e
000000a0: 9c6c 14bd 4c63 e1bb 0939 c53d e116 833d
000000b0: 09f9 573d 98a7 fabd e56a a93d 0007 80bd
000000c0: b2f9 e2bd 868a 23bd
0.018180642 0.056558132 -0.05763598 -0.08401867 0.032032803 0.099516705 -0.061591595 -0.0016512491
0.11453781 -0.09485508 -0.0668358 -0.030510638 -0.08652853 0.11721801 -0.025480144 0.11396682
-0.12775132 0.020767342 0.058986846 0.09967416 0.04239311 -0.11540558 0.016157119 0.11782486
0.18536413 0.15542881 0.025789253 -0.0986296 0.14177984 0.01833062 0.07421799 -0.10799763
0.027368177 -0.010840729 0.051000405 0.040386267 0.047099344 -0.08468382 -0.079646766 0.17693028
-0.03623639 -0.006878292 0.09630019 0.06400848 0.052727733 -0.12238997 0.08272342 -0.06251335
-0.11082782 -0.039927028

fc1.weight f4 [50, 7]
00000000: 4a6a bbbe 4430 cabc acdb 8abe 0738 a23e
00000010: 5bb5 5ebe d9d2 2d3e e0c7 46be 060b 4f3d
00000020: 39ce 97be 203d 2c3e b473 a03e 8bef f93d
00000030: 6d7b b53e 3078 72be 093a 61be cd30 18be
00000040: f56f adbe e79f d73d af51 983e 5313 363e
00000050: 33b7 bfbd e887 f6bc 7a14 473e 3d06 f93d
00000060: 5f20 b23e 7549 98bd 46ef 6c3e 3936 613e
00000070: 1bc4 a33e 0ce1 ab3e 86bc 06be 3205 79be
00000080: 8aaf 77be 2b21 81be ca00 753e 0d9f 4fbe
00000090: fe54 4b3e 8095 80be 519b bbbc 9a50 95be
000000a0: 0334 403e b4d3 a6bd b7b1 983d eb16 803e
000000b0: b42f 07be 8016 843e c66b 123e b429 4e3e
000000c0: 6450 223e 62fe 7d3e 4e16 073d 4539 e1bd
000000d0: 50f3 47be a761 443e 6d4b ea3c 843a 2d3e
000000e0: d4aa 6f3e 686b 99bc bed1 313c bfad 8abc
000000f0: 4aea ae3e 7b0e 93be dbcd a53e 5617 a13c
00000100: 15b5 ab3d 06f1 843e 6b24 64be 9fac 9dbe
00000110: bdb2 b23e 8897 2ebe 81dd 483c e3ce a83e
00000120: 028f b0bd 8629 1b3d 27a1 8e3e 0ccd 7abe
00000130: 6ce0 86be 2529 2cbc 8e46 e83d c08a 023d
00000140: 7a80 abbe 4456 24be c291 b4be a941 b73c
00000150: 1e9c 35be 7e8c 45be 3bcc ac3e b7e2 74be
00000160: 2d3a 4fbd e23e eabd 0f34 833e c643 55be
00000170: ee27 273e 810a df3d 85f9 413e c522 25bd
00000180: 0567 a6bd d5a5 f3bd aed1 303e 7c57 ec3d
00000190: c566 3e3e 583a 2dbe dc8c acbd e1a5 62be
000001a0: 3a5a 0cbe d42e d13c e61d 59be 021f 343e
000001b0: 260e 8cbd e3fd 5cbe 9e0a d13e 60e9 93be
000001c0: 07a5 a3be 7962 c23c 56db 92bd fb6d c33d
000001d0: 02e6 39be 59c5 1bbd ebb4 913e d7ed 72be
000001e0: ab8a a13e e1f0 aebe 7397 d83d 3e49 ae3e
000001f0: 908c 1ebc daff e2bd 5e5c bfbe bbf4 d1bc
00000200: bd76 853d d87e 653e 9380 52be e093 55be
00000210: 5fd3 9c3e bd28 fcbd 5587 8cbe 0ae7 35be
00000220: 8de2 ac3e 3738 813d f263 5ebd 2f70 56be
00000230: 6b9a 153e 4688 a2be 3271 323e 31c5 823e
00000240: 4139 9b3e f24d 1fbd 621e e23d 985a ac3e
00000250: 1e48 2abe f768 7ebe d26e 86be 7ed5 d2bd
00000260: 1356 693e 27d7 5c3e 35f1 a33e dfde 2a3d
00000270: 421e 883e fbb5 76be ba7a 70be 4f3c f43d
00000280: 33b2 fdbd 5417 823d dee0 903d e16b 043c
00000290: a8f6 d8bb ed13 29bd 6862 ccbd 7912 a33e
000002a0: cc54 49be 5698 433e 556a 3a3e 3053 a8bc
000002b0: c5af bebd 201c 8e3e 078c 943e b665 afbd
000002c0: 5798 52be 0aa7 69be 629f 56bd 1101 55be
000002d0: 223c 293e 8d11 123e b91b 7f3e 5b10 8ebe
000002e0: de30 f13d 4e0e 97be 6162 a53e 661e 6abd
000002f0: 7436 a03e cf14 2ebe 6e00 49be 1bbb b5bd
00000300: c1c6 3bbe 0add c63e d30e b63e bbd4 c1bd
00000310: 1252 2cbe e3f1 67bd dbfc c33d 4285 20be
00000320: ac0a 903e 8e3a a5bc faef ab3e 67a0 b33d
00000330: c9ff 90be 1347 803e 654b 8fbc dd07 b4be
00000340: 2e44 603e bff6 79be 05c2 283e 8faa aebb
00000350: 204f ecbc 0afb f0bd eab3 a63d ca6e 5a3e
00000360: 2e01 81be 22ae c33d 4176 db3d f568 2d3e
00000370: a129 c1bc 74c6 45bd 43a3 09be 1fd6 26bd
00000380: 2beb 063e a84c b13d 9842 8c3e 5de2 43be
00000390: 75f7 943e d969 3fbd 1bf3 14bb e5e8 b8be
000003a0: 29fa c8bd f03c 2cbe 7258 c13e ff09 493e
000003b0: 8448 2e3e c774 66be 919d ce3d 5e89 c2bd
000003c0: bc1f 76be 2b7f 083e 6b67 753e 2d4f 47be
000003d0: 9a4f aa3e 10ab 0dbe 08f6 523e 4150 a33d
000003e0: 8100 91be 58a5 2e3e 1ddc a63e 5773 7d3e
000003f0: 46e4 36be 9241 5dbe 4af4 763e 38e3 8bbe
-0.3660453 -0.024681218 -0.2712072 0.3168337 -0.21748869 0.16974963 -0.19412184 0.050547622
-0.29649523 0.16820192 0.31338274 0.12203892 0.3544573 -0.2367866 -0.21994795 -0.14862366
-0.3387448 0.10528546 0.2974982 0.17780809 -0.09361114 -0.030094102 0.19441405 0.12159393
0.34790322 -0.07435886 0.2313815 0.2199334 0.31985554 0.33570135 -0.13157853 -0.24318388
-0.24188057 -0.25220618 0.23926082 -0.20275517 0.1985664 -0.2511406 -0.02290121 -0.29163057
0.18769841 -0.08145848 0.074557714 0.25017485 -0.13201791 0.25798416 0.14298925 0.20133096
0.15850979 0.2480407 0.032980256 -0.109972514 -0.1952641 0.19177876 0.028600419 0.16916853
0.2340501 -0.018727973 0.010853229 -0.016928552 0.34163123 -0.28721985 0.32383618 0.019664448
0.08384148 0.25965136 -0.22279517 -0.30795762 0.3490199 -0.17049992 0.012259842 0.32970342
-0.086210266 0.037881397 0.27857324 -0.24492282 -0.26343095 -0.0105078565 0.11341582 0.031870604
-0.33496457 -0.16048533 -0.35267454 0.022370176 -0.17735335 -0.19291875 0.33749565 -0.2391461
-0.05059259 -0.11437775 0.25625655 -0.20826635 0.16323826 0.10890675 0.1894284 -0.040316362
-0.08125118 -0.11896864 0.17267486 0.11540124 0.18593891 -0.16916788 -0.08425304 -0.2213359
-0.13706294 0.025535025 -0.21202812 0.17589954 -0.06838636 -0.21581225 0.40828413 -0.28888988
-0.31961843 0.023728596 -0.07170741 0.095424615 -0.18154147 -0.038030002 0.28458342 -0.23723541
0.31551108 -0.3416815 0.10575762 0.34040254 -0.009677067 -0.11083956 -0.37375158 -0.025629392
0.06516788 0.22411668 -0.2055686 -0.20857191 0.30630013 -0.12312458 -0.27447 -0.17763916
0.33766595 0.0630955 -0.054294534 -0.20941232 0.14609687 -0.31744593 0.17425993 0.2554107
0.3031712 -0.038892694 0.11040951 0.33662868 -0.16629073 -0.24844728 -0.26256424 -0.10294627
0.22786741 0.21566449 0.32019964 0.041716453 0.26585585 -0.24092858 -0.23484316 0.119255655
-0.123875044 0.06352106 0.0707414 0.008082361 -0.0066212006 -0.04127877 -0.09979707 0.3185003
-0.19661254 0.1910108 0.18204625 -0.02054748 -0.09310869 0.27755833 0.29013082 -0.08564322
-0.20565926 -0.22817627 -0.052398093 -0.20801188 0.16526845 0.14264508 0.24912919 -0.27746853
0.11776899 -0.295031 0.3230162 -0.057157896 0.31291544 -0.17000125 -0.1962907 -0.08873578
-0.18337537 0.38840514 0.35558185 -0.09464403 -0.16828182 -0.056627166 0.09569713 -0.15675834
0.28133142 -0.020169523 0.33581525 0.08770829 -0.2832015 0.25054225 -0.017492006 -0.3516225
0.21901008 -0.24410532 0.16480263 -0.0053303908 -0.028846323 -0.11766632 0.08139785 0.21331325
-0.25196213 0.095546976 0.107159145 0.16934569 -0.02357942 -0.048284963 -0.13441186 -0.040731546
0.13175647 0.08657199 0.27394557 -0.1912932 0.29095045 -0.046731804 -0.002272791 -0.36115184
-0.09813339 -0.16820121 0.3776279 0.1963272 0.1701985 -0.22505485 0.10088647 -0.09498857
-0.24035543 0.1332976 0.23965232 -0.19463797 0.33263856 -0.13834786 0.20601666 0.079742916
-0.28320697 0.17055261 0.32589808 0.2475103 -0.17860517 -0.21607044 0.24116626 -0.27321792

fc1.bias f4 [50]
00000000: f12c 80be 72f6 9fbe 7e18 2d3e 0322 c5bd
00000010: 0047 8e3e 3ed1 97bd 4f4d 9b3c a3cc 933e
00000020: f98e 81be 56f4 b33e 84b1 05bc 7449 c53e
00000030: e0f0 2eb9 5335 bb3e d9d1 913e e600 92bd
00000040: f86a cb3d 60c4 1b3e 1ea1 c63d 15b9 393e
00000050: 2769 133e c9b3 2ebe 8988 553d 57d4 9c3e
00000060: d1c0 0f3e 383d f9bd c23e 81be 70fd 70be
00000070: 0f56 ac3e 7751 dbbc 9ce2 97be 084d 25be
00000080: a74e ad3b dd4f 9e3e d05a b1be bbfa 99be
00000090: dfa3 953e f356 7cbe 61b8 16bd 6923 eabd
000000a0: 0ef7 b33c 5df4 95be 08da 0dbd 29d8 63be
000000b0: 14fc 75bd 8639 2a3e 07bd ffbc 538e 2bbd
000000c0: 878b b53e 36ad a33e
-0.25034288 -0.3124271 0.16903874 -0.09625628 0.27788544 -0.07412957 0.018957762 0.28867063
-0.25304392 0.3514735 -0.008159999 0.38532603 -0.00016683666 0.3656412 0.28480414 -0.071290776
0.09932512 0.1521163 0.096986994 0.1813701 0.14395581 -0.1706077 0.052132163 0.30630752
0.14038397 -0.1216988 -0.25243193 -0.23534179 0.33659407 -0.026772244 -0.29665077 -0.16142666
0.005288917 0.30920306 -0.34639597 -0.30074105 0.29226586 -0.24642543 -0.03679693 -0.11432535
0.02196839 -0.29287997 -0.03463176 -0.22250427 -0.060054854 0.16623506 -0.031218065 -0.041883778
0.35458013 0.31968087

fc2.weight f4 [50, 50]
00000000: 3c28 dabd 8b91 20ba 7c3a 99bd 1045 abbd
00000010: 6190 79bc dec6 94bc a020 b6bd 987c 7d3d
00000020: 2a14 073e c19f d53c f520 6ebd cc52 d83d
00000030: eb9a 0bbd 0c3c 7cbc ff8e ccbd 283a b73d
00000040: 7899 b9bc 0077 6cbd 4d4e e23c 5cc9 f33d
00000050: 3e29 fe3d d262 acbd 7c2d 5dbd cab5 bfbd
00000060: 8805 fcbc 30f5 85bd dd82 70bd 3012 e53d
00000070: 8eb9 afbd 5385 3dbd af33 e73c 1e92 44bd
00000080: 23c9 953d fb7f 673d 63f5 cc3b 067c 74bb
00000090: 68c9 843b 4f9f e43d 9475 ef3d b213 073e
000000a0: 5f43 2e3b 3d3c 0ebe ea27 613d 462f ecbd
000000b0: 7297 a23d 7cef d13d 7307 9f3d c704 eebd
000000c0: c0b5 683d b386 a33d 8139 e23d 62be 22bd
000000d0: afcb a0bd ac03 e93d 8ce3 f53d 8000 363c
000000e0: f86f 603d 9a49 c4bd 6ceb 973d 9a6e c9bb
000000f0: e983 19bc 2e44 0a3d 4f5d 7f3d 1aa6 c8bd
00000100: 4814 903d 79c0 863d 840c 0e3e 1804 95bd
00000110: 6bb9 c13c 982a df3c edc5 e7bd ba38 ef3c
00000120: 4485 2dbc 1a9e 2dbd 7e77 e9bd f4c7 9bbd
00000130: 7517 0fbd aa66 e4bd 5521 e73d 3dfa 2fbc
00000140: 63ae c2bd fdef 3b3d 4b7a 063e 1ad3 f0bd
00000150: 70ca 1c3c b872 ed3c b7cb 283d 910c 8dbd
00000160: f8f6 b4bd 3b8d 113e cd09 a2bd 628c 2bbe
00000170: af38 03be b6a1 a7bc 6047 ccbd 54b8 d93d
00000180: 0bba 003d f2c2 413d 78d9 063d 8c29 d23d
00000190: 20c6 d6bb 83d5 5bbd 7c4d 5f3d fd08 c4bd
000001a0: 0e33 8f3d ab6b 813d 2274 85bd 511d d13d
000001b0: 632d 0a3e 4106 6cbd 6f89 a63d 68e5 4bbc
000001c0: 9150 7a3d 31d0 1f3e c39c 053d 6f91 c1bd
000001d0: 5e5b ffbd 30a3 01be c60a a13d a4ff ccba
000001e0: a07b 323d a1c0 4bbb 64d5 4cbd 8be4 d13d
000001f0: a529 01bc fb04 17be 1db8 ec3d 915d f8bd
00000200: 4b66 e6bc e113 b5bd bafa 09be 27a7 a93d
00000210: 44b8 b73d 38e3 f0bd 7548 3e3d 473f 25bd
00000220: 517c e43d 0ee4 88bd c411 803c 21c6 b7bd
00000230: a0c8 803c 1ba4 98bd d6c5 ee3d fe33 98bd
00000240: 5df8 87bd 476b 873d 99d3 0dbd a10c 75bc
00000250: 36c6 0fbe 301b 87bb 6e81 f5bc e491 883d
00000260: 6a24 d13d 4e6d 27bd 8cc4 883d 531c 9f3d
00000270: e1c8 b33d 9984 523d a111 4f3d 3d7f e1bc
00000280: 6907 ff3c 95b6 9e3d 3e88 cbbc 59f5 a3bd
00000290: d71c 01be dd5a 5b3d 81cd 0c3d 9727 dd3d
000002a0: 4e2b f03d 3735 12be 27c6 e6bd 64c5 06be
000002b0: 1fa2 b73c 79f4 203c 6ba1 aabc 1ffd 7d3d
000002c0: 4a9d 293c ed60 bd3d f6eb c53d d612 ba3d
000002d0: d77a c23d 0fab acbc 80a4 053c 45d1 fb3d
000002e0: f5a0 cfbd 99e8 903c daff d73d d2a9 eb3d
000002f0: 1992 e6bc f4b2 babd 917d 883d b93f 8e3c
00000300: 3306 89bc 1280 aabd 7ce9 c63d 0bcf c53d
00000310: 8e8a 083d 5051 bbba ac38 bcbd 5e61 77bd
00000320: eae4 91bd 3a83 dcbd 0a78 0c3d 70f2 02be
00000330: a1aa 223d d541 a93c 6077 4e3d 0359 ca3d
00000340: c9a2 79bd 9051 66bc fd9c b23d 358b 7bbd
00000350: 6d3d 8f3d 79ed 70bd ac5b 183d f192 f3bc
00000360: 6352 533d 82fa a23d fc27 d93d 5f13 e6bd
00000370: c909 06bd 3eae adbd a3db f4bd e68f 933d
00000380: a1e2 9a3c 120d 58bc 93a0 ed3d 2e0a a0bd
00000390: 7f8d 953c ebf6 583d 7619 e93d 27cb f0bd
000003a0: f575 31bd f267 07be 4246 fabd 1b16 fb3c
000003b0: 0df5 00be b609 bfbd eb20 cb3c 0ad9 943c
000003c0: 0530 9a3d e096 cc3d 3833 1c3c b6a0 16bd
000003d0: be76 0c3d 6e4d 42bb af19 c83d 206f c23c
000003e0: 2720 92bd 7bd5 323d 2454 b93c fe31 ac3d
000003f0: 0b49 ddbd a805 b23d def9 973d abf0 f73d
-0.10652205 -0.0006125203 -0.07481858 -0.08362782 -0.0152321765 -0.018161234 -0.088929415 0.0618864
0.13191286 0.026077153 -0.0581369 0.10562667 -0.03408329 -0.015395176 -0.09988212 0.08946639
-0.022656187 -0.057730675 0.027625227 0.11903641 0.1241021 -0.08417286 -0.053998455 -0.093608454
-0.030764356 -0.065409064 -0.05871855 0.111851096 -0.085803136 -0.046269726 0.028222887 -0.04799091
0.073137544 0.056518536 0.0062548383 -0.003730537 0.00405233 0.11163198 0.11692348 0.13191107
0.002659045 -0.13890167 0.054969706 -0.11532454 0.07939042 0.10250756 0.07765093 -0.11622005
0.056813955 0.07984676 0.11046124 -0.039732344 -0.078513496 0.113776535 0.12006292 0.011108518
0.05479428 -0.09584351 0.0741795 -0.006147218 -0.009369829 0.033756427 0.062344845 -0.09797306
0.07035118 0.0657968 0.13871962 -0.072761714 0.023647984 0.02724199 -0.11317048 0.029201854
-0.010590855 -0.042387106 -0.113997445 -0.076064974 -0.03493448 -0.11152394 0.112856545 -0.010740814
-0.09505918 0.045883168 0.13132589 -0.117590144 0.009569749 0.028985366 0.041209903 -0.068871625
-0.08836168 0.14214031 -0.079120256 -0.1675277 -0.12814592 -0.020462852 -0.09974551 0.10630861
0.031427424 0.047305055 0.032922238 0.10261831 -0.00655438 -0.053670418 0.054517254 -0.09572027
0.0699216 0.06319364 -0.06516291 0.1021067 0.13493876 -0.05762315 0.08131682 -0.012444831
0.06111199 0.15606762 0.032620203 -0.094515674 -0.12468599 -0.12659907 0.07863383 -0.0015640152
0.04357493 -0.0031090158 -0.050008193 0.10248669 -0.007883464 -0.14747994 0.11558554 -0.121272214
-0.028124949 -0.08841682 -0.13474551 0.08283835 0.08970693 -0.117620885 0.04645582 -0.04034355
0.11156524 -0.06684123 0.015633471 -0.08973337 0.015720665 -0.07453176 0.11658828 -0.07431792
-0.066391684 0.066122584 -0.034625623 -0.014956624 -0.14040455 -0.004123114 -0.029968943 0.066684514
0.102120236 -0.040875725 0.06678113 0.07769074 0.08778549 0.051395986 0.05055392 -0.027526492
0.031131463 0.077496685 -0.024845239 -0.08005781 -0.12608658 0.05355345 0.03437567 0.10798567
0.1172701 -0.14278112 -0.11268263 -0.13161236 0.022416173 0.009823912 -0.020828923 0.062008973
0.010352442 0.09247003 0.096641466 0.09085624 0.09496086 -0.02107766 0.008156896 0.12295774
-0.10138122 0.017689036 0.10546847 0.11507 -0.028145837 -0.09116164 0.06664575 0.01736437
-0.016726589 -0.08325209 0.09712502 0.09658631 0.03333526 -0.0014291201 -0.09190497 -0.06039559
-0.0712374 -0.10767217 0.034294166 -0.12787795 0.039713506 0.020661274 0.050406814 0.09880259
-0.06094626 -0.014057532 0.087213494 -0.061412055 0.06994138 -0.05882022 0.0371968 -0.029733153
0.051592242 0.07957937 0.106033295 -0.112341635 -0.032724176 -0.084805 -0.11955955 0.07205181
0.018906893 -0.01318671 0.11602893 -0.078144416 0.018255947 0.052969854 0.113818094 -0.11757498
-0.043325383 -0.13223246 -0.12220432 0.03065019 -0.1259348 -0.09328024 0.02479597 0.018169899
0.0752869 0.099897146 0.009533696 -0.03677436 0.03429293 -0.0029648202 0.09770524 0.02373463
-0.07135039 0.043660622 0.02262313 0.08407973 -0.108049475 0.08692485 0.07420705 0.12106451

fc2.bias f4 [50]
00000000: dba6 fcbd 7f08 a43d 988d e4bb bb9d 183d
00000010: ba07 073e fa80 e2bd 69d0 db3d 1f7e e2bd
00000020: 13db e9bd 484d cbbd 7df0 003e f61e 19bc
00000030: 2776 263d f4ee 343d 5c9b ef3c 8cf6 cd3d
00000040: f293 703d e1c9 cebd 17e6 9e3b f23b d53d
00000050: b6db 473d 18ba c2bd a86a 803d 0b34 903c
00000060: 619b 0cbe 5a5d 0abe 6cd3 59bc f1ed 0cbe
00000070: 82f9 b73b 8998 803b 8388 e23d 07a0 2abd
00000080: 2fa0 bbbd 014e 57bc 0aef bf3c 94ba f63d
00000090: bc5d f23c aab6 abbd 88f2 01be 4024 ddbd
000000a0: d430 b6bc b9ff a0bd e2f4 09be 95ad a03c
000000b0: cc52 c63d dd0d babc 9242 d33a 7df9 b4bd
000000c0: 4ee6 8fbc 7263 01be
-0.12336513 0.08009433 -0.006974887 0.0372598 0.13186541 -0.110597566 0.107331105 -0.11059212
-0.11418738 -0.099268496 0.12591739 -0.009345761 0.040640023 0.044173196 0.029248886 0.10056791
0.05873484 -0.10097099 0.004849206 0.10411824 0.048793517 -0.09508151 0.06270343 0.017602941
-0.13731147 -0.13512173 -0.013295036 -0.13762642 0.0056144604 0.0039244336 0.11061194 -0.04165652
-0.09161412 -0.013141156 0.023429412 0.12047306 0.029585712 -0.0838445 -0.12690175 -0.1079793
-0.02224008 -0.07861275 -0.13472322 0.01961402 0.09683761 -0.022711689 0.0016117862 -0.088366486
-0.017565873 -0.12635592

fc3.weight f4 [50, 50]
00000000: d03d fcbd 1dc3 8f3d 6e90 a8bd 1fad debd
00000010: 5685 fdbc 34ca 46bd 9cc4 db3d 7b4c b2bd
00000020: 94f9 53bd 412b 8f3d 7140 f63d 4981 8b3b
00000030: 189a 6bbd 466f bf3d 3211 0f3e 28be 003d
00000040: eb6a c7bd 4ac8 b23c 4032 d33d dba2 ffbd
00000050: 6d3f 173d 7247 f2bd b708 7abd 2a88 c83c
00000060: b7fa d43d 8f13 de3d 4d9a ab3d a198 ca3c
00000070: e6b6 e9bc 4e46 a7bd 8775 9fbd 9d42 f7bd
00000080: 3de0 743d 8312 1d3d 90ef eebd f03a ef3d
00000090: 73ca 143d 61dd a7bd bfac d1bd 0b41 93bd
000000a0: b4ee f4bd 4d69 ecbd 9486 c9bd 1973 b43d
000000b0: b77c b73d 0e2d acbd 071e 7cbd 12c8 d83d
000000c0: ba34 ef3d f715 a63c b5ba d73d 47d4 18bd
000000d0: 1519 f1bd 75d3 72bd f4a9 9ebd a3bf 213e
000000e0: 9e0b e13d e5eb d7bd 6828 b83d c765 a3bd
000000f0: 8fc9 88bd 2915 173e 1b44 b73d a542 553d
00000100: 9942 b9bd 0edb afbd bccc 88bd 621a 5bbd
00000110: b336 ea3c 9cd8 1dbd cc14 94bd dd56 48bd
00000120: cce8 d83a 90d1 46bd 5043 01bd 9294 a7bd
00000130: 0204 8b3d d3d8 aebc b6c8 54bd abae 053d
00000140: e83b 8abc fcb3 cc3d b4cd f23d 907c b53d
00000150: 3e0a a3bd d004 753d 0bd0 e2bd 63d8 553d
00000160: 3c75 fa3c 2086 bc3c be42 acbc 942c 803d
00000170: dbf0 19bd e1bc 1bbd e086 2cbd 4fff 57bd
00000180: 67b9 9a3d 25eb a33d 2ad9 ec3d 4b3b 833d
00000190: 644b f23d 8935 683d 7aae ee3d 11c1 f93c
000001a0: 38d7 6abc 8cbe 98bd ca1a 013e 3acf e7bd
000001b0: 8258 673d 0c78 b7bd ccc2 84bd 451d 8a3d
000001c0: 74f6 f1bd ddf2 543b b170 95bc b410 d93d
000001d0: de74 013e 253d 19be 89bc ce3d 9e78 99bd
000001e0: 57a6 2c3d fa39 ef3d ac3f f4bc a041 c33d
000001f0: 9784 9c3b a774 d23d 5d14 a9bc 010c d33d
00000200: e18f 233e 2ac2 f7bd 5563 6c3d 05ca 04be
00000210: 789b a53d 40d0 913d b6c7 68bd 1f45 a1bd
00000220: 4a35 55bd 265e 03bd b2df b7bd 6d22 7a3d
00000230: 14d0 a13d 3061 f3bb a807 0bbe 945f 983d
00000240: 0b18 ae3d 1ba2 c83d 23f9 c23d e807 ff3b
00000250: e3f3 553d 6d91 b5bd b401 933d 612b c33c
00000260: fd0f db3c 69fc 3b3c 768c 63bd 809b fa3b
00000270: f641 443d 94f0 213c 739b 8b3d 2fd3 003e
00000280: 7852 1abd a01e aebd 4473 c8bd 5c77 453a
00000290: ed1c 97bc 4432 cd3d 25de cc3d 7783 05be
000002a0: c411 393d 11bf ae3d 97e8 0cbd 4176 b53b
000002b0: e7d2 4bbd e1df 89bd 3cb0 2a3e b822 cdbc
000002c0: aa46 af3d c54d 00be 4a01 ee3d 5e7f e3bd
000002d0: ec52 e7bd 741d 893b 3345 08bd 682e 4ebb
000002e0: 4a31 5a3c ce65 1f3e 2d23 7e3c bd92 aabc
000002f0: 74e6 e6bd c0ca 883d f7d6 9c3c b85d abbc
00000300: 6014 6fbd efa5 b0ba 2e2e fbbc 7500 2b3d
00000310: 5cff 0bbe da9b 4e3c dcff b8bd ad3d 02be
00000320: c4db 2f3b c19a 003d 32d7 5dbb 9583 d33d
00000330: c279 d2bd 5d7b a33d a34f d1bd d618 c2bc
00000340: 46f6 ee3c 860a aebd 2021 9bbd 0963 9d3d
00000350: 32dd dd3d 3841 be3d c54d b33d 3020 01be
00000360: e33f e23d 74d6 8abd f8f0 cf3c b092 c6bd
00000370: e4c7 f7bd 78f1 dabc c096 123e c911 6b3d
00000380: 1354 86bd 4bb6 e4bd eafa f23c 5c9f 82bc
00000390: 6da3 0a3e 0acf c3bd f3b2 9ebd d34a edbd
000003a0: bffc b93a f695 3e3d a582 253d 27e0 a73c
000003b0: 775e ecbd d23e cbbd 995a fbbd 7a6b 66bd
000003c0: 7b04 efbd 6997 f93d fa2c a5bd 0666 6fbd
000003d0: 91f0 ef3b 9df5 023d 2690 6dbd bb7f 9cbd
000003e0: 03ea cc3b 644b 43bd 3842 1f3d c9da 663d
000003f0: b339 c33d eec6 0fbe e603 98bd 3e45 ce3d
-0.12316477 0.07019637 -0.08230673 -0.10872864 -0.030947369 -0.04853268 0.1073086 -0.08705994
-0.051751688 0.06990672 0.1202401 0.0042573554 -0.057520002 0.093473956 0.13971403 0.031431347
-0.0973719 0.02182402 0.10312319 -0.12482234 0.036925722 -0.11830033 -0.061043467 0.02447899
0.103993826 0.10843574 0.0837904 0.024730982 -0.028529596 -0.081677064 -0.077860884 -0.12073252
0.059784163 0.038347732 -0.11666787 0.11681163 0.036325883 -0.081965216 -0.10238027 -0.0719014
-0.119595915 -0.11543522 -0.09840122 0.08811016 0.08959334 -0.08407031 -0.061552074 0.105850354
0.11679979 0.020274146 0.105336584 -0.03731182 -0.11772362 -0.059283692 -0.0774726 0.1579576
0.10988544 -0.1054304 0.08992082 -0.07978397 -0.06679069 0.14754166 0.08948537 0.05206551
-0.090459056 -0.08586703 -0.06679675 -0.053491957 0.028590536 -0.038536653 -0.07230529 -0.048910964
0.0016548871 -0.048539698 -0.031558335 -0.081826344 0.06787874 -0.021343624 -0.051949225 0.03263728
-0.016874269 0.09995267 0.11855641 0.08861649 -0.07960938 0.059819043 -0.11074837 0.052208316
0.03057348 0.023013175 -0.021027919 0.062585026 -0.037583213 -0.038021926 -0.042120814 -0.052733716
0.07554894 0.08003835 0.11564858 0.064077936 0.11830786 0.05669168 0.116543725 0.030487569
-0.014333539 -0.07458219 0.12607875 -0.11318822 0.056480892 -0.08958444 -0.06482467 0.06743864
-0.11814585 0.003249339 -0.018242212 0.10598889 0.12642238 -0.14964731 0.10094554 -0.07493709
0.04215082 0.1168098 -0.029815517 0.09534001 0.004776548 0.10276156 -0.020639593 0.10305024
0.15972854 -0.12097581 0.057711918 -0.1296769 0.08086294 0.07119799 -0.056831084 -0.07874512
-0.052052774 -0.03207221 -0.08978213 0.061067987 0.07901016 -0.007427357 -0.1357714 0.07440105
0.085006796 0.09796544 0.09520175 0.007782925 0.05223454 -0.088656284 0.07178059 0.023824396
0.026741022 0.0114737535 -0.055553876 0.0076479316 0.047914468 0.009884018 0.06816759 0.1258056
-0.037676305 -0.08501935 -0.0978761 0.00075327395 -0.01844641 0.10019353 0.10003308 -0.13038431
0.04518296 0.08532537 -0.034401502 0.0055377786 -0.04976168 -0.06732155 0.1666879 -0.02504097
0.085584 -0.12529667 0.116213396 -0.11108278 -0.11295113 0.0041844193 -0.03326912 -0.0031460766
0.0133174155 0.15566179 0.015511316 -0.020821923 -0.11274424 0.066792965 0.019145472 -0.020918712
-0.05836904 -0.0013477186 -0.030661669 0.041748483 -0.1367163 0.0126104 -0.09033176 -0.1271884
0.0026833871 0.031397585 -0.003385019 0.10327832 -0.1027713 0.07982514 -0.102202676 -0.023693483
0.029170167 -0.08498101 -0.075746775 0.07684905 0.10833205 0.09289783 0.08755068 -0.12609935
0.11047342 -0.06779185 0.025383458 -0.09695947 -0.12098673 -0.02672647 0.14315319 0.057390008
-0.06559005 -0.11167582 0.02966066 -0.01594513 0.13538904 -0.09560974 -0.077489756 -0.11586537
0.0014189704 0.046529733 0.040407795 0.020492626 -0.11541455 -0.099240914 -0.122731395 -0.05625484
-0.116707765 0.12187082 -0.08065219 -0.058446907 0.007322379 0.031972516 -0.0579988 -0.0764155
0.0062534823 -0.04767932 0.03888151 0.056360994 0.0953249 -0.1404073 -0.074226186 0.10071801

fc3.bias f4 [50]
00000000: ba7f c53b 7c7b 613d f2f5 6fbd fc17 b0bd
00000010: 4b01 c13c 8519 cb3d 94d3 71bd 126e 043c
00000020: 532c e13d 563d f6bd cafc 8dbd ae23 d8bc
00000030: e42c 9ebd 3f1d e63d 54b3 29bd 69bb e43d
00000040: c87c e6bd 777b 953c b852 0d3d 6c1b 823d
00000050: 11d1 313d 0ea4 d5bd f170 553c 0bcb bd3d
00000060: 3dba 223e 796a f83d 7b42 db3c 0780 bdbd
00000070: b82c 043e 93f4 943c f260 873d a127 d7bd
00000080: 9fe5 8d3c 8d35 68bc d6d4 383d 468d c93c
00000090: 0829 fd3c be50 c1bd 3d50 a6bd 4362 233e
000000a0: 3656 69bd cd36 8abc 0958 ae3d e2fc 7b3d
000000b0: 50a4 523d 77bd f1bd fc49 783d b8ce 58bd
000000c0: 1582 e2bd eacc 24bd
0.006027189 0.055049405 -0.05858416 -0.08598325 0.023560187 0.09916977 -0.059039667 0.008082883
0.10994782 -0.12023418 -0.06932981 -0.0263842 -0.07723406 0.11236047 -0.041430786 0.11168558
-0.11254269 0.01824735 0.034502715 0.063528866 0.043412272 -0.104316816 0.013027416 0.09267243
0.15891357 0.12129683 0.026765099 -0.09252935 0.12907684 0.018183028 0.06610288 -0.105056055
0.017321406 -0.014172924 0.04512485 0.024603497 0.030903354 -0.094392285 -0.08120773 0.15955453
-0.056966983 -0.016871834 0.08512885 0.061520465 0.05142623 -0.11803716 0.060617432 -0.052931517
-0.110599674 -0.040234484
