checkpointing_test/sigmoid_example_s12345/models/eval_checkpoint_checkpoint_100.pt (torch, 95431 bytes, 24 tensors)

fc1.weight f4 [50, 7]
-0.35314772 -0.024216574 -0.29712197 0.28942043 -0.25136325 0.11248657 -0.2561261 0.05983145
-0.28417927 0.1685972 0.29748246 0.11639146 0.3744044 -0.21233873 -0.2453133 -0.14830714
-0.36646622 0.10237151 0.26427346 0.19851762 -0.087412626 -0.02163265 0.21275863 0.124198005
0.34742296 -0.08312614 0.24103934 0.25259984 0.3456275 0.35659996 -0.1381601 -0.2444614
-0.24495314 -0.2622188 0.23521976 -0.23383172 0.18523368 -0.24510235 -0.03474934 -0.26528654
0.16848733 -0.08362163 0.09129419 0.26194993 -0.13988306 0.2784139 0.1589959 0.20111196
0.16496433 0.24546692 0.03867846 -0.11899714 -0.19312283 0.1949903 0.012349476 0.18696554
0.2299313 -0.026783776 0.0059026647 -0.036321003 0.35315603 -0.32114238 0.33047888 0.012373555
0.09984691 0.25766838 -0.24624255 -0.31912857 0.3808304 -0.15106915 0.015230638 0.35791427
-0.10791573 0.035467878 0.26936513 -0.23520479 -0.28993717 -0.02154863 0.07869823 0.025456775
-0.36456144 -0.12074621 -0.3408163 0.057423502 -0.17928204 -0.20291278 0.3424452 -0.25188687
-0.079688065 -0.1457658 0.26630616 -0.21682855 0.17608003 0.12127829 0.21974087 -0.022091966
-0.086716846 -0.12893254 0.18802193 0.111333944 0.22321889 -0.18811396 -0.064664364 -0.23054293
-0.1458198 0.012614639 -0.27739617 0.15812801 -0.12171187 -0.20574695 0.3822916 -0.32591093
-0.35645702 0.03613707 -0.09723977 0.117462456 -0.18477535 -0.02524721 0.31029713 -0.23168133
0.3385721 -0.3745446 0.08766182 0.35607195 -0.0047265464 -0.09685507 -0.41571504 -0.037549064
0.09829168 0.20908289 -0.19377697 -0.22902784 0.3007647 -0.17392355 -0.33356276 -0.12238848
0.34762737 0.071846336 -0.06828406 -0.20234942 0.16679616 -0.32001147 0.19966428 0.267866
0.31618315 -0.058942575 0.12218959 0.36932972 -0.17088819 -0.24618137 -0.27415127 -0.10300467
0.22113103 0.21042992 0.3429824 0.04184751 0.2766446 -0.24618563 -0.25520223 0.09658805
-0.11885521 0.07199054 0.065502994 0.01798958 0.010268206 -0.036777318 -0.10860144 0.34698072
-0.2171305 0.18716885 0.17945406 0.0007506439 -0.095341995 0.3011385 0.28593072 -0.06430311
-0.1867664 -0.2897677 -0.07224993 -0.25097466 0.1394815 0.13977198 0.26856577 -0.29185584
0.1414014 -0.29368025 0.35497186 -0.059078418 0.34320223 -0.21394372 -0.23391351 -0.10948468
-0.24285579 0.35909694 0.3595593 -0.13917834 -0.17007968 -0.042038064 0.119080715 -0.16859238
0.2762442 -0.014079508 0.35247275 0.07340343 -0.3136 0.2561161 -0.031977743 -0.3588821
0.22658959 -0.25223973 0.16882862 -0.0069181095 -0.029264953 -0.082113534 0.079232216 0.22698745
-0.25048104 0.09561042 0.099104285 0.18923628 0.004694703 -0.050064966 -0.1640096 -0.038590796
0.14783269 0.077903405 0.29392895 -0.18853852 0.2916799 -0.07532816 -0.011997867 -0.33339983
-0.13697244 -0.1721344 0.36269853 0.14623669 0.13362089 -0.24249609 0.120515645 -0.085396074
-0.2551857 0.1367677 0.23939587 -0.22432458 0.35475823 -0.13447228 0.22857065 0.07905085
-0.28132603 0.18826629 0.32970637 0.25344363 -0.19055057 -0.21343093 0.2568144 -0.28299186
00000000: c7cf b4be d661 c6bc 5f20 98be ea2e 943e
00000010: afb2 80be 5c5f e63d f622 83be d311 753d
00000020: f27f 91be bfa4 2c3e 9f4f 983e a55e ee3d
00000030: efb1 bf3e 536f 59be 6933 7bbe d4dd 17be
00000040: 76a1 bbbe 27a8 d13d da4e 873e 3448 4b3e
00000050: 6405 b3bd f536 b1bc 66dd 593e 865b fe3d
00000060: 6ce1 b13e 0a3e aabd 04d3 763e c454 813e
00000070: 16f6 b03e 4594 b63e d779 0dbe 1754 7abe
00000080: ffd4 7abe 8b41 86be 73dd 703e 9571 6fbe
00000090: e6ad 3d3e 1cfc 7abe 5355 0ebd a3d3 87be
000000a0: f187 2c3e d141 abbd 73f8 ba3d 4d1e 863e
000000b0: 813d 0fbe 448c 8e3e d2cf 223e 4bf0 4d3e
000000c0: 69ec 283e ae5b 7b3e 4e6d 1e3d c6b4 f3bd
000000d0: fec1 45be 8aab 473e 7555 4a3c e573 3f3e
000000e0: 1c73 6b3e a669 dbbc 246b c13b 55c5 14bd
000000f0: ded0 b43e c66c a4be 8734 a93e 74ba 4a3c
00000100: 897c cc3d 1ced 833e 0227 7cbe d264 a3be
00000110: 34fc c23e dfb1 1abe ed89 793c 8a40 b73e
00000120: ec02 ddbd c446 113d 3aea 893e 86d9 70be
00000130: a572 94be c186 b0bc 8a2c a13d ba8a d03c
00000140: cca7 babe ca49 f7bd 797f aebe e834 6b3d
00000150: b695 37be 5ec8 4fbe fa54 af3e 51f7 80be
00000160: 7f33 a3bd a143 15be 4859 883e 4e08 5ebe
00000170: 534e 343e c160 f83d c003 613e 36fa b4bc
00000180: 9a98 b1bd e406 04be d288 403e 0d03 e43d
00000190: 7e93 643e f2a0 40be c06e 84bd 7213 6cbe
000001a0: c951 15be a1ad 4e3c df06 8ebe 4fec 213e
000001b0: 1344 f9bd 54af 52be b9bb c33e ccdd a6be
000001c0: 8981 b6be 7704 143d a525 c7bd 2890 f03d
000001d0: c035 3dbe 3dd3 cebc 44df 9e3e df3d 6dbe
000001e0: 5359 ad3e 4fc4 bfbe 0a88 b33d 104f b63e
000001f0: 25e1 9abb f35b c6bd 9ad8 d4be 0ccd 19bd
00000200: 264d c93d d319 563e 786d 46be 4686 6abe
00000210: d5fd 993e 0419 32be bdc8 aabe d0a6 fabd
00000220: 37fc b13e 2c24 933d 83d8 8bbd b034 4fbe
00000230: 9dcc 2a3e 8bd8 a3be cb74 4c3e bb25 893e
00000240: c2e2 a13e c56d 71bd 893e fa3d c918 bd3e
00000250: 50fd 2ebe f816 7cbe 8e5d 8cbe 1df4 d2bd
00000260: 2c70 623e f17a 573e 649b af3e 4b68 2b3d
00000270: 5ca4 8d3e 1618 7cbe dea9 82be f5cf c53d
00000280: 5c6a f3bd c76f 933d 6f26 863d e25e 933c
00000290: fa3b 283c d0a3 16bd 6f6a debd 75a7 b13e
000002a0: 7557 5ebe 31a9 3f3e cec2 373e dcc6 443a
000002b0: aa42 c3bd d32e 9a3e 8365 923e 59b1 83bd
000002c0: b13f 3fbe 6f5c 94be c5f7 93bd c07f 80be
000002d0: 3dd4 0e3e 6320 0f3e 7481 893e 216e 95be
000002e0: 87cb 103e 425d 96be dfbe b53e 36fc 71bd
000002f0: 34b8 af3e 1014 5bbe 0687 6fbe 8139 e0bd
00000300: 30af 78be 8edb b73e 2818 b83e c484 0ebe
00000310: 5e29 2ebe 1b30 2cbd 97e0 f33d 7ba3 2cbe
00000320: e16f 8d3e bdad 66bc 4f77 b43e 8a54 963d
00000330: 2e90 a0be a621 833e 18fb 02bd 65bf b7be
00000340: 1a07 683e 9125 81be 69e1 2c3e 4fb1 e2bb
00000350: 0ebd efbc 242b a8bd 8044 a23d 666f 683e
00000360: 0d3f 80be 65cf c33d 30f7 ca3d 28c7 413e
00000370: 06d6 993b ec10 4dbd 22f2 27be 6211 1ebd
00000380: 7461 173e d28b 9f3d db7d 963e 3e10 41be
00000390: 1157 953e a645 9abd b492 44bc 62b3 aabe
000003a0: 8142 0cbe 0044 30be 9fb3 b93e 12bf 153e
000003b0: ead3 083e e550 78be e8d0 f63d 23e4 aebd
000003c0: b3a7 82be d50c 0c3e 3124 753e 58b5 65be
000003d0: dfa2 b53e 1ab3 09be 6d0e 6a3e 69e5 a13d
000003e0: f709 90be e1c8 403e 46cf a83e 5dc3 813e
000003f0: b01f 43be a38d 5abe 2d7d 833e 4fe4 90be

fc1.bias f4 [50]
-0.2715333 -0.3326584 0.16095579 -0.109916575 0.28632385 -0.10025372 0.00965605 0.28527826
-0.2740039 0.36582837 0.003026709 0.3603525 0.008933176 0.38648036 0.30001676 -0.11669018
0.11782025 0.17077264 0.09399427 0.17488174 0.13413668 -0.18513852 0.04696597 0.31063333
0.15014185 -0.13618909 -0.2703437 -0.2822155 0.3356434 -0.061566357 -0.29173446 -0.15682402
-0.004655032 0.29008248 -0.35247648 -0.33715332 0.31383482 -0.25881892 -0.056275904 -0.1146704
0.019758293 -0.2879148 -0.03730395 -0.22587678 -0.07025498 0.18640633 -0.051361326 -0.054757226
0.36434144 0.3361632
00000000: 6a06 8bbe 3452 aabe 98d1 243e f11b e1bd
00000010: 0a99 923e d351 cdbd 6934 1e3c fe0f 923e
00000020: 3d4a 8cbe db4d bb3e c05b 463b 1f80 b83e
00000030: 755c 123c c1e0 c53e cc9b 993e 43fb eebd
00000040: be4b f13d 06df 2e3e 1180 c03d 3314 333e
00000050: 205b 093e f494 3dbe 645f 403d 550b 9f3e
00000060: c9be 193e 2775 0bbe 7d6a 8abe 8d7e 90be
00000070: 74d9 ab3e 012d 7cbd 385e 95be 7a96 20be
00000080: 3d89 98bb b185 943e cc77 b4be 5c9f acbe
00000090: f5ae a03e ea83 84be 9081 66bd 51d8 eabd
000000a0: 25dc a13c 9269 93be 07cc 18bd 3e4c 67be
000000b0: d8e1 8fbd 4de1 3e3e 4160 52bd 1d49 60bd
000000c0: f68a ba3e 951d ac3e

fc2.weight f4 [50, 50]
-0.028908363 -0.019511528 -0.10865496 -0.0863143 -0.018192729 -0.020391675 -0.096612096 0.06509776
0.13756844 -0.050820187 -0.065749936 0.13744387 -0.02905142 -0.014279217 -0.105329104 0.07526819
-0.020734774 -0.06844391 0.038886257 0.09233693 0.13205847 -0.09140891 -0.062674776 -0.10326177
-0.03416306 -0.021382632 -0.06195225 0.08016811 -0.09127102 -0.033025462 0.028857667 -0.0544369
0.08140708 0.034809873 0.010530415 -0.010768608 0.0027668762 0.11152482 0.12963969 0.13209635
0.010208967 -0.13068803 0.05557323 -0.12584487 0.0780019 0.11074909 0.05549792 -0.11819823
0.05215988 0.080702886 0.081154004 -0.048348404 -0.04911036 0.11205247 0.1312933 -0.016831065
0.05814647 -0.09401398 0.077458665 0.0098125655 -0.016595135 0.05047446 0.08566281 -0.07048246
0.078266606 0.1093936 0.13077413 -0.07284413 0.026519058 -0.043367606 -0.122776985 0.019459447
-0.0029052398 -0.0356071 -0.115624726 -0.1304768 -0.034887165 -0.09783401 0.12060249 0.0025484795
-0.102043904 0.056672215 0.13720554 -0.09622723 0.019689502 0.03858851 0.04136977 -0.07552803
-0.086257726 0.12035111 -0.07349592 -0.15815437 -0.13216417 -0.01802706 -0.12071725 0.10933281
0.01597668 0.063064404 0.038432937 0.11050898 -0.0057360516 -0.07871247 0.07184775 -0.10965866
0.0720603 0.06558402 -0.07565361 0.10234037 0.14138839 -0.06652899 0.084304586 -0.013710135
0.07176252 0.14255965 0.035759583 -0.07014969 -0.14344394 -0.1333609 0.08256525 -0.0064692926
0.04477064 -0.0022188653 -0.03968084 0.10027583 -0.0023041065 -0.12070359 0.12425157 -0.0992063
-0.025097795 -0.08477014 -0.14202952 0.08526216 0.098794274 -0.07639034 0.051335886 -0.046812877
0.12440326 -0.077889934 0.018371155 -0.07055558 0.026778733 -0.05257031 0.12924416 -0.085101224
-0.080127604 0.065125115 -0.062150598 -0.011576803 -0.14345247 -0.0020807206 0.008569776 0.065203205
0.11961894 -0.044408068 0.087362975 0.12184858 0.10127315 0.052001785 0.053646386 -0.04664137
0.037153374 0.05953497 -0.025823457 -0.14444545 -0.13632353 0.05599499 0.035145238 0.10876453
0.12241481 -0.13307533 -0.114180945 -0.11038113 0.022120459 0.014865088 -0.03112602 0.110614054
0.010142457 0.117054634 0.092778616 0.093284026 0.10148287 -0.020479951 0.012835345 0.10450005
-0.09300232 0.0117688 0.116278596 0.119774126 -0.044084102 -0.06089651 0.06366395 0.04485921
-0.016632345 -0.0649809 0.1177375 0.110421866 0.04087873 -0.0076694745 -0.09505624 -0.060364068
-0.03119371 -0.1006919 0.06977962 -0.1326351 0.039390832 0.07396039 0.056020077 0.09556199
-0.07542471 -0.009532567 0.09464561 -0.078195035 0.07541367 0.033141542 0.037641723 -0.059735443
0.072037704 0.096662715 0.12504156 -0.11732495 -0.034391034 -0.10674285 -0.12110148 0.06691205
0.017626897 -0.02557746 0.10708566 -0.08183954 0.016514964 0.025331425 0.12524387 -0.1199518
-0.056289513 -0.03866421 -0.13160726 0.02124505 -0.1305715 -0.105088264 0.03008819 0.0086144
0.073088594 0.10698269 0.010270948 -0.035445973 0.038263276 0.0010540329 0.07544117 0.021807248
-0.07103923 0.03432565 0.0356435 0.088019006 -0.087685384 0.09047279 0.075716265 0.13885194
00000000: 3bd1 ecbc a4d6 9fbc 7e86 debd 8dc5 b0bd
00000010: eb08 95bc 710c a7bc 90dc c5bd f951 853d
00000020: bede 0c3e d428 50bd e7a7 86bd 16be 0c3e
00000030: 3efd edbc 61f3 69bc c9b6 d7bd 3526 9a3d
00000040: f9db a9bc 522c 8cbd 3247 1f3d 251b bd3d
00000050: 563a 073e 9834 bbbd a25b 80bd e87a d3bd
00000060: 91ee 0bbd a12a afbc a4c1 7dbd 2e2f a43d
00000070: 4dec babd b545 07bd ea66 ec3c 3af9 5ebd
00000080: c1b8 a63d cc94 0e3d c387 2c3c d16e 30bc
00000090: 7b54 353b 2067 e43d 44c0 043e 4444 073e
000000a0: 8343 273c 15d3 05be c1a0 633d 7add 00be
000000b0: 76bf 9f3d 6bd0 e23d c951 633d ea11 f2bd
000000c0: 99a5 553d 8e47 a53d 1234 a63d fa08 46bd
000000d0: f227 49bd c47b e53d c071 063e 4de1 89bc
000000e0: fe2a 6e3d 678a c0bd a6a2 9e3d e2c4 203c
000000f0: 85f2 87bc 4fbe 4e3d fc6f af3d 1c59 90bd
00000100: 3e4a a03d c009 e03d a7e9 053e 4e2f 95bd
00000110: 7f3e d93c 3ba2 31bd 8072 fbbd 6b69 9f3c
00000120: d665 3ebb c0d8 11bd a8cc ecbd b69b 05be
00000130: d8e5 0ebd 335d c8bd 70fe f63d 6404 273b
00000140: 65fc d0bd 2021 683d 9c7f 0c3e c812 c5bd
00000150: e14b a13c fc0e 1e3d 5973 293d 71ae 9abd
00000160: e4a7 b0bd a57a f63d 0785 96bd 38f3 21be
00000170: 0b56 07be 7cad 93bc 9b3a f7bd e1e9 df3d
00000180: 87e1 823c e927 813d db6b 1d3d 8852 e23d
00000190: 7df5 bbbb 0134 a1bd ea24 933d b894 e0bd
000001a0: 5a94 933d ea50 863d 48f0 9abd d497 d13d
000001b0: 1ec8 103e 5a40 88bd e2a7 ac3d 79a0 60bc
000001c0: 3af8 923d 28fb 113e a478 123d a4aa 8fbd
000001d0: f8e2 12be c38f 08be f817 a93d 5cfc d3bb
000001e0: 6b61 373d 626a 11bb 6088 22bd 6a5d cd3d
000001f0: 7e00 17bb 7233 f7bd 9b77 fe3d ac2c cbbd
00000200: e499 cdbc f89b adbd 3070 11be ed9d ae3d
00000210: a754 ca3d 8a72 9cbd 9445 523d dcbe 3fbd
00000220: 23c7 fe3d c284 9fbd 1b7f 963c 727f 90bd
00000230: 135f db3c f753 57bd 9558 043e 8d49 aebd
00000240: f119 a4bd 5160 853d a091 7ebd a2ac 3dbc
00000250: 34e5 12be b35c 08bb 3f68 0c3c 4289 853d
00000260: c6fa f43d 3ce5 35bd 5ceb b23d c08b f93d
00000270: 4c68 cf3d d3ff 543d 50bc 5b3d 050b 3fbd
00000280: 232e 183d f1da 733d b78b d3bc 82e9 13be
00000290: 6598 0bbe 015b 653d 74f4 0f3d f0bf de3d
000002a0: 9eb4 fa3d e644 08be b3d7 e9bd 800f e2bd
000002b0: f735 b53c b38c 733c fffb febc 9f89 e23d
000002c0: 8c2c 263c 57ba ef3d b702 be3d b20b bf3d
000002d0: 40d6 cf3d 92c5 a7bc 574b 523c 1f04 d63d
000002e0: 0078 bebd edd1 403c 7923 ee3d 234c f53d
000002f0: 8891 34bd 9e6e 79bd 3f62 823d 4abe 373d
00000300: 8e40 88bc b514 85bd 5c20 f13d dc24 e23d
00000310: 7570 273d 3750 fbbb d9ac c2bd 5040 77bd
00000320: f489 ffbc 8e37 cebd 9ee8 8e3d 7fd1 07be
00000330: 4858 213d 8c78 973d 4f75 653d 01b6 c33d
00000340: 4578 9abd 7c2e 1cbc 8fd5 c13d b824 a0bd
00000350: 7b72 9a3d 6dbf 073d 352e 1a3d 27ad 74bd
00000360: 8188 933d 1af7 c53d e50a 003e 1048 f0bd
00000370: 9ddd 0cbd ff9b dabd 0e04 f8bd 2f09 893d
00000380: 4866 903c d287 d1bc ba4f db3d 7d9b a7bd
00000390: 644a 873c d983 cf3c ee3f 003e 4aa9 f5bd
000003a0: d58f 66bd 5d5e 1ebd 0ec4 06be 190a ae3c
000003b0: 89b4 05be 8438 d7bd 827b f63c 6a23 0d3c
000003c0: 79af 953d be19 db3d 7a47 283c cc2f 11bd
000003d0: f4b9 1c3d 7a27 8a3a e680 9a3d 1da5 b23c
000003e0: 047d 91bd 0e99 0c3d ebfe 113d 4f43 b43d
000003f0: 6594 b3bd cc49 b93d 2111 9b3d 342f 0e3e

fc2.bias f4 [50]
-0.1310307 0.08122524 -0.016196666 0.039921124 0.13770188 -0.120309345 0.09564887 -0.114843
-0.13220291 -0.100777544 0.13470227 -0.054084383 0.045120396 0.05040381 0.004542844 0.093171746
0.06803606 -0.10144695 -0.0050336462 0.104096696 0.04795225 -0.098752454 0.05306818 0.020429917
-0.13863793 -0.14705996 -0.021565951 -0.1417399 -0.009042515 0.002129596 0.11603112 -0.0391362
-0.108061746 -0.010930566 0.0016002718 0.124956585 0.03432754 -0.082647346 -0.12981945 -0.10421856
-0.02416734 -0.090872645 -0.13914047 0.015279143 0.09900021 -0.023053244 0.011317272 -0.10671288
-0.018213714 -0.13551132
00000000: e92c 06be 6b59 a63d dfae 84bc 5584 233d
00000010: b901 0d3e bf64 f6bd 8ee3 c33d cf32 ebbd
00000020: 3360 07be 7564 cebd 64ef 093e 9687 5dbd
00000030: 2ad0 383d 3a74 4e3d 23dc 943b d4d0 be3d
00000040: 7d56 8b3d 6bc3 cfbd 49f1 a4bb a630 d53d
00000050: 9469 443d ba3e cabd 055e 593d a45c a73c
00000060: 1af7 0dbe e396 16be 14ab b0bc 4424 11be
00000070: 0f27 14bc b190 0b3b b9a1 ed3d 484d 20bd
00000080: 7a4f ddbd 1e16 33bc 36c0 d13a 3de9 ff3d
00000090: 099b 0c3d 0343 a9bd 64ef 04be 8a70 d5bd
000000a0: 96fa c5bc 701b babd d77a 0ebe 5f55 7a3c
000000b0: 9fc0 ca3d 28da bcbc 146c 393c 488c dabd
000000c0: ed34 95bc 7bc3 0abe

fc3.weight f4 [50, 50]
-0.13454573 0.07866939 -0.08502512 -0.11661475 -0.044971433 -0.059751827 0.11002103 -0.09515533
-0.052968543 0.07087774 0.120033205 -0.0015928644 -0.06717427 0.09847991 0.13746518 0.03059799
-0.10265327 0.011310967 0.09995707 -0.12832458 0.027981732 -0.12644242 -0.066163406 0.017337529
0.10317584 0.11045843 0.08129463 0.026267923 -0.038794085 -0.09229811 -0.08392937 -0.12384159
0.055021077 0.04215093 -0.12933551 0.12429312 0.030745098 -0.08413806 -0.11474465 -0.070350565
-0.12957135 -0.12791249 -0.11083265 0.09495449 0.0832099 -0.09017172 -0.059602186 0.10512352
0.12480328 0.021519069 0.12765779 -0.032035805 -0.1121482 -0.09160352 -0.10538282 0.1410672
0.08181392 -0.111299634 0.11073763 -0.07431105 -0.070887916 0.12274532 0.12356121 0.08171372
-0.082607925 -0.111335844 -0.09578929 -0.07636826 0.0014962638 -0.015017816 -0.10430435 -0.072101936
-0.04515059 -0.06446597 -0.009178522 -0.120770484 0.043083537 -0.02715476 -0.08932799 0.038475506
-0.043086726 0.10568857 0.10169597 0.089016914 -0.083467826 0.06482167 -0.10639677 0.058603577
0.033943843 0.03784113 -0.060971774 0.08588218 -0.06765598 -0.036650766 -0.058076892 -0.078110166
0.07526696 0.08727481 0.08385101 0.06096724 0.11687058 0.05638147 0.121636726 0.030481044
-0.016127083 -0.078803875 0.1526356 -0.11809472 0.06598105 -0.09310768 -0.07387353 0.09373063
-0.12544265 0.009254661 0.0149680665 0.11084572 0.12529066 -0.08804501 0.073494315 -0.09341097
0.091831736 0.11145976 -0.017766224 0.1439525 0.011429236 0.11420193 -0.027302695 0.11184884
0.1309486 -0.12468048 0.0626685 -0.13851295 0.07649484 0.07313918 -0.07867888 -0.08834108
-0.042226177 -0.02989341 -0.08761455 0.05815962 0.08234041 -0.010289322 -0.07907845 0.08026472
0.085973166 0.09534497 0.09408256 -0.022128873 0.062458266 -0.09333159 0.025455872 -0.0013050013
-0.0014021414 0.04014083 -0.046508644 -0.022367788 0.0552659 0.004091481 0.03461875 0.13948667
-0.065869726 -0.12758365 -0.13535066 -0.015035265 -0.054830793 0.07899655 0.09133563 -0.12453138
0.07731277 0.06572978 -0.047551155 0.043971743 -0.02526675 -0.066894926 0.12792471 -0.027661534
0.06506966 -0.13270116 0.13082702 -0.123964086 -0.08743076 0.02725276 -0.04744911 -0.0059952545
-0.02091411 0.14113757 0.047707234 -0.059482187 -0.12721886 0.10564299 0.036132764 -0.044490114
-0.059099242 -0.04073805 -0.03540116 0.013601716 -0.140474 -0.023419065 -0.11521393 -0.12993199
-0.0029106953 0.026887884 -0.014783086 0.1079966 -0.12418527 0.07086879 -0.113517925 -0.028146712
0.021608192 -0.09281768 -0.09443713 0.08880955 0.097433455 0.0842409 0.09341446 -0.14144893
0.098388985 -0.068177335 0.0053985664 -0.12112231 -0.1250476 -0.04548461 0.1307936 0.06307689
-0.06849423 -0.122300364 0.025021039 -0.022911584 0.12869744 -0.098994926 -0.08187043 -0.1329715
-0.008241028 0.04636064 0.029301025 0.010761818 -0.13993132 -0.114311226 -0.12283364 -0.06515128
-0.14050728 0.11865666 -0.07819123 -0.06841248 0.004630472 0.02265047 -0.06489169 -0.10402564
-0.011823559 -0.056991577 0.07789834 0.07548395 0.116786174 -0.12975483 -0.07310666 0.107268974
00000000: 5bc6 09be 6b1d a13d a621 aebd b7d3 eebd
00000010: f733 38bd 55be 74bd b552 e13d cce0 c2bd
00000020: 8bf5 58bd 5928 913d f8d3 f53d a9c7 d0ba
00000030: aa92 89bd d6af c93d acc3 0c3e a3a8 fa3c
00000040: e13b d2bd a251 393c 4bb6 cc3d 8567 03be
00000050: f239 e53c 1f7a 01be ae80 87bd 6f07 8e3c
00000060: db4d d33d 0838 e23d cd7d a63d d42f d73c
00000070: 8ce6 1ebd cb06 bdbd 29e3 abbd a9a0 fdbd
00000080: c85d 613d 74a6 2c3d 8770 04be 648d fe3d
00000090: 25dd fb3c 9350 acbd 3eff eabd f513 90bd
000000a0: 5aae 04be 7efb 02be 3afc e2bd 8077 c23d
000000b0: f469 aa3d f3ab b8bd 6c21 74bd 004b d73d
000000c0: dd98 ff3d c248 b03c b9b8 023e fa37 03bd
000000d0: f5ad e5bd a09a bbbd f3d2 d7bd ec73 103e
000000e0: 0e8e a73d 10f1 e3bd 69ca e23d 6430 98bd
000000f0: af2d 91bd e661 fb3d a90d fd3d 8659 a73d
00000100: 582e a9bd 0c04 e4bd 2d2d c4bd f666 9cbd
00000110: 481e c43a 490d 76bc 859d d5bd 2eaa 93bd
00000120: d3ef 38bd bc06 84bd 8361 16bc 8456 f7bd
00000130: 5d78 303d a973 debc 98f1 b6bd 7e98 1d3d
00000140: b57b 30bd 4073 d83d fa45 d03d 804e b63d
00000150: 2ef1 aabd 39c1 843d 8de6 d9bd 4e0a 703d
00000160: b308 0b3d 4dff 1a3d 8abd 79bd ffe2 af3d
00000170: 388f 8abd 1d1f 16bd 09e2 6dbd 39f8 9fbd
00000180: 9025 9a3d 23bd b23d 14ba ab3d c9b8 793d
00000190: d859 ef3d 42f0 663d ad1c f93d 62b3 f93c
000001a0: f21c 84bc ed63 a1bd 824c 1c3e a5db f1bd
000001b0: 1321 873d 3daf bebd 014b 97bd d8f5 bf3d
000001c0: 0a74 00be dda0 173c 9f3c 753c 1503 e33d
000001d0: 324c 003e f150 b4bd 3084 963d 404e bfbd
000001e0: 4712 bc3d 0445 e43d 798a 91bc 4968 133e
000001f0: b141 3b3c b4e2 e93d e7a9 dfbc 0111 e53d
00000200: 6417 063e 7b58 ffbd 5858 803d 57d6 0dbe
00000210: 54a9 9c3d ffc9 953d 6522 a1bd 2bec b4bd
00000220: 5bf5 2cbd 06e3 f4bc 426f b3bd c838 6e3d
00000230: 17a2 a83d 8b94 28bc e2f3 a1bd d461 a43d
00000240: b312 b03d 3944 c33d 5bae c03d 9c47 b5bc
00000250: 3dd4 7f3d a224 bfbd d588 d03c 940c abba
00000260: 0fc8 b7ba b66a 243d d97f 3ebd a73c b7bc
00000270: 7f5e 623d d511 863b 64cc 0d3d 98d5 0e3e
00000280: b5e6 86bd 4aa5 02be 5d99 0abe 7956 76bc
00000290: 4196 60bd f1c8 a13d 2d0e bb3d 4f0a ffbd
000002a0: 2856 9e3d 569d 863d 00c5 42bd b71b 343d
000002b0: 37fc cebc 3500 89bd b2fe 023e 719a e2bc
000002c0: 3e43 853d d0e2 07be 85f7 053e e2e0 fdbd
000002d0: e60e b3bd 2e41 df3c ff59 42bd d773 c4bb
000002e0: 1154 abbc 5e86 103e a968 433d 98a3 73bd
000002f0: a945 02be 5a5b d83d f3ff 133d 443b 36bd
00000300: 0c12 72bd f1dc 26bd cf00 11bd bbd9 5e3c
00000310: 6bd8 0fbe 57d9 bfbc 48f5 ebbd e40c 05be
00000320: 5dc1 3ebb fb43 dc3c c234 72bc 522d dd3d
00000330: d954 febd a823 913d 167c e8bd ef93 e6bc
00000340: aa03 b13c 3217 bebd 4168 c1bd c8e1 b53d
00000350: 318b c73d 7e86 ac3d 1550 bf3d fdd7 10be
00000360: 2a80 c93d 8fa0 8bbd 75e6 b03b f90e f8bd
00000370: 7a0c 00be 124e 3abd c2ee 053e 752e 813d
00000380: b446 8cbd 9d78 fabd ecf8 cc3c 13b1 bbbc
00000390: 43c9 033e dabd cabd afab a7bd ae29 08be
000003a0: 6005 07bc a8e4 3d3d b408 f03c 5652 303c
000003b0: 284a 0fbe 011c eabd 3490 fbbd 096e 85bd
000003c0: 24e1 0fbe 4302 f33d b922 a0bd d81b 8cbd
000003d0: 37bb 973b 7a8d b93c efe5 84bd 650b d5bd
000003e0: 9ab7 41bc 0070 69bd 2a89 9f3d 5497 9a3d
000003f0: 972d ef3d 73de 04be f2b8 95bd d6af db3d

fc3.bias f4 [50]
0.005213464 0.031212019 -0.07639222 -0.103851624 0.01430161 0.10459223 -0.07319515 -0.008220698
0.1175799 -0.12819372 -0.09608539 -0.047647167 -0.08652853 0.118127376 -0.04958021 0.111598566
-0.12474411 0.016544737 0.020224418 0.0655031 0.038177423 -0.11540558 -0.008970738 0.09993708
0.14910837 0.11334072 0.0016803301 -0.0986296 0.11949502 0.010790076 0.07421799 -0.12506525
0.01339401 -0.018648157 0.051000405 -0.020108541 0.0036061518 -0.12643167 -0.10016531 0.15565546
-0.07590789 -0.019364253 0.075695015 0.059772577 0.052727733 -0.1352011 0.04508069 -0.06251335
-0.11240197 -0.05640274
00000000: b5d5 aa3b 59b0 ff3c 8673 9cbd 29b0 d4bd
00000010: 4d51 6a3c 7334 d63d 57e7 95bd 1bb0 06bc
00000020: bbcd f03d 3745 03be 6bc8 c4bd ad29 43bd
00000030: df35 b1bd c4ec f13d 9e14 4bbd ca8d e43d
00000040: d779 ffbd d488 873c aead a53c 7d26 863d
00000050: ee5f 1c3d c359 ecbd 01fa 12bc d0ab cc3d
00000060: ddaf 183e 2e1f e83d 863e dc3a 51fe c9bd
00000070: ceb9 f43d dcc8 303c 9aff 973d 1b11 00be
00000080: 8d72 5b3c 05c4 98bc cde5 503d abba a4bc
00000090: 3055 6c3b 4e77 01be 7823 cdbd 2564 1f3e
000000a0: 9975 9bbd c8a1 9ebc fd05 9b3d 17d4 743d
000000b0: 09f9 573d 2872 0abe 88a6 383d 0007 80bd
000000c0: 0133 e6bd 8f06 67bd

fc1.weight f4 [50, 7]
-0.32688358 -0.15081277 -0.28352 0.113348365 -0.19948564 0.20075352 -0.096601404 -0.021914026
-0.28897882 0.24107942 0.30747402 0.14582315 0.10647465 -0.24247813 -0.12779121 -0.1273801
-0.21097761 0.09904074 0.2787152 0.052671537 -0.0875283 -0.14847803 0.096911155 0.12708314
0.25655994 -0.024142936 0.082819685 0.03658092 0.15113528 0.26181492 -0.103278585 -0.26322725
-0.13036346 -0.19112092 0.22662348 -0.10051226 0.21352641 -0.2859676 -0.09919784 -0.22636944
0.21694176 -0.046984762 -0.03680107 0.19466476 -0.08947282 0.15779372 0.017371567 0.13234128
0.17126302 0.15863979 -0.06127433 -0.11264029 -0.20092677 0.11723696 0.13633582 0.03402135
0.25566706 0.055426154 0.049314577 0.05532566 0.25250572 -0.10261954 0.30832788 0.00067541515
-0.04938504 0.1943615 -0.08528283 -0.30005947 0.16753495 -0.22531296 -0.024134899 0.12687306
-0.01824792 0.047982454 0.30735478 -0.2520114 -0.11735753 -0.09641353 0.1362715 -0.0012893098
-0.31941792 -0.15931162 -0.31226796 -0.095086806 -0.20089158 -0.10313226 0.31958532 -0.1851612
0.06575141 0.038690757 0.11898606 -0.10734601 0.024636608 -0.036650404 0.007418585 -0.092846595
-0.12562968 -0.09790951 0.05469226 0.19236676 0.041479632 -0.10354022 -0.1475043 -0.117996804
-0.07954119 -0.045777313 -0.04720517 0.082324326 0.037893616 -0.04692895 0.34897363 -0.12452592
-0.092302516 0.03180235 0.015646184 0.016496694 -0.07512415 -0.121683195 0.13342398 -0.25373548
0.15629373 -0.1404007 0.18959525 0.2502725 -0.029240163 -0.19309612 -0.19980544 -0.0050506545
-0.046830606 0.22155333 -0.15227185 -0.17268674 0.3112387 -0.09779591 -0.15814519 -0.06716521
0.08614781 0.03827627 -0.12057971 -0.2598463 -0.0075234305 -0.3163787 0.009919529 0.14341186
0.20475711 0.08164786 0.026545594 0.17156018 -0.106888816 -0.22423823 -0.21919367 -0.08798641
0.19988845 0.23435782 0.12313029 -0.016607728 0.17935972 -0.22761367 -0.17900117 0.16679303
-0.17560343 0.04863468 0.13049057 -0.061373867 -0.12154753 -0.068409495 0.038728356 0.13574211
-0.05721156 0.20381337 0.18741252 -0.072813295 -0.0944362 0.1954969 0.3144375 -0.11740247
-0.19135578 -0.07823145 -0.005349651 -0.04174254 0.18750994 0.21880072 0.16108169 -0.18805873
0.0077986787 -0.27688646 0.09875928 -0.052450296 0.110309444 -0.0009945611 -0.12624654 -0.1545623
-0.042717922 0.3629866 0.13546288 -0.057691157 -0.14631857 -0.1579939 0.0032630917 -0.014978569
0.2979253 -0.048598226 0.24256067 0.0326922 -0.24199805 0.21938074 -0.05037697 -0.12106509
0.09603468 -0.1413536 0.13644908 0.0034791634 -0.008016762 -0.17408244 0.1070559 0.15846626
-0.23372515 0.081397474 0.19798724 0.07470884 -0.12841685 -0.040028058 0.020763237 0.040218685
0.0342179 0.11882528 0.12832303 -0.12603939 0.23488037 0.08866269 0.13164674 -0.15354794
-0.23587722 -0.18834466 0.34801 0.0883105 0.024153206 -0.29704168 -0.009748869 -0.11865594
-0.06387326 0.1024366 0.26467916 -0.01214799 0.19754985 -0.14388278 0.064309575 0.12447986
-0.15038975 0.02235152 0.25847542 0.2322203 -0.1212813 -0.25581974 0.1637313 -0.19725142
00000000: 495d a7be aa6e 1abe 8929 91be 3023 e83d
00000010: f745 4cbe 5592 4d3e f5d6 c5bd 0b85 b3bc
00000020: 08f5 93be 86dd 763e 3c6d 9d3e aa52 153e
00000030: 620f da3d 304c 78be b3db 02be ee6f 02be
00000040: 840a 58be dfd5 ca3d c2b3 8e3e 1cbe 573d
00000050: 0a42 b3bd a00a 18be 5b79 c63d 1522 023e
00000060: d35b 833e 68c7 c5bc 5e9d a93d e0d5 153d
00000070: 35c3 1a3e 9b0c 863e b983 d3bd b9c5 86be
00000080: 007e 05be 34b5 43be fc0f 683e 5fd9 cdbd
00000090: aba6 5a3e 586a 92be 3d28 cbbd 64cd 67be
000000a0: fb25 5e3e 1873 40bd b8bc 16bd 3356 473e
000000b0: 873d b7bd ad94 213e d14e 8e3c 7984 073e
000000c0: 935f 2f3e 7872 223e cbfa 7abd f4af e6bd
000000d0: bfbf 4dbe ee19 f03d 9e9b 0b3e f959 0b3d
000000e0: cbe6 823e 8906 633d 15fe 493d 299d 623d
000000f0: 6e48 813e 322a d2bd 27dd 9d3e 580e 313a
00000100: f847 4abd b306 473e c4a8 aebd 65a1 99be
00000110: 488e 2b3e 71b8 66be 8db6 c5bc 03eb 013e
00000120: a97c 95bc 4089 443d 9b5d 9d3e a307 81be
00000130: 2559 f0bd 7574 c5bd c28a 0b3e 0ffe a8ba
00000140: bf8a a3be 9622 23be 96e1 9fbe dfbc c2bd
00000150: 86b6 4dbe 0237 d3bd b0a0 a33e e69a 3dbe
00000160: ada8 863d 337a 1e3d f7ae f33d 3ad8 dbbd
00000170: b6d2 c93c bc1e 16bd 9a17 f33b 5b26 bebd
00000180: 11a5 00be c884 c8bd fe04 603d cbfb 443e
00000190: 8ce6 293d e50c d4bd 5e0b 17be 4fa8 f1bd
000001a0: 7ee6 a2bd fe80 3bbd 355a 41bd a899 a83d
000001b0: 5636 1b3d 9238 40bd acac b23e 7207 ffbd
000001c0: 1a09 bdbd 2e43 023d 6d2c 803c 1324 873c
000001d0: b1da 99bd 0a35 f9bd 4ca0 083e 9ee9 81be
000001e0: 770b 203e 33c5 0fbe 4225 423e b823 803e
000001f0: 1189 efbc fdba 45be cc99 4cbe f67f a5bb
00000200: 73d1 3fbd e0de 623e 27ed 1bbe cbd4 30be
00000210: ae5a 9f3e 3949 c8bd d0f0 21be ea8d 89bd
00000220: 436e b03d 94c7 1c3d 7ff2 f6bd 930a 85be
00000230: 1c87 f6bb 64fc a1be 8585 223c 8fda 123e
00000240: d9ab 513e fe36 a73d 2576 d93c 79ad 2f3e
00000250: 86e8 dabd b59e 65be 4e74 60be 3832 b4bd
00000260: 8faf 4c3e 7ffb 6f3e bc2b fc3d ee0c 88bc
00000270: 13aa 373e 8f13 69be 154c 37be cbcb 2a3e
00000280: 63d1 33be 2935 473d 529f 053e 2a63 7bbd
00000290: e9ed f8bd 471a 8cbd a0a1 1e3d fbff 0a3e
000002a0: ab56 6abd 74b4 503e 11e9 3f3e 231f 95bd
000002b0: c467 c1bd 5730 483e f4fd a03e b570 f0bd
000002c0: c5f2 43be cf37 a0bd 204c afbb 3afa 2abd
000002d0: 9b02 403e 4c0d 603e 99f2 243e 7892 40be
000002e0: 0f8c ff3b 10c4 8dbe 4e42 ca3d 1fd6 56bd
000002f0: ebe9 e13d ef5b 82ba c646 01be 9445 1ebe
00000300: fdf8 2ebd 61d9 b93e c8b6 0a3e 904d 6cbd
00000310: 89d4 15be 27c9 21be 98d9 553b ac68 75bc
00000320: aa89 983e ef0e 47bd d361 783e 42e8 053d
00000330: 56ce 77be 58a5 603e 1558 4ebd f9f0 f7bd
00000340: d5ad c43d 00bf 10be 4fb9 0b3e ad02 643b
00000350: bd58 03bc ab42 32be 2040 db3d fb44 223e
00000360: a555 6fbe b8b3 a63d 2bbd 4a3e f300 993d
00000370: b57f 03be 76f4 23bd aa17 aa3c 59bc 243d
00000380: 1228 0c3d ab5a f33d 1d67 033e 7810 01be
00000390: 7b84 703e c994 b53d 67ce 063e ac3b 1dbe
000003a0: cc89 71be 6cdd 40be 5e2e b23e 23dc b43d
000003b0: f2dc c53c d915 98be b8b9 1fbc e301 f3bd
000003c0: fccf 82bd 48ca d13d 0784 873e 5d08 47bc
000003d0: 824a 4a3e 0256 13be bdb4 833d 4cef fe3d
000003e0: c5ff 19be 891a b73c e456 843e 29cb 6d3e
000003f0: 5562 f8bd cefa 82be 2ea9 273e 47fc 49be

fc1.bias f4 [50]
-0.2686678 -0.2486679 0.14767031 -0.07623377 0.2918119 -0.10835894 0.032237083 0.24416475
-0.15967752 0.2798332 -0.11063983 0.3491756 -0.0695344 0.23461047 0.21202768 -0.043279316
0.039549816 0.033538766 -0.043061323 -0.006270964 0.1824427 -0.108518496 -0.013814912 0.31992528
0.12829088 -0.08731449 -0.123994894 -0.1655979 0.33550432 0.007823409 -0.3116534 -0.17663182
0.03673987 0.22054149 -0.28533706 -0.07644549 0.13843669 -0.19948341 0.109481156 -0.1272961
0.038724173 -0.27640733 -0.057249874 -0.21872424 -0.0071032643 0.11275762 -0.06943742 -0.0055852747
0.313407 0.216877
00000000: d38e 89be cca2 7ebe e336 173e 7320 9cbd
00000010: 5f68 953e 4beb ddbd 080b 043d 5306 7a3e
00000020: 8182 23be 4c46 8f3e 2397 e2bd 25c7 b23e
00000030: 0d68 8ebd ba3d 703e c91d 593e a745 31bd
00000040: fdfe 213d f25f 093d 1261 30bd a97c cdbb
00000050: 42d2 3a3e f23e debd f157 62bc 3fcd a33e
00000060: af5e 033e f0d1 b2bd 09f1 fdbd 7f92 29be
00000070: 39c7 ab3e c12d 003c 0991 9fbe f9de 34be
00000080: 8c7c 163d a1d5 613e b317 92be 748f 9cbd
00000090: 59c2 0d3e 6145 4cbe a837 e03d e959 02be
000000a0: 3d9d 1e3d 4385 8dbe d87e 6abd 3ff9 5fbe
000000b0: 80c2 e8bb 78ed e63d 3535 8ebd ae04 b7bb
000000c0: e276 a03e 0115 5e3e

fc2.weight f4 [50, 50]
0.013343157 0.0007260324 -0.0608733 -0.07837877 0.00354128 -0.003743889 -0.05129102 0.032448012
0.09542518 -0.08022724 -0.025475517 0.05684585 -0.06733465 -0.037787203 -0.084420234 0.09694199
0.01394381 -0.0030691172 -0.00053402066 0.084415756 0.060836006 -0.027137421 -0.03618168 -0.025234362
-0.011532736 -0.06464693 -0.03941722 0.08952828 -0.047046326 0.0074352706 -0.0077800816 -0.026527187
0.0059787924 -0.0074952915 -0.00462931 0.032491792 -0.012883912 0.097586386 0.036220457 0.13071625
-0.037929676 -0.12099339 0.04499133 -0.051902868 0.04780573 0.048568718 -0.0019702227 -0.09500422
0.06843556 0.068833396 0.0842782 -0.042706553 -0.06523931 0.12092676 0.082618736 -0.035041954
0.03756178 -0.09065176 0.07931516 -0.037748415 0.030947912 0.020928718 0.053463433 -0.04979527
0.050278675 0.04897405 0.056810346 -0.025427734 0.017842004 0.010817263 -0.058516987 0.056332737
-0.0014456969 -0.0724709 -0.07722139 -0.105088614 -0.016552342 -0.07706312 0.11066464 -0.0359589
-0.027481264 0.012209003 0.10650706 -0.05909246 -0.03652713 -0.011801607 0.061174892 -0.009143482
-0.010513728 0.10007829 -0.06893095 -0.13151723 -0.08142068 -0.018051947 -0.062433235 0.014408458
-0.014545051 -0.009448172 0.028611176 0.06440271 0.010276311 -0.026885053 0.013055519 -0.042874582
0.078309745 0.04959996 -0.021319209 0.09883005 0.088202074 -0.030342307 0.062269744 0.015265749
0.07932896 0.10292201 0.0492087 -0.007701718 -0.12205898 -0.07970137 0.04300668 -0.031598166
0.011103161 -0.002091214 -0.057137854 0.10705969 -0.0416302 -0.12192812 0.06346264 -0.07158935
-0.039140936 -0.059843425 -0.056853537 0.091389865 0.0400284 -0.032620594 -0.012170493 0.012151483
0.056846038 -0.0072231162 -0.0120065445 -0.05408848 -0.024248157 -0.06052755 0.0463681 -0.007878112
-0.0064005214 0.0003370805 -0.03155949 -0.0597252 -0.082664736 -0.02920575 0.039719027 0.02928234
0.04905187 -0.017879587 0.006115881 0.05352126 0.030046618 0.08261163 0.03471154 -0.079645075
-0.0034012317 0.061712723 -0.03425095 -0.09778574 -0.05910829 -0.0030016103 0.07171053 0.121787556
0.070741184 -0.12962328 -0.1139569 -0.09628279 0.020760804 0.0008195209 0.009278488 0.026433399
0.009241456 0.031177295 0.09775234 0.058817957 0.069541834 -0.052724097 -0.031853024 0.030839968
-0.09534023 0.044813436 0.024511266 0.06559771 -0.05354202 -0.09916856 0.032225613 0.015307738
0.006499728 -0.029274141 0.11937528 0.08079067 0.033279482 0.021777453 -0.072922565 -0.07197219
-0.053356234 -0.096156634 0.009624565 -0.097641215 0.014706146 0.011980512 0.0073689446 0.07602434
-0.014533884 0.013926379 0.031302314 -0.01589398 0.052390393 -0.013284613 0.013043411 -0.00095658016
0.036239475 0.026902428 0.10479458 -0.03415367 -0.070970915 -0.079214 -0.11253818 0.06532591
-0.013522327 0.0130706 0.11872647 -0.050231602 -0.027422594 0.021328611 0.039986078 -0.1140516
0.006914665 -0.051698305 -0.102718696 0.049937055 -0.11216999 -0.017672105 0.04054466 0.019998398
0.06473167 0.05638072 -0.03898442 -0.057544593 0.04955396 0.03864436 0.08331681 0.041701995
-0.09309034 0.051549114 -0.009315354 0.007832743 -0.046759978 0.096876755 0.09539864 0.09918841
00000000: 429d 5a3c 3653 3e3a 4856 79bd 0c85 a0bd
00000010: d214 683b 095c 75bb 8816 52bd 35e8 043d
00000020: 476e c33d 2e4e a4bd 08b2 d0bc 32d7 683d
00000030: c0e6 89bd c1c6 1abd 84e4 acbd 8689 c63d
00000040: 9474 643c 3e23 49bb 85fd 0bba 2be2 ac3d
00000050: 2d2f 793d 4c4f debc 3e33 14bd 4bb8 cebc
00000060: cdf3 3cbc 9c65 84bd f373 21bd 9a5a b73d
00000070: a6b3 40bd 92a3 f33b 0ef0 febb 8b4f d9bc
00000080: bfe9 c33b 109b f5bb 78b1 97bb 1d16 053d
00000090: 0b17 53bc 5fdb c73d e75b 143d 7bda 053e
000000a0: 265c 1bbd 62cb f7bd d448 383d 1a98 54bd
000000b0: f1cf 433d feef 463d da1e 01bb 9391 c2bd
000000c0: f127 8c3d 86f8 8c3d 0d9a ac3d 11ed 2ebd
000000d0: 309c 85bd 73a8 f73d 0334 a93d 2788 0fbd
000000e0: 62da 193d a1a7 b9bd fd6f a23d 159e 1abd
000000f0: 7a86 fd3c b472 ab3c 79fc 5a3d 20f6 4bbd
00000100: 03f1 4d3d 0399 483d f7b1 683d d34d d0bc
00000110: 6529 923c e43a 313c 82af 6fbd 28bd 663d
00000120: 8a7d bdba a06b 94bd 4026 9ebd b338 d7bd
00000130: c798 87bc 45d3 9dbd 25a4 e23d a449 13bd
00000140: 6320 e1bc 4508 483c 6020 da3d ef0a 72bd
00000150: 799d 15bd 875b 41bc 8692 7a3d 8bce 15bc
00000160: c541 2cbc d9f5 cc3d ab2b 8dbd 74ac 06be
00000170: e3bf a6bd ade1 93bc feb9 7fbd 7411 6c3c
00000180: 5e4e 6ebc 81cc 1abc fc61 ea3c 91e5 833d
00000190: f95d 283c 0b3e dcbc d1e6 553c 429d 2fbd
000001a0: dc60 a03d 5429 4b3d 9fa5 aebc 6967 ca3d
000001b0: 4aa3 b43d 6e90 f8bc 8f0e 7f3d 311d 7a3c
000001c0: 3977 a23d c6c8 d23d 108f 493d b15e fcbb
000001d0: 0ffa f9bd 793a a3bd c627 303d 146d 01bd
000001e0: 08ea 353c c00c 09bb 6209 6abd 1c42 db3d
000001f0: 6e84 2abd 73b5 f9bd b3f8 813d 709d 92bd
00000200: 3f52 20bd 611e 75bd 41df 68bd 9c2a bb3d
00000210: d2f4 233d 2c9d 05bd bf66 47bc 0417 473c
00000220: 64d7 683d e4af ecbb 19b7 44bc e28b 5dbd
00000230: 12a4 c6bc bceb 77bd 7aec 3d3d 3213 01bc
00000240: 77bb d1bb 2eba b039 8644 01bd 69a2 74bd
00000250: 214c a9bd e640 efbc 6bb0 223d 85e1 ef3c
00000260: 9dea 483d 3678 92bc ba67 c83b 1c39 5b3d
00000270: 5324 f63c 4930 a93d b02d 0e3d f51c a3bd
00000280: 33e7 5ebb 7bc6 7c3d b94a 0cbd e443 c8bd
00000290: 891b 72bd aab6 44bb f8dc 923d c16b f93d
000002a0: c1e0 903d f7bb 04be 3c62 e9bd e92f c5bd
000002b0: 9012 aa3c 1ed5 563a cd04 183c db8a d83c
000002c0: 7a69 173c 8767 ff3c 6132 c83d 19eb 703d
000002d0: f36b 8e3d 39f5 57bd 5178 02bd 1aa4 fc3c
000002e0: bd41 c3bd 4b8e 373d dacb c83c 1858 863d
000002f0: e14e 5bbd e318 cbbd 01ff 033d 4fcd 7a3c
00000300: acfb d43b 53d0 efbc 077b f43d 9475 a53d
00000310: 1150 083d a166 b23c 6d58 95bd 2866 93bd
00000320: 118c 5abd c5ed c4bd 5ab0 1d3c 1ef8 c7bd
00000330: 0cf2 703c e949 443c 3077 f13b a6b2 9b3d
00000340: 871f 6ebc 782b 643c db36 003d 1834 82bc
00000350: 4f97 563d b5a7 59bc 08b4 553c 02c3 7aba
00000360: d86f 143d 7b62 dc3c 8a9e d63d b8e4 0bbd
00000370: 3359 91bd f33a a2bd 6b7a e6bd 97c9 853d
00000380: c08c 5dbc 1226 563c dd26 f33d a7bf 4dbd
00000390: 59a5 e0bc 57b9 ae3c 71c8 233d e393 e9bd
000003a0: 6a94 e23b 9ac1 53bd 2e5e d2bd cc8a 4c3d
000003b0: 61b9 e5bd 17c5 90bc 2812 263d aed3 a33c
000003c0: 0a92 843d 78ef 663d 21ae 1fbd e1b3 6bbd
000003d0: 18f9 4a3d 8c49 1e3d 01a2 aa3d b6cf 2a3d
000003e0: 26a6 bebd 2a25 533d 6d9f 18bc e854 003c
000003f0: 6487 3fbd 5267 c63d 5d60 c33d 4b23 cb3d

fc2.bias f4 [50]
-0.10071198 0.05048459 0.032065038 0.054609198 0.06879206 -0.038491674 0.10615756 -0.08311292
-0.06697818 -0.07172889 0.06505806 -0.06916328 0.07185731 0.00041448738 0.05047674 0.07465845
0.041357487 -0.091765 -0.012361353 0.06615449 0.051139783 -0.09353286 0.07395474 0.03130144
-0.10480403 -0.07682159 0.02808941 -0.11102741 -0.049573597 0.013493967 0.056539502 -0.009562604
-0.11929006 -0.027429966 0.019313399 0.11061264 -0.008376301 -0.101981156 -0.043565463 -0.10683875
-0.013967685 -0.033405174 -0.13146788 -0.0012746726 0.08303783 -0.04761046 -0.03764333 -0.046981458
-0.049357895 -0.06643698
00000000: 1542 cebd eec8 4e3d a156 033d e5ad 5f3d
00000010: dae2 8c3d 72a9 1dbd 2369 d93d 1b37 aabd
00000020: db2b 89bd 99e6 92bd 293d 853d 7aa5 8dbd
00000030: ed29 933d 8e4f d939 b3c0 4e3d 88e6 983d
00000040: 7866 293d 4aef bbbd 4687 4abc 017c 873d
00000050: f377 513d 288e bfbd 9575 973d f035 003d
00000060: 7fa3 d6bd a354 9dbd c31b e63c 5762 e3bd
00000070: af0d 4bbd cd15 5d3c f795 673d 78ac 1cbc
00000080: 594e f4bd cfb4 e0bc 2237 9e3c e188 e23d
00000090: c13c 09bc 7fdb d0bd b371 32bd 46ce dabd
000000a0: b8d8 64bc ddd3 08bd 849f 06be ea12 a7ba
000000b0: bd0f aa3d 3003 43bd e42f 1abd a16f 40bd
000000c0: 812b 4abd 1d10 88bd

fc3.weight f4 [50, 50]
-0.049600672 0.01542832 -0.064733945 -0.10145219 0.020392343 -0.005582747 0.05741783 -0.034733538
-0.04388667 0.063632175 0.083579384 0.010016958 -0.020727288 0.06111549 0.11831758 -0.009749611
-0.09159611 0.05391829 0.077183835 -0.10218525 0.057841558 -0.11448107 -0.05793736 0.026397431
0.109281905 0.05542907 0.06450714 0.014796149 -0.018830758 -0.013025503 -0.07212632 -0.08512017
0.054128904 0.013764444 -0.0952635 0.05906194 0.020290283 -0.06792053 -0.022457384 -0.08192496
-0.10748106 -0.03478496 -0.061906092 0.04386802 0.06282339 -0.090149865 -0.07415512 0.11054974
0.03292628 0.01222663 0.12869392 -0.015839826 -0.052834008 -0.08421432 -0.10159406 0.098703645
0.026781566 -0.06749135 0.04009642 -0.03661721 -0.029147925 0.06699678 0.03778391 0.048707403
-0.062101405 -0.09881402 -0.026726747 -0.08399531 -0.040534247 -0.04341883 -0.047168296 -0.06428774
0.02091039 -0.0811401 0.017876992 -0.03684989 0.03037676 0.016218545 -0.044162508 -0.005100257
-0.06953908 0.03316877 0.030363983 0.08603007 -0.044979174 0.017863387 -0.04672408 -0.012195691
0.0087874755 0.017132517 0.004504001 0.013937254 -0.0062700096 0.012001482 -0.004312337 -0.047828794
0.07736916 0.04299773 0.096552655 0.084183946 0.110800005 0.00959769 0.07975037 0.027354473
-0.050189644 -0.033894766 0.071096435 -0.08147313 -0.008962824 -0.041987173 -0.0032911708 0.043504898
-0.059546 -0.03792969 -0.0011242133 0.08772475 0.060048446 -0.10391308 0.022711338 -0.027617006
0.06619436 0.11077495 -0.034732908 0.06670622 -0.03669033 0.05967155 0.007687017 0.04619127
0.10208634 -0.09703036 -0.006228866 -0.06722849 0.04227775 0.05864889 -0.054162957 -0.0230755
-0.05445745 -0.035306543 -0.10379361 0.018982906 0.068340145 -0.011137981 -0.09200749 0.05376978
0.0787703 0.08950075 0.102437645 -0.009717914 0.013775995 -0.058433343 0.027483419 0.024332708
-0.029150164 0.0659147 -0.07074974 0.022381786 0.015308458 0.047325794 0.019059097 0.037372526
-0.05521778 -0.087616675 -0.08698587 -0.029201236 -0.038138002 0.049071684 0.051771842 -0.03015634
0.09720597 0.027915817 -0.0011742157 0.014226821 -0.007940835 -0.07007804 0.13224487 -0.008101696
0.031908367 -0.07743673 0.034729436 -0.027818706 -0.0050906166 0.004128846 -0.08143983 0.015270488
-0.005295454 0.049932558 0.0041525853 0.011769443 -0.08654007 0.023014227 -0.0007965752 -0.06334941
-0.053649608 -0.006733761 -2.5826448e-05 0.048714224 -0.112422414 -0.01844086 -0.056348685 -0.109452955
0.038842462 -0.01793142 -0.02665037 0.071526356 -0.09076891 0.064157225 -0.09001102 0.005091474
0.01331565 -0.034324717 -0.046523783 0.08478566 0.112624936 0.06642753 0.049646582 -0.11232398
0.109904386 -0.06529978 0.047750868 -0.036666565 -0.09473755 -0.05015331 0.12713577 0.020630183
-0.046818342 -0.08928577 -0.024110392 0.029084785 0.049395774 -0.07372695 -0.049172025 -0.08418115
0.0011412953 0.047623362 0.042961307 0.005289911 -0.08543268 -0.08211782 -0.122067556 0.010899221
-0.04175445 0.059649903 -0.09656154 -0.07514066 0.02472236 0.009042926 -0.01344476 -0.06892799
0.033063885 0.0125142215 0.04758437 0.018628426 0.083045006 -0.11974034 -0.08146263 0.09038354
00000000: 132a 4bbd 10c7 7c3c 3b93 84bd 2ac6 cfbd
00000010: d80d a73c 7aef b6bb f52e 6b3d c144 0ebd
00000020: 82c2 33bd 9651 823d ab2b ab3d 2b1e 243c
00000030: 46cc a9bc 3c54 7a3d 7d50 f23d d5bc 1fbc
00000040: be96 bbbd 6dd9 5c3d 8f12 9e3d 8046 d1bd
00000050: 45eb 6c3d 0d75 eabd ba4f 6dbd 6d3f d83c
00000060: 31cf df3d 9809 633d 521c 843d 8c6b 723c
00000070: f642 9abc eb68 55bc f7b6 93bd 7c53 aebd
00000080: 45b6 5d3d 4384 613c 8319 c3bd efea 713d
00000090: cf37 a63c eb19 8bbd 8cf8 b7bc 46c8 a7bd
000000a0: 081f dcbd ad7a 0ebd 3e91 7dbd f4ae 333d
000000b0: 8da9 803d 7ea0 b8bd a4de 97bd e767 e23d
000000c0: b5dd 063d 3452 483c 57c8 033e 86c2 81bc
000000d0: 7968 58bd 8f78 acbd 8c10 d0bd 2325 ca3d
000000e0: 0465 db3c e838 8abd 253c 243d edfb 15bd
000000f0: a1c7 eebc 9c35 893d 4dc3 1a3d 6a81 473d
00000100: 0b5e 7ebd 015f cabd 0df2 dabc bc05 acbd
00000110: 3d07 26bd f1d7 31bd 8b33 41bd 4aa9 83bd
00000120: 444c ab3c c82c a6bd c572 923c e9ef 16bd
00000130: afd8 f83c c1dc 843c bfe3 34bd 0f20 a7bb
00000140: 816a 8ebd fadb 073d e3bd f83c 8930 b03d
00000150: 153c 38bd 3d56 923c c061 3fbd 6fd0 47bc
00000160: 58f9 0f3c 7e59 8c3c 4c96 933b 1559 643c
00000170: a774 cdbb dda1 443c 814e 8dbb 20e8 43bd
00000180: b973 9e3d 631e 303d 66bd c53d a268 ac3d
00000190: 1deb e23d a13f 1d3c 2954 a33d 7d16 e03c
000001a0: a893 4dbd 3dd5 0abd 029b 913d 62db a6bd
000001b0: cfd8 12bc befa 2bbd afb0 57bb 3132 323d
000001c0: 82e6 73bd 2a5c 1bbd 575a 93ba 09a9 b33d
000001d0: 5cf5 753d 62d0 d4bd 210d ba3c 0f3d e2bc
000001e0: e990 873d fadd e23d 1844 0ebd 459d 883d
000001f0: 9948 16bd 286a 743d 5fe3 fb3b 0f33 3d3d
00000200: a512 d13d dab7 c6bd 841b ccbb 17af 89bd
00000210: 6f2b 2d3d d239 703d fad9 5dbd d508 bdbc
00000220: c60e 5fbd 989d 10bd bf91 d4bd 0a82 9b3c
00000230: ebf5 8b3d 147c 36bc 6c6e bcbd b33d 5c3d
00000240: 5352 a13d 2b4c b73d d4ca d13d e337 1fbc
00000250: b6b4 613c cd57 6fbd e824 e13c 6355 c73c
00000260: 53cc eebc 49fe 863d 3de5 90bd 025a b73c
00000270: 54d0 7a3c b1d8 413d d321 9c3c ef13 193d
00000280: 0a2c 62bd 5f70 b3bd a625 b2bd 6e37 efbc
00000290: 9836 1cbd 64ff 483d b60e 543d 6e0a f7bc
000002a0: ec13 c73d b6af e43c 24e8 99ba 9d17 693c
000002b0: 471a 02bc 1385 8fbd 336b 073e fabc 04bc
000002c0: 59b2 023d 2697 9ebd 7440 0e3d 0ee4 e3bc
000002d0: 30cf a6bb 454b 873b edc9 a6bd 1231 7a3c
000002e0: 7d85 adbb 1586 4c3d 6912 883b 9fd4 403c
000002f0: ec3b b1bd 5588 bc3c 42d1 50ba 56bd 81bd
00000300: b1bf 5bbd e2a6 dcbb e0a5 d8b7 9188 473d
00000310: b93d e6bd 4911 97bc e1cd 66bd df28 e0bd
00000320: 4619 1f3d eae4 92bc e051 dabc 697c 923d
00000330: 0de5 b9bd dd64 833d b357 b8bd 61d6 a63b
00000340: e229 5a3c 1398 0cbd b98f 3ebd 1ba4 ad3d
00000350: e7a7 e63d 280b 883d 375a 4b3d 1d0a e6bd
00000360: 8d15 e13d e4bb 85bd 6a96 433d ae2f 16bd
00000370: c305 c2bd 8f6d 4dbd e12f 023e a100 a93c
00000380: 97c4 3fbd 75db b6bd 2883 c5bc 3743 ee3c
00000390: 3953 4a3d 28fe 96bd 9b68 49bd 2b67 acbd
000003a0: 8497 953a b710 433d 32f8 2f3d fd56 ad3b
000003b0: 54f7 aebd 632d a8bd 8efe f9bd a592 323c
000003c0: b706 2bbd 7553 743d 0fc2 c5bd 59e3 99bd
000003d0: 8c86 ca3c c828 143c 6947 5cbc 1e2a 8dbd
000003e0: ff6d 073d 7308 4d3c d4e7 423d a49a 983c
000003f0: 8013 aa3d 6c3a f5bd e1d5 a6bd 011b b93d

fc3.bias f4 [50]
-0.022742337 0.04006955 -0.019059086 -0.10250413 -0.0016456052 0.10142591 -0.027993584 0.014572187
0.10536107 -0.10010166 -0.05018305 -0.015777769 -0.017154638 0.08235249 -0.093938924 0.101920664
-0.08887216 0.015986424 -0.020382456 0.004565609 0.05863501 -0.032639347 0.027697176 0.038666014
0.061048232 0.0723997 0.03824879 -0.05309992 0.07607649 0.029118847 0.013647965 -0.05572428
-0.015665267 0.0006228861 0.00714645 -0.001667917 0.008365531 -0.110544875 -0.053505164 0.0926236
-0.06929929 -0.017792713 0.059035104 0.053849198 0.043013092 -0.06825154 0.07338348 0.00900397
-0.08986241 -0.012211233
00000000: 234e babc f81f 243d cd21 9cbc afed d1bd
00000010: 59b1 d7ba 63b8 cf3d cd52 e5bc 2fc0 6e3c
00000020: 8bc7 d73d 1902 cdbd be8c 4dbd 6140 81bc
00000030: e287 8cbc 6ca8 a83d 0d63 c0bd c8bb d03d
00000040: 9b02 b6bd f6f5 823c 1cf9 a6bc 1b9b 953b
00000050: 442b 703d d6b0 05bd 30e5 e23c 4160 1e3d
00000060: b60d 7a3d 4b46 943d c3aa 1c3d 4d7f 59bd
00000070: fecd 9b3d a68a ee3c b79b 5f3c 253f 64bd
00000080: 7254 80bc 2e49 233a c52c ea3b 029e daba
00000090: 950f 093c 5a65 e2bd 3b28 5bbd 71b1 bd3d
000000a0: c9ec 8dbd 06c2 91bc cbce 713d fa90 5c3d
000000b0: 7f2e 303d 77c7 8bbd 144a 963d 6385 133c
000000c0: c909 b8bd a011 48bc
