checkpointing_test/sigmoid_example_s12345/models/eval_checkpoint_checkpoint_400.pt (torch, 95431 bytes, 24 tensors)

fc1.weight f4 [50, 7]
0	0xbed4424d	-0.41456833
1	0x3cf416e7	0.029796077
2	0xbe8bef14	-0.2733084
3	0x3ebccbd6	0.36874264
4	0xbe35ce56	-0.17754492
5	0x3e427b36	0.18992314
6	0xbe275202	-0.16339877
7	0x3dc19807	0.09452825
8	0xbea21af0	-0.31661177
9	0x3e0a1d73	0.13487796
10	0x3eabf926	0.33588523
11	0x3dec6728	0.11543113
12	0x3ed0fdad	0.4081854
13	0xbe6eaf8c	-0.23309153
14	0xbe69a2c2	-0.22815993
15	0xbe2484c4	-0.16066271
16	0xbeab7cc8	-0.33493638
17	0x3df5c4d2	0.12000431
18	0x3ea0833e	0.3135013
19	0x3e4470bb	0.19183628
20	0xbde548ea	-0.11195548
21	0x3b98fbdf	0.0046686972
22	0x3e5872e4	0.21137577
23	0x3dca6728	0.09882957
24	0x3ebd4abb	0.36971077
25	0xbdba91f9	-0.09109873
26	0x3e901052	0.2813745
27	0x3e7c6173	0.24646549
28	0x3eb2931f	0.3487787
29	0x3eac4c37	0.33651897
30	0xbe11fe49	-0.14257158
31	0xbe83105f	-0.25598428
32	0xbe845e69	-0.2585328
33	0xbe8af03f	-0.27136418
34	0x3e751119	0.23932303
35	0xbe6aad7e	-0.22917745
36	0x3e3ae774	0.18252355
37	0xbe78bbb9	-0.2429036
38	0xbcd942ae	-0.026521053
39	0xbeac38a3	-0.3363696
40	0x3e28969c	0.16463703
41	0xbe01101c	-0.12603801
42	0x3dd0f374	0.10202685
43	0x3e83f594	0.257733
44	0xbe12b0db	-0.14325278
45	0x3e916fb6	0.2840554
46	0x3e258723	0.16164832
47	0x3e67f7ff	0.22653197
48	0x3e1e872a	0.15481248
49	0x3e88da53	0.26729068
50	0x3d4d49b5	0.05011912
51	0xbe034f49	-0.12823214
52	0xbe50ed6e	-0.20403072
53	0x3e4d9608	0.20076764
54	0x3cb1b30c	0.021691822
55	0x3e4653c6	0.19367895
56	0x3e73882d	0.23782416
57	0xbd0d2ca2	-0.034466393
58	0xbc20820d	-0.0097966315
59	0xbc5f8d15	-0.013644476
60	0x3eb82f51	0.359736
61	0xbea24dbe	-0.31699938
62	0x3ea4e8f5	0.32208982
63	0x3b7d0ea1	0.0038613456
64	0x3d930b98	0.07179946
65	0x3e90c0c1	0.2827206
66	0xbe81e7ae	-0.2537207
67	0xbe986f39	-0.29772356
68	0x3eb556d2	0.354178
69	0xbe41bd7f	-0.18919943
70	0x3c9936cd	0.018702889
71	0x3eb7b14b	0.3587745
72	0xbdcc6d2c	-0.099817604
73	0x3d1a08bb	0.037605982
74	0x3e8c55d1	0.27409223
75	0xbe892788	-0.26787972
76	0xbe985375	-0.29751173
77	0x3ce3cf8c	0.027808927
78	0x3e1b3911	0.15158488
79	0x3d2fbb04	0.04290296
80	0xbe90b3b5	-0.28262106
81	0xbe71e482	-0.23622325
82	0xbece3d8a	-0.40281326
83	0x3ccbc50c	0.024874233
84	0xbe273cea	-0.1633183
85	0xbe693b34	-0.2277649
86	0x3ead8ad9	0.33894995
87	0xbe73c0e9	-0.23804058
88	0xbd5a1d92	-0.053250857
89	0xbe14aabe	-0.14518258
90	0x3e8d3081	0.27576068
91	0xbe6f3421	-0.2335973
92	0x3e3e5288	0.1858617
93	0x3e027151	0.1273854
94	0x3e6436c1	0.22286512
95	0x3c137893	0.009000915
96	0xbda49d73	-0.080378436
97	0xbe1a4e38	-0.150689
98	0x3e419c42	0.18907264
99	0x3dcd0cb0	0.100121856
100	0x3e59f969	0.21286549
101	0xbe2007a0	-0.15627909
102	0xbdad1ff9	-0.08453364
103	0xbe729624	-0.23690087
104	0xbe09723c	-0.13422483
105	0x3d028d86	0.03187325
106	0xbe62c076	-0.2214373
107	0x3e3c6754	0.18398792
108	0xbd87aa18	-0.0662424
109	0xbe9788f1	-0.29596666
110	0x3ed96b6c	0.4246477
111	0xbea33f53	-0.3188425
112	0xbeba985c	-0.36444366
113	0x3c95c979	0.018284546
114	0xbd8eed05	-0.06978802
115	0x3dd9f642	0.10642673
116	0xbe1eec6d	-0.15519877
117	0xbc39e3e0	-0.011345834
118	0x3ea25898	0.31708217
119	0xbe740f34	-0.23833925
120	0x3eac9cd0	0.33713388
121	0xbec0eca9	-0.37680557
122	0x3dcb1c1d	0.099174716
123	0x3eb61f03	0.35570535
124	0xbc6f5125	-0.014606749
125	0xbdc9eebf	-0.0985999
126	0xbed53585	-0.41642395
127	0xbc0b9507	-0.008519418
128	0x3e0bbff2	0.1364744
129	0x3e7c3b69	0.24632038
130	0xbe54f1e6	-0.20795402
131	0xbe359596	-0.17732844
132	0x3e9fe0ef	0.31226298
133	0xbd969067	-0.07351761
134	0xbea0f906	-0.3143999
135	0xbe8db6b4	-0.27678454
136	0x3ecb2431	0.3967605
137	0x3d77e79d	0.060523618
138	0xbd53be39	-0.051695082
139	0xbe529eb1	-0.20568348
140	0x3e31f1eb	0.1737744
141	0xbea3c7e7	-0.3198845
142	0x3e497e6d	0.19677134
143	0x3e896221	0.2683268
144	0x3ea5939e	0.32339185
145	0xbd6e1afb	-0.0581312
146	0x3df510da	0.11966105
147	0x3ebf0242	0.3730641
148	0xbe2fe5c9	-0.171775
149	0xbe84dcef	-0.2594981
150	0xbe834855	-0.25641122
151	0xbde7f612	-0.11326231
152	0x3e7e7021	0.24847461
153	0x3e5f625d	0.21814866
154	0x3ebbff13	0.36718044
155	0x3d832100	0.064027786
156	0x3e8816df	0.2657995
157	0xbe6e25a0	-0.2325654
158	0xbe72e8fd	-0.2372169
159	0x3e079335	0.13239749
160	0xbdb8bc24	-0.0902026
161	0x3d74a67c	0.059729084
162	0x3d731b51	0.059352223
163	0x3cd89b57	0.02644126
164	0x3b109c7b	0.0022065926
165	0xbd0693bd	-0.032855738
166	0xbe0e31c7	-0.13886176
167	0x3eaec67c	0.34135807
168	0xbe653aba	-0.22385684
169	0x3e455e2c	0.19274205
170	0x3e44a510	0.19203591
171	0xbd29ea3a	-0.04148314
172	0xbdc4fc94	-0.09618488
173	0x3e922b55	0.28548685
174	0x3e91d3f3	0.28482017
175	0xbd8af43b	-0.067848645
176	0xbe59f95e	-0.21286532
177	0xbe69de5d	-0.22838731
178	0xbd7cf210	-0.061754286
179	0xbe92f1a1	-0.28699973
180	0x3e3b9b56	0.18320975
181	0x3dfd7c7e	0.123772606
182	0x3e862bf7	0.26205418
183	0xbe9798d7	-0.29608795
184	0x3e0f8984	0.14017302
185	0xbe987523	-0.29776868
186	0x3eba8b27	0.3643429
187	0xbd7e93ac	-0.06215255
188	0x3ead44ae	0.3384146
189	0xbe313711	-0.17306162
190	0xbe470758	-0.19436395
191	0xbdab26ca	-0.08357008
192	0xbe5a8076	-0.21338066
193	0x3ed1ec48	0.4100058
194	0x3ecc55a8	0.399091
195	0xbdce6313	-0.10077491
196	0xbe3029ac	-0.17203397
197	0xbd181570	-0.03712982
198	0x3dc723a8	0.09723598
199	0xbe323cd8	-0.17406023
200	0x3e8f5255	0.27992502
201	0xbc50188e	-0.012701167
202	0x3eb3948f	0.3507428
203	0x3dfa9053	0.12234559
204	0xbe8dd7d8	-0.27703738
205	0x3e757f0f	0.2397425
206	0x3cb31b99	0.021863746
207	0xbed95773	-0.4244953
208	0x3e7dafac	0.24774045
209	0xbe8a1989	-0.26972607
210	0x3e30f9c7	0.17282782
211	0xbc0b190b	-0.008489857
212	0xbd145818	-0.036216825
213	0xbdf5153e	-0.11966942
214	0x3da0c1e1	0.078494795
215	0x3e64cc61	0.2234359
216	0xbe81d940	-0.2536106
217	0x3dc363c0	0.0954051
218	0x3da8c359	0.082403846
219	0x3e2a499d	0.16629644
220	0xbd2dfded	-0.04247849
221	0xbd527ac1	-0.0513866
222	0xbe23c95e	-0.15994784
223	0xbda8ff2a	-0.08251794
224	0x3e1e6db0	0.1547153
225	0x3da211ab	0.07913526
226	0x3e8dc393	0.27688274
227	0xbe35b3cc	-0.17744368
228	0x3e9dadd8	0.30796695
229	0xbd81dd57	-0.06341045
230	0xbd274c08	-0.040843993
231	0xbeeed2f3	-0.46645316
232	0xbda28b1c	-0.07936689
233	0xbe265dc9	-0.16246714
234	0x3ecd554e	0.40104145
235	0x3e6886ce	0.22707674
236	0x3e50c895	0.20389016
237	0xbe35679f	-0.1771531
238	0x3df8423d	0.12122009
239	0xbdc247b5	-0.09486333
240	0xbe89a09b	-0.26880345
241	0x3e1f3d12	0.1555064
242	0x3e6f6d36	0.23381504
243	0xbe5f09d8	-0.21781099
244	0x3eb4b5fa	0.35295087
245	0xbe0555e7	-0.1302105
246	0x3e63145b	0.22175734
247	0x3d4efc36	0.050533496
248	0xbe9bcd23	-0.30429944
249	0x3e4c9862	0.19980004
250	0x3eb3d09f	0.35120103
251	0x3e7fd77e	0.24984547
252	0xbe38371b	-0.17989771
253	0xbe560c70	-0.20903182
254	0x3e6d6b5e	0.23185489
255	0xbe9ad385	-0.30239502

fc1.bias f4 [50]
0	0xbe755239	-0.23957147
1	0xbe9a8a9f	-0.30183885
2	0x3e37ec56	0.17961249
3	0xbdb4dba3	-0.08830955
4	0x3e87abf5	0.2649838
5	0xbd81c4f6	-0.063363954
6	0x3d10ce18	0.035352796
7	0x3e9c9ec2	0.30589873
8	0xbe84de6e	-0.2595095
9	0x3eaa9702	0.33318335
10	0x3c3fb4d6	0.0117008295
11	0x3edf56ea	0.43620998
12	0x3c190037	0.00933843
13	0x3ec25a50	0.37959528
14	0x3e943337	0.28945324
15	0xbd4e77e6	-0.050407313
16	0x3de1b336	0.1102051
17	0x3e2e7110	0.17035317
18	0x3e1c504f	0.1526501
19	0x3e78f3f3	0.24311809
20	0x3e12221c	0.14270824
21	0xbe1f4f63	-0.15557627
22	0x3dbb2dbc	0.091395825
23	0x3e998f71	0.2999225
24	0x3e066464	0.13124233
25	0xbdd95595	-0.106120266
26	0xbe89c45d	-0.26907626
27	0xbe6871a0	-0.22699594
28	0x3eaee0ce	0.34155887
29	0x3a2d8855	0.00066197413
30	0xbe94a887	-0.29034826
31	0xbe2f5cc3	-0.1712523
32	0x3c4188c2	0.011812391
33	0x3ea059b9	0.31318453
34	0xbeb7720a	-0.35829192
35	0xbea98671	-0.33110383
36	0x3ea34b58	0.3189342
37	0xbe80eb05	-0.25179306
38	0xbd809578	-0.06278509
39	0xbda22958	-0.07918042
40	0x3c94315d	0.018089944
41	0xbe8f4335	-0.27980962
42	0xbcba2c35	-0.022726158
43	0xbe611380	-0.21980095
44	0xbd64ac8f	-0.055828627
45	0x3e2aaaaf	0.16666673
46	0x3d3c0045	0.045898695
47	0xbd35f5c8	-0.04442385
48	0x3eb57291	0.3543897
49	0x3eaf3ec9	0.3422759

fc2.weight f4 [50, 50]
0	0xbe751ad4	-0.23936015
1	0x3c9397b6	0.018016677
2	0xbd4b24c2	-0.0495956
3	0xbdb14d5e	-0.08657335
4	0xbcaadf96	-0.020858567
5	0xbca70c71	-0.020391675
6	0xbdb63eca	-0.08898695
7	0x3d956318	0.07294291
8	0x3e111e75	0.14171775
9	0x3ccd17e4	0.025035806
10	0xbd61d9f8	-0.05513951
11	0x3c63640a	0.013878832
12	0xbd6d33fe	-0.05791091
13	0xbd4f2d63	-0.050580394
14	0xbddeb8c1	-0.10875083
15	0x3d9c0bc9	0.07619435
16	0xbda3a155	-0.07989756
17	0xbd6bd427	-0.05757537
18	0xbd107bdf	-0.035274383
19	0x3e1f5f24	0.15563637
20	0x3e0e668c	0.13906306
21	0xbdb65406	-0.08902745
22	0xbd844bdb	-0.06459781
23	0xbdd82745	-0.10554365
24	0xbd33bb0d	-0.043879557
25	0xbd6c3180	-0.057664394
26	0xbd6fe11e	-0.058564298
27	0x3e1ffcf0	0.15623832
28	0xbdbc6f8c	-0.092009634
29	0xbdec466b	-0.11536869
30	0x3d1c924f	0.03822547
31	0xbd7166b3	-0.058935832
32	0x3daf891d	0.08571074
33	0x3d9b2227	0.075748734
34	0x3c652b38	0.013987355
35	0xbc150f17	-0.009097836
36	0x3bf21900	0.007388234
37	0x3dfa5b07	0.12224393
38	0x3dd9bb96	0.10631482
39	0x3e074444	0.13209635
40	0x3c12e31c	0.00896528
41	0xbe1e527a	-0.1546115
42	0x3d6d2593	0.05789716
43	0xbdec19de	-0.11528371
44	0x3dae92b3	0.085240744
45	0x3dba9c24	0.09111813
46	0x3de6a3ab	0.11261686
47	0xbdfb9f0f	-0.122861974
48	0x3d4e825e	0.050417297
49	0x3daa1449	0.0830465
50	0x3df1d319	0.11807842
51	0xbc7fdb8f	-0.015616312
52	0xbdd4f1dc	-0.103976935
53	0x3dddea01	0.10835648
54	0x3e031a4d	0.12803002
55	0x3d17aff4	0.037033036
56	0x3d79c9c2	0.060983427
57	0xbdbf7333	-0.093481444
58	0x3d9043bc	0.07044169
59	0xbce0dad9	-0.027448105
60	0xbc2352fa	-0.009968514
61	0xbca75a54	-0.020428814
62	0xbca095bb	-0.019602647
63	0xbe129e27	-0.14318143
64	0x3d90011c	0.070314616
65	0x3d987631	0.07444418
66	0x3e16c642	0.14724067
67	0xbdae868f	-0.08521759
68	0xbb9f5351	-0.004862227
69	0x3ddd3c70	0.10802543
70	0xbdf4061c	-0.11915228
71	0x3d8bd4d9	0.06827707
72	0xbca6554a	-0.02030434
73	0xbd327dfe	-0.043577187
74	0xbe12bef9	-0.14330663
75	0xbd1c0821	-0.03809369
76	0xbd287c9e	-0.04113447
77	0xbde49816	-0.111618206
78	0x3dc095dd	0.09403584
79	0x3b54ee34	0.0032490613
80	0xbdd0ec44	-0.10201314
81	0x3d349be1	0.04409397
82	0x3e054111	0.13013102
83	0xbe5feb67	-0.21867143
84	0x3cc86e2b	0.024466595
85	0x3cc43e1e	0.023955401
86	0x3d135577	0.035970178
87	0xbdac8da5	-0.08425454
88	0xbe165464	-0.1468063
89	0x3e469d04	0.19395834
90	0xbdc9ad0b	-0.098474585
91	0xbe0dc84a	-0.13845935
92	0xbe12b19d	-0.14325567
93	0x3c2c07f3	0.010499942
94	0xbd4e6cd9	-0.050396774
95	0x3db679c8	0.08909947
96	0x3dd07bbc	0.101798505
97	0x3cfeead6	0.031117838
98	0x3cfa6d3c	0.030569665
99	0x3dd76578	0.105174005
100	0x3cc8bc94	0.024503984
101	0xbd4935f4	-0.04912372
102	0x3daa102d	0.083038665
103	0xbddb229f	-0.10699963
104	0x3d834702	0.06410028
105	0x3d26bf1b	0.040709596
106	0xbd935a15	-0.07194916
107	0x3dd07f93	0.10180583
108	0x3e0fe008	0.14050305
109	0xbd932c64	-0.07186201
110	0x3db2ff9a	0.087401584
111	0xb9b27a2f	-0.0003404184
112	0x3d00f15b	0.031480175
113	0x3e272e7f	0.1632633
114	0x3cbc2023	0.022964543
115	0xbe3f3168	-0.1867119
116	0xbdf318b4	-0.11869946
117	0xbe0898cd	-0.13339539
118	0x3dc00715	0.09376351
119	0x3d7cf065	0.061752696
120	0x3d4a4554	0.049382523
121	0x3be355b4	0.006937707
122	0xbd6de18e	-0.058076434
123	0x3dcad21a	0.09903355
124	0xbc200604	-0.009767059
125	0xbdae3e41	-0.08507968
126	0x3df8a7df	0.12141394
127	0xbde365da	-0.11103411
128	0xbcf7d21f	-0.03025156
129	0xbde0d0b7	-0.10977309
130	0xbe13ebd1	-0.14445426
131	0x3d963c8e	0.07335769
132	0x3dc10117	0.09424036
133	0xbdf1bca4	-0.118035585
134	0x3d6d60e1	0.05795372
135	0xbd57686d	-0.052589823
136	0x3df68123	0.120363496
137	0xbd98c500	-0.0745945
138	0x3c1ff6e3	0.009763452
139	0xbc83759b	-0.01604729
140	0x3c7ab56a	0.015302042
141	0xbd8804cc	-0.0664154
142	0x3dfda475	0.12384883
143	0xbd9390ee	-0.072053775
144	0xbd760462	-0.060062774
145	0x3d80cec1	0.06289435
146	0x3cae3cc6	0.021269213
147	0xbc545a98	-0.012961052
148	0xbe205b6a	-0.15659872
149	0xbb138fc9	-0.0022516123
150	0xbd8a6b90	-0.06758797
151	0x3d405f6d	0.046966005
152	0x3dbb5cd2	0.091485634
153	0xbd24f560	-0.04027307
154	0x3db7c4a7	0.08973055
155	0x3d8196f9	0.06327624
156	0x3dc7d7b8	0.09757942
157	0x3d3af61d	0.04564487
158	0x3d567bec	0.052364275
159	0xbcb7d520	-0.022440493
160	0x3d25f3de	0.040515773
161	0x3e130d8a	0.14360633
162	0xbcf23e74	-0.029570796
163	0xbd541df1	-0.051786367
164	0xbe04ae3c	-0.1295709
165	0x39cba78e	0.00038844015
166	0x3c7c19a0	0.015386969
167	0x3dcc7593	0.09983363
168	0x3de74dc6	0.11294131
169	0xbe26e76a	-0.16299215
170	0xbdef21f1	-0.11676396
171	0xbe149dc5	-0.1451331
172	0x3d0da8a3	0.034584653
173	0x3c5b67fe	0.013391493
174	0xbce03048	-0.027366772
175	0x3d294be4	0.04133214
176	0x3bfa441a	0.007637513
177	0x3d38a289	0.04507688
178	0x3db8c59f	0.09022068
179	0x3d698c6a	0.057018675
180	0x3dcefcff	0.10106849
181	0xbc517b79	-0.012785786
182	0x3c4f9ee8	0.012672164
183	0x3e10a342	0.14124778
184	0xbdde9419	-0.10868091
185	0x3c11e96f	0.008905753
186	0x3ddd24c5	0.10798029
187	0x3dec7535	0.11545793
188	0xbc63b1ba	-0.013897354
189	0xbdb606a1	-0.08887983
190	0x3d8a1e6f	0.06744086
191	0x3cb1d4a6	0.021707844
192	0xbd04a75a	-0.03238616
193	0xbdd12942	-0.102129474
194	0x3dc2865b	0.094982825
195	0x3da98450	0.0827719
196	0xbcaee1b8	-0.021347865
197	0x3a2c00c5	0.0006561394
198	0xbdaeee1c	-0.085415095
199	0xbd732ed4	-0.05937083
200	0xbdc7bb0e	-0.09752475
201	0xbdcdc791	-0.1004783
202	0x39eed62a	0.00045554462
203	0xbe05f3d2	-0.13081291
204	0x3d377a46	0.044794343
205	0x3c8086df	0.015689312
206	0x3d7cfd94	0.06176527
207	0x3de0d728	0.10978538
208	0xbd835660	-0.06412959
209	0xbd7825ce	-0.06058293
210	0x3dcd51fc	0.10025403
211	0xbdcc532a	-0.099768
212	0x3caa1781	0.02076316
213	0xbdbc76a1	-0.09202314
214	0x3d1a490a	0.03766731
215	0xbcf2dedc	-0.029647283
216	0x3d177e9f	0.03698599
217	0x3d9e196f	0.07719695
218	0x3d9ab524	0.07554081
219	0xbe02cbfa	-0.12773123
220	0xbc940e3a	-0.01807319
221	0xbd51aae7	-0.051188376
222	0xbe04a8ad	-0.1295497
223	0x3d9afc30	0.07567632
224	0x3ce280c4	0.02764929
225	0xbc8396a9	-0.016063051
226	0x3df9de2a	0.122005776
227	0xbd4bd947	-0.04976776
228	0x3d0caf36	0.03434678
229	0x3d826216	0.06366365
230	0x3e046c53	0.12931947
231	0xbe009c76	-0.12559685
232	0xbd4b4261	-0.04962385
233	0xbe65ccfc	-0.22441477
234	0xbdf21aef	-0.118215434
235	0x3d064458	0.03278002
236	0xbdf7322e	-0.12070118
237	0xbdcfbb61	-0.101431616
238	0x3c587f0d	0.013213885
239	0x3d6c1646	0.05763843
240	0x3da34417	0.079719715
241	0x3e141a11	0.14463069
242	0x3cb0cb14	0.02158121
243	0xbc7d4cdc	-0.015460219
244	0x3d4b7044	0.04966761
245	0xbd6ade0d	-0.05734067
246	0x3e4ef1df	0.20209454
247	0x3c71a7f0	0.014749512
248	0xbd90e8c2	-0.07075645
249	0x3d410e0f	0.047132548
250	0x3cf21dc8	0.029555216
251	0x3de29fac	0.11065611
252	0xbdfb1016	-0.122589275
253	0x3db87b23	0.090078615
254	0x3d8070aa	0.06271489
255	0x3dda1ee3	0.106504224

fc2.bias f4 [50]
0	0xbdf63d72	-0.120234385
1	0x3dcca03d	0.099915005
2	0xbc1efcb0	-0.0097038
3	0x3d0f46f3	0.03497977
4	0x3e222d1e	0.15837523
5	0xbdfa4313	-0.12219825
6	0x3e0bdcb4	0.1365841
7	0xbdeb32cf	-0.114843
8	0xbdd7bae3	-0.10533693
9	0xbdefc9bc	-0.117084
10	0x3e123dae	0.14281341
11	0x3d3f82e2	0.04675568
12	0x3d09ff03	0.033690464
13	0x3d476868	0.048683554
14	0x3d71860b	0.058965724
15	0x3df00a13	0.117206715
16	0x3d5f7087	0.054550674
17	0xbdf7061d	-0.12061713
18	0x3cf1b04f	0.029503016
19	0x3df07409	0.11740882
20	0x3d2e3661	0.04253233
21	0xbdbb4663	-0.091442846
22	0x3d90e93b	0.07075735
23	0x3d062dc2	0.03275848
24	0xbe17a701	-0.148098
25	0xbe0ffeb1	-0.14062001
26	0xbc863987	-0.016384853
27	0xbe1124b2	-0.14174154
28	0x3d4de963	0.050271403
29	0xbbf6c337	-0.0075305956
30	0x3e08d7e2	0.13363603
31	0xbd5f182a	-0.054466404
32	0xbda8d646	-0.082439944
33	0xbc33161e	-0.010930566
34	0x3d4b4f3a	0.049636103
35	0x3df45c50	0.1193167
36	0x3d1fc9c5	0.03901078
37	0xbd9d2b7f	-0.07674312
38	0xbe122733	-0.14272766
39	0xbde0438d	-0.10950384
40	0xbcc8e158	-0.024521515
41	0xbd9d54c4	-0.076821834
42	0xbe049924	-0.12949044
43	0x3cc78abb	0.024358144
44	0x3dcac056	0.098999664
45	0xbb4eeb71	-0.003157344
46	0x3bf4946d	0.007463983
47	0xbdbe13c8	-0.09281117
48	0xbb26839a	-0.002540803
49	0xbe0aea5c	-0.13565964

fc3.weight f4 [50, 50]
0	0xbe09c65b	-0.13454573
1	0x3dfd913b	0.12381216
2	0xbdae21a6	-0.08502512
3	0xbdd12f57	-0.102141075
4	0xbca82a60	-0.020528018
5	0xbd2ec303	-0.042666446
6	0x3e05489b	0.13015978
7	0xbdc2e0cc	-0.09515533
8	0xbd58f58b	-0.052968543
9	0x3d912859	0.07087774
10	0x3e14d813	0.14535551
11	0x3cae80ee	0.021301713
12	0xbd5d6c58	-0.054058403
13	0x3dc9afd6	0.09847991
14	0x3e26816d	0.1626031
15	0x3d6ac286	0.05731442
16	0xbdd065f4	-0.10175696
17	0x3cede830	0.02904138
18	0x3df940db	0.12170573
19	0xbe036785	-0.12832458
20	0x3d3dbc2f	0.046322044
21	0xbdef91a1	-0.116976984
22	0xbd3b0bf9	-0.045665715
23	0x3d1d7776	0.038444005
24	0x3dd34ddb	0.10317584
25	0x3e080340	0.1328249
26	0x3dd1f7ef	0.10252368
27	0x3cd72fd4	0.026267923
28	0xbc86d08b	-0.016456863
29	0xbdbd06cb	-0.09229811
30	0xbd7c0126	-0.061524533
31	0xbde8ce9c	-0.113675326
32	0x3d9994f7	0.07499116
33	0x3d2ca674	0.04215093
34	0xbdb6a53e	-0.08918236
35	0x3e13489c	0.14383167
36	0x3d25cea5	0.040480275
37	0xbdac5093	-0.08413806
38	0xbdeaff3e	-0.11474465
39	0xbd48584b	-0.048912328
40	0xbddda1de	-0.10821889
41	0xbe02fb7e	-0.12791249
42	0xbdac80d4	-0.084230095
43	0x3dc27780	0.09495449
44	0x3dc62796	0.09675519
45	0xbd74278e	-0.059608035
46	0xbd74216c	-0.059602186
47	0x3dd74b00	0.10512352
48	0x3e13d6e3	0.14437442
49	0x3cb048c2	0.021519069
50	0x3e0c94f0	0.1372869
51	0xbcf6b726	-0.030116629
52	0xbdd5cf20	-0.104398966
53	0xbd657694	-0.056021288
54	0xbd66cc9f	-0.056347486
55	0x3e31e000	0.17370605
56	0x3e14e97e	0.14542195
57	0xbde3f110	-0.111299634
58	0x3e28233e	0.16419694
59	0xbe0c679a	-0.13711396
60	0xbd919e1c	-0.07110235
61	0x3e330360	0.17481756
62	0x3dacbb86	0.08434205
63	0x3d29bad3	0.041437935
64	0xbd6e9d6b	-0.058255594
65	0xbd76cab5	-0.06025191
66	0xbd986e95	-0.07442967
67	0xbd0e2efd	-0.03471278
68	0x3d97622d	0.073917724
69	0xbd9b066e	-0.07569586
70	0xbdabbc67	-0.08385544
71	0xbd4d9534	-0.05019112
72	0x3d19d8d4	0.0375603
73	0xbd92fb44	-0.07176831
74	0xbdb1c936	-0.08680956
75	0xbd8e30b7	-0.06942885
76	0x3d9c97ba	0.07646127
77	0xbcde73a9	-0.02715476
78	0xbc933b1a	-0.017972518
79	0x3d1d987e	0.038475506
80	0x3cce782a	0.025203783
81	0x3da3e6fe	0.08003043
82	0x3e241a18	0.16025579
83	0x3db64e80	0.089016914
84	0xbde75865	-0.11296157
85	0x3d802703	0.06257441
86	0xbdf1da9c	-0.118092746
87	0x3dbfbb62	0.09361912
88	0x3d0b08b3	0.033943843
89	0xbc39aa19	-0.011332058
90	0xbcc65a7a	-0.024213064
91	0x3d4d0a17	0.05005845
92	0xbcd5dbc6	-0.026105773
93	0xbd628a6c	-0.05530779
94	0xbd373ff6	-0.044738732
95	0xbd5599a5	-0.05214848
96	0x3d9a2590	0.07526696
97	0x3dd02e1d	0.101650454
98	0x3e09c291	0.13453127
99	0x3d79b8c9	0.06096724
100	0x3dfb9516	0.12284295
101	0x3da52e13	0.080654286
102	0x3dfd90f8	0.12381166
103	0x3ce79713	0.02827028
104	0xbb98573b	-0.0046490706
105	0xbda48b1b	-0.08034345
106	0x3e121741	0.14266683
107	0xbdf1dba5	-0.11809472
108	0x3d7d70e7	0.06187525
109	0xbe15159d	-0.14559026
110	0xbd939743	-0.07206585
111	0x3d9a519d	0.07535098
112	0xbe0b8756	-0.13625845
113	0x3ae2ba1c	0.0017297897
114	0xbc7136c4	-0.01472253
115	0x3dd39583	0.103312515
116	0x3e0c7714	0.137173
117	0xbe3fcf28	-0.18731368
118	0x3df3e5b2	0.11909045
119	0xbda9dd6b	-0.08294185
120	0x3c98bd06	0.01864482
121	0x3de353d0	0.1109997
122	0xbd409bd2	-0.0470236
123	0x3dd10f51	0.102079995
124	0x3c347b7b	0.011015768
125	0x3dd5cef5	0.104398645
126	0xbc9b0d3b	-0.018927207
127	0x3de50fbb	0.11184641
128	0x3e4edaf5	0.20200713
129	0xbdff587b	-0.12468048
130	0x3d94da70	0.07268226
131	0xbe16e1b1	-0.14734532
132	0x3dccd429	0.10001404
133	0x3d95c9ff	0.07313918
134	0xbd5362d8	-0.051607937
135	0xbdbaad2b	-0.091150604
136	0xbd9b7c77	-0.07592099
137	0xbd19451a	-0.037419416
138	0xbdb36f42	-0.08761455
139	0x3d8b8851	0.0681311
140	0x3d995288	0.07486445
141	0xbbfa50db	-0.0076390333
142	0xbe20f660	-0.15718985
143	0x3e13f82f	0.14450143
144	0x3db011fb	0.085971795
145	0x3dcc7919	0.09984035
146	0x3dc0ae5b	0.09408256
147	0x3bd77712	0.0065754736
148	0x3d6145b1	0.054998104
149	0xbdbf24a2	-0.09333159
150	0x3df91313	0.12161841
151	0x3d4c4058	0.04986605
152	0x3c8f20ad	0.017471636
153	0xbcd66254	-0.026169933
154	0xbcdc88f2	-0.02692077
155	0x3d5ebcdc	0.05437933
156	0x3ddf5a3d	0.109058835
157	0x3b8611d5	0.004091481
158	0x3d8ee6b9	0.069776006
159	0x3e0ed598	0.13948667
160	0xbd19e6c6	-0.0375736
161	0xbd55504a	-0.052078523
162	0xbdcde929	-0.100542374
163	0x3a080aed	0.00051896163
164	0x3cd0c89f	0.025486289
165	0x3dbd4604	0.0924187
166	0x3dfb47d8	0.122695625
167	0xbe186351	-0.14881636
168	0x3c83f5fe	0.01610851
169	0x3e02df27	0.12780438
170	0x3d286fec	0.041122362
171	0xbc3e6e7d	-0.011623022
172	0xbcf5c2d9	-0.030000137
173	0xbd890035	-0.066894926
174	0x3e3c3d4d	0.1838276
175	0xbce29a71	-0.027661534
176	0x3df44c77	0.11928647
177	0xbe07e2d0	-0.13270116
178	0x3e21f850	0.1581738
179	0xbdfde0e2	-0.123964086
180	0xbe30a223	-0.1724935
181	0xbd8df100	-0.06930733
182	0x3c6e6d18	0.014552377
183	0xbbc473d7	-0.0059952545
184	0x3c8cf17a	0.017204989
185	0x3e28d51e	0.16487548
186	0x3d1d6377	0.038424935
187	0xbd4e1c40	-0.05031991
188	0xbdea1359	-0.114294715
189	0x3d6dabc9	0.058025155
190	0x3d717a0d	0.058954287
191	0xba69433c	-0.00088982633
192	0xbd08d345	-0.033404607
193	0x3d11667a	0.03549812
194	0xbd1100cf	-0.03540116
195	0x3d6a22b8	0.057162017
196	0xbe0fd86b	-0.140474
197	0x3c84e52c	0.016222559
198	0xbdabc00f	-0.08386242
199	0xbe050ce4	-0.12993199
200	0xbb3ec15d	-0.0029106953
201	0x3d86ea1f	0.06587624
202	0x3cf9518c	0.030434392
203	0x3e092300	0.13392258
204	0xbd920e58	-0.07131642
205	0x3de3bc43	0.111198924
206	0xbd803002	-0.06259157
207	0xbce693ef	-0.028146712
208	0x3d809ae8	0.06279546
209	0xbdbe1732	-0.09281768
210	0xbd51114b	-0.051041882
211	0x3dd7443a	0.1051106
212	0x3e042724	0.12905556
213	0x3df81dce	0.1211506
214	0x3dee611d	0.11639617
215	0xbdcda616	-0.10041444
216	0x3dee4d6e	0.11635862
217	0xbd8ba08f	-0.068177335
218	0x3cece11c	0.028915934
219	0xbd95fcc6	-0.07323603
220	0xbe000c7a	-0.1250476
221	0x3adb8474	0.0016747848
222	0x3e32b136	0.17450413
223	0x3d812e75	0.06307689
224	0xbd8c46b4	-0.06849423
225	0xbdc423eb	-0.09577163
226	0x3d87039d	0.06592486
227	0xbcbbb113	-0.022911584
228	0x3e35115d	0.17682405
229	0xbdcabdda	-0.098994926
230	0xbdae36ad	-0.08506522
231	0xbdbf3956	-0.09337108
232	0x3cf2b102	0.02962542
233	0x3d3de4a8	0.04636064
234	0x3d8e6688	0.0695315
235	0x3d4770a1	0.048691396
236	0xbd8bdca7	-0.068291955
237	0xbd99c954	-0.075091034
238	0xbdfb9034	-0.12283364
239	0xbd8792d8	-0.06619805
240	0xbdccc856	-0.099991485
241	0x3e240452	0.16017273
242	0xbd6e88be	-0.058235876
243	0xbceab7d4	-0.02865211
244	0x3b97bb37	0.004630472
245	0x3d84a60c	0.064769834
246	0xbd84e5ef	-0.06489169
247	0xbd8733dc	-0.06601688
248	0x3cffa2e1	0.031205596
249	0xbd697000	-0.056991577
250	0x3cb968fc	0.022633068
251	0x3d659f32	0.056060024
252	0x3db23010	0.087005734
253	0xbe0aa7b8	-0.13540542
254	0xbd95b8f2	-0.07310666
255	0x3ddba419	0.107246585

fc3.bias f4 [50]
0	0x3cbf01ae	0.02331623
1	0x3d8797a4	0.0662072
2	0xbd58dc62	-0.05294455
3	0xbda0155b	-0.07816573
4	0x3d5acd43	0.05341841
5	0x3dcaa98c	0.0989562
6	0xbd769c4a	-0.060207643
7	0x3bffef56	0.0078105135
8	0x3df3ce61	0.11904598
9	0xbdd39ede	-0.10333036
10	0xbd83e601	-0.06440354
11	0xbba93d94	-0.0051648114
12	0xbdb135df	-0.08652853
13	0x3df60797	0.120131664
14	0xbc3591b7	-0.011082104
15	0x3de9a165	0.11407737
16	0xbdf66c15	-0.12032334
17	0x3cc554a3	0.02408821
18	0x3d97f606	0.07419972
19	0x3df6c290	0.120488286
20	0x3d4358c9	0.047692094
21	0xbdec59c3	-0.11540558
22	0x3c7c9335	0.015415956
23	0x3e0fe32e	0.14051506
24	0x3e51c2a8	0.20484412
25	0x3e1f41ec	0.15552491
26	0x3d0f1332	0.034930415
27	0xbd4ba226	-0.049715184
28	0x3e1749f0	0.14774299
29	0x3caf782e	0.02141961
30	0x3ddcb912	0.10777487
31	0xbde584d6	-0.11206977
32	0x3cbab386	0.022790682
33	0xbb9ce398	-0.0047878735
34	0x3dd0ddf9	0.10198588
35	0x3d7d3899	0.061821554
36	0x3d4d4332	0.05011291
37	0xbd80cca1	-0.0628903
38	0xbd8ee1f2	-0.069766894
39	0x3e485da3	0.1956697
40	0xbd032d35	-0.032025535
41	0x3cbbb7f7	0.02291487
42	0x3ddbb044	0.107269794
43	0x3d8577ca	0.065169886
44	0x3d57f909	0.052727733
45	0xbe0212d7	-0.127025
46	0x3d9d60f8	0.07684511
47	0xbd800700	-0.06251335
48	0xbdcd7a45	-0.10033087
49	0xbd088119	-0.033326242

fc1.weight f4 [50, 7]
0	0xbec90224	-0.39259446
1	0x3b9fdd87	0.004878703
2	0xbe8a7cbe	-0.27048296
3	0x3eb39db2	0.3508125
4	0xbe4cbce6	-0.19993934
5	0x3e3cac95	0.1842521
6	0xbe332456	-0.1749433
7	0x3d91120a	0.07083519
8	0xbe9cf271	-0.30653718
9	0x3e1e660e	0.15468618
10	0x3ea7c375	0.3276631
11	0x3dfcb59b	0.12339326
12	0x3ec5750d	0.38565865
13	0xbe71931c	-0.23591274
14	0xbe681980	-0.22665977
15	0xbe1e7c65	-0.1547714
16	0xbeab59d8	-0.33466983
17	0x3de61497	0.11234396
18	0x3e9e433e	0.30910677
19	0x3e409f89	0.18810858
20	0xbdd2cfc2	-0.10293533
21	0xbc2cf7b9	-0.010557109
22	0x3e51b491	0.20479037
23	0x3de33975	0.110949434
24	0x3eb97b47	0.36226866
25	0xbda8c63b	-0.082409345
26	0x3e843c14	0.25827086
27	0x3e70e967	0.23526536
28	0x3ead2d25	0.33823505
29	0x3ead2de9	0.3382409
30	0xbe0a85a5	-0.13527544
31	0xbe7d5c75	-0.24742301
32	0xbe82282f	-0.25421283
33	0xbe8682da	-0.26271707
34	0x3e757e07	0.23973857
35	0xbe5bf30e	-0.21479437
36	0x3e43fe37	0.19139944
37	0xbe7a4619	-0.24440803
38	0xbca8fabb	-0.02062737
39	0xbea12d2a	-0.3147977
40	0x3e35a757	0.17739616
41	0xbdcc86cb	-0.09986647
42	0x3db54240	0.08850527
43	0x3e822cfa	0.2542494
44	0xbe0bf6c3	-0.13668351
45	0x3e8bc569	0.2729905
46	0x3e1ec2e6	0.15504035
47	0x3e5a6a6e	0.21329662
48	0x3e1e6586	0.15468416
49	0x3e860b1b	0.26180348
50	0x3d39f76b	0.04540197
51	0xbdec88c0	-0.115495205
52	0xbe480b4b	-0.19535558
53	0x3e4a1eb4	0.19738275
54	0x3cd07719	0.025447415
55	0x3e3eafeb	0.18621795
56	0x3e706fbd	0.23480125
57	0xbce33fc8	-0.027740374
58	0x3ba18b2b	0.00492992
59	0xbc784a9c	-0.015154507
60	0x3eb4a826	0.35284537
61	0xbe9be142	-0.30445296
62	0x3ea5e7c4	0.32403386
63	0x3c46af8d	0.0121268155
64	0x3da7dc72	0.081963435
65	0x3e8a23cb	0.26980433
66	0xbe787a76	-0.24265465
67	0xbe9bada4	-0.30405915
68	0x3eb5ddd4	0.35520804
69	0xbe38f98f	-0.18063949
70	0x3c82fa09	0.015988367
71	0x3eb263b8	0.34841704
72	0xbdbe1a7b	-0.092823945
73	0x3d1d20b2	0.03836126
74	0x3e8d1f5f	0.27562997
75	0xbe82ad8e	-0.25523037
76	0xbe90817c	-0.2822379
77	0x3c10ffb3	0.008850026
78	0x3e06ca75	0.13163169
79	0x3d24fa8e	0.04027801
80	0xbea07439	-0.3133867
81	0xbe5a52fa	-0.21320716
82	0xbebe3a01	-0.37153628
83	0x3d00168e	0.03127151
84	0xbe31e901	-0.1737404
85	0xbe59c2bd	-0.21265693
86	0x3eab3223	0.3343669
87	0xbe787719	-0.24264182
88	0xbd5d5424	-0.05403532
89	0xbe0b2250	-0.13587308
90	0x3e893507	0.2679827
91	0xbe5db5ee	-0.21651432
92	0x3e3a8a4c	0.18216819
93	0x3df7c346	0.12097792
94	0x3e57cbfa	0.21073905
95	0xbc7f5e69	-0.015586474
96	0xbda31fd8	-0.07965058
97	0xbe0a0add	-0.13480707
98	0x3e3c14c6	0.183673
99	0x3dd679bd	0.104724385
100	0x3e4ed85f	0.20199727
101	0xbe2fbd2b	-0.17162006
102	0xbdab0662	-0.08350827
103	0xbe6ce6c2	-0.23134902
104	0xbe0c1e07	-0.1368333
105	0x3d1afc80	0.03783846
106	0xbe578d4c	-0.21049994
107	0x3e432e9a	0.19060746
108	0xbd882d86	-0.06649308
109	0xbe7d76b2	-0.2475231
110	0x3ed7b116	0.42127293
111	0xbe9c4074	-0.30517924
112	0xbeb14c9f	-0.3462877
113	0x3c83b054	0.01607529
114	0xbd9cf31f	-0.07663559
115	0x3dcc0c83	0.09963324
116	0xbe367bb4	-0.17820626
117	0xbcdf4489	-0.02725436
118	0x3e999c4b	0.30002055
119	0xbe724bbc	-0.23661703
120	0x3ea98ad3	0.33113727
121	0xbeb8d2e5	-0.360984
122	0x3dd2e038	0.102966726
123	0x3eb36e68	0.3504517
124	0xbc394a64	-0.01130924
125	0xbdd1f0b7	-0.10250991
126	0xbec728bc	-0.38898265
127	0xbca05889	-0.019573467
128	0x3dbddf6a	0.092711285
129	0x3e6d3c71	0.23167588
130	0xbe5c3ee0	-0.2150836
131	0xbe494f14	-0.19659072
132	0x3e9f22ee	0.31081337
133	0xbdcfa02b	-0.101379715
134	0xbe994d23	-0.29941663
135	0xbe6aedca	-0.22942272
136	0x3ebd925f	0.37025735
137	0x3d8005a8	0.06251079
138	0xbd4f57c8	-0.050620824
139	0xbe56765c	-0.20943588
140	0x3e272a21	0.16324665
141	0xbea2fdd7	-0.3183429
142	0x3e4372d4	0.19086772
143	0x3e87fade	0.26558584
144	0x3ea18c17	0.31552193
145	0xbd53d375	-0.051715333
146	0x3deea1b8	0.11651939
147	0x3eb71006	0.35754412
148	0xbe2e444d	-0.17018242
149	0xbe82e979	-0.2556875
150	0xbe851ddb	-0.2599934
151	0xbde0f0f8	-0.10983461
152	0x3e734ee0	0.23760557
153	0x3e5e36c5	0.2170058
154	0x3eb17afd	0.34664145
155	0x3d56f53e	0.052479975
156	0x3e8999b2	0.26875073
157	0xbe72a9f4	-0.23697644
158	0xbe7368ed	-0.23770495
159	0x3dfd6a07	0.12373739
160	0xbde02528	-0.10944587
161	0x3d815baf	0.063163154
162	0x3d82f4c5	0.06394342
163	0x3c97d7e8	0.01853557
164	0x3a5f328d	0.00085143076
165	0xbd15f484	-0.03661014
166	0xbdf67d57	-0.120356254
167	0x3eab5959	0.33466604
168	0xbe575ff8	-0.21032703
169	0x3e44c987	0.19217502
170	0x3e3b4b42	0.18290427
171	0xbcdf1334	-0.027230836
172	0xbdc2b033	-0.095062636
173	0x3e91767e	0.28410715
174	0x3e931da0	0.2873354
175	0xbd9dd5ba	-0.07706781
176	0xbe5af0c6	-0.2138091
177	0xbe6a3ba9	-0.22874321
178	0xbd6b1c99	-0.05740032
179	0xbe7f633f	-0.24940203
180	0x3e32a229	0.17444672
181	0x3e04fca8	0.12987006
182	0x3e82fd35	0.25583807
183	0xbe93ae95	-0.28844133
184	0x3e052c51	0.13005187
185	0xbe98b2f2	-0.29824024
186	0x3eb21010	0.3477788
187	0xbd78e7fe	-0.06076812
188	0x3ea8ef1e	0.32994932
189	0xbe374a74	-0.17899495
190	0xbe46bc25	-0.19407709
191	0xbd9f440f	-0.07776653
192	0xbe496044	-0.19665629
193	0x3ecd55be	0.4010448
194	0x3ec4625f	0.383563
195	0xbdc3c4e7	-0.095590405
196	0xbe309995	-0.17246087
197	0xbd3b1568	-0.04567471
198	0x3dcbe76e	0.09956251
199	0xbe2e9187	-0.17047702
200	0x3e8f731b	0.28017506
201	0xbc8ff37a	-0.017572153
202	0x3eb03ae8	0.34419942
203	0x3de3978f	0.11112892
204	0xbe8c5591	-0.27409032
205	0x3e7fa70b	0.24966066
206	0x3ba48b9e	0.0050215265
207	0xbec7edaa	-0.3904851
208	0x3e74cb26	0.2390562
209	0xbe815ed8	-0.25267673
210	0x3e2e62cc	0.17029876
211	0xbbe72665	-0.0070541375
212	0xbcdf64b3	-0.027269697
213	0xbde794a1	-0.113076456
214	0x3da2382f	0.079208724
215	0x3e5fe15e	0.21863315
216	0xbe81d178	-0.25355124
217	0x3dc3f4ca	0.09568174
218	0x3dbe2fdb	0.092864715
219	0x3e2e3e45	0.17015941
220	0xbcfcf6bb	-0.030879369
221	0xbd4fe007	-0.05075076
222	0xbe1b97cf	-0.15194629
223	0xbd876e38	-0.066128194
224	0x3e136310	0.14393258
225	0x3da79f91	0.08184732
226	0x3e90aa07	0.2825472
227	0xbe3ff0f8	-0.18744266
228	0x3e99dcda	0.3005131
229	0xbd6cc5da	-0.057805873
230	0xbcc829c3	-0.024433976
231	0xbed5e4a0	-0.4177599
232	0xbda2df58	-0.07952756
233	0xbe25589e	-0.16147086
234	0x3ec8cec6	0.39220256
235	0x3e5c895f	0.21536778
236	0x3e463588	0.19356358
237	0xbe4c9754	-0.19979602
238	0x3de58f13	0.1120893
239	0xbdc33221	-0.09531046
240	0xbe8478ab	-0.25873312
241	0x3e118be8	0.14213526
242	0x3e71727c	0.23578829
243	0xbe5917e8	-0.21200526
244	0x3eb03325	0.3441402
245	0xbe0b3bc7	-0.13597022
246	0x3e5df47c	0.21675295
247	0x3d85552c	0.06510386
248	0xbe98081b	-0.29693684
249	0x3e407cc7	0.18797599
250	0x3eadf652	0.3397699
251	0x3e7fb69e	0.24972007
252	0xbe386982	-0.18008998
253	0xbe5624b9	-0.20912446
254	0x3e7a7f8c	0.24462718
255	0xbe914f0a	-0.28380615

fc1.bias f4 [50]
0	0xbe76b929	-0.2409407
1	0xbe9e886a	-0.3096345
2	0x3e33bc78	0.17552364
3	0xbdc15144	-0.09439328
4	0x3e8b18e1	0.2716742
5	0xbd8d5a44	-0.069019824
6	0x3cc9f13b	0.02465116
7	0x3e995157	0.2994487
8	0xbe8403dc	-0.25784194
9	0x3eafe0a6	0.3435108
10	0x3b720855	0.0036931236
11	0x3ed303a3	0.41213712
12	0x3b74b3fe	0.003733873
13	0x3ec19a0b	0.37812838
14	0x3e93c18c	0.28858602
15	0xbd655582	-0.05598975
16	0x3dd0f019	0.10202045
17	0x3e28a31d	0.16468473
18	0x3e01dba4	0.12681442
19	0x3e593b17	0.21213947
20	0x3e11b6ed	0.14229937
21	0xbe29e18b	-0.16589944
22	0x3d923746	0.07139449
23	0x3e9b3661	0.30314925
24	0x3e0c1147	0.13678466
25	0xbded93ed	-0.1160048
26	0xbe879bff	-0.26486203
27	0xbe6d3aea	-0.23167005
28	0x3ead2611	0.33818105
29	0xbbf7e120	-0.007564679
30	0xbe9614cb	-0.2931274
31	0xbe2a5f1c	-0.16637844
32	0x3bdfa01e	0.0068245074
33	0x3ea23aa3	0.3168536
34	0xbeb58c12	-0.35458428
35	0xbea44c94	-0.32089674
36	0x3e9efaae	0.31050628
37	0xbe801b98	-0.25021052
38	0xbd5a9a8c	-0.053370044
39	0xbdb8cfc1	-0.09024001
40	0x3ca70f14	0.020392932
41	0xbe9377b0	-0.28802252
42	0xbce8ea94	-0.028432168
43	0xbe62ffc6	-0.22167882
44	0xbd7e4714	-0.062079504
45	0x3e2f93e9	0.17146267
46	0x3c88257a	0.016619433
47	0xbd315721	-0.043295983
48	0x3eb61466	0.35562438
49	0x3eaa159d	0.33219615

fc2.weight f4 [50, 50]
0	0xbe3919bd	-0.18076225
1	0x3c756cac	0.014979523
2	0xbd7b9999	-0.06142578
3	0xbda9d6ec	-0.08292946
4	0xbc98f265	-0.01867027
5	0xbca05c56	-0.01957528
6	0xbdb623d4	-0.088935524
7	0x3d8b5695	0.068036236
8	0x3e0d6908	0.13809597
9	0x3d2ca4a4	0.0421492
10	0xbd6b2a59	-0.057413433
11	0x3d54d793	0.0519634
12	0xbd322b13	-0.04349811
13	0xbcb57e37	-0.02215491
14	0xbdd35f73	-0.1032094
15	0x3dc67128	0.096895516
16	0xbd46ca79	-0.048532937
17	0xbd703c51	-0.058651272
18	0x3a80ff41	0.0009841697
19	0x3e0c32e8	0.13691294
20	0x3e09cb96	0.13456568
21	0xbdb69ae4	-0.08916262
22	0xbd6e019f	-0.058107015
23	0xbdcdb5ec	-0.100444645
24	0xbd115bae	-0.035487823
25	0xbd8821e2	-0.06647088
26	0xbd6f5982	-0.05843497
27	0x3e0bbfdc	0.13647407
28	0xbdb5bf49	-0.088743754
29	0xbd9daa45	-0.07698492
30	0x3d0ae1c4	0.033906713
31	0xbd53b649	-0.051687513
32	0x3da7f499	0.0820095
33	0x3d971daf	0.073787086
34	0x3c2b252e	0.010445876
35	0xbbcfaede	-0.0063379845
36	0x3c014e6c	0.007892232
37	0x3df3a074	0.118958384
38	0x3df1549c	0.11783716
39	0x3e07326d	0.1320283
40	0x3bea214c	0.0071450826
41	0xbe17688d	-0.14785977
42	0x3d6a42a6	0.057192467
43	0xbdf058c2	-0.11735679
44	0x3da7a7d4	0.081863075
45	0x3dc83c20	0.09777093
46	0x3dea2052	0.11431946
47	0xbdf2c615	-0.118541874
48	0x3d5fcade	0.05463683
49	0x3daa1a10	0.08305752
50	0x3defb19f	0.117038004
51	0xbcdfa2de	-0.02729934
52	0xbdc00025	-0.093750276
53	0x3de86b2f	0.11348569
54	0x3dff26c0	0.12458563
55	0x3cbdb94d	0.023159647
56	0x3d70e28a	0.058809794
57	0xbdc30eee	-0.09524332
58	0x3d93842b	0.072029434
59	0xbc7ff14e	-0.015621496
60	0xbc2e4a87	-0.010637886
61	0x3bc7ccd9	0.006097418
62	0x3ce4a3cb	0.027910134
63	0xbdf54958	-0.1197688
64	0x3d8f08f2	0.06984128
65	0x3d70e661	0.058813456
66	0x3e1a2a74	0.15055257
67	0xbda517dc	-0.080611914
68	0x3c8bee4a	0.017081399
69	0x3d992bea	0.07479079
70	0xbdf09666	-0.11747436
71	0x3d3fd7ae	0.046836548
72	0xbc888ce3	-0.016668743
73	0xbd288ece	-0.041151814
74	0xbdfee977	-0.12446874
75	0xbd647759	-0.05577788
76	0xbd1e4222	-0.038637288
77	0xbde449fa	-0.111469224
78	0x3dd79cdf	0.10527968
79	0xbc2ba7d2	-0.010477023
80	0xbdcdeb55	-0.10054652
81	0x3d37ecb5	0.044903476
82	0x3e06581d	0.1311955
83	0xbe2c9a79	-0.16855802
84	0x3c913756	0.017726582
85	0x3cef1206	0.029183399
86	0x3d1f4471	0.03888363
87	0xbd9d97ef	-0.07694995
88	0xbde91d10	-0.11382496
89	0x3e26d664	0.16292721
90	0xbdb324a6	-0.087472245
91	0xbe1f864e	-0.15578577
92	0xbe0a477e	-0.13503835
93	0xbbdee36e	-0.006802014
94	0xbd9a1e4c	-0.0752531
95	0x3ddf46d5	0.10902182
96	0x3d9b83aa	0.07593472
97	0x3d350e27	0.04420295
98	0x3cfd90ff	0.030952929
99	0x3dd66a21	0.10469461
100	0x3cb4156e	0.021982875
101	0xbd459dd5	-0.048246223
102	0x3d8dd2da	0.06924982
103	0xbdcdee3a	-0.10055204
104	0x3d8b9c85	0.06816963
105	0x3d6b9514	0.05751522
106	0xbd8c22d3	-0.0684258
107	0x3dd237ba	0.10264535
108	0x3e0e9ca3	0.1392694
109	0xbd77aeb6	-0.06046935
110	0x3dae5f6d	0.08514295
111	0xbbe154d3	-0.006876567
112	0x3d4395a3	0.047750127
113	0x3e2502f5	0.1611441
114	0x3ced9afd	0.029004568
115	0xbe067293	-0.13129644
116	0xbdec4833	-0.115372084
117	0xbe0586f6	-0.13039765
118	0x3db64ead	0.08901725
119	0x3d1693d8	0.03676209
120	0x3d43817c	0.047730908
121	0x3b65ba68	0.0035053734
122	0xbd553797	-0.052054968
123	0x3dd045ed	0.10169587
124	0xbbe22cb7	-0.006902303
125	0xbde97485	-0.113991775
126	0x3df5947d	0.119912125
127	0xbdf73cfa	-0.12072177
128	0xbceae239	-0.028672324
129	0xbdc2c3d7	-0.0951001
130	0xbe10540d	-0.14094563
131	0x3da24f17	0.079252414
132	0x3dbf6381	0.09345151
133	0xbe008c07	-0.12553416
134	0x3d5e128e	0.054216914
135	0xbd41032f	-0.047122177
136	0x3defcc66	0.11708908
137	0xbd9302c7	-0.07178264
138	0x3c7939c3	0.015211525
139	0xbd7b8c6e	-0.06141322
140	0x3c873704	0.016505726
141	0xbd936ccc	-0.07198486
142	0x3dfaa444	0.122383624
143	0xbd962d66	-0.07332878
144	0xbd802502	-0.06257059
145	0x3d9486de	0.072522864
146	0x3ae8de3c	0.0017766426
147	0xbc3c23ea	-0.011483172
148	0xbe17cc2a	-0.14823976
149	0xbafdb25b	-0.0019355522
150	0xbd647daa	-0.055783905
151	0x3d7c39c5	0.06157853
152	0x3dc6515c	0.09683487
153	0xbd36655b	-0.044530254
154	0x3d99fe9a	0.075192645
155	0x3d8a6d36	0.067591116
156	0x3dbb5be2	0.09148385
157	0x3d3cd293	0.046099257
158	0x3d4f7798	0.050651163
159	0xbc8a52f9	-0.016885268
160	0x3d14acef	0.036297735
161	0x3de240bf	0.110475056
162	0xbcf09554	-0.02936808
163	0xbd6a93a7	-0.05726972
164	0xbe0465eb	-0.12929504
165	0x3cf7e722	0.03026158
166	0x3c9fcf7e	0.01950812
167	0x3dd225a3	0.10261085
168	0x3de146d5	0.10999838
169	0xbe21e2ea	-0.15809217
170	0xbdea937a	-0.1145391
171	0xbe128756	-0.14309439
172	0x3ce2ed11	0.027700933
173	0x3c0c0b7b	0.008547659
174	0xbcdcfc73	-0.026975846
175	0x3d4d2e3f	0.05009293
176	0x3c0e183d	0.008672771
177	0x3d9b2a2e	0.075764045
178	0x3dbe1a62	0.09282376
179	0x3d9f98ff	0.077928536
180	0x3dc9c87c	0.098526925
181	0xbc7baf43	-0.01536161
182	0x3c409e87	0.011756546
183	0x3e098c48	0.1343242
184	0xbddd2f50	-0.1080004
185	0x3c473ef6	0.012161007
186	0x3de19fc8	0.11016804
187	0x3deefc4a	0.11669214
188	0xbcb11eb0	-0.021621078
189	0xbdbfde2d	-0.093685485
190	0x3d8c0a01	0.068378456
191	0x3c8c5ebf	0.017135022
192	0xbcdbae88	-0.026816621
193	0xbdc5cee9	-0.096586056
194	0x3db98689	0.09058864
195	0x3dad8ade	0.084737524
196	0x3c3601f0	0.01110886
197	0xbb9d8c52	-0.0048079873
198	0xbdb6d1fc	-0.0892677
199	0xbd76afc3	-0.060226213
200	0xbda93e68	-0.08263856
201	0xbdd1a4cf	-0.10236513
202	0x3c8e8888	0.017399088
203	0xbe0200be	-0.12695596
204	0x3d321e32	0.043485828
205	0x3c89e9bc	0.016835086
206	0x3d6acbd6	0.0573233
207	0x3dd61df4	0.10454932
208	0xbd828fcc	-0.06375083
209	0xbcdacea0	-0.026709855
210	0x3dbf75a5	0.09348611
211	0xbda12a31	-0.078693755
212	0x3d578c2a	0.052623905
213	0xbdab81b6	-0.0837435
214	0x3d179703	0.03700925
215	0xbcdddb7a	-0.027082194
216	0x3d4c3c6d	0.049862314
217	0x3da052a7	0.07828265
218	0x3dc9f462	0.098610654
219	0xbdedb4fd	-0.116067864
220	0xbcccefbb	-0.025016656
221	0xbd87227b	-0.065983735
222	0xbdfece45	-0.124416865
223	0x3d9b4489	0.075814314
224	0x3cea40ef	0.028595416
225	0xbc25f54c	-0.010129284
226	0x3df36d1b	0.118860446
227	0xbd80cab7	-0.06288665
228	0x3ce7b9f5	0.028286913
229	0x3d7ea1aa	0.062165894
230	0x3dfa6aa9	0.12227375
231	0xbdfa5d24	-0.122247964
232	0xbd4351af	-0.04768532
233	0xbe389abe	-0.1802778
234	0xbdf6a450	-0.12043059
235	0x3d058338	0.032595843
236	0xbdfc11f5	-0.123081125
237	0xbdcac11a	-0.099001125
238	0x3cc23406	0.023706447
239	0x3d41c051	0.047302548
240	0x3da0e415	0.07856003
241	0x3dfa69a7	0.12227183
242	0x3c8f6efc	0.017508976
243	0xbcd6cad3	-0.026219761
244	0x3d322727	0.04349437
245	0xbca3a349	-0.019975321
246	0x3e18a63f	0.14907168
247	0x3cafae91	0.021445544
248	0xbd92d1ca	-0.0716892
249	0x3d39b9b8	0.04534313
250	0x3cde6ae1	0.027150573
251	0x3dd03ce9	0.10167868
252	0xbdf59c73	-0.11992731
253	0x3db3a424	0.08771542
254	0x3d8d184a	0.068893984
255	0x3de9777a	0.113997415

fc2.bias f4 [50]
0	0xbdf93c43	-0.12169697
1	0x3db829df	0.08992361
2	0xbc0c2ffe	-0.008556364
3	0x3d0b6726	0.034033917
4	0x3e15560e	0.14583609
5	0xbdf1a522	-0.11799075
6	0x3df7144e	0.1206442
7	0xbde80326	-0.113287255
8	0xbde3c774	-0.11122027
9	0xbddeb41c	-0.10874197
10	0x3e09b870	0.13449264
11	0x3c8b7da3	0.017027682
12	0x3d1151a3	0.035478245
13	0x3d417ba9	0.047237072
14	0x3d1f547c	0.03889893
15	0x3ddea691	0.10871614
16	0x3d64faf5	0.055903394
17	0xbde04949	-0.10951478
18	0x3c8756ba	0.016520847
19	0x3de30010	0.11083996
20	0x3d43fdc8	0.047849447
21	0xbdbf7622	-0.09348704
22	0x3d86c3ea	0.065803364
23	0x3cda72db	0.026666095
24	0xbe126406	-0.14295968
25	0xbe0d96e6	-0.13827094
26	0xbc89e1f7	-0.016831381
27	0xbe0f99d3	-0.14023523
28	0x3cdeab6e	0.027181353
29	0xbb5037dc	-0.0031771576
30	0x3dfaaa2f	0.12239491
31	0xbd466ac5	-0.048441667
32	0xbdaf3449	-0.085548945
33	0xbc4057ef	-0.011739715
34	0x3d0fd3a4	0.035113946
35	0x3df4c5b2	0.1195177
36	0x3d0e3bcc	0.034724995
37	0xbda40a2a	-0.08009751
38	0xbe0b745f	-0.13618611
39	0xbddf41c0	-0.10901213
40	0xbcb918ce	-0.022594836
41	0xbda0da74	-0.078541666
42	0xbe076673	-0.13222675
43	0x3cc99c3d	0.024610633
44	0x3dc91493	0.09818377
45	0xbc5719a3	-0.013128671
46	0x3bae634f	0.005321897
47	0xbdb9e176	-0.090762064
48	0xbc1a7ad5	-0.0094286995
49	0xbe076dbf	-0.13225459

fc3.weight f4 [50, 50]
0	0xbe058250	-0.13037992
1	0x3dad483c	0.08461043
2	0xbdac180f	-0.08403026
3	0xbdd8984b	-0.105759226
4	0xbce9dea8	-0.028548554
5	0xbd43d810	-0.047813475
6	0x3df1f652	0.1181456
7	0xbdbccf34	-0.09219208
8	0xbd572271	-0.05252308
9	0x3d906de7	0.07052212
10	0x3e05d08f	0.1306784
11	0x3c3789ab	0.011202256
12	0xbd6a8c78	-0.057262868
13	0x3dc5ef2e	0.096647605
14	0x3e18c029	0.14917053
15	0x3d32bb79	0.04363582
16	0xbdcc67a3	-0.09980705
17	0x3cc43144	0.023949273
18	0x3de521b6	0.111880705
19	0xbe021778	-0.12704265
20	0x3d238d38	0.0399296
21	0xbdf0be1f	-0.11755013
22	0xbd5f189d	-0.054466832
23	0x3cec5542	0.028849248
24	0x3dd3eacd	0.10347519
25	0x3df6ab5a	0.120444015
26	0x3dbcab45	0.092123546
27	0x3cd2941c	0.02570539
28	0xbcca8b09	-0.0247245
29	0xbdb51078	-0.08841032
30	0xbd92eaaf	-0.071736686
31	0xbdf18ce5	-0.117944516
32	0x3d8739d9	0.066028304
33	0x3d26f2c1	0.040758852
34	0xbdd77d07	-0.10521894
35	0x3e03964b	0.12850301
36	0x3d1f941c	0.038959607
37	0xbdaaaf8d	-0.08334265
38	0xbde1ba8f	-0.11021911
39	0xbd8d5719	-0.06901378
40	0xbdea9304	-0.11453822
41	0xbdfc9c80	-0.123345375
42	0xbdc03d72	-0.0938672
43	0x3dbd561e	0.09244941
44	0x3dc0a13f	0.09405755
45	0xbd974798	-0.07386702
46	0xbd770dc1	-0.06031585
47	0x3dd7d66d	0.10538945
48	0x3e05fe23	0.13085227
49	0x3cac8d3d	0.021063441
50	0x3de69e14	0.1126062
51	0xbd0861c3	-0.033296358
52	0xbdf53a36	-0.119739935
53	0xbd598118	-0.05310163
54	0xbd83483d	-0.06410263
55	0x3e308d75	0.17241462
56	0x3e0609ca	0.13089672
57	0xbddf8aca	-0.10915144
58	0x3dfda83a	0.12385602
59	0xbdee4141	-0.1163354
60	0xbd8ebbe3	-0.0696943
61	0x3e285aa1	0.16440822
62	0x3db34613	0.087536
63	0x3d30c1b1	0.04315347
64	0xbda2f481	-0.07956792
65	0xbd97d31c	-0.07413313
66	0xbd838de0	-0.06423545
67	0xbd2257a1	-0.03963435
68	0x3d4eaea9	0.050459538
69	0xbd6a6387	-0.057223823
70	0xbd97a58c	-0.074046224
71	0xbd4d033e	-0.05005192
72	0x3c9f1587	0.019419445
73	0xbd519b1b	-0.05117331
74	0xbd884efb	-0.06655689
75	0xbd9ac7d2	-0.07557644
76	0x3d9efbc4	0.07762864
77	0xbccd06e9	-0.02502771
78	0xbd103fe2	-0.035217173
79	0x3d14d7c1	0.03633857
80	0x3bd71573	0.0065638362
81	0x3db75761	0.08952213
82	0x3e165c72	0.14683703
83	0x3db60194	0.0888702
84	0xbdbed421	-0.09317804
85	0x3d7d218d	0.061799575
86	0xbdec4835	-0.1153721
87	0x3d88dc1b	0.06682607
88	0x3d05fb18	0.032710165
89	0x3bfc9c0a	0.007709031
90	0xbc9e9d9a	-0.01936226
91	0x3d83d3b3	0.06436863
92	0xbcfa7400	-0.030572891
93	0xbd589120	-0.052872777
94	0xbd335346	-0.043780588
95	0xbd4aafea	-0.04948417
96	0x3d9a5bce	0.075370416
97	0x3dbced39	0.09224934
98	0x3e028e33	0.12749557
99	0x3d7e62c8	0.062105924
100	0x3df9d3f7	0.12198632
101	0x3d8d57c6	0.06901507
102	0x3df946e6	0.12171726
103	0x3cf4c40c	0.029878639
104	0xbbf84124	-0.0075761247
105	0xbd9fc17a	-0.078005746
106	0x3e08a6a5	0.1334482
107	0xbdee2e12	-0.11629881
108	0x3d7f4461	0.06232107
109	0xbdf51813	-0.119674824
110	0xbd8b8223	-0.06811931
111	0x3d97b0f9	0.07406802
112	0xbe025218	-0.12726629
113	0x3b870d6c	0.004121473
114	0xbc8af8fb	-0.016964426
115	0x3dd90ab2	0.10597743
116	0x3e094ec2	0.1340895
117	0xbe2e6ed4	-0.17034465
118	0x3ddff762	0.109358564
119	0xbd9d6520	-0.07685304
120	0x3cf0f6c7	0.029414548
121	0x3de999ec	0.114063114
122	0xbd1b5386	-0.03792145
123	0x3dc89248	0.09793526
124	0x3c0f10c9	0.008732029
125	0x3dd732f3	0.10507765
126	0xbca8d0fc	-0.020607464
127	0x3dde77ca	0.10862692
128	0x3e387383	0.18012814
129	0xbdfc917b	-0.12332436
130	0x3d89596b	0.06706508
131	0xbe0d7ba0	-0.1381669
132	0x3db6a068	0.08917314
133	0x3d94558e	0.07242881
134	0xbd4960cb	-0.049164575
135	0xbdae270e	-0.08503543
136	0xbd8064cd	-0.06269226
137	0xbd08a5b0	-0.033361137
138	0xbdb50f2f	-0.08840787
139	0x3d863ce1	0.065545805
140	0x3d9ff161	0.07809711
141	0xbbd8430f	-0.006599791
142	0xbe1a1ab8	-0.15049255
143	0x3ddfb80e	0.109237775
144	0x3daf58b9	0.085618444
145	0x3dcceecd	0.10006485
146	0x3dc18510	0.09449208
147	0x3c6fa0ea	0.014625767
148	0x3d627f0f	0.055296954
149	0xbdbba38e	-0.09162055
150	0x3dcfcb7c	0.101462334
151	0x3d15bdc6	0.036557935
152	0x3cd702ac	0.026246391
153	0xbc5160a6	-0.01277939
154	0xbd2a6df4	-0.041608766
155	0x3cff2dea	0.031149823
156	0x3d9df983	0.07713606
157	0x3bcb8be4	0.0062117446
158	0x3d97ee58	0.07418507
159	0x3e09b4e6	0.13447914
160	0xbd0f1df3	-0.03494067
161	0xbd8480d8	-0.064698875
162	0xbdc68d5b	-0.0969493
163	0x3ad2f8e3	0.0016095903
164	0x3bc24298	0.0059283487
165	0x3dcb2584	0.09919265
166	0x3de5498c	0.111956686
167	0xbe1287a5	-0.14309557
168	0x3cc9ca80	0.024632692
169	0x3ddf474a	0.10902269
170	0x3bda2fb8	0.0066585205
171	0xbc01d8c6	-0.007925218
172	0xbd325f46	-0.04354789
173	0xbd895222	-0.06705119
174	0x3e3500d0	0.17676091
175	0xbcdabeeb	-0.026702365
176	0x3dd636e7	0.104596905
177	0xbe051c4d	-0.12999077
178	0x3e0b59aa	0.13608423
179	0xbdf438f8	-0.119249284
180	0xbe175f9f	-0.1478257
181	0xbd0a4fc9	-0.033767495
182	0xbc0b3fa0	-0.008499056
183	0xbba2476f	-0.004952363
184	0x3c9257df	0.017864166
185	0x3e284204	0.16431433
186	0x3cc377b3	0.023860788
187	0xbd0a97d8	-0.033836216
188	0xbde8e9e4	-0.11372736
189	0x3d78d460	0.06074941
190	0x3d16c325	0.036807198
191	0xbc0c2eea	-0.008556107
192	0xbd34faef	-0.04418462
193	0x3ca539d5	0.020169178
194	0xbd09e5b3	-0.033666324
195	0x3d4e4bfe	0.05036544
196	0xbe0e7000	-0.13909912
197	0x3c9e1bff	0.019300459
198	0xbdb2f871	-0.08738793
199	0xbe0405b0	-0.12892795
200	0xba62404e	-0.0008630798
201	0x3d24515e	0.04011666
202	0x3b606f86	0.003424616
203	0x3de1951f	0.11014771
204	0xbdcaf61c	-0.09910223
205	0x3dae3524	0.085062295
206	0xbdc03940	-0.093859196
207	0xbcd9398c	-0.026516698
208	0x3d0e5350	0.03474742
209	0xbdb8375f	-0.08994936
210	0xbd97fc28	-0.07421142
211	0x3da27949	0.079332896
212	0x3de248c2	0.11049034
213	0x3dc9bb69	0.09850199
214	0x3dbfc049	0.09362847
215	0xbdfcf824	-0.123520166
216	0x3de51881	0.111863144
217	0xbd8b5695	-0.068036236
218	0x3ccd315e	0.025047954
219	0xbdc7056b	-0.0971783
220	0xbdfd0db0	-0.12356126
221	0xbc90a5b0	-0.017657131
222	0x3e193076	0.14959893
223	0x3d79d654	0.060995415
224	0xbd8a194c	-0.06743106
225	0xbdef8739	-0.116957135
226	0x3d208122	0.03918565
227	0xbca6cd90	-0.020361692
228	0x3e179bd5	0.14805539
229	0xbdc8344a	-0.09775598
230	0xbdb560ee	-0.088563785
231	0xbdeaf4a4	-0.11472443
232	0x3b927954	0.00447003
233	0x3d3e257c	0.046422467
234	0x3d35d69a	0.044394113
235	0x3cd2bf22	0.025725905
236	0xbdd808f9	-0.105485864
237	0xbdc69b64	-0.09697607
238	0xbdfb7cbe	-0.12279652
239	0xbd801eb3	-0.062558554
240	0xbdf687b3	-0.12037601
241	0x3e06abac	0.13151425
242	0xbd9da523	-0.07697513
243	0xbd5b9945	-0.053612966
244	0x3bb804d9	0.0056158123
245	0x3d1d70de	0.038437717
246	0xbd7f7642	-0.06236864
247	0xbd939752	-0.072065964
248	0x3bf8ad80	0.007589042
249	0xbd5b79f9	-0.05358312
250	0x3cf3c80d	0.029758478
251	0x3d71cf2e	0.059035473
252	0x3dbaccd1	0.09121097
253	0xbe0e01bf	-0.13867854
254	0xbd968fca	-0.07351644
255	0x3dd67340	0.10471201

fc3.bias f4 [50]
0	0x3c665700	0.014058828
1	0x3d801ae9	0.06255133
2	0xbd677deb	-0.05651657
3	0xbda6554a	-0.08121736
4	0x3cf28539	0.029604541
5	0x3dcbe6b8	0.099561155
6	0xbd752ec1	-0.05985904
7	0x3be9f336	0.0071395887
8	0x3de9a241	0.114079006
9	0xbddc9dac	-0.10772261
10	0xbd878bf7	-0.06618493
11	0xbc8928ca	-0.016743083
12	0xbdaa3e54	-0.083126694
13	0x3dedce2a	0.11611588
14	0xbcf0c004	-0.029388435
15	0x3de7ba4a	0.11314829
16	0xbdf60e4c	-0.12014446
17	0x3ca2ccd6	0.019873064
18	0x3d6f4158	0.058411926
19	0x3dc6da5e	0.09709619
20	0x3d3c4d36	0.04597207
21	0xbde409db	-0.11134692
22	0x3c721484	0.014775399
23	0x3df5d934	0.12004319
24	0x3e3b1268	0.1826874
25	0x3e109069	0.14117588
26	0x3cf16c76	0.029470664
27	0xbd8f552b	-0.069986664
28	0x3e0e6441	0.13905431
29	0x3ca06241	0.019578101
30	0x3da8f572	0.0824994
31	0xbdde689a	-0.10859795
32	0x3cb78867	0.022403909
33	0xbc35f117	-0.011104844
34	0x3d92e01d	0.071716525
35	0x3d2fe46b	0.042942446
36	0x3d289443	0.04115702
37	0xbda191b7	-0.07889121
38	0xbd9bf68e	-0.07615386
39	0x3e368796	0.1782516
40	0xbd2a9e70	-0.041655004
41	0x399cea82	0.0002992936
42	0x3dc4102e	0.095733985
43	0x3d8288dd	0.06373761
44	0x3d56058f	0.052251395
45	0xbdfa350d	-0.1221715
46	0x3d92c951	0.07167304
47	0xbd71b06a	-0.059006132
48	0xbddb3b73	-0.107046984
49	0xbd1c45f9	-0.03815267
