checkpointing_test/sigmoid_example_s12345/models/eval_checkpoint_checkpoint_500.pt (torch, 95431 bytes, 24 tensors)

fc1.weight f4 [50, 7]
000000 d0 d2 e0 be 4b 76 6c 3d 09 ee 96 be 8d 99 ba 3e
       -0.43910837 0.05773 -0.2947848 0.36445275
000010 99 7b 23 be 25 26 4b 3e 7e eb 17 be b2 57 dc 3d
       -0.15965118 0.1983877 -0.14835927 0.10758914
000020 e1 3e a6 be 86 1f 0c 3e 9d f0 b0 3e 9c 64 f4 3d
       -0.32469848 0.136839 0.34558573 0.11933252
000030 39 85 d7 3e 79 db 71 be f1 75 5f be d2 22 25 be
       0.42093828 -0.23618878 -0.21822335 -0.16126564
000040 8b c9 aa be cd b4 0a 3e 3b 59 a6 3e ae 5f 4f 3e
       -0.3335689 0.13545533 0.32489952 0.20251343
000050 c3 bc e8 bd 7f bb 43 3c 9b 78 5a 3e 2b cc d0 3d
       -0.113641284 0.011946558 0.2133507 0.10195192
000060 16 d3 c1 3e 24 e0 bc bd 0e d2 8e 3e a7 6e 7c 3e
       0.37856358 -0.09222439 0.27894634 0.24651586
000070 6a eb ad 3e 6f 1c a8 3e 56 55 0b be 0e c6 89 be
       0.3396867 0.32834193 -0.13606772 -0.26908916
000080 74 fe 86 be cd 59 8a be ea 35 70 3e 42 06 57 be
       -0.26366007 -0.27021638 0.23458067 -0.20998481
000090 eb 16 68 3e f9 6d 7a be d0 0a 04 3c 4e 9d bd be
       0.22664993 -0.24456014 0.0080592185 -0.37034076
0000a0 e7 7d 46 3e 98 0f f4 bd 19 d6 d2 3d f4 72 84 3e
       0.19383965 -0.11917037 0.10294742 0.25868952
0000b0 07 36 13 be 38 cf 94 3e 05 7f 27 3e 17 ed 72 3e
       -0.14376079 0.29064345 0.16357048 0.23723255
0000c0 d1 78 23 3e 9e 16 8c 3e 7e 3d 76 3d 5e 3c f4 bd
       0.15964057 0.27361006 0.060117237 -0.119255766
0000d0 5a d1 55 be bd 86 54 3e 28 56 ab 3c 14 7a 4b 3e
       -0.20880643 0.20754524 0.020915106 0.19870788
0000e0 7d ae 78 3e 69 4a 0c bd 3a 70 75 bc 08 f5 0d bc
       0.24285312 -0.03425065 -0.01498037 -0.008664377
0000f0 e9 f5 bb 3e 04 40 a3 be 01 6a a4 3e 73 31 a7 bc
       0.36711052 -0.31884778 0.32112125 -0.020409321
000100 52 cb 46 3d fe 63 8c 3e e3 b9 88 be 30 96 a1 be
       0.048533745 0.27420038 -0.2670432 -0.31559896
000110 4b cf b4 3e 80 fb 3f be c2 57 ab 3c 01 12 b9 3e
       0.35314402 -0.18748283 0.02091587 0.36146548
000120 f6 e7 e8 bd 1d 31 36 3d 55 52 8d 3e 27 c8 86 be
       -0.11372368 0.04448043 0.27601877 -0.2632458
000130 ad a7 97 be 42 ec d7 3b 7b c9 1e 3e f7 28 63 3d
       -0.29620114 0.0065894434 0.15506546 0.05545899
000140 75 8a 8a be ae e0 66 be d6 0d bb be 46 eb 42 3d
       -0.2705876 -0.22546646 -0.36533993 0.047587655
000150 3c 24 2f be 9a 3c 79 be df 7a a8 3e 7a 78 7d be
       -0.17103666 -0.24339524 0.32906243 -0.2475299
000160 3c 1d 54 bd b5 96 10 be 99 fc 8a 3e 39 fb 7d be
       -0.051785693 -0.1411999 0.27145842 -0.24802865
000170 cb c8 41 3e ac 8e de 3d 43 6d 55 3e 0c d2 f6 3c
       0.18924253 0.10867056 0.20842461 0.030129455
000180 fa e4 cc bd 47 57 26 be cc 17 45 3e 9b ab d3 3d
       -0.10004611 -0.16244231 0.19247359 0.103354655
000190 ca 47 50 3e 24 c3 03 be 0a f3 b5 bd 35 f5 75 be
       0.20339885 -0.12867409 -0.08884247 -0.2401932
0001a0 03 e0 10 be c5 46 23 bb 1a 98 6b be 66 b8 29 3e
       -0.14147954 -0.0024914008 -0.23007241 0.16574249
0001b0 a5 ab 82 bd 71 bd a6 be 1f f6 dd 3e d1 ff 94 be
       -0.06380395 -0.32566407 0.43351838 -0.29101422
0001c0 c7 36 c5 be fe 8d c3 3c 17 16 52 bd f1 c8 c2 3d
       -0.38518354 0.023871418 -0.051290598 0.09510983
0001d0 57 b0 f4 bd 61 dd 86 3b af 80 a7 3e 8f 9b 7e be
       -0.11947697 0.004115746 0.32715365 -0.24864028
0001e0 12 e6 a5 3e 6a bd c7 be 57 8f 9a 3d 67 96 b1 3e
       0.32402092 -0.390117 0.07546871 0.3468506
0001f0 fe a4 c5 bc 74 48 dc bd b3 5b f7 be ec 43 19 3c
       -0.024126526 -0.10756007 -0.48312148 0.009354573
000200 d8 04 0c 3e 86 b2 64 3e c4 55 45 be 7e 6d 31 be
       0.13673723 0.22333726 -0.19270998 -0.17326924
000210 50 4f 9c 3e c0 6f ab bd da 8e b2 be c4 78 8c be
       0.3052926 -0.08370924 -0.34874612 -0.27435887
000220 fc b6 cc 3e 5d a3 2c 3d 0f c6 82 bd 3b 8d 5d be
       0.39983356 0.042147983 -0.06385433 -0.21635906
000230 e1 23 33 3e cf 68 a5 be c9 fd 42 3e 42 8d 8a 3e
       0.17494155 -0.32306525 0.19042124 0.27060896
000240 a3 59 a6 3e 06 ae 57 bd 87 a2 f1 3d df e6 bd 3e
       0.32490262 -0.052656196 0.11798578 0.37090203
000250 a0 d7 2d be 44 17 8b be bb 09 80 be dc ab dc bd
       -0.16976786 -0.27166188 -0.25007424 -0.10774967
000260 76 8d 87 3e 03 d2 5d 3e f8 86 b7 3e bc e7 56 3d
       0.26475114 0.21662144 0.3584516 0.052467093
000270 fe a9 82 3e ca a5 82 be 26 a8 70 be c1 66 e3 3d
       0.2552032 -0.25517112 -0.23501644 0.11103583
000280 30 6e e1 bd ca 9b 5b 3d 7c bd 6a 3d 2f 35 ed 3c
       -0.11007345 0.05361537 0.057309613 0.028956024
000290 a8 66 6b bb 12 f2 0b bd ee 5e 15 be 3b 09 ae 3e
       -0.0035919342 -0.034166403 -0.14586994 0.33991417
0002a0 4e ed 74 be 98 7d 40 3e 21 e5 3b 3e ba f9 87 bd
       -0.2391865 0.1879791 0.18349124 -0.066394284
0002b0 0f 9f c7 bd 96 4e 8e 3e 05 48 91 3e 67 54 5f bd
       -0.09747135 0.2779433 0.2837526 -0.05452385
0002c0 8c 4e 51 be 4f d9 63 be b5 bf 5c bd ff 00 9e be
       -0.2044012 -0.22250865 -0.053893764 -0.30860135
0002d0 16 84 49 3e 0e 42 0a 3e 19 8f 84 3e 43 79 98 be
       0.19679293 0.1350176 0.25890425 -0.29780015
0002e0 90 2c 1d 3e e3 cc 9a be 7d 52 bc 3e 33 a0 7d bd
       0.1534903 -0.3023444 0.36781684 -0.061920356
0002f0 f4 be ab 3e 05 37 06 be a2 02 41 be 44 b9 c2 bd
       0.33544123 -0.13106926 -0.1884866 -0.09507993
000300 75 0f 5c be 0c 48 db 3e f2 d9 d0 3e 08 82 c4 bd
       -0.21490271 0.42828405 0.4079128 -0.09595114
000310 fe 64 32 be 1c 2d 18 bd 1c 08 b6 3d 8e 82 3a be
       -0.17421338 -0.037152395 0.088882655 -0.18213865
000320 f7 f8 8e 3e b4 24 92 bc 81 dd b1 3e ec 45 e6 3d
       0.2792432 -0.017839767 0.34739307 0.11243805
000330 1d 0a 8c be 43 39 74 3e 14 27 30 3d 89 bc d6 be
       -0.27351466 0.23849969 0.043006018 -0.41940716
000340 e2 98 8e 3e af ac 8e be 77 6c 2a 3e 90 84 2b bc
       0.27851015 -0.27866122 0.16642939 -0.010468617
000350 ac c6 22 bd 01 a1 08 be a2 f9 a9 3d 8a e1 81 3e
       -0.03974025 -0.13342668 0.08299567 0.25367385
000360 c0 37 79 be f5 9e d0 3d f7 a4 a8 3d 98 99 2b 3e
       -0.24337673 0.10186569 0.082345895 0.1675781
000370 e4 ac 34 bd e6 ff 3a bd 0d ef 21 be f5 35 8f bd
       -0.044110194 -0.0456542 -0.15813847 -0.06992713
000380 15 0d 25 3e 11 f8 ab 3d 43 de 90 3e 7a 1b 1b be
       0.16118272 0.08396924 0.28294572 -0.151472
000390 b2 74 9e 3e 01 16 5b bd 9b 16 16 bd 2e 80 01 bf
       0.30948406 -0.05348778 -0.036642652 -0.5058621
0003a0 7f 97 cc bd e2 38 1c be 97 a5 c7 3e 1f 94 80 3e
       -0.09989833 -0.15256074 0.38993523 0.25113007
0003b0 9e ee 61 3e 70 25 27 be b9 a5 fa 3d 32 73 c6 bd
       0.22063681 -0.16322875 0.1223864 -0.096899405
0003c0 e4 91 88 be 00 23 28 3e 25 45 72 3e 90 ea 5f be
       -0.26673806 0.16419601 0.23659189 -0.21866822
0003d0 c3 7b b3 3e e6 76 02 be df 68 63 3e 0e 2a 57 3d
       0.3505536 -0.12740669 0.22207974 0.05253034
0003e0 ee e5 9d be 86 0c 4d 3e 4a 93 b5 3e 8e d0 7f 3e
       -0.30839485 0.20024309 0.35463935 0.24981901
0003f0 20 37 32 be 76 2f 5a be 10 8b 55 3e 9b df a4 be
       -0.17403841 -0.21307167 0.2085383 -0.32201847

fc1.bias f4 [50]
000000 c4 87 71 be 23 f0 94 be a2 1c 45 3e 56 2e a5 bd
       -0.23586947 -0.2908946 0.19249204 -0.080654785
000010 be 2d 82 3e 0a 6a 6f bc d1 14 49 3d ab 51 a5 3e
       0.25425524 -0.014612684 0.049092118 0.3228887
000020 fe 7d 81 be 9f fb a0 3e ec 70 b1 3c de de e8 3e
       -0.25291437 0.31441972 0.02166029 0.45482534
000030 6f 50 6f bb d9 c4 be 3e 09 8b 91 3e 1b ed 64 bd
       -0.0036516448 0.37259558 0.28426388 -0.055890184
000040 41 22 d6 3d 71 af 22 3e 50 13 18 3e e2 6e 7a 3e
       0.10455752 0.15887238 0.14851117 0.24456361
000050 9e 90 17 3e 13 06 0e be fe cd a7 3d 86 5c 98 3e
       0.14801261 -0.13869505 0.08193587 0.2975809
000060 00 da eb 3d 4c 1c b4 bd c2 03 88 be 5f f7 58 be
       0.115161896 -0.0879446 -0.26565367 -0.21188115
000070 14 7c ad 3e 0a 8c 09 3c a2 54 92 be 76 1f 2a be
       0.33883727 0.008395204 -0.28580195 -0.16613564
000080 3b 83 d7 3c d7 d1 a1 3e 77 72 b7 be 6d 51 a9 be
       0.026307693 0.31605408 -0.35829517 -0.33069935
000090 2e c8 a1 3e 5d d0 7a be cd 4c 96 bd 58 50 48 bd
       0.31598037 -0.24493547 -0.07338867 -0.048904747
0000a0 39 50 8d 3c c0 21 8f be 5a 59 a1 bc e7 4f 5c be
       0.017250167 -0.27955437 -0.019695926 -0.21514855
0000b0 23 96 2a bd 36 06 1f 3e 0c cb 37 3d 18 2a 3a bd
       -0.041647088 0.15529713 0.044871375 -0.0454503
0000c0 b6 e0 b0 3e 29 87 b5 3e
       0.3454644 0.35454682

fc2.weight f4 [50, 50]
000000 2f ea 8a be fc b6 2b 3d 9c 86 21 bd a1 02 9b bd
       -0.27131793 0.041922554 -0.039435014 -0.07568861
000010 31 ef a3 bc 71 0c a7 bc 9b 34 a2 bd 7a b7 a4 3d
       -0.020011516 -0.020391675 -0.0792019 0.08042808
000020 9e e8 17 3e f0 82 46 3c 77 c8 44 bd 18 3f 48 3c
       0.1483483 0.012116179 -0.04804274 0.012222074
000030 61 60 69 bd a6 35 3d bd 6c 1d e0 bd 0a 92 97 3d
       -0.05697668 -0.04619374 -0.10943112 0.074009016
000040 86 e2 01 be c6 c9 52 bd e1 a9 9a bd 4d c5 35 3e
       -0.12684068 -0.051461957 -0.07551933 0.17751046
000050 47 46 1a 3e 5a 21 96 bd 54 a6 7e bd 98 74 ce bd
       0.15065871 -0.0733058 -0.06217034 -0.10080832
000060 4e db 3f bd 63 e8 6b bd e6 3a 57 bd ce 08 35 3e
       -0.046840005 -0.057594668 -0.052546404 0.1767914
000070 33 d5 b7 bd 49 4c ef bd e9 20 27 3d 81 32 79 bd
       -0.089762114 -0.11684472 0.04080287 -0.06083918
000080 02 e0 ba 3d 3a 32 81 3d 11 3a aa 3c 8c 3d f9 bb
       0.09124757 0.06308408 0.020779641 -0.007606214
000090 f0 1e 0c 3c 66 c3 06 3e f3 92 d2 3d 44 44 07 3e
       0.008552298 0.13160476 0.102819346 0.13209635
0000a0 48 9d 24 3c f2 67 31 be 5d e6 72 3d fa 94 e4 bd
       0.010047264 -0.17324808 0.059301723 -0.111612275
0000b0 7b 0a ca 3d ee 3f a8 3d 45 01 f8 3d 76 4a f3 bd
       0.0986528 0.082153186 0.12109617 -0.11879437
0000c0 29 a7 4f 3d 58 9a bb 3d 0b 65 ec 3d f3 45 0d bc
       0.050696526 0.09160298 0.1154271 -0.008622634
0000d0 93 be c1 bd 5e 90 ec 3d d3 c5 03 3e cf 07 2d 3d
       -0.09460177 0.11550973 0.12868433 0.042243775
0000e0 bd dc 85 3d c8 a6 bd bd 10 6f 92 3d 14 7b 01 bd
       0.06536243 -0.092603266 0.0715009 -0.031611517
0000f0 2b 59 16 bc df 8e 83 bc a1 59 fe bc 83 c4 fc bd
       -0.009176533 -0.016059337 -0.031048598 -0.12342169
000100 83 aa 97 3d 29 e5 99 3d 61 37 2c 3e 25 ff 9e bd
       0.074055694 0.07514412 0.16818 -0.07763509
000110 34 a9 80 3c 09 7e 9d 3d ed f9 ec bd de 01 83 3d
       0.015705682 0.07690055 -0.11571107 0.063968405
000120 cc a9 b1 bc b8 37 1c bd 9c cb 0d be 71 78 c2 bc
       -0.02168741 -0.038139075 -0.13847202 -0.023739072
000130 fc 98 2d bd 5b c9 dd bd 4f 98 c1 3d 14 f1 c8 3b
       -0.042382225 -0.10829421 0.09452879 0.0061322544
000140 a5 5b d1 bd 9e 51 48 3d b4 b9 07 3e c6 99 71 be
       -0.10222558 0.04890596 0.13254434 -0.23593816
000150 2a 75 d6 3c ab 51 bd 3c 2c 98 14 3d a2 48 a2 bd
       0.026178915 0.023110231 0.036277935 -0.0792401
000160 47 dc 09 be 64 ac 63 3e 05 27 cb bd 62 b1 20 be
       -0.13462935 0.2223373 -0.09919552 -0.15692666
000170 92 ae 10 be 01 a9 a0 3b 5a 0a 4d bd d4 31 bc 3d
       -0.14129093 0.0049029593 -0.0500587 0.091891915
000180 36 79 00 3e 30 11 28 3d bc 99 09 3d 41 7c df 3d
       0.12546238 0.041032016 0.03359388 0.109123714
000190 82 0e a1 3c e9 7d 39 bd b1 6a 95 3d 7f e6 dc bd
       0.019660238 -0.045286093 0.072957404 -0.10786151
0001a0 3d fb 81 3d 49 50 1f 3d 9f 74 90 bd 5c 28 d4 3d
       0.06346748 0.038894925 -0.07053494 0.103592604
0001b0 17 4e 11 3e 7c 4d 96 bd dd 23 bd 3d 20 f2 04 3c
       0.14189945 -0.07338998 0.09235356 0.008114368
0001c0 10 b9 fc 3c a5 40 2b 3e fb 1c b7 3c 0c 8c 48 be
       0.030849963 0.16723879 0.022352686 -0.19584674
0001d0 cf c3 fe bd ad 14 05 be ee 43 c4 3d 93 07 86 3d
       -0.12439691 -0.12996168 0.09583269 0.065444134
0001e0 07 5e 52 3d 1a 54 29 3c 05 3f 6c bd 22 a7 ca 3d
       0.051359203 0.010334993 -0.057677288 0.09895159
0001f0 98 67 3d bc 6c 8b b8 bd 01 7e fa 3d ac 06 ed bd
       -0.011560343 -0.090109676 0.122310646 -0.11573538
000200 54 13 f6 bc ea db ef bd 01 fe 10 be 7f 59 92 3d
       -0.030038513 -0.11711867 -0.14159395 0.07145976
000210 7e 03 c3 3d 33 d8 f3 bd 00 3f 76 3d 92 bb 58 bd
       0.095221505 -0.11906471 0.060118675 -0.052913256
000220 59 0f f5 3d b5 59 95 bd c2 bf d1 3b 9e 1e 15 bd
       0.11965818 -0.07292501 0.006401033 -0.036406152
000230 16 64 5f 3c 2d bb 8d bd 7d 47 fd 3d 44 85 89 bd
       0.013634702 -0.069204666 0.12367151 -0.067148715
000240 d7 68 72 bd 3d b2 7f 3d b6 a6 29 3d c0 5d 61 bc
       -0.059182014 0.06242584 0.041418754 -0.013755262
000250 53 82 20 be a3 df 93 ba a1 8f c1 bd f0 7e 34 3d
       -0.15674715 -0.0011281859 -0.09451223 0.04406637
000260 0e 21 b2 3d 9f 7a 2c bd c7 f5 b5 3d c0 e0 4e 3d
       0.08697711 -0.042109128 0.08884769 0.050507307
000270 70 e9 c7 3d 69 e2 40 3d c8 29 63 3d 4c d8 3f bd
       0.097613215 0.04709092 0.055459768 -0.046837136
000280 64 e8 21 3d 21 b3 b4 3d 68 2f 10 bd cf fb 8b bd
       0.039528266 0.088232286 -0.03520146 -0.06835138
000290 f7 c7 0f be d5 c8 55 3c a2 7e be bb 72 17 c6 3d
       -0.14041124 0.01304837 -0.0058134357 0.096724406
0002a0 f8 e2 b7 3d d7 4a 45 be af 9e eb bd 0c 57 1d be
       0.08978838 -0.1926683 -0.11504876 -0.15365237
0002b0 6b 95 d6 3c 04 ce 53 3c 54 81 f4 bc 19 98 05 3d
       0.026194295 0.012927536 -0.029846825 0.032615755
0002c0 c8 c9 51 3c af 24 23 3d b9 06 c1 3d db 0c 68 3d
       0.012804456 0.039829906 0.0942511 0.056652885
0002d0 fc 9c c9 3d 97 b3 c5 bc 92 b6 62 3c 78 12 03 3e
       0.098443955 -0.024133487 0.0138374735 0.12800014
0002e0 22 02 da bd 1a e3 3d 3c 8f dc dc 3d 36 ba ec 3d
       -0.10644938 0.01158979 0.10784256 0.115589544
0002f0 55 7d b8 bc 56 75 c3 bd ce c7 89 3d 4e 60 64 3c
       -0.0225207 -0.095438644 0.06727563 0.013938976
000300 d7 8f fc bc 74 c7 de bd c4 04 b7 3d c1 60 89 3d
       -0.030830307 -0.108778864 0.08936456 0.067079075
000310 06 78 14 bd b6 25 e9 b9 58 4a c0 bd 01 68 6f bd
       -0.036247276 -0.0004446932 -0.0938918 -0.058448795
000320 0f b0 ad bd 13 2f 00 be 3a f1 ae bb a4 06 f2 bd
       -0.08480846 -0.12517957 -0.005338815 -0.11817673
000330 4f 55 50 3d d3 9d 16 3d e7 e4 89 3d dd ac e5 3d
       0.050862607 0.036771607 0.06733113 0.11214612
000340 17 62 81 bd 24 62 2f bd 09 70 cf 3d b6 ad 65 bd
       -0.06317537 -0.042818204 0.10128791 -0.056073867
000350 96 75 8c 3c 79 14 73 bd e0 0f 25 3d 7d ab 1c bb
       0.017145913 -0.059345696 0.040298343 -0.0023905926
000360 32 34 59 3d f1 60 a5 3d 29 db c2 3d 6c a6 1e be
       0.053028293 0.08075131 0.09514458 -0.15493172
000370 e8 96 83 bc 86 f1 4f bd 92 81 02 be bf e3 ad 3d
       -0.016063169 -0.050767444 -0.1274474 0.08490705
000380 3b 63 36 3d 87 aa a5 bc b9 92 fc 3d b1 f0 70 bd
       0.044528227 -0.020222915 0.123326726 -0.05882329
000390 4a c3 25 3d 38 ab af 3d 84 5f 03 3e 83 55 fd bd
       0.040469445 0.08577579 0.12829405 -0.12369826
0003a0 90 54 43 bd b2 9d 78 be 36 9e f5 bd 1a ce 1a 3d
       -0.047688067 -0.24278906 -0.11993067 0.03779421
0003b0 90 2c fc bd 73 cc cc bd 08 7f 3b 3d 13 82 68 3d
       -0.12313187 -0.09999933 0.045775443 0.056764673
0003c0 5c 3f 9d 3d 2a f5 0f 3e 37 a8 ca 3c 43 62 c4 bc
       0.076781005 0.14058366 0.024738414 -0.023972636
0003d0 18 5d 55 3d 71 c8 89 bd af 15 75 3e 0d d1 f0 3c
       0.052090734 -0.06727684 0.23934053 0.029396558
0003e0 f1 f8 8c bd db 38 52 3d 89 8f c6 3b 9e 01 f7 3d
       -0.06883419 0.051323753 0.006059591 0.12060855
0003f0 50 96 18 be 1a dd b3 3d b2 51 76 3d 50 4b cb 3d
       -0.1490109 0.08782406 0.060136504 0.09926474

fc2.bias f4 [50]
000000 23 e6 db bd 57 d1 e2 3d 91 95 b9 bb e6 88 ea 3c
       -0.107372545 0.11075085 -0.0056635817 0.028629731
000010 38 03 33 3e d2 6a fc bd 4d ea 15 3e cf 32 eb bd
       0.17481697 -0.12325062 0.1464016 -0.114843
000020 a0 ae bb bd 63 a1 03 be dc d7 15 3e 3d d7 90 3d
       -0.091641665 -0.12854533 0.14633125 0.070723034
000030 28 e5 0d 3d 65 ff 44 3d cd ad af 3d 3d 93 07 3e
       0.03464237 0.048095126 0.08578072 0.1323976
000040 b0 c9 5c 3d fe 60 08 be f9 f6 35 3d d7 b9 04 3e
       0.05390328 -0.1331825 0.044424985 0.12961517
000050 32 8e 3c 3d b8 50 b5 bd bd 48 9c 3d 9c 94 27 3d
       0.046034046 -0.088532865 0.07631061 0.04091321
000060 4e 6f 0f be 9a cf 0f be 08 12 6d bc b2 24 11 be
       -0.14007303 -0.14044037 -0.014469631 -0.14174154
000070 e0 6c 88 3d 54 c4 f6 bb 8b a2 11 3e 0b d7 85 bd
       0.06661391 -0.0075307284 0.14222161 -0.06535157
000080 b8 64 86 bd 1e 16 33 bc 16 19 96 3d 2e 2d eb 3d
       -0.06562179 -0.010930566 0.073290035 0.11483227
000090 7c 3f 35 3d c5 7b 92 bd f1 a7 12 be 8c 90 d0 bd
       0.044249997 -0.071525134 -0.14321877 -0.1018382
0000a0 3f 3f df bc b6 66 98 bd 58 10 06 be 98 30 50 3c
       -0.027251838 -0.074414656 -0.13092172 0.012706898
0000b0 66 84 ca 3d bf 61 3d bb 6d d0 08 3c 1a 42 bb bd
       0.09888534 -0.0028897373 0.008350474 -0.09143467
0000c0 78 1c 8d 3b 5c ea 0a be
       0.0043063723 -0.13565964

fc3.weight f4 [50, 50]
000000 5b c6 09 be 44 18 f9 3d a6 21 ae bd 17 c6 d6 bd
       -0.13454573 0.121628314 -0.08502512 -0.104870014
000010 f9 a6 d1 bc 86 bb 46 bd 68 07 ff 3d cc e0 c2 bd
       -0.025592314 -0.04851868 0.124525845 -0.09515533
000020 8b f5 58 bd 59 28 91 3d 01 12 10 3e fe 8a 72 3c
       -0.052968543 0.07087774 0.14069368 0.014803646
000030 a9 01 5b bd d6 af c9 3d ba 46 20 3e 17 61 52 3d
       -0.05346838 0.09847991 0.1565198 0.051362123
000040 1f 66 d0 bd 16 72 d6 3c 9c bf ec 3d 85 67 03 be
       -0.10175728 0.026177447 0.11559984 -0.12832458
000050 f9 f3 25 3d fb 25 01 be a3 87 59 bd 09 5c 0f 3d
       0.040515874 -0.12612145 -0.05310787 0.03499988
000060 db 4d d3 3d 11 02 02 3e 3b 02 c6 3d d4 2f d7 3c
       0.10317584 0.12696101 0.09668394 0.026267923
000070 45 1e bf bc cb 06 bd bd 1f 22 8a bd bc ca e8 bd
       -0.023329863 -0.09229811 -0.06744789 -0.113667935
000080 39 ef 8c 3d 74 a6 2c 3d 3f 39 c5 bd c6 14 0c 3e
       0.068815656 0.04215093 -0.096300595 0.136798
000090 a5 ce 25 3d 93 50 ac bd 3e ff ea bd 00 79 74 bd
       0.040480275 -0.08413806 -0.11474465 -0.059685707
0000a0 05 5d e2 bd ca 7f 0e be 48 66 b7 bd 80 77 c2 3d
       -0.11052898 -0.13915935 -0.089550555 0.09495449
0000b0 08 8d cb 3d af 6e 87 bd 6c 21 74 bd 00 4b d7 3d
       0.09939009 -0.06612908 -0.059602186 0.10512352
0000c0 a6 f8 0d 3e c2 48 b0 3c 95 87 11 3e bb 7b 66 bc
       0.13864383 0.021519069 0.14211877 -0.014067586
0000d0 dd 03 c4 bd f5 1a 74 bd cf 82 72 bd 54 d5 34 3e
       -0.09571049 -0.05959602 -0.05920678 0.17659503
0000e0 cb a2 1e 3e 10 f1 e3 bd 54 f9 3d 3e 3c 8b f2 bd
       0.15491788 -0.111299634 0.18552142 -0.11842963
0000f0 9d 63 42 bd 71 86 39 3e 25 2f d7 3d 5e 26 8c 3d
       -0.04745828 0.18117692 0.10507039 0.068432555
000100 5d 9f 30 bd 32 f2 48 bd c0 5b c4 bd a6 28 85 bc
       -0.04312073 -0.0490591 -0.095878124 -0.016254734
000110 ab de c4 3d 2f 58 8f bd 5b 6c b3 bd 22 3f fd bc
       0.09612783 -0.069992416 -0.087609015 -0.030913893
000120 c0 42 62 3d f4 3e c0 bd 26 65 84 bd 7b 8e 8c bd
       0.05523944 -0.09387007 -0.06464605 -0.068631135
000130 32 31 b4 3d a9 73 de bc 03 69 47 3b 7e 98 1d 3d
       0.08798446 -0.02715476 0.0030427582 0.038475506
000140 62 6f 32 3d a7 f7 c5 3d 1e 0e 33 3e 80 4e b6 3d
       0.043563254 0.096663766 0.17485854 0.089016914
000150 bd 66 db bd 46 47 69 3d e1 78 ff bd dd d5 06 3e
       -0.10712955 0.056952737 -0.12474228 0.1316752
000160 b3 08 0b 3d c0 a6 c8 3b 4c 1c 82 bc 88 f7 85 3d
       0.033943843 0.006123394 -0.015882634 0.065413535
000170 b7 b2 ab bc d9 c4 0d bd f6 3f 37 bd 54 50 52 bd
       -0.020959241 -0.034611557 -0.044738732 -0.051346138
000180 90 25 9a 3d 56 dc 17 3e 4d 0a 16 3e c9 b8 79 3d
       0.07526696 0.14830145 0.14652367 0.06096724
000190 32 07 0b 3e e1 62 ba 3d 26 df 01 3e 9b 02 f0 3c
       0.13576964 0.09100891 0.1268278 0.029298117
0001a0 02 03 ae 3b 63 05 9b bd 08 fc 1e 3e a5 db f1 bd
       0.005310417 -0.07569387 0.1552583 -0.11809472
0001b0 fb 0d 8a 3d e3 3e 1f be 91 c3 89 bd d0 69 bf 3d
       0.06740948 -0.15551333 -0.067267545 0.09346354
0001c0 58 b2 10 be a4 57 de 39 f3 4e 9f bc b8 ef da 3d
       -0.14130533 0.00042408437 -0.019446826 0.10690254
0001d0 86 04 08 3e 65 8c 4e be 98 48 01 3e d1 26 9f bd
       0.13282976 -0.20170744 0.12625349 -0.077710755
0001e0 44 3f 23 3c 90 40 e8 3d 9e 0b 50 bd f6 34 cc 3d
       0.009963814 0.11340439 -0.05079233 0.09971039
0001f0 7b 7b 34 3c c4 c1 d6 3d d4 4b 40 bc bb 0f e5 3d
       0.011015768 0.104861766 -0.011736829 0.11184641
000200 b2 8a 63 3e 7b 58 ff bd f5 0e bd 3d 3e 56 19 be
       0.22220877 -0.12468048 0.092313685 -0.14974305
000210 0f 7e d6 3d ff c9 95 3d 2d 34 0d bd aa 87 b7 bd
       0.104732625 0.07313918 -0.034473587 -0.08961423
000220 3b 09 ae bd 30 d3 0b bd 42 6f b3 bd ec a6 c7 3d
       -0.08497854 -0.03413695 -0.08761455 0.09748635
000230 44 1d 9d 3d 49 b2 81 bb 8f d9 2b be a0 0c 44 3e
       0.076715976 -0.003958021 -0.16782211 0.19145441
000240 fb 11 b0 3d 9e fd dd 3d 5b ae c0 3d 39 4d 8e bc
       0.085971795 0.10839389 0.09408256 -0.017370807
000250 ab 8b 74 3d a2 24 bf bd 5d a3 1d 3e 33 94 65 3d
       0.05970351 -0.09333159 0.1539435 0.056049537
000260 0e 22 9d bb bc dd cd bc ed 64 80 bd 18 bf 78 3d
       -0.0047953194 -0.025130145 -0.0626925 0.060729116
000270 b4 95 eb 3d d5 11 86 3b c2 36 ac 3d 52 ec ee 3d
       0.11503163 0.004091481 0.08408882 0.11666168
000280 60 0d 40 bd 1f eb 5d bd ce 90 ce bd 1d 57 ac bb
       -0.046887755 -0.054179307 -0.10086213 -0.005259408
000290 79 4e 33 3d 0c 1c b1 3d e0 de ef 3d ac c8 fa bd
       0.04377601 0.08647928 0.11712432 -0.122453064
0002a0 5b d9 98 3b 8b 5a 02 3e f9 bf c8 3d b0 b9 96 bc
       0.0046645827 0.12729852 0.09802241 -0.01839909
0002b0 d4 27 2b bd ee 0c 70 bd 6f 12 3d 3e e2 81 ec bd
       -0.04178603 -0.05860608 0.18464063 -0.11548211
0002c0 61 1c 00 3e d0 e2 07 be 95 15 1b 3e e2 e0 fd bd
       0.12510826 -0.13270116 0.15144952 -0.123964086
0002d0 54 af 29 be 03 fb e6 bd 40 2a 33 3c d7 73 c4 bb
       -0.16570789 -0.112783454 0.010935366 -0.0059952545
0002e0 fa 0a 8c 3c 46 83 26 3e a8 64 48 3d ab 86 5c bd
       0.017095078 0.16261014 0.04892412 -0.053839367
0002f0 59 13 ea bd 9a 18 a0 3d c4 14 41 3d a3 9c 6f 3b
       -0.114294715 0.078171924 0.047138944 0.0036561869
000300 a8 bf 01 bc 1d 69 4f 3d cf 00 11 bd cc ad 7d 3d
       -0.00791923 0.050637353 -0.03540116 0.061933324
000310 6b d8 0f be 3a 7d e5 3c 4c ed c9 bd e4 0c 05 be
       -0.140474 0.028013814 -0.09859714 -0.12993199
000320 11 b0 a9 3d 6e bf 95 3d 36 1d 84 3d a4 29 22 3e
       0.08285535 0.07311903 0.06450884 0.15836197
000330 3c 54 51 bd 3c 7c 0e 3e 2c b4 69 bd ef 93 e6 bc
       -0.051105723 0.13914579 -0.05705659 -0.028146712
000340 44 37 a1 3d 32 17 be bd 4f e4 45 bd 7a e3 09 3e
       0.07871869 -0.09281768 -0.048313435 0.13465682
000350 c2 20 e2 3d d2 1e c2 3d 90 6f f3 3d 03 43 91 bd
       0.11041404 0.09478535 0.11886513 -0.070928596
000360 44 4e 83 3d c8 60 ae bd 4e 25 80 bd ed 40 88 bd
       0.06411412 -0.08514553 -0.06257115 -0.066530086
000370 99 a1 07 be b5 ba 7a bd 08 9b 0e 3e 9d 3e 85 3d
       -0.13245238 -0.061213214 0.13926327 0.06506083
000380 8c ef 4b 3c a1 6c 0a bd 1f 7d 87 3d 13 b1 bb bc
       0.012447249 -0.033795003 0.06615662 -0.022911584
000390 e8 82 13 3e da bd ca bd 1c aa de bd 2a 24 94 bd
       0.14405406 -0.098994926 -0.108722895 -0.0723346
0003a0 46 2b 55 3a a8 e4 3d 3d 8b 2f b7 3d 71 7d 62 3d
       0.00081317534 0.04636064 0.08944615 0.05529541
0003b0 94 46 42 bd 7b da 6e bd 34 90 fb bd b6 90 39 bd
       -0.04743059 -0.058313828 -0.12283364 -0.045304023
0003c0 ea 61 9c bd 58 23 20 3e fe ee d1 bc 35 c6 d9 bc
       -0.07635863 0.15638483 -0.025626656 -0.02658377
0003d0 37 bb 97 3b 7c 03 92 3d ef e5 84 bd b4 8b f7 bd
       0.004630472 0.07129571 -0.06489169 -0.12087193
0003e0 c4 37 34 3d 00 70 69 bd 30 27 c9 3c bb 9d 8c 3d
       0.043998495 -0.056991577 0.024554819 0.06866022
0003f0 51 b1 8b 3d 35 9e 0b be d2 ba 1e be 73 be f0 3d
       0.0682093 -0.1363457 -0.15500954 0.11755075

fc3.bias f4 [50]
000000 7f 09 93 3c 1d 7e a5 3d 06 74 2c bd 5e b8 a7 bd
       0.017948864 0.08080695 -0.042102836 -0.08189462
000010 d5 a6 00 3d 66 fb ce 3d ef d1 73 bd 47 55 5c 3c
       0.031409103 0.10106544 -0.05952638 0.013448066
000020 95 e5 f3 3d c6 8e cd bd a7 4f 5c bd 2e 56 73 3b
       0.11909024 -0.100369975 -0.0537869 0.0037130225
000030 df 35 b1 bd a2 5e ef 3d 5f 30 3a 3b 0e dc ee 3d
       -0.08652853 0.11687972 0.002841018 0.11663066
000040 71 7a 03 be 28 f7 c3 3c f0 3c 29 3d 4c ba f2 3d
       -0.12839676 0.023921564 0.04131788 0.118519396
000050 1c 53 65 3d bd 1c 8b bd 00 3f 8a 3c bd 54 13 3e
       0.055987462 -0.06792591 0.016875744 0.14387794
000060 a3 ee 5d 3e 57 ad 2d 3e b0 16 4c 3d ef ff 4b bd
       0.21673064 0.16960655 0.049826324 -0.049804624
000070 88 6f 12 3e bd a3 99 3c 72 1e db 3d b5 31 e4 bd
       0.14300358 0.018754834 0.10699166 -0.11142293
000080 0e c1 8e 3c 5f 9f 03 bc 6c 0e da 3d f2 65 6b 3d
       0.01742604 -0.0080336025 0.10647282 0.05747027
000090 81 63 77 3d 6d 9c 49 bd 04 2a 7a bd 52 62 61 3e
       0.06039763 -0.049221445 -0.061075225 0.22010162
0000a0 cc ef 89 bc cc 11 50 3d fa 51 df 3d 77 7e 8b 3d
       -0.016837977 0.050798222 0.10904308 0.06811231
0000b0 64 19 60 3d 71 d7 f4 bd ab 03 ac 3d 00 07 80 bd
       0.054711714 -0.11955155 0.08399137 -0.06251335
0000c0 ad c5 c0 bd 6a 5e 2c bd
       -0.09412704 -0.042082228

fc1.weight f4 [50, 7]
000000 b3 28 d4 be 3b ff ff 3c 4e a7 8e be f6 73 ba 3e
       -0.414373 0.031249633 -0.27862018 0.36416596
000010 d2 6e 34 be d8 1e 41 3e f0 98 24 be bc 6b bb 3d
       -0.176204 0.18859422 -0.16073966 0.09151408
000020 40 07 a2 be 24 5d 0e 3e 19 39 ab 3e 1d 79 f4 3d
       -0.31646156 0.13902718 0.33442 0.11937163
000030 19 df cd 3e 27 fc 71 be 47 77 67 be 01 b1 22 be
       0.40209273 -0.23631345 -0.22604094 -0.15887834
000040 a0 aa ab be 8c ae f8 3d 50 95 a0 3e da 7f 45 3e
       -0.33528614 0.12142667 0.31363916 0.19287053
000050 b2 45 e3 bd 3b a7 62 3b 6e 20 56 3e 46 84 d2 3d
       -0.11097278 0.003458454 0.20910808 0.102791354
000060 6f 23 bd 3e 10 98 b5 bd fe ee 8a 3e 53 62 77 3e
       0.36941096 -0.08866894 0.27135462 0.24158601
000070 45 7a af 3e 37 54 ab 3e 64 98 0e be 01 87 83 be
       0.34272972 0.33462688 -0.1392532 -0.25688937
000080 5b 8c 83 be 6e 03 89 be 1a e4 73 3e 80 3b 5e be
       -0.2569302 -0.2676043 0.23817483 -0.21702385
000090 fe 3b 4c 3e 1b c9 77 be f1 fc 7f bc ce f7 ae be
       0.1994476 -0.2419781 -0.015624271 -0.34173435
0000a0 46 97 36 3e dd 9f f0 bd 7b ee ca 3d 7e aa 83 3e
       0.17831144 -0.117492415 0.09908768 0.25716013
0000b0 a2 08 12 be db 6d 90 3e 18 89 24 3e 87 82 65 3e
       -0.14261106 0.28208813 0.16067922 0.22413073
0000c0 3d 3e 1e 3e 7b 73 8a 3e 3a 53 59 3d 00 f6 fa bd
       0.1545343 0.2704123 0.053057887 -0.12253952
0000d0 e4 11 4d be f7 50 4e 3e 6e ce b0 3c 64 dc 44 3e
       -0.20026356 0.20148073 0.021582808 0.19224697
0000e0 a2 83 76 3e ec 1c 01 bd c8 16 d3 bb aa 7b 29 bc
       0.24073651 -0.031521723 -0.0064419247 -0.010344425
0000f0 2f 2b b8 3e ab 5f a1 be 44 e8 a4 3e 98 b8 1d ba
       0.35970446 -0.315183 0.32208455 -0.00060165813
000100 6e 21 90 3d 38 0e 8e 3e 5f 6b 81 be b6 40 9e be
       0.07037626 0.27745223 -0.2527723 -0.30908746
000110 6c 92 b5 3e 39 0f 3b be da bb 9a 3c 00 62 b6 3e
       0.35463274 -0.18267526 0.018888403 0.35621643
000120 d9 f8 ce bd b1 2d 27 3d 89 16 8d 3e 65 b2 86 be
       -0.10106058 0.04081506 0.27556255 -0.2630798
000130 6c 86 95 be f9 cc b3 3c b9 63 1b 3e a2 bc 39 3d
       -0.29204118 0.021948325 0.1517476 0.04534591
000140 57 0c 91 be b4 9f 60 be ae 75 c6 be 76 19 1b 3d
       -0.28329727 -0.21935922 -0.38761657 0.03786608
000150 5b 1d 2e be a3 9b 69 be c6 7b aa 3e fa ef 79 be
       -0.17003386 -0.22813277 0.33297557 -0.2440795
000160 09 4b 55 bd 9f 59 12 be 3d c0 8a 3e c3 85 70 be
       -0.052073512 -0.14292 0.2709979 -0.23488526
000170 3a e0 3e 3e 2e 6e f8 3d c8 5c 5c 3e 71 25 ef 3b
       0.18640223 0.1213039 0.21519768 0.0072981645
000180 ed 61 ab bd aa 37 13 be 31 76 40 3e 01 b1 d2 3d
       -0.08368287 -0.14376703 0.18795086 0.10287667
000190 88 cb 53 3e 7d 51 1b be 55 42 b0 bd ce fd 71 be
       0.2068311 -0.15167804 -0.08606402 -0.23631975
0001a0 8c 62 0c be 9a 8d 85 3c c2 8c 65 be 82 3c 34 3e
       -0.13709468 0.016302872 -0.22416976 0.17601207
0001b0 e9 ae 8b bd 70 44 95 be 4a 18 da 3e d2 d9 98 be
       -0.06820471 -0.29153776 0.42596656 -0.29853684
0001c0 f0 29 bb be 2a 48 bd 3c 44 af 81 bd e9 9a d3 3d
       -0.36555433 0.0231057 -0.063322574 0.10332281
0001d0 9e 74 14 be 23 62 08 bc ab 95 a1 3e 05 2c 76 be
       -0.14497611 -0.008324179 0.315595 -0.2404023
0001e0 35 78 a9 3e 1c 02 c0 be ac fc c3 3d dd e2 b3 3e
       0.33099523 -0.3750161 0.09569678 0.3513402
0001f0 6c a6 80 bc 5b ff d0 bd 0c 75 dd be 61 24 cb bb
       -0.015704356 -0.10204955 -0.43253362 -0.006199405
000200 71 1c f7 3d 5f e2 6f 3e 15 7b 51 be d9 e0 3a be
       0.12065972 0.23426197 -0.20457108 -0.18249835
000210 a8 50 9e 3e cf 6d a6 bd 9a 29 a4 be ed 89 84 be
       0.3092091 -0.08126413 -0.3206299 -0.2588648
000220 8f 36 c7 3e 2a 63 69 3d 7c 5a 65 bd 74 96 5a be
       0.38908812 0.056979336 -0.055994496 -0.21346456
000230 6e f8 2d 3e 07 32 a4 be 68 cc 44 3e b9 9b 88 3e
       0.169893 -0.32069418 0.192186 0.26681307
000240 f5 b0 a4 3e 17 75 5f bd df 0d f1 3d 51 23 bc 3e
       0.32166258 -0.054555025 0.11770224 0.36745694
000250 b2 b6 2e be 0a fb 85 be 2d 3a 82 be ac 70 dd bd
       -0.1706188 -0.2616809 -0.2543501 -0.10812506
000260 71 06 80 3e be dc 5d 3e 91 0b b8 3e 3f 2e 6e 3d
       0.25004914 0.21666238 0.35946324 0.058149572
000270 a5 36 85 3e cf 87 75 be 3c 7a 70 be ea 15 f7 3d
       0.26018253 -0.23977588 -0.23484129 0.12064727
000280 8f 8c d2 bd 15 f2 6f 3d 8f 6a 76 3d fe 3f c4 3c
       -0.10280716 0.058580477 0.060160216 0.023956295
000290 33 4e 03 bb f4 fa 0f bd 1d 46 0a be cb 27 ad 3e
       -0.0020035624 -0.035151437 -0.13503309 0.33819422
0002a0 3f 1a 65 be e5 c2 43 3e 03 cd 3f 3e 83 e6 39 bd
       -0.22373293 0.19117315 0.1873055 -0.04538585
0002b0 e8 1d c5 bd 99 bc 90 3e d7 93 92 3e 8c 09 8d bd
       -0.09624845 0.2826889 0.28628418 -0.068865865
0002c0 9e e6 59 be 12 bd 67 be f3 13 7a bd 00 28 8f be
       -0.2127938 -0.22630718 -0.06105418 -0.27960205
0002d0 f4 5b 39 3e 68 aa 01 3e 7c f8 84 3e ed 63 96 be
       0.18101484 0.12662661 0.2597083 -0.29373112
0002e0 fb 3d 11 3e 8e d7 98 be 0a 36 b8 3e 3b 1a 77 bd
       0.141838 -0.29851955 0.3597873 -0.06032775
0002f0 c8 46 ab 3e 0e 4f 27 be bf 44 47 be 30 b5 b0 bd
       0.3345244 -0.1633875 -0.19459818 -0.08628309
000300 d5 91 56 be 34 5b d2 3e fd 1a ca 3e 03 95 cd bd
       -0.20954068 0.41085207 0.39473715 -0.10038187
000310 60 4b 31 be 10 a9 25 bd 23 69 c3 3d ba b1 33 be
       -0.1731391 -0.040444434 0.095415376 -0.17548266
000320 16 6c 8f 3e 5c 7c 85 bc a0 88 b1 3e be 53 e4 3d
       0.2801215 -0.01629465 0.3467455 0.11148785
000330 7c 4f 8d be 39 66 76 3e b3 1a b3 3c fb 4e cf be
       -0.27599704 0.24062432 0.021863317 -0.40489945
000340 98 e3 80 3e f0 1a 8a be 52 15 30 3e b5 63 d9 bb
       0.2517364 -0.26973677 0.17195633 -0.0066342005
000350 47 a3 18 bd 03 ed f1 bd 19 01 a5 3d e1 eb 6b 3e
       -0.03726509 -0.118127845 0.0805685 0.230392
000360 7f 57 80 be b5 7d c7 3d 02 a7 b1 3d e8 c6 2b 3e
       -0.25066754 0.097407736 0.08674432 0.16775095
000370 27 67 23 bd 84 1f 46 bd 79 2f 20 be 06 78 96 bd
       -0.039893296 -0.0483699 -0.1564311 -0.073471114
000380 29 42 1e 3e 34 6b a9 3d 51 fa 8f 3e bc e3 2d be
       0.15454926 0.082724005 0.28120664 -0.16981405
000390 fe ab 9c 3e b9 fd 70 bd 49 3e 0b bd 58 03 ed be
       0.3059997 -0.05883572 -0.033994947 -0.46291614
0003a0 fd ee b5 bd cf 59 23 be fd 47 ca 3e 7c 21 6b 3e
       -0.08883474 -0.15952228 0.39508048 0.22961992
0003b0 ec 44 52 3e 43 e1 38 be 55 44 f5 3d 6e 9a c2 bd
       0.20534104 -0.1805468 0.11975924 -0.095021114
0003c0 fe b8 87 be f1 e8 20 3e ff 65 70 3e 8b 60 5d be
       -0.26508325 0.1571386 0.23476408 -0.2161886
0003d0 1c c0 b2 3e c7 b3 05 be 56 52 61 3e 88 4f 68 3d
       0.34912193 -0.13056861 0.22004065 0.056716472
0003e0 86 b2 9a be d3 73 48 3e af b9 b2 3e 29 9a 7f 3e
       -0.30214328 0.19575433 0.3490729 0.24961151
0003f0 d8 3d 37 be a6 fc 57 be 37 44 68 3e b0 dd 9b be
       -0.17894685 -0.21092471 0.22682272 -0.30442572

fc1.bias f4 [50]
000000 3f eb 72 be 13 66 9a be b2 f5 39 3e 9e 90 b3 bd
       -0.23722552 -0.30156 0.18160132 -0.08767818
000010 a6 12 87 3e 95 cb 4b bd ce 4e 15 3d c5 53 9f 3e
       0.26381415 -0.049754698 0.036452107 0.311186
000020 e4 f8 82 be 0d 0e aa 3e 30 b3 4e 3c f0 6a e1 3e
       -0.25580513 0.33213845 0.012615964 0.440269
000030 d2 16 ce 3a 7f 94 c1 3e f0 27 93 3e b7 2a 68 bd
       0.0015723354 0.37808606 0.28741407 -0.05668136
000040 9e 25 df 3d c3 77 29 3e 36 e9 11 3e 9e f4 6e 3e
       0.10895847 0.16549592 0.14249119 0.23335502
000050 1c 35 13 3e 19 2e 1c be 00 09 aa 3d a9 79 99 3e
       0.14375728 -0.1525196 0.08302498 0.29975632
000060 fd 39 03 3e 1a 31 d8 bd a0 13 88 be cf e7 66 be
       0.1281509 -0.105562404 -0.26577473 -0.22549365
000070 03 b9 ad 3e b7 1b fa ba 64 8b 93 be f7 f4 2b be
       0.33930215 -0.0019081746 -0.28817284 -0.16792665
000080 9f 3f 87 3c 7d 28 a1 3e 60 53 b6 be a3 51 a7 be
       0.01650983 0.31476203 -0.35610485 -0.3267947
000090 69 d3 a0 3e 84 be 7e be f4 ad 76 bd c4 bd 99 bd
       0.31411293 -0.24877363 -0.06022449 -0.07506898
0000a0 2d da 96 3c 5b 4e 8f be 6f 6a c0 bc 34 60 5f be
       0.018414581 -0.27989468 -0.023488251 -0.21814042
0000b0 c6 fe 56 bd 8c 9f 28 3e 39 29 0d 3d b1 86 36 bd
       -0.052489065 0.16467112 0.03446314 -0.044562045
0000c0 51 2d b4 3e b1 4b af 3e
       0.35190824 0.34237435

fc2.weight f4 [50, 50]
000000 f1 3d 6c be d1 23 cd 3c 82 5f 4f bd e4 ea a6 bd
       -0.23070504 0.025041493 -0.050628193 -0.081502706
000010 48 19 9c bc ca 99 a4 bc a1 ec ae bd 91 57 97 3d
       -0.019055024 -0.020092864 -0.08541227 0.07389749
000020 19 62 12 3e 49 ab df 3c da ef 58 bd 2f f3 da 3c
       0.14295234 0.027303355 -0.052963115 0.026727287
000030 80 a2 54 bd 1e b2 1b bd 19 58 d9 bd fe 24 a7 3d
       -0.051912785 -0.038011663 -0.106125064 0.081613526
000040 ff 54 aa bd 5a f7 63 bd 48 d0 09 bd d2 c2 23 3e
       -0.08316993 -0.055655815 -0.033645898 0.15992287
000050 bc 09 11 3e 61 38 ad bd 74 59 79 bd 38 c7 d0 bd
       0.1416387 -0.08458019 -0.060876325 -0.10194248
000060 a9 22 2a bd fa 39 79 bd 03 13 67 bd 30 4e 20 3e
       -0.04153696 -0.060846306 -0.056414615 0.15654826
000070 d8 10 b8 bd cd ea d2 bd b8 68 1b 3d 9a 73 66 bd
       -0.08987588 -0.10298691 0.037941664 -0.05626259
000080 2a 3a b1 3d 59 5a 91 3d c8 64 7a 3c e8 d7 f5 bb
       0.08653672 0.070973106 0.015282817 -0.0075025447
000090 08 34 07 3c 90 80 fe 3d cf c7 e0 3d ab 3d 07 3e
       0.008252151 0.12426865 0.109756105 0.13207118
0000a0 f5 44 10 3c 23 17 16 be 0a 6d 6e 3d fa 91 e8 bd
       0.008805503 -0.14657263 0.058209457 -0.11355968
0000b0 89 ad bb 3d 21 4d bc 3d 86 fa ef 3d e4 26 f5 bd
       0.091639586 0.09194399 0.117177054 -0.119703084
0000c0 0f 3d 58 3d e7 d2 b0 3d 31 55 ea 3d 0b d7 56 bc
       0.052792605 0.086339764 0.1144203 -0.013112794
0000d0 2c d1 c6 bd b7 e7 e4 3d bc 24 02 3e ab 0e 00 3d
       -0.09707865 0.111770086 0.12709326 0.03126399
0000e0 64 b4 7d 3d 5c d4 be bd 12 7c 93 3d ed d1 df bc
       0.061939612 -0.09317848 0.07201399 -0.02732178
0000f0 ca 93 13 bc 14 d2 7e bc 82 21 41 bc 60 8b 03 be
       -0.009007404 -0.015553016 -0.011787774 -0.12846136
000100 56 81 94 3d f1 27 90 3d ef 2f 1d 3e d0 eb a6 bd
       0.07251231 0.07038868 0.15350316 -0.081504464
000110 e9 f0 a7 3b 8e 40 b1 3d 35 8e ed bd 00 f6 79 3d
       0.0051251543 0.08654891 -0.115993895 0.06102562
000120 33 e3 96 bc 1e e5 2b bd f6 4e 0d be 21 7c 26 bd
       -0.018418884 -0.04196655 -0.13799652 -0.040645722
000130 2e 36 24 bd b7 b7 de bd 05 1a c7 3d e4 4a bc b9
       -0.040090732 -0.108748846 0.0972176 -0.00035913952
000140 80 05 ce bd 68 e2 3f 3d f8 03 07 3e 38 d6 53 be
       -0.10059643 0.046846777 0.13185108 -0.20687187
000150 63 75 c0 3c 88 a0 c8 3c 38 20 1a 3d 13 0c a4 bd
       0.023493474 0.02449061 0.037628382 -0.080101155
000160 2a 49 0a be b6 84 43 3e 26 7b c1 bd 77 f8 17 be
       -0.13504472 0.19093594 -0.09447317 -0.14840876
000170 d7 5f 10 be 1d e8 99 3b 0e b6 6b bd 48 e1 be 3d
       -0.1409906 0.0046968595 -0.057546668 0.09320313
000180 2f 0c d3 3d 64 a5 15 3d 13 b2 06 3d 77 56 db 3d
       0.10305058 0.036534682 0.03288467 0.10709851
000190 62 e3 bf 3c ab 61 40 bd 56 cc 9b 3d 67 40 d6 bd
       0.023423854 -0.046968143 0.07607333 -0.104615025
0001a0 09 6d 85 3d 16 df 36 3d a8 66 8f bd f9 55 d2 3d
       0.065149374 0.044646345 -0.07002002 0.10270304
0001b0 23 08 10 3e 6a 79 8e bd dc e8 b4 3d 2c 28 e3 39
       0.14065604 -0.06956752 0.08833477 0.00043326744
0001c0 4e 3b 18 3d 70 8f 29 3e a1 12 cf 3c 39 86 2f be
       0.037165932 0.16558623 0.025277438 -0.17141046
0001d0 6d 9c f3 bd b5 4b 06 be 1b 36 c0 3d ff cb 64 3d
       -0.1189507 -0.13114817 0.0938532 0.05585861
0001e0 be 8f 4c 3d a7 d5 dc 3b 6b 3c 64 bd 22 fd cc 3d
       0.04994177 0.0067393365 -0.05572168 0.10009219
0001f0 87 e5 19 bc 6c e5 c4 bd 66 4e f8 3d 83 54 e9 bd
       -0.0093931025 -0.09614071 0.12124328 -0.113930725
000200 5e 30 f2 bc d2 cd dc bd a0 81 11 be 6e a5 99 3d
       -0.029564079 -0.107814446 -0.14209604 0.07502256
000210 76 3b c1 3d e9 86 f3 bd 68 a4 6b 3d 24 0a 50 bd
       0.094351694 -0.118909664 0.057529837 -0.05079092
000220 0b 0e f4 3d 92 d8 94 bd 8a 86 38 3c 79 12 1c bd
       0.11916741 -0.0726787 0.011262545 -0.038103554
000230 28 3a 76 3c 1c f8 8b bd 6f fb fb 3d 9c 47 91 bd
       0.015028514 -0.068344325 0.123038165 -0.070937365
000240 e6 b6 77 bd 01 e9 82 3d fc 7f bc 3c 9f 4f 4b bc
       -0.06047716 0.06392098 0.023010246 -0.01240912
000250 79 10 1d be 94 cb b8 ba 6a 7b 9b bd 6c d9 5c 3d
       -0.15338315 -0.0014098757 -0.07591899 0.053918287
000260 64 07 be 3d 44 8a 26 bd 24 98 ac 3d 17 b9 62 3d
       0.092787534 -0.040659204 0.08427456 0.055352297
000270 cf b2 c5 3d 00 68 41 3d ea 62 5e 3d ed f7 e5 bc
       0.09653246 0.047218323 0.05429355 -0.028072322
000280 36 9f 1e 3d 6d 72 ea 3d e6 93 e9 bc 9b a4 71 bd
       0.038726054 0.11447606 -0.028512906 -0.05899487
000290 2a a5 08 be f3 3e 96 3c ae 00 2b 3c 0b 23 ce 3d
       -0.13344255 0.018340563 0.010437174 0.10065278
0002a0 35 73 d9 3d 4c 1d 2f be ff 9e e8 bd 0d 26 17 be
       0.10617677 -0.1710102 -0.11358451 -0.14760609
0002b0 5b 47 eb 3c a6 bf 55 3c d5 aa d6 bc bc 97 1b 3d
       0.028720548 0.013046181 -0.026204506 0.037986502
0002c0 91 6e 30 3c 16 11 62 3d ea 0d c1 3d 4a d7 85 3d
       0.010768549 0.055192076 0.09426482 0.06535204
0002d0 ae 48 ca 3d bb 8e 91 bc 40 0e 5a 3c 44 cb 0a 3e
       0.09877144 -0.017768255 0.0133090615 0.13554102
0002e0 2b ab d8 bd df 35 46 3c a6 61 df 3d be 63 f1 3d
       -0.10579523 0.012097805 0.10907297 0.117866024
0002f0 14 c6 8a bc 6d c3 c7 bd cb 5b 8d 3d 8f 06 83 3c
       -0.016940154 -0.097540714 0.06902274 0.015994338
000300 8a 74 e8 bc 43 00 d2 bd 3b 1f ba 3d 1f 41 a2 3d
       -0.028375883 -0.10253956 0.09087988 0.07922577
000310 4e d0 57 bc ba 87 1f 3a 01 5b b8 bd 94 0b 6c bd
       -0.013172222 0.00060855935 -0.090017326 -0.05762823
000320 b8 5d b6 bd 19 da df bd c6 de 4f 3b 42 66 01 be
       -0.08904594 -0.10930271 0.0031718477 -0.12636665
000330 ae bd 3f 3d 3d 31 b7 3c 31 ee 7d 3d c3 70 df 3d
       0.046811752 0.022362346 0.061994735 0.109101795
000340 71 c1 81 bd 86 70 37 bd fd 35 cb 3d b3 ce 9f bd
       -0.06335724 -0.044785045 0.09922407 -0.078030966
000350 06 5f d5 3c 6d 15 a0 bd 01 16 21 3d 63 b7 a0 bc
       0.026046287 -0.07816587 0.039327625 -0.019618696
000360 2e 08 33 3d f3 2f a0 3d 93 d3 af 3d 16 db 06 be
       0.043708973 0.078216456 0.085852765 -0.13169512
000370 b4 28 9f bc 32 09 63 bd e4 e9 00 be d3 59 9f 3d
       -0.019428588 -0.05542869 -0.12589222 0.077808045
000380 90 fd fc 3c e1 e0 8d bc 38 83 f8 3d 65 d6 70 bd
       0.030882627 -0.017319145 0.12134403 -0.058798213
000390 a6 1c 08 3d 1f 11 91 3d 45 65 02 3e f9 43 fc bd
       0.033230446 0.07083344 0.12733944 -0.12317652
0003a0 26 ba 44 bd ec 7d 5c be dc a3 f4 bd 88 66 08 3d
       -0.048029087 -0.2153241 -0.11945316 0.033300906
0003b0 c2 fd fa bd 9c ea cd bd 6d 8e c3 3c c2 0e 51 3d
       -0.12255432 -0.10054514 0.023871625 0.051039465
0003c0 f3 72 a0 3d c2 0e 0e 3e e5 16 a3 3c 53 02 a8 bc
       0.07834425 0.13872817 0.019908378 -0.02050892
0003d0 8d 5b 49 3d 84 3b 53 bd 8b cb 48 3e 99 dd a4 3c
       0.049159575 -0.05157043 0.19608895 0.020125197
0003e0 53 ea 8d bd 25 c7 44 3d 84 99 8b 3c c4 97 df 3d
       -0.069294594 0.04804148 0.017040975 0.10917619
0003f0 44 d7 06 be 3c 6b b2 3d 93 88 84 3d e6 0d d7 3d
       -0.13168055 0.087118596 0.06471362 0.10500698

fc2.bias f4 [50]
000000 7f 7d ed bd 26 e4 cd 3d 2c 98 f7 bb 59 cd 08 3d
       -0.11596202 0.100532815 -0.007555982 0.03339896
000010 94 84 23 3e 9c 25 f9 bd cc 70 09 3e 5e 08 ea bd
       0.15968543 -0.121653765 0.13421935 -0.11427377
000020 fe 6c d4 bd 97 86 eb bd 9a 7c 10 3e 9f c4 3b 3d
       -0.10372351 -0.1150028 0.14110032 0.04584181
000030 53 61 0e 3d d9 87 44 3d 32 96 7d 3d 1e 97 f4 3d
       0.034760784 0.047981117 0.061910816 0.11942886
000040 86 1b 5e 3d c0 90 f8 bd a6 53 e4 3c 04 8e f4 3d
       0.054225467 -0.12136984 0.027871918 0.1194115
000050 1f 02 44 3d bb 97 b9 bd a4 51 92 3d 8b 7e 01 3d
       0.047853585 -0.090621434 0.07144478 0.03161482
000060 ae 6c 12 be 69 d6 0d be d2 da 80 bc 25 94 10 be
       -0.1429927 -0.13851322 -0.015729342 -0.14119013
000070 2c 2e 41 3d a3 8c c2 bb 81 e3 07 3e 73 f8 65 bd
       0.047163174 -0.0059371754 0.1327038 -0.056145143
000080 ca a6 9e bd 5f f0 37 bc 14 b1 61 3d ee 38 ef 3d
       -0.07746656 -0.0112267425 0.055100515 0.1168078
000090 82 44 1a 3d 76 50 9b bd 68 02 0f be 02 35 d9 bd
       0.03766299 -0.07583706 -0.13965762 -0.106058136
0000a0 cb 18 ca bc 14 0e 9c bd df c7 05 be 21 ab b4 3c
       -0.024670025 -0.07619873 -0.13064526 0.022054257
0000b0 73 08 ca 3d 0d ee d8 bb 66 1d dd 3b d1 94 b9 bd
       0.09864893 -0.0066201747 0.0067478893 -0.090615876
0000c0 1a a2 3f bb c3 a3 09 be
       -0.0029240907 -0.13441376

fc3.weight f4 [50, 50]
000000 a0 36 08 be 3e 77 e6 3d d0 62 ad bd 0a 14 d4 bd
       -0.13302088 0.112532124 -0.084661126 -0.10355385
000010 1b 60 c1 bc e0 22 38 bd e8 91 00 3e 15 a8 c0 bd
       -0.023605397 -0.044955134 0.12555659 -0.09407059
000020 86 4a 58 bd ff e3 90 3d c2 fc 0f 3e 17 c3 8d 3c
       -0.052805446 0.07074737 0.14061263 0.01730494
000030 58 25 61 bd 3e 50 c8 3d 3f f9 21 3e f4 a0 55 3d
       -0.054967254 0.0978093 0.15817736 0.05215545
000040 d0 ef ce bd f8 10 dd 3c 4e dc f0 3d 7e ec 02 be
       -0.10104334 0.02698563 0.1176077 -0.12785527
000050 99 63 32 3d 60 46 f3 bd a6 a6 4a bd d6 05 0f 3d
       0.043552015 -0.11878657 -0.049475335 0.034917675
000060 45 87 d3 3d 60 12 03 3e 8a 9a c9 3d 16 80 d5 3c
       0.10328535 0.12799978 0.09843929 0.026062053
000070 aa 26 a1 bc a0 1c ba bd 65 03 86 bd b5 ff eb bd
       -0.019671757 -0.09087491 -0.06543616 -0.115233816
000080 0e 39 92 3d 2e 90 2a 3d f8 e4 c2 bd 60 c5 0d 3e
       0.071397886 0.041641407 -0.095163286 0.13844824
000090 ed 86 23 3d e7 b7 ab bd e4 9a e7 bd d7 c9 68 bd
       0.039923597 -0.08384686 -0.1130884 -0.056833114
0000a0 84 72 e2 bd 9c 4e 03 be 9d dd b3 bd d8 96 c0 3d
       -0.11056998 -0.12822956 -0.08782504 0.09403771
0000b0 5d 54 c7 3d 93 97 84 bd 49 33 75 bd f8 7d d7 3d
       0.09732888 -0.06474223 -0.059863362 0.105220735
0000c0 4a 67 0e 3e 22 eb ae 3c 5b 94 02 3e bd 7c d0 bc
       0.13906589 0.021352354 0.12751906 -0.025450105
0000d0 d4 48 e1 bd dc fe 57 bd f4 17 66 bd 4e be 34 3e
       -0.11000219 -0.052733287 -0.056175187 0.1765072
0000e0 2c 10 16 3e e5 54 e2 bd 99 32 1b 3e c9 9e ff bd
       0.14654607 -0.110513486 0.1515602 -0.12481458
0000f0 8a 5e 82 bd 35 4c 34 3e 44 d4 b9 3d 77 81 3e 3d
       -0.06365688 0.17607196 0.090736896 0.046510186
000100 57 c0 7a bd c2 4f 7e bd 94 05 9c bd 09 6e e9 bc
       -0.061218586 -0.06208778 -0.076182514 -0.028494852
000110 de 55 97 3d 31 96 8f bd bf d6 9e bd da 0f 39 bd
       0.07389425 -0.070110686 -0.07755803 -0.045181133
000120 3e cf 1e 3d 15 53 8f bd 67 28 9e bd 0d 3d 8b bd
       0.03877186 -0.069982685 -0.0772255 -0.06798754
000130 3d 51 aa 3d e8 12 d8 bc cc 4a 8d bc 5c 64 1a 3d
       0.08316276 -0.026376203 -0.01724758 0.037693366
000140 d1 65 d2 3c 57 72 b3 3d 24 9c 26 3e 40 32 b6 3d
       0.025683315 0.08762043 0.162705 0.08896303
000150 9e 77 d0 bd 42 57 7b 3d e2 bb ee bd 1a 3b b9 3d
       -0.10179065 0.061362512 -0.116569296 0.09044476
000160 23 2f 09 3d de 14 59 3b 2d 77 98 bc 91 11 72 3d
       0.03349222 0.003312401 -0.018611515 0.059098784
000170 f1 08 b4 bc b3 3f 59 bd 56 d0 35 bd 1a 76 4b bd
       -0.02197692 -0.053039264 -0.044388138 -0.049673177
000180 8d 39 9a 3d 23 f1 de 3d 72 c7 0d 3e f2 6d 7b 3d
       0.07530508 0.10885837 0.13845614 0.06138415
000190 18 8b 02 3e 14 76 a3 3d 9a eb fe 3d 33 8f f3 3c
       0.12748373 0.07981506 0.12447281 0.029731369
0001a0 4d ee b4 ba 6d 8f 9f bd 26 74 12 3e 06 83 f0 bd
       -0.0013803929 -0.07791028 0.1430212 -0.11743741
0001b0 09 5c 83 3d db f8 14 be 3c 0d 8d bd 0c 93 a6 3d
       0.06414039 -0.14548056 -0.0688729 0.08133516
0001c0 4a 5a 09 be d6 4b 1b 3b ee b3 90 bc 80 bf d8 3d
       -0.13413349 0.0023696325 -0.017663922 0.10583401
0001d0 4a d5 08 3e 2c b1 3f be f0 c7 f0 3d 02 94 9f bd
       0.13362613 -0.1871993 0.11756885 -0.07791902
0001e0 79 4e 92 3c e3 c7 e6 3d 18 d0 38 bd 91 e6 ca 3d
       0.017859684 0.11268594 -0.04512033 0.09907258
0001f0 6b c9 26 3c b9 f5 d6 3d ce 5e 8c bc 02 a6 e2 3d
       0.010179858 0.104960866 -0.01713505 0.1106682
000200 4d cf 4d 3e 33 54 fe bd 05 3b 9f 3d 2d 23 14 be
       0.2009861 -0.124184035 0.07774929 -0.14466543
000210 8b 08 c8 3d c1 41 95 3d 2c ac 30 bd 76 42 b4 bd
       0.097672544 0.07287932 -0.043132946 -0.08801739
000220 27 3f 98 bd 3f 6a 0c bd 76 07 b4 bd 59 54 8f 3d
       -0.0743392 -0.03428101 -0.087904856 0.0699851
000230 50 0e 9d 3d 41 a0 bd bb 3d 1a 22 be 4a a3 19 3e
       0.076687455 -0.005786926 -0.15830322 0.15003696
000240 1f ce af 3d 10 0c d3 3d de fc c0 3d f0 01 c0 bb
       0.08584236 0.10305035 0.094232306 -0.005859606
000250 21 f8 68 3d 6a dc bd bd 11 87 ff 3d a1 59 49 3d
       0.05687726 -0.09270556 0.12476934 0.049157742
000260 37 72 6c 3c ab e1 9e bc 09 b0 2b bd b8 85 4d 3d
       0.014431528 -0.019394716 -0.041915927 0.050176352
000270 95 fa d1 3d 29 80 9f 3b 68 ef 9a 3d c0 31 0b 3e
       0.10252873 0.004867573 0.07565194 0.13593197
000280 e9 f9 1b bd 3a 64 5e bd 70 01 ca bd f2 6a 90 b9
       -0.03808013 -0.054294802 -0.098635554 -0.000275455
000290 01 b2 e2 3c 7b 28 c0 3d a4 46 f2 3d fb b6 0a be
       0.02767277 0.09382721 0.1182988 -0.13546364
0002a0 23 7d 85 3c eb 26 fd 3d c0 26 42 3d 50 39 35 bc
       0.016295021 0.12360939 0.047400236 -0.011061028
0002b0 1d a5 17 bd 80 b5 88 bd cc a2 39 3e 7f e7 64 bd
       -0.0370227 -0.066752434 0.18128508 -0.055884834
0002c0 e3 f1 f0 3d b3 de 06 be 62 10 1a 3e 29 58 fa bd
       0.11764886 -0.1317089 0.15045312 -0.122238465
0002d0 93 47 26 be a8 a5 8f bd 43 c9 fb 3b a2 f1 b7 bb
       -0.16238241 -0.07014018 0.0076839044 -0.0056135217
0002e0 5a de 9a 3c 12 8a 28 3e d6 bf 14 3d 54 64 39 bd
       0.018904854 0.1645892 0.03631576 -0.045261696
0002f0 90 a6 e9 bd 00 fc 8a 3d e5 9a 4d 3d 02 a5 2c ba
       -0.114087224 0.067863464 0.050196547 -0.00065858674
000300 04 39 e9 bc 85 e9 1c 3d e7 66 0e bd da 50 6d 3d
       -0.02846957 0.03830864 -0.034766104 0.057938434
000310 9f 54 0f be 3f 42 a7 3c d7 70 b3 bd 9d ac 04 be
       -0.13997124 0.02041733 -0.08761757 -0.12956472
000320 f5 74 ba 3c aa 67 79 3d 9b dc 16 3d 5f 7b 09 3e
       0.022760848 0.060889877 0.03683148 0.13425969
000330 f3 fb 8f bd a7 b5 eb 3d fc 1c 88 bd ba b0 e1 bc
       -0.070304774 0.11509257 -0.06646153 -0.02755009
000340 2d fe 70 3d d5 f0 bb bd 58 4b 6b bd 83 2d e3 3d
       0.05883615 -0.091767944 -0.0574449 0.11092665
000350 86 15 ea 3d 11 8b ce 3d 8f 89 ed 3d 43 73 c2 bd
       0.114298865 0.100851186 0.11598503 -0.09494641
000360 6d 6e c6 3d 6e b6 ab bd 4d 55 d2 bb ef 3c 99 bd
       0.09689031 -0.08384405 -0.00641886 -0.07482325
000370 b3 c4 0f be cc b1 06 bd 9c 8c 18 3e eb 52 7f 3d
       -0.14039879 -0.032884404 0.14897388 0.062334936
000380 ec 3b 60 bd 1f e4 9e bd 2e 4e 66 3d d4 0b b4 bc
       -0.054744646 -0.077583544 0.0562269 -0.021978296
000390 4a 17 20 3e 31 d0 c9 bd 16 54 c9 bd 35 13 c0 bd
       0.15633884 -0.098541625 -0.09830491 -0.093786635
0003a0 3b 58 2b 3c 4e fc 3d 3d 96 a5 8b 3d f4 4e 3c 3d
       0.0104580475 0.046383195 0.068186924 0.045973733
0003b0 a6 4f 8b bd 2c 46 9b bd 3b 89 fb bd 18 e8 94 bd
       -0.06802301 -0.075817436 -0.12282034 -0.07270831
0003c0 0e 76 c6 bd 81 11 17 3e 2f 2a 58 bd b4 b3 0d bd
       -0.09690486 0.14752771 -0.052774604 -0.034595206
0003d0 d3 8c a3 3b c4 ca 71 3d be 01 83 bd 56 5c cf bd
       0.004991153 0.059031263 -0.06396817 -0.101250336
0003e0 75 b0 f0 3c ed 53 64 bd 0e 32 b4 3c 3b f7 7b 3d
       0.029381016 -0.0557441 0.021996524 0.061515074
0003f0 c9 3b a4 3d 45 7a 0e be 48 a1 c9 bd f1 f4 de 3d
       0.080192156 -0.1391383 -0.09845215 0.108865626
