checkpointing_test/sigmoid_example_s12345/models/eval_checkpoint_500.pt (torch, 95431 bytes, 24 tensors)

fc1.weight f4 [50, 7]
00000000: c41b 9fbe 2986 9e3e 424b ca3e f493 223e
00000010: c393 ebbe c41a 653d b0c1 4cbe 0c01 89be
00000020: 913f 07be 4748 a5be 0367 bdbe 42bd f4bd
00000030: 2293 bebd e578 b4be 416a edbd 392d 46be
00000040: 54c1 85bd 5df2 903e be4e b53e b4b7 d63c
00000050: d82e 17be a9ed f9bd d989 ae3e 5b3d c8be
00000060: 31b3 933d 2519 d5bd 5215 81bc 9ee6 b3bd
00000070: 6e22 8cbe ef29 84be 500e 44be 5e8c cfbe
00000080: f7a3 cf3e 8176 26bd ed6f 6d3e 3216 a53e
00000090: c0d3 643e 3758 063e aa2f b03e b0c0 983d
000000a0: c670 63bd 0753 0f3e 3a72 74bd ebb0 26be
000000b0: c6a1 f23c 7908 c63e 7fb2 373e d141 343e
000000c0: 1e66 353e 379f 6bbe 6053 9d3e 5910 2d3e
000000d0: fa1f dbbd 7742 d13a 10e1 393e 1208 e1bd
000000e0: 9c11 e03b 836e 1e3e fba8 adbe 2df6 093e
000000f0: 0b85 163e c571 6c3e 5be1 a7be 379b 8dbe
00000100: 706b 4c3e 5e5a bd3e 169b ac3e 5dce e23d
00000110: 9702 a2bd 1ab4 593d 586e d8be 1c74 8cbd
00000120: fc92 3d3e fe74 77be 708e babe 372d 753e
00000130: 97f5 8ebd f2d9 adbe 22a9 12be f3dc 993e
00000140: 29c5 953e aabf 873d 06e0 3abe f168 90be
00000150: 1f47 c03e 5a78 53be 2a96 59bd 502c 41be
00000160: 4c87 7ebe 8451 bebe 1e17 653e 36e9 95be
00000170: 4149 413d d893 1e3e fbdd 723e 310e d0be
00000180: 3518 0abe 1c46 bcbe 6e3a adbe 05ff 953e
00000190: b3dd 7e3e 8501 6fbd 78e0 45be b671 b0be
000001a0: 9e1a b53e 3110 c03e 4e3e 18be 5fb0 88bd
000001b0: 0a9b 48be c242 823e 70b2 25be 4805 23be
000001c0: 787e adbe 4ba1 b1be 9cb1 8a3d 5711 bd3e
000001d0: daf7 a0be 71ee a03e 3203 493e 8d95 3ebd
000001e0: 9103 75be 456d 643e 805f 9b3e 478f c33e
000001f0: 051f ac3e f5da a33d 692a 03be 72fa 723e
00000200: 942e bfbd 6a74 01bd 7b4b 5e3e 8c12 183e
00000210: 3794 2b3d 72bf ddbe 709c a13e f804 37bd
00000220: dcca be3d 2a3f 0abe 6094 ecbd 2461 1ebd
00000230: af16 39be bf65 a73d ac28 54bc bf9b b93e
00000240: 4fbb 1cbe 09d0 2fbe cb32 ebbd 17a6 0f3e
00000250: f18f 67be 3993 4a3e 5412 b03d fc0c acbe
00000260: 0100 9c3d 79ca 02be 24c0 f5be 0d29 12bd
00000270: 1d41 68be f972 ac3e 2e3a 733e 75e7 e1bd
00000280: a35a c63c f02e bd3e b3af 443e d470 18be
00000290: a6f2 c6be 4457 74be 495d e5bc 4a6c 273c
000002a0: 7469 893e 1765 efbc a667 553e 4b12 693e
000002b0: a3e0 84be 93ea ecbd 4ad4 6e3d d4dc bb3e
000002c0: 0e98 253e 8d6f 86be b6bc babc 0c1e 093e
000002d0: 9a4b 143e d3c7 843e bc2b c8bd c0d7 9e3d
000002e0: 85ec 2cbe 0399 853e bd25 00bd d3fa 96be
000002f0: eadf 19be d697 25bd c87a 9a3e 52f8 cb3c
00000300: 8d4c 88be 7acb d9be b6b3 b8be 8fb1 973e
00000310: 268e 203e 2e1c c9be 4955 013c fba9 623e
00000320: 2e12 6d3d a692 abbe 980c 8d3e 2d85 923e
00000330: d340 b3be 73d5 c2be bd67 a1be 20ca 103e
00000340: be44 4bbe bea4 b63e 035a 683e a5ab 97be
00000350: 1380 b5be 48c6 3bbe 1675 7ebe 865e 873e
00000360: 55d4 3abd 0426 cfbd a24e 8ebc a69a b63e
00000370: e380 be3e 3094 e1be 47b0 243d 1661 97be
00000380: 6e69 e8be 5f3b 813d 7981 b73e d153 8f3c
00000390: af92 f0ba a67f 10bd a207 3d3d 9bde 81be
000003a0: 7186 41be 4699 ddbe d686 47be 51b1 8ebe
000003b0: e6b1 c2be 4a35 eb3d da86 88bd 2b8f d5be
000003c0: 5ab4 54be 36b1 aabd 17d6 1bbc 1509 ad3e
000003d0: 1ac6 b33e bf66 c23d ca2e d1be 259e babd
000003e0: 8ebb d93d b9e5 143e c69b 31be d604 d03c
000003f0: e72c 853d 343f b43e c98f 90be 980d 90be
-0.3107587 0.3096173 0.39510542 0.15876752 -0.4601117 0.05593373 -0.19995761 -0.2675861
-0.13207842 -0.32281706 -0.36992654 -0.119501606 -0.09305407 -0.35248485 -0.11592532 -0.19353189
-0.06531015 0.28309909 0.35411638 0.026210643 -0.14763963 -0.12203533 0.34089544 -0.3910931
0.072119124 -0.104051866 -0.015757237 -0.08784221 -0.27370018 -0.25813243 -0.19146085 -0.4053678
0.40554783 -0.040640358 0.23187228 0.32243496 0.22346401 0.13119589 0.34411365 0.07458627
-0.05552747 0.13996516 -0.059679247 -0.16278426 0.029618155 0.3867834 0.17939185 0.17603232
0.17714736 -0.23009954 0.30727673 0.16900767 -0.106994584 0.0015965243 0.18152261 -0.109878674
0.0068380367 0.15471844 -0.33917984 0.13472815 0.1469919 0.23090275 -0.3278912 -0.27657482
0.19962859 0.36983007 0.3371207 0.11074517 -0.0791065 0.053150274 -0.42271686 -0.068580836
0.18513101 -0.24165723 -0.36436796 0.2394303 -0.06980436 -0.33955342 -0.14322332 0.30051383
0.29251984 0.06628354 -0.1824952 -0.28205064 0.3755426 -0.20651379 -0.053121723 -0.1886456
-0.24856299 -0.37171566 0.223721 -0.29279488 0.047189 0.15486085 0.23717491 -0.40635827
-0.13485797 -0.3677224 -0.3383364 0.29296127 0.24889259 -0.05835106 -0.1932391 -0.34461755
0.3537187 0.37512353 -0.14867517 -0.06674265 -0.19590393 0.25441557 -0.1618135 -0.15919983
-0.3388555 -0.3469337 0.067721575 0.36927292 -0.31439096 0.31431916 0.19630125 -0.04652934
-0.23927142 0.22307308 0.30346298 0.3819525 0.33617416 0.08000747 -0.12809147 0.2372835
-0.09335056 -0.03160516 0.21708481 0.14850825 0.041889396 -0.43310124 0.31564665 -0.044682473
0.09316036 -0.13500658 -0.11551738 -0.03866686 -0.1807506 0.081737034 -0.01294915 0.36251637
-0.15305828 -0.17169203 -0.11484297 0.14028202 -0.22613503 0.19782723 0.08597246 -0.33603656
0.07617188 -0.1277255 -0.47998154 -0.03568368 -0.22681089 0.33681467 0.23752663 -0.11030475
0.02421314 0.36949873 0.19207649 -0.1488679 -0.38857 -0.23861414 -0.027998583 0.010218689
0.26838267 -0.029223008 0.2084032 0.22760884 -0.25952634 -0.11568179 0.058307923 0.36691916
0.16171286 -0.26256981 -0.022795063 0.13390368 0.14481965 0.25933704 -0.09773967 0.07755995
-0.168871 0.260933 -0.03128599 -0.2948824 -0.15026823 -0.040428005 0.301718 0.024898682
-0.26620904 -0.42538053 -0.3607461 0.29627654 0.15679225 -0.39279312 0.007893869 0.22135155
0.057878666 -0.3351032 0.2754867 0.2861723 -0.35010394 -0.38053474 -0.3152446 0.14139605
-0.19850442 0.35672563 0.22690587 -0.29623142 -0.35449275 -0.18337357 -0.24849352 0.26439303
-0.04561265 -0.10114673 -0.01737148 0.35664862 0.37207708 -0.4405837 0.040207174 -0.29566258
-0.45392936 0.06310152 0.35840967 0.017496021 -0.0018354262 -0.035277985 0.046149857 -0.25365147
-0.18898942 -0.43281 -0.1948503 -0.27869657 -0.3802635 0.114847735 -0.06666346 -0.4171079
-0.20771924 -0.083345816 -0.009511492 0.33795992 0.35112077 0.094922535 -0.4085601 -0.09112195
0.10631476 0.14540757 -0.17344579 0.025392931 0.06502705 0.3520447 -0.282347 -0.2813537

fc1.bias f4 [50]
00000000: 2204 b9be a433 67be 4bfe 04bd 9494 013e
00000010: f751 e83e 061c 413d 71ca bbbd 8af6 c83e
00000020: 1850 63be f48d c83c ccf7 32be 9bac 56be
00000030: 5d35 1e3e 3738 483e e1db 103d d77f 6bbd
00000040: 3345 8abe 738a ce3e b896 a33d 54ec 45bb
00000050: 7f0c 8ebd 1af6 7c3d a2c3 a93e 1768 b0bd
00000060: 3151 953e bd54 4c3e bf25 0f3e af83 603d
00000070: 28eb bebc fe64 b9bd ccf0 b33d ddec b1bd
00000080: 4a94 53bd 6420 dabd 41f0 8b3e b46d 70be
00000090: 229a 19be bc95 a0bd 1ada 653e 38c4 a43e
000000a0: aaf2 9c3e aec9 30be f0bc 0c3d d870 903d
000000b0: 2dd1 7fbd 0605 9ebe 7f6b 793c 6d72 92be
000000c0: 1902 2cbe 67cf 153e
-0.36135966 -0.22578293 -0.032469075 0.12654334 0.45375034 0.047145866 -0.09169472 0.39250594
-0.22198522 0.024481751 -0.1747734 -0.20964281 0.15450044 0.19552694 0.035365943 -0.057494964
-0.2700592 0.40340003 0.07987732 -0.0030200677 -0.06935977 0.06175814 0.33157068 -0.086136036
0.29163507 0.199542 0.13979243 0.054813083 -0.02330549 -0.09052466 0.08786163 -0.08687756
-0.05165509 -0.10650709 0.27331737 -0.23479348 -0.15000203 -0.078410596 0.2244648 0.32180953
0.30653888 -0.17264435 0.034359872 0.07052773 -0.062455345 -0.30863208 0.015223383 -0.28602925
-0.16797675 0.14629899

fc2.weight f4 [50, 50]
00000000: e237 543d dcd1 643a 447c 963d 408d 83bd
00000010: d681 2a3e feeb a83d 01f9 a2bd a03f 6ebb
00000020: ec5c 6fbb 9a91 0cbe 7b8d 5abe be36 16be
00000030: 780b 313d ec61 f1bb 6cf8 74bd 41aa d73d
00000040: 5bdd 31be 8486 873d 62d0 67bd 3aca e53d
00000050: 8f10 7c3d 2a55 5d3e ba70 cabd 94a8 f53d
00000060: ff66 e53c 8603 223c d85c 75bc eade 7abe
00000070: ac95 3bbe 8a08 12bd ed04 3cbd 58ad 67bd
00000080: 7752 8b3d 9fd5 143d 65a7 28be bf7d 2dbe
00000090: 61b8 bfbd 34d3 c9bd 52e0 523d 35c8 293d
000000a0: a19b 15bd fb0b ae3d a2e7 c6bd c29c f9bd
000000b0: e45a ba3d 9961 a2bd 9580 db3d 3cff 5e3c
000000c0: cd79 4f3c 0355 883d 53cc 993d 4f7e e13d
000000d0: 8750 353e 1740 b63d d4fb ab3e 429a c0bd
000000e0: b622 0dbd 9c51 503d ce33 933d 2b18 4cbd
000000f0: f26b c5bd d000 56bd 02c4 07be 186f 893d
00000100: 2793 d13d e437 8f3d 1ae1 423d 0b9e b1bc
00000110: 32a8 5f3d b4cb b83c 97f9 20be f8f2 75bd
00000120: d238 493c de00 d2bd ea29 2b3c 8e7e d43d
00000130: a4aa a13d f83e 9a3b 14ba fa3d 38a3 88bc
00000140: 68c5 45be 1dab 9ebd 80bb 91bd e98f c7bd
00000150: 0484 b2bd 4f6d 20be 01d2 493c df58 35be
00000160: 3a6a 0b3e f32f 893b e8a7 d43c 20b2 453d
00000170: 8f24 f3bd a739 933d 946a 68bc 43d6 57be
00000180: 85a8 65bd 1b96 dc3c 0eab 57bd 1d66 043e
00000190: b9a2 babd e062 68bd ddaf 283d 525c 50bd
000001a0: 7539 f1bd 2301 0dbe 83e1 9bbd 137c 893d
000001b0: 01e1 ebbd 61e6 0a3e 3bf0 ed3c 0bce 81bd
000001c0: 722e a73d b2a7 d1bd c300 97bd 6551 bbbd
000001d0: 2d97 0dbe 98bb 98bd 112d 02be 11ae 533d
000001e0: 0a02 093e bc96 a8bd b61b 0cbe 884f cc3d
000001f0: 2452 98bd 908e 62bd 736f c3bd bdd2 aabd
00000200: ea40 c3bd f4ea 6ebd bb85 823c 8e26 043d
00000210: 48ed 883d 4458 e43d 278b 883d 3d87 54bd
00000220: a381 5b3d c934 f83d 379c 04bd d531 cdbc
00000230: 40ba 233d 775f 07bd d6fa afbc 8b23 bf3c
00000240: ed79 093e 9e87 3dbc 01bc 01be fe96 833c
00000250: 2652 efbd c849 013e 44af 383e 336f 1bbd
00000260: 06b3 41bd 6b13 133e e6ce 17be 1711 a4bc
00000270: 1b71 9ebd 68c9 e03d 80c9 eabd 143c 07be
00000280: 0167 c13c b19c ba3b 3738 12be 526f 263e
00000290: e386 9abd 8ba0 adbc fa8e 49be 9336 1a3d
000002a0: 0cf9 e33d 79cb 433e d8d3 c73d ba6a 753c
000002b0: 5542 353d 567c 57bd 12e0 d93c 9ae3 b03d
000002c0: 4f89 9c3d 85e7 583d 446e 5e3d d592 0bbe
000002d0: 6d33 b9bd 23b2 933d 241b adbc fd5b 2d3e
000002e0: 6530 903c d323 32bc ca3e 11bd cb39 163d
000002f0: ccd4 fb3c 5e6c a8bd 9b2b 1dbe 0471 8cbd
00000300: 8b01 29bd 8798 023e 0ec0 0ebe 17c3 0d3e
00000310: 4df3 b13d 6ac4 f2bd 7a17 f03d 59d8 0dbd
00000320: 98e7 9dbd 4df1 35bd 153a 8c3d 6fc9 acbd
00000330: 5e61 d1bd 602d 523d 8a05 2b3d 95a5 25bd
00000340: ffb7 c2bc 6d2c f03d 9ab5 07be 1fdf b5bd
00000350: 91bd ad3c 6931 a7bd 3a38 91bc ac8e 353e
00000360: 8069 013e 455b 993d 5da0 3b3e f1df 18be
00000370: 19c5 223e 6e5d e43d e99d bbbd 02a5 2b3d
00000380: 2933 653e 79ed af3d 4ddf 7a3d d5bd ed3d
00000390: acc5 e63d b18b 8cbd a027 043e 2be9 d93d
000003a0: ad14 aebe 616a 5c3e 73bc 083e 1eb0 283e
000003b0: fcb8 88bd 6531 383e f881 543d d1b7 923c
000003c0: be7e 8fbd 17d7 87bd 6ac9 6d3d f775 40be
000003d0: b93a 3c3e 14b4 1b3d 7a31 253d 246e c3bd
000003e0: 92f7 303e 8967 043e 27b5 06be 8387 6bbd
000003f0: 8933 a63c 9c3f 373d 0744 f33c e885 06be
0.051811107 0.0008728781 0.073479205 -0.06423426 0.16651091 0.08248137 -0.0795765 -0.0036353841
-0.0036523892 -0.13727418 -0.21343033 -0.1466932 0.043223828 -0.0073664095 -0.059807226 0.1053052
-0.17369597 0.06617454 -0.056595214 0.11220212 0.06153923 0.21614519 -0.09884782 0.11995044
0.028003214 0.009888535 -0.014975749 -0.24499097 -0.18318814 -0.035652675 -0.045903135 -0.056561798
0.06802838 0.036336537 -0.16470106 -0.169425 -0.09361339 -0.09854737 0.05148346 0.041450698
-0.036525372 0.08498379 -0.09712149 -0.12188102 0.09099367 -0.079287715 0.107178845 0.013610657
0.012663317 0.0665684 0.07509675 0.110104196 0.177065 0.08898943 0.33590567 -0.09404422
-0.03445693 0.05085908 0.07187615 -0.049827736 -0.096397296 -0.05224687 -0.13258365 0.067106426
0.10233145 0.06993082 0.047577955 -0.021681806 0.054603763 0.02255807 -0.15720211 -0.060046166
0.012281613 -0.10254072 0.010447005 0.10375701 0.07893875 0.0047072135 0.12242523 -0.016679391
-0.19313586 -0.07747481 -0.07115841 -0.097442456 -0.08716586 -0.15666698 0.012318135 -0.17709683
0.13614741 0.004186624 0.02595897 0.048265576 -0.118722074 0.07188731 -0.014185566 -0.21077828
-0.056068916 0.026927045 -0.052653365 0.12929578 -0.09113068 -0.05673492 0.04118334 -0.050869294
-0.11778537 -0.13769965 -0.07611372 0.067131184 -0.115175255 0.13564445 0.029045215 -0.06338128
0.081631556 -0.102370635 -0.07373192 -0.09146384 -0.138272 -0.07457656 -0.12712504 0.051679675
0.13379684 -0.08231875 -0.13682446 0.09976107 -0.07437542 -0.05531174 -0.095427416 -0.083409764
-0.09533866 -0.058329538 0.015932908 0.03226333 0.06685883 0.11149648 0.06667166 -0.051886786
0.053590428 0.12119443 -0.03237554 -0.025048176 0.039972544 -0.033050027 -0.021481913 0.023332378
0.13425417 -0.011567978 -0.12669374 0.01606321 -0.116855904 0.12625802 0.18035609 -0.037947845
-0.04728987 0.14362876 -0.14825019 -0.02002768 -0.07736417 0.10975915 -0.11464214 -0.13206512
0.023608686 0.0056949486 -0.14279257 0.16253403 -0.07545259 -0.021194717 -0.19683447 0.037649702
0.11131486 0.19120587 0.09757203 0.014979059 0.044252712 -0.05260881 0.026596103 0.086371616
0.07643377 0.05295517 0.054304376 -0.1363023 -0.09043012 0.07211711 -0.021131106 0.16929622
0.017601201 -0.010872799 -0.03546027 0.03667621 0.030741118 -0.082237944 -0.15348665 -0.068574935
-0.041261237 0.12753497 -0.1394045 0.13843952 0.08688984 -0.11853869 0.11723228 -0.034630153
-0.077101886 -0.044419575 0.06847016 -0.08436858 -0.102236494 0.051312804 0.04175333 -0.040441114
-0.023769377 0.117272235 -0.13252869 -0.088804476 0.021208556 -0.08163721 -0.017727006 0.17730206
0.12637901 0.074881114 0.18322892 -0.14929177 0.158955 0.11150633 -0.09160978 0.04190541
0.22382797 0.08590216 0.061248112 0.11608473 0.11268172 -0.068625815 0.1290574 0.106401764
-0.3400015 0.21524955 0.13353138 0.16473433 -0.06675908 0.17987593 0.05188176 0.017909916
-0.07006596 -0.06632822 0.05805341 -0.18795 0.18381776 0.038013533 0.040330388 -0.09542492
0.1728194 0.1293012 -0.13155042 -0.05750228 0.020288246 0.044738397 0.029695524 -0.13137019

fc2.bias f4 [50]
00000000: d0c9 083d fdd0 fe3d 4844 b6bd 4831 bfbd
00000010: ee38 9f3c 969a 8abd 950e 103e f7bc 0abe
00000020: 2f62 583d aa2f eebd 68cc 10be a670 833d
00000030: ffeb 993b 989c 2b3c 7605 183e 0f01 2fbc
00000040: 98ba 54bd 1e31 cbbb 5eea f6bc 4ab0 2e3e
00000050: 2b94 24bd 809c 1e3e 31fc a6bc 0194 a7bc
00000060: fa68 3d3d b5c5 49bd 19ad f1bd abe5 ff3b
00000070: c74f 353e 175e eebd d2f5 adbd 42bc 3dbd
00000080: c43b 133e 93f8 4b3d fee4 2e3e fd6b 7e3d
00000090: 4445 90bd e306 1fbe bd91 4d3d 2269 edbc
000000a0: b4b7 bb3c 46bb ad3d 35de 63bc 723e debd
000000b0: 549b edbd 9d03 703d 42ed 00be 4228 f9bd
000000c0: 87cf b23d b9a0 e1bd
0.03339559 0.12442205 -0.08899742 -0.093355715 0.019436326 -0.06767766 0.14068063 -0.13548647
0.05282801 -0.11630185 -0.14140475 0.0641797 0.0046973224 0.010474347 0.14845833 -0.010681405
-0.051935762 -0.0062009236 -0.030141052 0.17059436 -0.040180366 0.15489388 -0.020383926 -0.020456316
0.04624269 -0.049260814 -0.11800594 0.007809361 0.17706214 -0.1163904 -0.08494152 -0.046322115
0.14378268 0.049797606 0.17079541 0.062114704 -0.07044461 -0.15529971 0.050187815 -0.028980795
0.022914745 0.08482985 -0.013907959 -0.10851754 -0.11601892 0.058597196 -0.12590507 -0.12165882
0.08730989 -0.110169835

fc3.weight f4 [50, 50]
00000000: 12d1 b7bd 6583 0bbe 0447 903b 5d17 d8bc
00000010: d965 6d3d 480f 81bc 3cfa b8bb 58fa a1bd
00000020: c239 f73d 3809 04be 0955 f53d 69c3 c1bb
00000030: 019e b3bd f5cb 1e3e 3daf b4bd fdf7 d43d
00000040: 510b c43d dbeb 55bd cb5c 913d 316b b6bd
00000050: 5bdb bf3d 5075 3cbd bd17 ca3d 9290 e63d
00000060: a0fa 683d 230a c53d 40d3 d5bd 667c 1bbd
00000070: 99d5 b93d f3d8 6fbc 4ad6 da3c 1cab a9bc
00000080: 85ae b03d 2be4 c03c f0b7 0a3e b49c 10be
00000090: 6379 da3d e917 bf3d d84c 4b3b 2914 343e
000000a0: 6af8 92bd 66a4 e93c 2678 203d 87e1 16bd
000000b0: 7bbd 863d 3ec1 ad3d fe02 853d b6b5 4bbd
000000c0: 607b c53d 338a dcbc 4cc5 a8bd d85b 3abd
000000d0: 09d2 0dbe 1d69 a83c c4d2 a23d cf41 ebbc
000000e0: 47e2 ac3d 3cb5 ddba 52cc 103e df23 1d3d
000000f0: eb58 553d cb22 123e 8604 44bd 9b2e 023e
00000100: 5950 a0bd 61e2 20bd e1b5 f93b 9f55 26bc
00000110: 4670 be3d 5348 843d b4b0 56bc 5848 183e
00000120: 21fe b83d 2dd5 273d eaf4 6f3c 7935 773e
00000130: d3a5 0c3d 6edc 533e 30b3 bb3d 8270 793c
00000140: 9dc2 cfbd b07f babc 7457 c53d 452c 9fbd
00000150: fb78 2e3e 5da7 143e 4a4b 9b3d 2d5d 343a
00000160: b726 adbd 6415 593e ede8 0ebd b3fa 4b3e
00000170: ce67 423d 5c83 87bd a268 6c3d f59d 6bbe
00000180: 6c15 c63c 1973 823d be78 ab3c 51f1 983d
00000190: b607 bbbd c771 a73c e1f9 073e 69cd 793c
000001a0: 8ea9 e13d cfe8 08bc 2538 3abc c204 b6bd
000001b0: e98e 8dbd 612b afbd 0574 1abd e57f 6b3d
000001c0: 61ce 033d 6e85 36bd d9e1 74bd 5cd8 153e
000001d0: 95f4 ec3d f47b 473d 4be2 76bd 444b 9bbd
000001e0: f5a3 58bd d3e6 c7bc 8e58 e8bd b552 34bd
000001f0: bfef e33c da9d 593e 9b1a 58bd 1599 613d
00000200: 385e 153e aff1 43be 7826 f93c a367 9e3d
00000210: 0bc0 573d 6397 25bd ec09 243d 6527 523e
00000220: 82d1 4cbd 4405 033d e0b6 10be 0bfd d2bd
00000230: 2531 383e ddbb edbd 64ab 9c3d c469 f0bd
00000240: 9a7d 403e b5cd a43c a682 ab3d d515 93bd
00000250: 6787 963c 5499 0c3d e40f 93bd e851 573e
00000260: d60e 943d fbe0 ae3c 7a20 d9bd e47c e7bd
00000270: 728e 2d3d 5034 713d b677 0fbe 6753 a4bd
00000280: 0ca8 ccbd e686 0a3c 4cb9 283e 8ca7 343e
00000290: 8095 d4bc 2d04 293e 3e2d b9bd 2867 1a3e
000002a0: b2b8 73bd 70a6 203e 65bb 1c3e 671c 453d
000002b0: d11a 2c3d 998c bcbc 55e0 24bb 112f ef3c
000002c0: bd26 59bd 1e5d 363e aca2 8c3d f537 403e
000002d0: 05e8 583c 1f94 dfba 1c4d 403d 54ba 843d
000002e0: f02e 3a3d 52f9 20bb 08d5 a1bc a817 7e3d
000002f0: ee03 4d3d e229 c83c c33a 4dbe 357e f1bc
00000300: 0d71 c13d 944d 803d ff16 d2bd 56cd 88bc
00000310: 0a61 833d 61c1 cb3b a6ca 44be fe11 853d
00000320: 5bf8 cf3b 074b eb3c a79e a6bd 2298 cdbd
00000330: 35b2 8f3d 7cb0 c5bd e627 5c3d 5cb6 4abd
00000340: 21d5 663d 4142 dcbd 060f 02bd 4012 13be
00000350: 87b8 87bd 63d2 123d 4847 8e3d 3ff4 073d
00000360: 671a 6f3d c1c4 2e3d 52e1 e43d 6dea a83c
00000370: 2f96 bf3d a27b d53d d59b 083e 0f98 c03d
00000380: 861f e6bd e37f 6abd 97ae d0bd 6fc7 bb3d
00000390: ee78 0dbe 8ccb d5bc dc9e 203c a49f 223e
000003a0: 1426 e7bd 8c21 55bd f3e4 d93d 2dca 6ebd
000003b0: 4a0f b43c bc26 79bc 3baa 053e 92da a93d
000003c0: 2f28 09bd 3e52 c93d 4978 71bd 9bad 113d
000003d0: ca75 21bd cba5 24bd eebc e43c cf15 3b3d
000003e0: 3238 5e3d 6e4a dbbd b778 d0bc 5a5f 1bbd
000003f0: 36e7 9ebd 5172 903d 9258 603d 36c8 203d
-0.08975424 -0.13624342 0.004402997 -0.026378328 0.057958458 -0.015754357 -0.0056450646 -0.079090774
0.12071563 -0.12894142 0.1197911 -0.0059131873 -0.08770371 0.15507491 -0.088224865 0.103988625
0.09572471 -0.052226882 0.07097777 -0.08907164 0.093680106 -0.046010315 0.09867809 0.11258043
0.05687964 0.09621074 -0.10440683 -0.037960432 0.09073944 -0.014639127 0.02671351 -0.020711474
0.08627037 0.023546299 0.13546729 -0.14122277 0.10667684 0.093307324 0.0031021144 0.17585815
-0.071762875 0.028520774 0.039177082 -0.036836173 0.06579109 0.08484124 0.06494711 -0.04973384
0.096426725 -0.026921367 -0.082407564 -0.045497745 -0.13849653 0.020557934 0.079503566 -0.028717903
0.084415965 -0.0016914974 0.14140442 0.038364287 0.052086752 0.14271085 -0.047855876 0.12713091
-0.07827825 -0.03927839 0.0076205586 -0.01015225 0.09298758 0.06459107 -0.013103653 0.14871347
0.09032846 0.040974785 0.014645794 0.24141492 0.03433783 0.20689556 0.09165037 0.015224578
-0.101445414 -0.022765964 0.09635821 -0.077721156 0.17038338 0.14516969 0.075827196 0.00068803394
-0.0845465 0.21199566 -0.034890104 0.19919853 0.047462277 -0.06616852 0.057716973 -0.23009475
0.024180137 0.063696094 0.020931598 0.074679025 -0.0913233 0.020439995 0.13278915 0.0152467275
0.11018668 -0.008356287 -0.011365925 -0.08887626 -0.069120236 -0.08553196 -0.0377083 0.057495017
0.03217924 -0.044560842 -0.059785698 0.14633316 0.11570088 0.048702195 -0.060274404 -0.07582715
-0.052890737 -0.024402058 -0.113450155 -0.044024188 0.02782428 0.21251622 -0.052759748 0.05507763
0.14586723 -0.19135164 0.030413851 0.07734611 0.05267338 -0.040427577 0.040048525 0.2052284
-0.05000449 0.031987444 -0.14132261 -0.1030217 0.17987497 -0.11608098 0.07649878 -0.11738923
0.18797913 0.02011762 0.083745286 -0.071818985 0.018375112 0.034325913 -0.07180765 0.21027339
0.07229392 0.021347513 -0.106018975 -0.11303118 0.042372175 0.05888778 -0.1401051 -0.0802372
-0.0999299 0.008455014 0.16476935 0.17642039 -0.025950193 0.16505499 -0.090418324 0.15078413
-0.05950231 0.15688491 0.1530586 0.04812279 0.04201776 -0.023016261 -0.0025158126 0.029197248
-0.05301546 0.17808959 0.06866965 0.18771346 0.0132389115 -0.0017057693 0.046948537 0.06480852
0.04545492 -0.002456267 -0.019754902 0.06203428 0.050052576 0.024434034 -0.20041947 -0.029479126
0.09445391 0.06264797 -0.102582924 -0.016699474 0.06414993 0.006218121 -0.19217929 0.06497572
0.006346745 0.0287223 -0.08135729 -0.10038783 0.07016412 -0.09652802 0.053748988 -0.049490318
0.0563556 -0.107548244 -0.03175261 -0.1436243 -0.06626993 0.03584517 0.069471896 0.033191916
0.05837479 0.042668108 0.11175789 0.020619595 0.09354817 0.10423972 0.13340695 0.09404003
-0.11236481 -0.05725087 -0.1018955 0.09168898 -0.13815662 -0.026098035 0.0098035 0.1588121
-0.1128656 -0.052033946 0.10639372 -0.05829828 0.021979947 -0.015206989 0.13053219 0.08293642
-0.033485588 0.098301396 -0.058952603 0.035565954 -0.039418973 -0.040197175 0.02792212 0.045675095
0.05425281 -0.10707556 -0.025448186 -0.03793273 -0.07758944 0.07053054 0.054771967 0.039253436

fc3.bias f4 [50]
00000000: 1011 8b3d fc36 803d e9e1 603d 2116 e03c
00000010: 30af 333e c5fa 113d 4b5a 4e3e 63ec 943c
00000020: 55b2 7e3d d71c 263e 225b babc dd76 883d
00000030: 66a8 ee3c f18a b4bd f796 15bd e651 e83d
00000040: 7c66 a93d a2dd ee3d c12a 903d de0f 323e
00000050: 0752 1c3e 5eb5 c73d dfd7 e53d 6c2c 633d
00000060: fa82 143e eafd c23d ecf0 78bc 822c a63d
00000070: 3d2e a13d 0d15 2f3d a3b7 133e 00fa ef3d
00000080: 31ab 163e bff4 1abb d7bc 5fbd ab8c e23d
00000090: 0433 8b3d 697f 093a 2723 de3d c3b6 1a3e
000000a0: 6d51 3c3d 04d4 2fbd 6712 c53d ed78 2c3e
000000b0: 5085 533b a0d7 dabd 3cf0 24bd 8a0b a83c
000000c0: d5b1 9d3d 1690 0e3e
0.06790364 0.062604874 0.054902945 0.027354302 0.17547297 0.035639543 0.20151632 0.018179124
0.06218179 0.16221939 -0.022748534 0.06663296 0.029133033 -0.088155635 -0.036520924 0.11343746
0.082715005 0.11663367 0.07039405 0.17388865 0.15265666 0.0975139 0.11222815 0.055462286
0.14503089 0.095210865 -0.015194159 0.08113958 0.078701474 0.042744685 0.1442552 0.117176056
0.14713742 -0.0023644415 -0.05462345 0.110619865 0.0679684 0.0005245121 0.108465485 0.1510878
0.04597609 -0.042926803 0.096226506 0.16843005 0.0032275505 -0.106856585 -0.040268168 0.020513315
0.076999344 0.13922152

fc1.weight f4 [50, 7]
00000000: 3dce 9dbe 7ffe a63e f295 cb3e 2440 203e
00000010: 1554 e3be 254b 643d 97ac 5fbe ec24 88be
00000020: 6806 06be 66a9 a4be 0259 bbbe 37ed f5bd
00000030: 07b6 c1bd 6c30 b2be fa57 fbbd c41f 46be
00000040: 4ffb 47bd 987e 923e 9c9a b23e 6866 ea3c
00000050: 4e29 20be 3514 dbbd d8ff ab3e 0226 c5be
00000060: 1182 a63d 1a73 cfbd 2fe8 70bc c8df bdbd
00000070: c140 89be 2d8d 8cbe a7b6 40be bcdb c7be
00000080: b046 c73e d11f 57bd d6cd 693e 060c a13e
00000090: 2a47 643e 54e4 033e 1f3c af3e fc89 9d3d
000000a0: 4fc5 5abd 507d 103e 9041 76bd 0ac9 20be
000000b0: 79f0 dd3c 56ce c23e 321c 343e 3d4d 3c3e
000000c0: 6209 353e 8903 73be 01ba 983e 43ea 2c3e
000000d0: 720a dabd 712d 663b fbe4 353e 9016 dbbd
000000e0: b7bf 783b 52f1 1b3e 66b0 a1be 4439 133e
000000f0: 5c35 153e d457 763e 05ee a7be 7760 8fbe
00000100: 732c 4f3e b2c4 be3e ec48 ac3e 55f9 ea3d
00000110: f92b 9cbd 26ca 323d ad3e b8be 7086 91bd
00000120: 081a 2a3e 1bfb 71be e83d bfbe 9ad1 633e
00000130: bb8e 88bd 65a5 b3be ea8a 0dbe c485 923e
00000140: 6d20 903e 03b7 863c 460b 41be 00e2 8bbe
00000150: a843 b73e eceb 59be 5e0d 35bd 51ae 46be
00000160: 9bc7 72be 0776 bdbe 5fd5 6d3e e63e 9abe
00000170: a41a 083d f255 2f3e 9594 663e aabc cdbe
00000180: 8161 06be 879d aebe 8012 9dbe f085 a13e
00000190: 92cd 813e f719 3dbd e782 31be a7e6 aebe
000001a0: 10be b33e 51bc b93e a008 20be 674a 86bd
000001b0: 457b 3dbe bbb0 7b3e 3979 25be ced1 26be
000001c0: 2fb4 b7be dbb4 adbe a5d2 583d ae06 b53e
000001d0: 5bb5 91be 9b8a 9e3e 4d6f 443e 1b80 6fbd
000001e0: fd44 79be 3ea2 643e 1b9d 963e 0848 c13e
000001f0: c701 a83e afd3 8e3d 3af6 03be f39b 763e
00000200: 75fa adbd 8276 fcbc 7139 5a3e fc40 153e
00000210: 3cee 123d 188c c6be b386 993e 0d80 b6bd
00000220: f178 9e3d c64b febd 2dab 24be 399e 80bd
00000230: edf3 2ebe df8d d43d dacd 3cbc 1b06 b73e
00000240: af45 0abe 0a96 1fbe 74e0 dfbd 6d16 083e
00000250: 76cd 63be 0445 303e 2ad9 853d b717 a9be
00000260: 70c9 383d 52ce 03be b923 ddbe 0788 79bd
00000270: f177 7fbe 586a a23e 0add 723e 6fd7 03be
00000280: 8ce6 193c ee63 bc3e ea9c 3e3e 3a89 11be
00000290: b7ce c4be 6812 75be 2f14 e6bc 4248 0d3b
000002a0: d90c 843e 75c5 f1bc 5ee5 553e 95dc 623e
000002b0: 64b1 83be 50f6 e9bd c13e 593d 9589 b53e
000002c0: 8bf0 1f3e 27b8 8cbe 20fc 04bd ebb0 033e
000002d0: fd53 0e3e 17c7 843e dc5e c5bd 3b2b 8c3d
000002e0: 822d 1bbe fc08 853e f589 63bc c4a4 90be
000002f0: 170b 1fbe cc52 5fbd 103a 903e bc73 b53c
00000300: 435a 84be 1ba5 dcbe e7fb b5be bc03 933e
00000310: f63f 1f3e 7a5e c8be 9fb6 093c 3cdb 653e
00000320: 0ffa 4b3d a8f3 a8be 14ed 883e 63b4 933e
00000330: 81b8 b2be a4ee bdbe 57b2 a2be a429 113e
00000340: 6461 3fbe 78d0 b23e ed3d 5e3e 3c34 9fbe
00000350: fa18 b0be 9439 3bbe 8159 73be b5a3 863e
00000360: 5ec6 4abd 8d37 d1bd d370 1ebc ed8a b43e
00000370: aa68 ba3e 2dbb dbbe b4d2 203d dab4 98be
00000380: 29f6 d1be b54d 703d 1b88 b23e 1138 db3a
00000390: 966b 0fbc 0283 7bbd 0ac7 653d 9b78 86be
000003a0: 69e3 47be 817c cebe c634 40be 7e89 8dbe
000003b0: add3 b1be 9277 d93d 6398 92bd ab96 cabe
000003c0: 8c32 4bbe b7af a2bd c528 86bc 9c26 ae3e
000003d0: 061b b93e b9fe b43d b0c1 cebe 935b a1bd
000003e0: 0e4c c73d 6115 163e 16ca 29be e7b2 c73c
000003f0: 7228 693d 066d ab3e 2090 8cbe 481d 93be
-0.3082141 0.3261604 0.39762837 0.15649468 -0.44400087 0.055735726 -0.21843182 -0.2659067
-0.13088381 -0.3216049 -0.36591345 -0.12008136 -0.09458547 -0.34802568 -0.122726396 -0.19348055
-0.04882365 0.28612208 0.34883583 0.028613284 -0.15640756 -0.106972136 0.3359363 -0.3850556
0.08130277 -0.10129376 -0.014703794 -0.092711985 -0.26807216 -0.2745146 -0.18819676 -0.39034832
0.38921118 -0.052520577 0.22832426 0.31454486 0.22292772 0.12880069 0.34225556 0.07692334
-0.053410824 0.14110303 -0.06012112 -0.1570169 0.027092205 0.38048047 0.1758888 0.18388839
0.1767936 -0.23731817 0.2982941 0.16886239 -0.106465235 0.00351223 0.1776313 -0.10697663
0.0037956068 0.15228775 -0.31579894 0.14377314 0.14571136 0.24056941 -0.32798782 -0.28003284
0.202318 0.37259442 0.33649385 0.114733376 -0.076255746 0.043649815 -0.35985318 -0.0710572
0.16611493 -0.23630945 -0.37351918 0.22247925 -0.06667849 -0.35087124 -0.13822523 0.2861768
0.2814974 0.016444689 -0.18851957 -0.27320862 0.35793805 -0.21281403 -0.0442022 -0.19402434
-0.23708956 -0.3700411 0.23225926 -0.30126113 0.03322853 0.1712263 0.22517617 -0.40183002
-0.13123132 -0.3410456 -0.30678177 0.315475 0.2535215 -0.04616734 -0.17335092 -0.3416035
0.35105944 0.36276487 -0.1562829 -0.0655716 -0.18504055 0.24579136 -0.16159524 -0.16290972
-0.35879657 -0.33927044 0.05293526 0.3535666 -0.28458676 0.30965123 0.19183083 -0.05847178
-0.24342723 0.22327515 0.29416737 0.37750268 0.32813856 0.06973969 -0.12886897 0.24082927
-0.084950365 -0.030818228 0.21310975 0.14575571 0.03587173 -0.38778758 0.2998558 -0.089111425
0.077379115 -0.124167964 -0.16080923 -0.062801786 -0.17085238 0.10378622 -0.011523688 0.35746846
-0.13503145 -0.15584579 -0.10931483 0.13289805 -0.22246346 0.17213827 0.065355614 -0.33025905
0.04511398 -0.12871674 -0.43191317 -0.06092074 -0.24948098 0.3172176 0.23717132 -0.1287515
0.009393346 0.3679499 0.18614545 -0.14212504 -0.3843896 -0.23932803 -0.028085796 0.0021557962
0.25791052 -0.0295131 0.20888278 0.22154458 -0.25721276 -0.114239335 0.053038362 0.3545653
0.15619104 -0.27484247 -0.032467008 0.12860458 0.13899226 0.25933143 -0.096372336 0.06844183
-0.15154079 0.25983417 -0.013887872 -0.28250706 -0.15531574 -0.05452232 0.28169298 0.022149913
-0.25850114 -0.43094715 -0.3554375 0.28713787 0.15551743 -0.3913458 0.008405357 0.22446913
0.04979902 -0.32998395 0.26743376 0.28848562 -0.3490639 -0.3709613 -0.31776688 0.14176041
-0.18689495 0.34924674 0.2170331 -0.3109454 -0.34394056 -0.18283683 -0.23764612 0.26296774
-0.049505584 -0.102156736 -0.009670454 0.35262242 0.36407977 -0.4291624 0.039263442 -0.2982548
-0.41008118 0.058667857 0.34869465 0.0016725083 -0.008753678 -0.061404236 0.05609802 -0.2626389
-0.19520344 -0.40329364 -0.18770131 -0.2764396 -0.34731808 0.10618509 -0.07157972 -0.39568076
-0.19843501 -0.07943671 -0.016376862 0.34013832 0.3615343 0.08837647 -0.40382147 -0.078787945
0.09731303 0.14656593 -0.16580996 0.0243773 0.056923337 0.33481616 -0.2745371 -0.28733277

fc1.bias f4 [50]
00000000: 95d4 b5be 1f92 64be a9d4 3dbd 3bd4 0b3e
00000010: 88e7 db3e 408e 183d ff11 c2bd d8f3 c33e
00000020: c4ab 68be f90f 2b3c 17dc 37be 1eca 5fbe
00000030: b1b9 183e eefb 413e 6acb 603d c90a 8dbd
00000040: 326c 8fbe 65bc c53e aef2 ab3d 5999 d2bc
00000050: 8dcb 87bd 879a 633d 771a a43e 6663 aebd
00000060: d05b 8d3e b814 3c3e a090 033e ff4f 283d
00000070: ab4c cebc 990d afbd 8802 933d b25c a1bd
00000080: 54a0 37bd d05a f3bd 0a71 8a3e d966 7bbe
00000090: b0cf 31be 827f d5bd 1bf6 5c3e 1b74 973e
000000a0: b926 9a3e edbb 26be 3d90 c83c a119 723d
000000b0: 5975 61bd 309e 98be 90d4 be3c 38ae 96be
000000c0: 3085 3abe 6744 083e
-0.3551375 -0.22321366 -0.046345387 0.13655178 0.42950082 0.037245035 -0.09476089 0.38271976
-0.22721773 0.01044082 -0.17955051 -0.21854445 0.14914586 0.1894376 0.05488149 -0.06886823
-0.28012234 0.38620296 0.08395897 -0.025707887 -0.06630621 0.05556729 0.3205144 -0.085150525
0.2760911 0.18367279 0.12848139 0.041091915 -0.025183043 -0.085475154 0.07178217 -0.07879008
-0.044830635 -0.118825555 0.27039367 -0.24550952 -0.17364383 -0.10424711 0.21578257 0.2958077
0.30107668 -0.16282625 0.02448284 0.059106473 -0.055043552 -0.29808187 0.023294717 -0.29429793
-0.1821487 0.13307343

fc2.weight f4 [50, 50]
00000000: 0d17 613d 741d 4639 31eb a63d 365a 75bd
00000010: 6120 003e 145f 9c3d 9ac1 abbd a905 d73b
00000020: cbfe 00bb 51a9 f5bd 365d 2fbe 0942 e1bd
00000030: d2fe 853c 9bf0 48bc c89d 38bd 32e4 ba3d
00000040: 4888 21be 6ca7 863d f7e3 83bd 1124 e83d
00000050: 887c 643d ea10 433e f520 cdbd 820b da3d
00000060: bc00 b63c e442 a1bb 5304 43bc ac6f 62be
00000070: 9a26 48be 1900 64bd 8d3a 52bd f6bc 78bd
00000080: b6d6 c83d 3647 813d 0320 2bbe 32d9 3fbe
00000090: 4f90 b1bd 5b9f bdbd d6b9 443d 1f90 253d
000000a0: 47bd 4dbd 419a a13d 76a2 aabd b29b c6bd
000000b0: c01f aa3d 0d9f 99bd 5103 d53d be60 273c
000000c0: 44b7 603b 7341 4e3d c040 bf3d 99ee df3d
000000d0: 0fec 203e 1aea 7a3c e963 963e 27bb bebd
000000e0: a52e f7bc 8b63 913b 61de bcbc dd0d 61bd
000000f0: ea55 b0bd 3519 3cbd 3be3 febd 18c9 8e3d
00000100: c80f bf3d b5ff 713d 1fe2 9c3d 2bcd cebc
00000110: 7d3d 1d3d d841 81bc 82df 18be 8f61 efbc
00000120: 1ab3 8bba edb1 cfbd fe8c db3c 0164 c93d
00000130: a00c 463d a4d1 14bb 44d3 093e cbee 9bbc
00000140: e02f 23be a86d 5abd d0dc afbd b7d1 e7bd
00000150: df18 a7bd 2e3e 11be 9f0e 05bc 5d3e 11be
00000160: d01e 073e 38dd 223c 4f6b 103d ea06 4b3d
00000170: 28a3 f6bd 75b7 923d 380c 02bd f441 36be
00000180: b1e6 85bd 0294 b43c f9bb 61bd 9a34 043e
00000190: ad14 bbbd 3091 69bd 6af2 293d 8cf1 4cbd
000001a0: 557a efbd 7859 0bbe 0c7f 99bd 3d03 893d
000001b0: 6ee4 e9bd 199c 0a3e f06a ec3c a40b 81bd
000001c0: 4ebf a73d 97bf cfbd 1fcc 95bd 96b6 b8bd
000001d0: 501d 0dbe b978 97bd 9040 02be 6a3c 553d
000001e0: c34f 073e c191 a7bd 7b02 0bbe 3d58 ca3d
000001f0: 84ca 95bd 3ba9 61bd f12d c1bd 53d8 a9bd
00000200: 3a99 c1bd 1ab3 6ebd d961 7d3c 2744 003d
00000210: 6b35 893d 63f3 e33d 8b18 863d 172f 52bd
00000220: ce75 5a3d 35b4 f53d 3618 05bd b117 ccbc
00000230: 63ff 243d 61fe 08bd e5ca b3bc f32d c43c
00000240: cdb7 083e cff8 43bc 5bcb 01be 7941 873c
00000250: 2e9a edbd 5e03 003e 60c6 343e d76f 1bbd
00000260: 72e0 50bd 46d7 193e ab87 fbbd 23ab aabc
00000270: a73f 9fbd 276a dd3d adda ebbd da97 08be
00000280: ff7d 2b3d b541 023d 37c3 ffbd 1b38 263e
00000290: 9846 88bd f14c debc 9dad 18be b85c 073d
000002a0: 3c86 d73d f341 3a3e 2ff9 d13d c9a0 e83c
000002b0: 79ba 8a3d be58 42bd c6db 0b3d d8ab a93d
000002c0: 7855 c43d e838 873d fa14 603d 027b 0bbe
000002d0: d7e5 a9bd 3d84 963d 3795 55bc 2441 1c3e
000002e0: f545 803c f015 923a dfbe f4bc 0395 7b3d
000002f0: c1d9 493d d61b 9dbd b38f 07be d07d 7abd
00000300: 4b6b 31bd a61c ce3d 9d4d ebbd 63e5 0b3e
00000310: 1ceb a63d 1114 fabd ba50 e53d c0ec 06bd
00000320: f3e4 9fbd c65d 36bd 4456 b23d 15dd b8bd
00000330: 3c9f f2bd 35d8 193d 1365 253d 41aa 06bc
00000340: a034 0bbd fe2f 093e 3e50 b7bd cc74 29bd
00000350: 3c25 e73b dc10 94bd 42b5 193c 2c1f 1f3e
00000360: bf58 063e 73b7 993d faf9 443e 3171 8bbd
00000370: 0e15 203e 00d5 ab3d 6e01 efbc 205a f33c
00000380: a8d5 4c3e 32a2 823d c0e6 3f3d 32d4 ef3d
00000390: fab7 b33d 2bae b5bd 514a e13d f0e3 c13d
000003a0: 644e 8ebe e0e1 3b3e 64e5 073e 99ad 183e
000003b0: 31cb b1bd d940 293e 570b 173d 90d8 6937
000003c0: 88a9 b8bd bd05 92bd d164 923d 693f 17be
000003d0: a6f3 4a3e b3ec 223d f5a3 0b3d 9a2e cbbd
000003e0: 4058 183e 7871 d13d 0635 06be 3c98 6dbd
000003f0: b9d7 a73c 5fe9 323d cb9d f73c 39fc 05be
0.054953624 0.00018893724 0.08150328 -0.059900485 0.12512352 0.07635322 -0.08386536 0.006561954
-0.0019683118 -0.11995185 -0.17125401 -0.10998923 0.01635686 -0.012264396 -0.045072347 0.09125556
-0.15774643 0.06574902 -0.06439965 0.11335004 0.055782825 0.19049421 -0.10016052 0.10646726
0.022217147 -0.004921304 -0.011902886 -0.22112912 -0.19545975 -0.055664156 -0.05132537 -0.060727082
0.09806578 0.063124105 -0.1671143 -0.18735197 -0.08670103 -0.0925891 0.04802879 0.040420648
-0.050229337 0.0789075 -0.08331768 -0.09697665 0.08306837 -0.0750104 0.10401023 0.010215936
0.0034288922 0.050355386 0.09338522 0.10934181 0.15715049 0.015314603 0.293731 -0.0931304
-0.030173609 0.0044369153 -0.023055257 -0.05494486 -0.08610137 -0.045922477 -0.124456845 0.06971949
0.09329182 0.05908175 0.07660317 -0.025244316 0.038388718 -0.015778467 -0.14929011 -0.029221324
-0.0010658235 -0.101413585 0.026800629 0.09833527 0.048351884 -0.0022707963 0.13459498 -0.019034764
-0.15936232 -0.053327233 -0.085870385 -0.11319297 -0.08159041 -0.14183876 -0.008121162 -0.14183946
0.13195348 0.009940438 0.035258587 0.04956714 -0.12042838 0.07163898 -0.031749934 -0.17798597
-0.065381415 0.022043232 -0.055110905 0.12910691 -0.09134803 -0.057023227 0.04149095 -0.050035045
-0.11693255 -0.13608348 -0.074949354 0.06690071 -0.11420523 0.13536109 0.028859586 -0.063010484
0.08190785 -0.10143965 -0.07314324 -0.090192005 -0.13780713 -0.07396073 -0.12719941 0.05205957
0.1321402 -0.08182097 -0.13575165 0.09880111 -0.073140174 -0.05509303 -0.09432591 -0.08293214
-0.09453054 -0.058276273 0.015465223 0.031314995 0.06699642 0.11130407 0.0654765 -0.05131444
0.053335004 0.119972624 -0.032493792 -0.02491364 0.04028262 -0.03344572 -0.021947334 0.023947692
0.13351364 -0.011961176 -0.1267523 0.016510712 -0.11601673 0.12501284 0.17653799 -0.037948456
-0.050995298 0.15023527 -0.12281736 -0.020833557 -0.077758126 0.108112626 -0.115163185 -0.13339177
0.041868206 0.031800944 -0.12488406 0.1623234 -0.0665409 -0.027136298 -0.14909978 0.033047408
0.1052365 0.1818922 0.10252606 0.02839698 0.06773848 -0.047447912 0.03414514 0.0828473
0.09586614 0.06602651 0.054707505 -0.13621143 -0.082957916 0.07349441 -0.013036064 0.15259224
0.015658358 0.0011145454 -0.02987617 0.061421406 0.049279932 -0.07671325 -0.1323841 -0.06115514
-0.043315213 0.10064058 -0.11489413 0.13661723 0.08150312 -0.122108586 0.11197038 -0.032940626
-0.078073405 -0.044523023 0.0870786 -0.09026543 -0.11846778 0.037559707 0.040379595 -0.008219303
-0.033985734 0.13397214 -0.08950852 -0.04137115 0.007053999 -0.07229778 0.009381594 0.15539235
0.13119791 0.07505693 0.19235983 -0.06808699 0.15633032 0.08390236 -0.029175486 0.02970606
0.20003378 0.063785926 0.04685092 0.11710395 0.08775325 -0.088711105 0.11000503 0.09467304
-0.27794182 0.18347883 0.132711 0.14909972 -0.08681334 0.16528644 0.03687605 1.3938305e-05
-0.090167105 -0.07130001 0.071481355 -0.14770283 0.19819507 0.039776515 0.03409191 -0.09920998
0.14877415 0.102267206 -0.13106164 -0.05800651 0.020488607 0.04367959 0.030226609 -0.13084497

fc2.bias f4 [50]
00000000: ddc0 be3c 59dc e53d dbe0 b6bd 8ff2 b8bd
00000010: 612d 06bb d7ca 87bd d9b1 063e ebee 07be
00000020: 2f8b 4f3d 774a f6bd 8f3e 11be 2216 923d
00000030: db7a c13b 8291 1e3b deab 143e 26b9 d2bc
00000040: b706 6abd ce16 19bc b946 24bd 39b0 1f3e
00000050: ef2c 4ebd a6a2 0d3e 20bc c3bc 37e9 acbc
00000060: ba05 403d 3020 37bd 30b2 edbd be34 16bc
00000070: 8478 213e 1efd ecbd 3852 bdbd fa8a 36bd
00000080: ed71 003e 0417 4b3d 38f4 1c3e 04da 8a3d
00000090: 663a 9dbd 792e 17be 352a 543d db96 eebc
000000a0: c5ce c43c fc5d b13d 0cff 70bc 2625 e3bd
000000b0: 6ff2 e3bd 1a0b 6c3d 81ab 00be 3745 02be
000000c0: 650c b63d f964 debd
0.023285324 0.112236686 -0.089296065 -0.090306394 -0.0020473825 -0.066304855 0.13153781 -0.13274734
0.050669845 -0.12025922 -0.1418402 0.07133128 0.005904538 0.0024195616 0.14518687 -0.025723051
-0.05713531 -0.009343816 -0.04010651 0.15594567 -0.05033582 0.13831577 -0.023893416 -0.0211073
0.04688046 -0.04470843 -0.11606252 -0.009167848 0.1576863 -0.11571716 -0.092441976 -0.044566132
0.12543459 0.049582496 0.15327537 0.067798644 -0.07677154 -0.14763822 0.051798064 -0.029124668
0.024024377 0.08660504 -0.014709245 -0.1109107 -0.11130225 0.057627775 -0.12565424 -0.12721716
0.08889083 -0.10859103

fc3.weight f4 [50, 50]
00000000: 00d9 b9bd 2d04 0abe 5653 973b 2a87 ffbc
00000010: 7401 333d b2a3 7bbc dbc5 52bc a145 9fbd
00000020: 74b0 f63d 73ac 03be 3bb5 e23d f0d8 65bc
00000030: a2e6 b5bd 3323 173e 1a9c b5bd 3b1a bd3d
00000040: dead b53d 6a2c 6cbd 8b01 903d 4e92 bebd
00000050: 54a5 ac3d ab41 7cbd 80a1 c23d 9210 e33d
00000060: 82ca 373d c71e b03d 8116 d3bd d619 56bd
00000070: 5070 a43d 005f a0bc 0287 703c 35f1 93bc
00000080: 6dab 953d caf8 bb3c 895e 073e 148d 15be
00000090: 9518 b13d 7f7c b73d 6835 c5bb edb2 273e
000000a0: 6ea7 9bbd c34e ed3c 53fd 203d 8d2d 31bd
000000b0: 8476 783d 9560 ab3d 8bef 833d 7b2a 49bd
000000c0: d1b7 933d cc9b d5bc 64d6 a0bd 9745 e03b
000000d0: ad7c 0cbe 13ad f93b 17e3 7f3d 89cc e5bc
000000e0: 1bfa 873d ca17 86bc 3a82 103e 3666 1b3d
000000f0: 2cec 393d 2203 053e 53e4 a7bc 160a d23d
00000100: 47c3 33bd b39c 7bbd e67e 34bc 24ad e5bc
00000110: d85c a63d 395a 3f3d 7611 1dbc 809b 163e
00000120: 1049 a63d e7ba 423c 96ce 27bc 2dab 3f3e
00000130: 910d 083d 881b 4d3e 4b42 ab3d 4634 ed3c
00000140: 8193 d8bd 6f93 163a 2402 9a3d 2e8a 9fbd
00000150: 45f9 123e 719f 153e 2822 a33c be29 71bc
00000160: a122 aebd 8d28 433e 3bb5 8abd 3630 1d3e
00000170: 57c2 443d 688f 9bbd dcc5 1c3d 3825 42be
00000180: 29ee be3c b9ee da3c aab8 a53c b41c 993d
00000190: 662b c1bd 5128 353c 82ad 063e 8367 08bd
000001a0: 85a0 e03d 7a4b 00bc bbf8 d6bb ef1b abbd
000001b0: 7a02 94bd 7c09 afbd 95d8 38bd a2aa 3b3d
000001c0: 12dc 0a3d 3ba8 3fbd b89d 88bd 7712 103e
000001d0: 8213 f43d 7894 4b3d 6723 61bd b9f3 8fbd
000001e0: bc18 3dbd 649f bf3b b492 a1bd 124b 73bd
000001f0: 7b3a 9e3c 62dd 433e d4a6 58bd cdb6 9f3d
00000200: e1e5 123e 39bd 05be e769 233d 6432 9a3d
00000210: 1264 6a3d c121 27bd 18ef a33c c3c3 5a3e
00000220: c295 30bd 96f3 893d 69ea 1cbe a7af d2bd
00000230: 2ba4 323e 4a92 ebbd fb3e 9c3d 4c6e e8bd
00000240: a1ca 3d3e 2e5d cdbc e0d5 a93d 76a1 bbbd
00000250: a241 b4bc 8b0f 093d 9c2a 96bd f49b 133e
00000260: b720 923d c77d ed3c a843 d8bd 36aa e4bd
00000270: 775c 0b3d b044 783a 9442 0fbe faf7 a4bd
00000280: a279 c6bd 56f3 963c d963 193e 0ce8 263e
00000290: c465 4dbd 13f7 243e b746 b4bd cac7 153e
000002a0: 56be aebd f651 173e 1f0d 1e3e 466f 473d
000002b0: bc0b 943c 7ae1 15bd 762a ca3b 1d4a e63c
000002c0: 0c4e 5bbd 0183 203e 1797 973d 8c0a 263e
000002d0: 099d d4bc ac2d acbc dbcb 663d e45a 843d
000002e0: 02f5 273d eaee 18bd 9334 88bc 4e60 643d
000002f0: 0d7a 843d 4806 ea3c 87a1 2fbe f2fa ebbc
00000300: b735 bf3d 3560 4d3d e93d d7bd b9e4 1bbd
00000310: f48b 833d 7008 4a3d 1c13 1cbe 50f4 853d
00000320: 34a1 b33a 05cf 5bbc 5c42 a7bd 8959 d3bd
00000330: 36ea 8c3d c3e0 c5bd d294 0e3d b70c 3fbd
00000340: 8943 633d 626f dbbd ca99 11bd 41da 03be
00000350: 6b72 aebd 3a1a 0e3d 15f1 4a3d 9b7d 093d
00000360: 468b 7e3d b066 7d3d 758e e13d f595 d13c
00000370: bbef bf3d c4df 983d d298 023e 51ba ba3d
00000380: f615 e8bd 554c 63bd 5e7f cebd c188 3c3d
00000390: 1973 f4bd cb6a acbd d604 1bb9 8cb1 163e
000003a0: c737 e0bd 9b78 51bd a7a4 f83d e1b3 8abd
000003b0: f038 ac3d c6bb 473d c26c ff3d 2ba7 a43d
000003c0: 3cce e5bc 00c1 c73d 233f 73bd 14cd 9b3c
000003d0: 3658 4ebd 0a68 503b 6ff9 df3c ba82 fc3c
000003e0: 8216 ae3d 480a dbbd f7d0 67bd 9f59 27bc
000003f0: 2622 9ebd 1ab2 263d 7664 193d 9e7f 203d
-0.090745926 -0.13478155 0.0046180887 -0.031192381 0.043702558 -0.015358852 -0.012864555 -0.077769525
0.120453745 -0.12858753 0.11069723 -0.014028773 -0.0888188 0.14759521 -0.08867665 0.09233519
0.08871053 -0.057659544 0.07031544 -0.09305249 0.08429971 -0.061586063 0.0950346 0.11087145
0.04487086 0.0859962 -0.10307027 -0.052270733 0.080292344 -0.01957655 0.014680626 -0.018059352
0.073080875 0.02294578 0.13219656 -0.14604598 0.08647267 0.089592926 -0.0060183294 0.16376849
-0.07600294 0.02896822 0.03930409 -0.04325633 0.0606599 0.08368031 0.064421736 -0.04911278
0.072127946 -0.026075266 -0.07853392 0.0068442333 -0.13719435 0.007619509 0.06247243 -0.028051632
0.06639501 -0.016368765 0.14112177 0.037939273 0.045391247 0.12989476 -0.020494616 0.1025583
-0.043887403 -0.061428737 -0.011016583 -0.028036661 0.08123177 0.046716902 -0.009586683 0.14707756
0.08119404 0.011885381 -0.010242125 0.18717642 0.033216063 0.20030034 0.08362254 0.02895559
-0.10575009 0.0005744015 0.075199395 -0.077900276 0.14352901 0.14611603 0.019913748 -0.014719425
-0.08502699 0.19058438 -0.06772848 0.15350422 0.0480369 -0.07595712 0.03827463 -0.1895951
0.023306923 0.02672516 0.020229656 0.07476178 -0.09432106 0.011056975 0.13152125 -0.03330184
0.10968117 -0.007830495 -0.0065604127 -0.08354937 -0.07227035 -0.08546731 -0.045128424 0.045817025
0.03390128 -0.046791296 -0.066707075 0.14069544 0.11917783 0.049702138 -0.054965403 -0.07028908
-0.046166167 0.0058478583 -0.078893095 -0.059397765 0.019314995 0.1912742 -0.052893475 0.07798538
0.14345504 -0.13060464 0.03989592 0.075291425 0.05722434 -0.040803675 0.02001147 0.2136374
-0.04311157 0.067359135 -0.15323795 -0.10287409 0.17445438 -0.11502512 0.076292 -0.113491625
0.18534328 -0.025068846 0.082927465 -0.091616556 -0.022003952 0.03346209 -0.07332346 0.1441496
0.07135146 0.02899064 -0.105597794 -0.11165278 0.03402373 0.00094706845 -0.13990241 -0.0805511
-0.09691168 0.018426578 0.14979495 0.16299456 -0.05014588 0.16109876 -0.0880255 0.14626995
-0.085323974 0.1477736 0.15434693 0.048690103 0.018072002 -0.036591984 0.0061696125 0.028111512
-0.05354123 0.15674974 0.07401865 0.16214961 -0.025953786 -0.021017872 0.056346755 0.064626485
0.041005142 -0.03733722 -0.016626632 0.055755906 0.06468592 0.028567448 -0.17151462 -0.028806183
0.09336417 0.05014058 -0.10509855 -0.038059924 0.06423178 0.049324453 -0.15241665 0.065407395
0.0013704658 -0.0134160565 -0.08166954 -0.10319812 0.0688061 -0.096620105 0.034809895 -0.046642985
0.05548433 -0.10714604 -0.035547055 -0.12876226 -0.08517917 0.03469298 0.04954632 0.033567052
0.06214454 0.06186551 0.110135 0.0255842 0.09371897 0.07464555 0.12753609 0.09117568
-0.11332314 -0.055492718 -0.10082887 0.046028856 -0.11936016 -0.08418807 -0.00014783753 0.14716166
-0.10948139 -0.05114041 0.1214078 -0.067725904 0.084092975 0.04876306 0.12471916 0.08039697
-0.028052442 0.09753609 -0.059386384 0.019018687 -0.050377093 0.0031800293 0.027340619 0.030824054
0.08500387 -0.1069532 -0.05659577 -0.010214238 -0.07721357 0.040697195 0.037449323 0.039184205

fc3.bias f4 [50]
00000000: e26d 7e3d 4880 5a3d ffa4 663d 1f73 953c
00000010: 5881 2f3e 75b3 e43c 48db 433e 5789 063c
00000020: aafc 583d 393b 0a3e 36a2 e7bc b023 593d
00000030: 958f e53c 19b0 c2bd 0ccb 2cbd d7d4 d43d
00000040: 4464 943d 4913 d63d 28b7 aa3d c63d 233e
00000050: 7291 143e 6b6f c43d fd49 e93d 5a13 2e3d
00000060: 4bbb 113e b376 ad3d 0eca 9abc 280b 893d
00000070: ad3b 9e3d 3b97 0c3d d46a 0b3e 33c1 ff3d
00000080: fc62 123e 7064 84bb 6111 8ebd ef54 d93d
00000090: 13df 8e3d 1e64 3ebc ed5c d63d 40b4 0a3e
000000a0: a3ea 3b3d e369 55bd fa6e 993d 909b 163e
000000b0: ef9e 9aba 47e0 d6bd 17fb 3dbd 8347 af3c
000000c0: 8d61 8d3d 5590 0b3e
0.06211651 0.053344995 0.056309696 0.01824337 0.17139184 0.027917603 0.19126618 0.008211455
0.052975334 0.13499154 -0.02827559 0.05301255 0.028022567 -0.09506244 -0.042185828 0.103921585
0.07245687 0.10452897 0.083357155 0.15941533 0.14508608 0.09591564 0.11391065 0.042498924
0.14231603 0.08469906 -0.018895175 0.06691581 0.07726226 0.034323912 0.1361497 0.12488022
0.14295572 -0.0040402934 -0.069369085 0.10611903 0.06976142 -0.0116205495 0.10466943 0.13545322
0.045878064 -0.052102935 0.0749187 0.1470778 -0.0011796633 -0.10491996 -0.046382036 0.021396404
0.06903372 0.13629277
