checkpointing_test/sigmoid_example_s12345/models/eval_checkpoint_checkpoint_900.pt (torch, 95431 bytes, 24 tensors)

fc1.weight f4 [50, 7]
0	0xbf250469	-0.64459854
1	0x3e202ab3	0.15641288
2	0xbe0cbebf	-0.13744639
3	0x3ec6a579	0.3879812
4	0xbe9751d0	-0.29554605
5	0x3e95be3f	0.2924671
6	0xbddd9cce	-0.10820924
7	0x3e1e17ab	0.15438716
8	0xbea3320f	-0.3187413
9	0x3e09bf99	0.13451995
10	0x3eb6c04c	0.35693586
11	0x3dbca0db	0.09210368
12	0x3ecd5392	0.40102822
13	0xbe843778	-0.2582357
14	0xbe4af7db	-0.19821112
15	0xbe306419	-0.17225684
16	0xbea37742	-0.31926924
17	0x3e2c43ea	0.16822782
18	0x3ea03081	0.31287006
19	0x3e6e912e	0.23297569
20	0xbe13f396	-0.1444839
21	0x3d7298a6	0.05922761
22	0x3e68876b	0.22707908
23	0x3dd87743	0.10569622
24	0x3ec6c5a4	0.38822663
25	0xbde2db85	-0.11077026
26	0x3e87e698	0.26543117
27	0x3e741023	0.2383428
28	0x3eb49e99	0.3527725
29	0x3eb68270	0.3564639
30	0xbe09aafd	-0.13444133
31	0xbe51665e	-0.20449206
32	0xbe6b1957	-0.22958885
33	0xbe685b33	-0.2269104
34	0x3e6fd353	0.23420458
35	0xbe5526b8	-0.20815551
36	0x3e75f455	0.24018987
37	0xbe459f08	-0.19298947
38	0x3d20d137	0.039262023
39	0xbec551a6	-0.38538855
40	0x3e675b0a	0.22593322
41	0xbe2e1b05	-0.17002495
42	0x3e1175a0	0.14205027
43	0x3e8d98c6	0.2765562
44	0xbe0b5dba	-0.13609973
45	0x3eab8e3f	0.33506963
46	0x3e190127	0.14941846
47	0x3e6f65d0	0.23378682
48	0x3e22c135	0.15894015
49	0x3e9d5889	0.3073161
50	0x3d8d6b1f	0.06905197
51	0xbe1b7ca8	-0.15184271
52	0xbe23bcc7	-0.15989982
53	0x3e6a129f	0.22858666
54	0x3c1887aa	0.009309689
55	0x3e383aaa	0.17991129
56	0x3e8a603a	0.2702654
57	0xbce593b4	-0.028024532
58	0xbce95ccd	-0.028486634
59	0x3b37f7e3	0.0028071336
60	0x3ebb67ae	0.3660254
61	0xbea1402c	-0.31494272
62	0x3ea0b1c5	0.31385627
63	0xbd4a8270	-0.0494408
64	0x3ca69332	0.02033386
65	0x3e8454b5	0.25845876
66	0xbe91232e	-0.28347152
67	0xbeab4430	-0.3345046
68	0x3eb9196c	0.36152208
69	0xbe33c70d	-0.175564
70	0x3d5f1876	0.054466687
71	0x3eb9439b	0.3618439
72	0xbe194acf	-0.14969943
73	0x3d78ba3c	0.060724482
74	0x3e8fe7c4	0.2810651
75	0xbe8fe14e	-0.2810158
76	0xbe95c1b4	-0.29249346
77	0x3d8bf915	0.06834618
78	0x3e3c749a	0.18403855
79	0x3da7a7fb	0.081863366
80	0xbe5e215e	-0.21692416
81	0xbe84f015	-0.25964418
82	0xbf07d51c	-0.53059554
83	0x3d9211fa	0.07132335
84	0xbe240b7e	-0.16020009
85	0xbe838f5b	-0.2569531
86	0x3e9b7695	0.30363908
87	0xbe8bbace	-0.27290958
88	0xbd7376f6	-0.059439622
89	0xbdcc1b64	-0.09966162
90	0x3ea4742e	0.32119888
91	0xbe96b169	-0.29432228
92	0x3e5c5178	0.21515453
93	0x3db9ca49	0.09071786
94	0x3e5aae40	0.21355534
95	0x3d87fc1b	0.06639882
96	0xbdbde560	-0.092722654
97	0xbe4bb52f	-0.19893335
98	0x3e39e7fc	0.18154901
99	0x3da98ade	0.0827844
100	0x3e506a1d	0.20352979
101	0xbe0205df	-0.12697552
102	0xbdd54e78	-0.10415357
103	0xbe7b9a63	-0.24570613
104	0xbe010048	-0.12597764
105	0x3ca267e2	0.019824926
106	0xbe5aedc4	-0.21379763
107	0x3e4a91a3	0.19782118
108	0xbd479f7e	-0.048736088
109	0xbec6d933	-0.38837585
110	0x3ecbf781	0.39837268
111	0xbe16be92	-0.14721134
112	0xbef4fe2f	-0.47850177
113	0x3d7fd296	0.06245669
114	0xbdc12122	-0.09430148
115	0x3db4f899	0.08836479
116	0xbdc3ceb0	-0.09560907
117	0x3d27386e	0.0408253
118	0x3e9f52fc	0.31118
119	0xbe841f66	-0.25805205
120	0x3ea79627	0.32731745
121	0xbec399d9	-0.38203314
122	0x3d9569c0	0.07295561
123	0x3eab53ea	0.3346246
124	0xbca86ea5	-0.020560572
125	0xbdf2b7c4	-0.11851457
126	0xbf15f63d	-0.58578855
127	0x3dc0ab63	0.094076894
128	0x3e171f86	0.14758119
129	0x3e56cecf	0.20977329
130	0xbe472258	-0.19446695
131	0xbe03a854	-0.12857181
132	0x3e984a31	0.29744104
133	0xbd2fc95e	-0.042916648
134	0xbedd0708	-0.43169427
135	0xbea0381a	-0.31292802
136	0x3ed64441	0.4184895
137	0xbc1afc2a	-0.009459535
138	0xbc004389	-0.007828602
139	0xbe2b6d7a	-0.1674098
140	0x3e401cfc	0.18761057
141	0xbea1365b	-0.31486782
142	0x3e6c03b6	0.2304829
143	0x3e9699bb	0.29414162
144	0x3e9e377a	0.309017
145	0xbd12d264	-0.035845175
146	0x3dccc3de	0.09998296
147	0x3ecba6ed	0.39775792
148	0xbe14c5e8	-0.1452862
149	0xbe95974a	-0.29216987
150	0xbe45a8e2	-0.19302705
151	0xbdcbeb7e	-0.09957026
152	0x3e8a8c1a	0.27060014
153	0x3e435545	0.19075496
154	0x3ec1c897	0.3784835
155	0x3dbeec21	0.09322382
156	0x3e87ec60	0.26547527
157	0xbe743447	-0.23848067
158	0xbe6cf9d7	-0.23142181
159	0x3e0c7aad	0.13718672
160	0xbe068d00	-0.13139725
161	0x3cfa04cc	0.030519865
162	0x3d253786	0.040336154
163	0x3d24a1fd	0.040193547
164	0xbcf50300	-0.029908657
165	0xbd39ef8a	-0.045394458
166	0xbe294f67	-0.16534196
167	0x3eac8346	0.33693904
168	0xbe83b1c8	-0.25721574
169	0x3e2b95c0	0.16756344
170	0x3e371772	0.17880037
171	0xbdb67b58	-0.08910245
172	0xbdb20bb9	-0.08693642
173	0x3e8fc135	0.28077093
174	0x3e992f41	0.29918864
175	0xbd704fdb	-0.058669906
176	0xbe449980	-0.1919918
177	0xbe49ba88	-0.19700062
178	0xbc112805	-0.008859639
179	0xbec56a94	-0.38557875
180	0x3e0a8955	0.1352895
181	0x3e1c417f	0.1525936
182	0x3e7fac83	0.24968152
183	0xbe9e6885	-0.30939117
184	0x3e3c80f2	0.18408564
185	0xbe97586f	-0.29559657
186	0x3ebab18d	0.36463585
187	0xbdb649a5	-0.08900765
188	0x3e9e5fb4	0.3093239
189	0xbda429bd	-0.080157734
190	0xbe4d9f53	-0.20080309
191	0xbdf6b7c5	-0.1204677
192	0xbe806b38	-0.250818
193	0x3edc7817	0.4306037
194	0x3ec565fd	0.38554373
195	0xbde9b1ad	-0.11410842
196	0xbe2beaf6	-0.16788849
197	0xbd3b1d64	-0.045682326
198	0x3d9aace9	0.07552511
199	0xbe34b558	-0.17647302
200	0x3e88b076	0.2669713
201	0xbd786bab	-0.060649555
202	0x3eaa3e4b	0.3325065
203	0x3e0b3f7f	0.1359844
204	0xbe9135c1	-0.28361323
205	0x3e8a0e77	0.2696416
206	0x3db0c88a	0.08632
207	0xbedadaeb	-0.42745146
208	0x3e97c632	0.296434
209	0xbe4870e1	-0.1957431
210	0x3e367944	0.17819697
211	0x39fbfae1	0.0004806137
212	0xbdd167ce	-0.10224877
213	0xbe0f3fa7	-0.13989125
214	0x3db60ae9	0.088888
215	0x3e74549e	0.23860404
216	0xbe925f20	-0.285882
217	0x3df42932	0.1192192
218	0x3dbee279	0.0932054
219	0x3e3b57a7	0.18295155
220	0xbd717f8d	-0.058959533
221	0xbd70b52a	-0.05876652
222	0xbe252c89	-0.1613027
223	0xbd40d3cb	-0.04707698
224	0x3e355907	0.17709742
225	0x3db1126d	0.086460926
226	0x3e964692	0.29350716
227	0xbe0436c0	-0.1291151
228	0x3e9724fe	0.2952041
229	0xbd89f3ef	-0.0673598
230	0xbd908c53	-0.07058015
231	0xbf2a25bf	-0.66463846
232	0xbcc3701e	-0.023857173
233	0xbe3d1912	-0.18466595
234	0x3ebf6323	0.37380323
235	0x3e8481b4	0.25880206
236	0x3e8fccf7	0.28086063
237	0xbe089d3a	-0.13341227
238	0x3e11cbae	0.14237854
239	0xbdccb255	-0.09994952
240	0xbe8d5eb3	-0.27611312
241	0x3e3277b1	0.17428471
242	0x3e73b98a	0.23801246
243	0xbe65d5a6	-0.22444782
244	0x3eaaf978	0.33393455
245	0xbe01e4c1	-0.12684919
246	0x3e5e73cc	0.2172386
247	0x3d89800d	0.06713877
248	0xbe943def	-0.28953502
249	0x3e44aacf	0.19205783
250	0x3eb047a5	0.3442966
251	0x3e7a3924	0.2443586
252	0xbe38868b	-0.18020074
253	0xbe7051ef	-0.23468755
254	0x3e6f50ec	0.23370713
255	0xbea2dc1a	-0.3180855

fc1.bias f4 [50]
0	0xbdfb1e8d	-0.122616865
1	0xbe963ebd	-0.2934474
2	0x3e588b26	0.21146831
3	0xbd960509	-0.07325179
4	0x3e8f758d	0.28019372
5	0xbd1f29d0	-0.038858235
6	0x3da3395d	0.079699256
7	0x3eb2ebfd	0.3494567
8	0xbe713bce	-0.2355797
9	0x3eb1365d	0.34611788
10	0x3d4866a0	0.048925996
11	0x3f084dc0	0.5324364
12	0x3c6ddbfb	0.014517779
13	0x3ed97d73	0.42478523
14	0x3e7fdb13	0.24985914
15	0xbd1422bf	-0.03616595
16	0x3e1649da	0.1467661
17	0x3e1f2d91	0.15544726
18	0x3e55162d	0.2080924
19	0x3e919e25	0.28440967
20	0x3e2ffaec	0.17185563
21	0xbdd9a7cc	-0.10627708
22	0x3de49ed3	0.11163106
23	0x3e9047b8	0.28179717
24	0x3dd12f05	0.102140464
25	0xbd54826e	-0.0518822
26	0xbe8c6464	-0.27420342
27	0xbe6e3126	-0.23260936
28	0x3ea4fc18	0.32223582
29	0x3d245703	0.040122043
30	0xbe869deb	-0.26292357
31	0xbe284b99	-0.16435088
32	0x3d01b4e2	0.031666644
33	0x3ed3a2cf	0.4133515
34	0xbeb55bec	-0.35421693
35	0xbeafd551	-0.34342435
36	0x3e9baa91	0.3040357
37	0xbe74f41f	-0.2392125
38	0xbd7e47c2	-0.062080152
39	0xbd4afe8d	-0.049559165
40	0x3cc32a39	0.023823844
41	0xbe95cb6c	-0.2925676
42	0xbd0d3264	-0.034471884
43	0xbe599f8b	-0.21252267
44	0x3d008700	0.031378746
45	0x3eaee205	0.34156814
46	0x3cb89218	0.0225306
47	0xbd22c228	-0.039735943
48	0x3eae6901	0.34064487
49	0x3ec55b9b	0.38546452

fc2.weight f4 [50, 50]
0	0xbed48a9c	-0.41512
1	0x3ce9a485	0.028520832
2	0xbd15bbed	-0.036556173
3	0xbd8b4566	-0.06800346
4	0xbb8e4854	-0.0043421183
5	0x3b818a18	0.0039532296
6	0xbd8a7cc1	-0.06762076
7	0x3dbe68e9	0.09297354
8	0x3e18188f	0.14853118
9	0x3d43035e	0.047610633
10	0xbcd22a5c	-0.025654964
11	0x3e43dca3	0.19127135
12	0xbd8690e1	-0.06570602
13	0xbdee099f	-0.11622929
14	0xbdbb698f	-0.09150993
15	0x3dd94da3	0.10610511
16	0xbe6dc926	-0.23221263
17	0xbd4a0a3a	-0.04932616
18	0xbe32942b	-0.17439334
19	0x3e456a5f	0.19278859
20	0x3e1b49eb	0.15164916
21	0xbd7a2cd4	-0.061077908
22	0xbd27b5fd	-0.040945042
23	0xbdcb104a	-0.09915216
24	0xbd6ed2be	-0.05830645
25	0xbddb261d	-0.10700629
26	0xbd750ade	-0.059824817
27	0x3e732c4f	0.23747371
28	0xbdc3b4f6	-0.09556
29	0xbbf73a02	-0.007544757
30	0x3d892d18	0.06698054
31	0xbd4bf2d5	-0.04979213
32	0x3dc46873	0.095902346
33	0xbd2594ca	-0.0404251
34	0x3c545cba	0.012961561
35	0xbc44c767	-0.012010432
36	0xbb122ce2	-0.0022304584
37	0x3e03eb67	0.12882768
38	0x3db9a727	0.09065085
39	0x3e8714fa	0.2638319
40	0x3b2fc7d8	0.0026821997
41	0xbe34e0df	-0.17663907
42	0x3d728905	0.059212703
43	0xbe001fdf	-0.12512158
44	0x3e029ceb	0.12755172
45	0xbd603a0f	-0.05474287
46	0x3d6f98a9	0.058495197
47	0xbdfd6a67	-0.1237381
48	0x3d97bfef	0.07409655
49	0x3dc13216	0.09433381
50	0x3d89e156	0.067324325
51	0x3ced23b0	0.028947681
52	0xbe0314db	-0.12800924
53	0x3e0cc483	0.13746838
54	0x3e184fb0	0.14874148
55	0x3d4df3b6	0.05028125
56	0x3dc3147c	0.095253915
57	0xbd915aa7	-0.07097369
58	0x3da94845	0.082657374
59	0xbd55a157	-0.05215582
60	0x3af6d43b	0.001883156
61	0xbd8d6286	-0.069035575
62	0xbe044add	-0.12919183
63	0xbe20c232	-0.1569908
64	0x3db08c28	0.08620483
65	0x3d10fc27	0.03539672
66	0x3e2a66c8	0.1664077
67	0xbdab8c0b	-0.083763205
68	0x3bb51e52	0.005527296
69	0x3c97f9a4	0.018551655
70	0xbdd1a61c	-0.10236761
71	0x3dce17eb	0.10063156
72	0xbc3b3282	-0.011425616
73	0xbd1dee26	-0.038557194
74	0xbe260935	-0.1621445
75	0xbccb3138	-0.024803743
76	0xbd3f8e11	-0.046766344
77	0xbd222b52	-0.039592095
78	0x3d93498a	0.07191761
79	0xbc56b908	-0.013105638
80	0xbda84d7d	-0.08217905
81	0x3d64725e	0.05577313
82	0x3e0f0451	0.1396649
83	0xbec6d4b8	-0.38834167
84	0x3d2c719c	0.042100534
85	0x3bd209fd	0.006409882
86	0x3c8219b2	0.015881393
87	0xbd9d6384	-0.07684997
88	0xbe1e8a81	-0.15482523
89	0x3e76b725	0.24093302
90	0xbe0eea83	-0.13956647
91	0xbe1f0809	-0.15530409
92	0xbe215a97	-0.15757214
93	0x3ce835d8	0.028345987
94	0xbb9d7aca	-0.0048058974
95	0x3d9dd1eb	0.07706054
96	0x3d46a198	0.04849395
97	0x3d0c63fd	0.034275044
98	0x3d4b29cd	0.04960041
99	0x3df1623d	0.117863156
100	0x3db51202	0.08841325
101	0xbd5269f9	-0.051370595
102	0x3d141e0d	0.03616147
103	0xbde78a06	-0.11305623
104	0x3d63889a	0.055550195
105	0x3d2fd899	0.042931173
106	0xbd98f3f2	-0.07468404
107	0x3dc85bf3	0.09783163
108	0x3e0c1e62	0.13683465
109	0xbd675c40	-0.05648446
110	0x3dbee37c	0.09320733
111	0xbd6f6b3a	-0.05845187
112	0xbb66d953	-0.003522475
113	0x3e4164d7	0.18886124
114	0x3c6641c1	0.014053763
115	0xbe5f26c3	-0.2179213
116	0xbdbc0873	-0.09181299
117	0xbe05c2ad	-0.13062544
118	0x3e1f1567	0.15535508
119	0x3db27eb2	0.087155715
120	0x3d3f64fe	0.046727173
121	0x3bb2dc45	0.005458387
122	0xbd7577ca	-0.059928693
123	0x3dc40732	0.09571685
124	0xbbd34e66	-0.006448555
125	0xbdd32366	-0.10309486
126	0x3df1241c	0.117744654
127	0xbde7f7b1	-0.1132654
128	0xbcf08c81	-0.029363872
129	0xbdfbe594	-0.12299648
130	0xbe12465f	-0.14284657
131	0x3d817df4	0.06322852
132	0x3dbfe3ed	0.09369645
133	0xbde851ab	-0.11343702
134	0x3d5d44be	0.054020636
135	0xbd5922a8	-0.053011566
136	0x3deae68f	0.11469757
137	0xbd987c82	-0.07445623
138	0x3ca41cb3	0.020033216
139	0xbda84cc3	-0.08217766
140	0xbb941e99	-0.004520249
141	0xbd95449f	-0.07288479
142	0x3dfa9465	0.12235335
143	0xbd9719dd	-0.0737798
144	0xbd975c77	-0.07390683
145	0x3e16b574	0.14717656
146	0x3d42c912	0.047555037
147	0xbc62a03c	-0.013832148
148	0xbe27146e	-0.16316387
149	0xbbb0066a	-0.0053718584
150	0xbe16badc	-0.14719719
151	0x3d117ad5	0.035517532
152	0x3d9e5b64	0.07732275
153	0xbd2c50e9	-0.04206935
154	0x3dd7c30b	0.10535248
155	0x3d686607	0.056737926
156	0x3dd223c7	0.1026073
157	0x3d548564	0.051885024
158	0x3d8bfc55	0.06835238
159	0xbcd36602	-0.025805477
160	0x3d385620	0.04500401
161	0x3e2e4c53	0.17021303
162	0xbce77816	-0.028255504
163	0xbd8773a0	-0.066138506
164	0xbe1783f1	-0.14796425
165	0x3db69cfa	0.0891666
166	0xbc658a91	-0.014010088
167	0x3dd46847	0.10371452
168	0x3dbcb6fc	0.09214589
169	0xbe5e9098	-0.21734846
170	0xbdf1dae7	-0.118093304
171	0xbe1eeab1	-0.15519215
172	0xbbf30677	-0.007416542
173	0x3caa35b9	0.02077757
174	0xbd222d83	-0.039594185
175	0x3d5d42f9	0.05401895
176	0x3c25aaa0	0.010111481
177	0xbb781580	-0.0037854612
178	0x3dca1a09	0.09868247
179	0x3de130c2	0.10995628
180	0x3dc0d04b	0.09414729
181	0xbd2f3ca7	-0.042782452
182	0xb8b6afc8	-8.711178e-05
183	0x3d8fb495	0.07016865
184	0xbda12682	-0.07868673
185	0x3b367f49	0.0027846864
186	0x3dca4b0d	0.09877596
187	0x3dfea1f3	0.12433233
188	0xbcc77d34	-0.024351694
189	0xbd00a1f7	-0.03140446
190	0x3dc26807	0.09492498
191	0x3cb21aa9	0.021741228
192	0xbc73be3e	-0.0148769
193	0xbd9b3f0f	-0.07580387
194	0x3dea4db1	0.114406
195	0x3d4643ee	0.048404627
196	0x3d5b78b0	0.053581893
197	0x3c341a87	0.010992653
198	0xbdd91fb4	-0.1060175
199	0xbd7d1fad	-0.061797787
200	0xbe3db56a	-0.18526235
201	0xbdf10268	-0.11768037
202	0xbd2d596a	-0.0423216
203	0xbdc8e62c	-0.09809527
204	0x3d3f9a12	0.046777792
205	0xbc4af0f4	-0.012386549
206	0x3da2d8ed	0.079515316
207	0x3dea9275	0.11453716
208	0xbd7f8a12	-0.062387533
209	0xbccda2ae	-0.025101986
210	0x3dc72add	0.097249724
211	0xbdf22445	-0.11823324
212	0xbc5edc76	-0.013602367
213	0xbda51189	-0.08059985
214	0x3d2e7a0e	0.04259687
215	0x3cb0b5db	0.02157109
216	0x3b7b1f46	0.00383182
217	0x3d388afa	0.045054413
218	0x3d873fbf	0.066039555
219	0xbde8a6d1	-0.11359943
220	0x3b915c48	0.0044360496
221	0xbd4d680b	-0.05014805
222	0xbdfaefe8	-0.1225279
223	0x3db2d7c1	0.08732558
224	0x3d490dac	0.049085304
225	0xbd5a6712	-0.05332095
226	0x3df7e8b6	0.12104933
227	0xbd7e5c11	-0.06209952
228	0x3cfe8671	0.031069966
229	0x3dc35650	0.09537947
230	0x3e10154b	0.14070623
231	0xbe0474ed	-0.12935229
232	0xbd2aceb4	-0.041701034
233	0xbe941634	-0.2892319
234	0xbdf6d6ac	-0.12052664
235	0x3cda8d09	0.026678579
236	0xbe05f70a	-0.13082519
237	0xbdb99cb7	-0.09063094
238	0x3dcaf6a9	0.09910328
239	0x3ddef90e	0.10887347
240	0x3d7d1bd6	0.061794125
241	0x3e2d856b	0.16945426
242	0xbc40c474	-0.011765588
243	0xbcb66181	-0.02226329
244	0x3d5eef12	0.054427214
245	0xbe4a9091	-0.1978171
246	0x3e2866d2	0.16445473
247	0x3d051e1a	0.03249941
248	0xbd8b0fea	-0.06790145
249	0x3d888602	0.06666185
250	0xbd6f4c61	-0.05842245
251	0x3e081842	0.13290504
252	0xbe3431ea	-0.17597166
253	0x3db15ef9	0.08660693
254	0x3d62504b	0.055252355
255	0x3db481c9	0.08813817

fc2.bias f4 [50]
0	0xbd9ccc42	-0.076561466
1	0x3e13d06b	0.14434974
2	0xbab51b37	-0.0013817315
3	0x3cf8d387	0.030374302
4	0x3e4b7fca	0.19872966
5	0xbe077007	-0.13226329
6	0x3e33fa0d	0.17575856
7	0xbdeb32cf	-0.114843
8	0xbd91dd8b	-0.07122334
9	0xbe0def86	-0.13860902
10	0x3e189e46	0.14904127
11	0x3df9118b	0.12161549
12	0x3d2dbe38	0.042417735
13	0x3d31a0a4	0.04336609
14	0x3e0e3529	0.13887466
15	0x3e1b13ac	0.15144223
16	0x3d44ef05	0.04807951
17	0xbe24afa3	-0.16082625
18	0x3d659283	0.056047928
19	0x3e0ae8c5	0.13565357
20	0x3cb99c02	0.022657398
21	0xbdb54737	-0.08851474
22	0x3da5b78a	0.08091648
23	0x3d5624ee	0.052281313
24	0xbe03c647	-0.12868606
25	0xbdfe810e	-0.12426959
26	0x3c210330	0.00982742
27	0xbe1124b2	-0.14174154
28	0x3dcbbe3a	0.09948392
29	0xbbf6c454	-0.0075307284
30	0x3e32792b	0.17429034
31	0xbda830fa	-0.082124665
32	0xbd60f203	-0.0549183
33	0xbc33161e	-0.010930566
34	0x3ddc701e	0.10763572
35	0x3de9ac28	0.11409789
36	0x3d7b6032	0.061371036
37	0xbdab72b7	-0.083714895
38	0xbe16448d	-0.14674588
39	0xbda51090	-0.080598
40	0xbd362c8c	-0.044476077
41	0xbd70ab12	-0.058756895
42	0xbe06c08e	-0.13159391
43	0xbbe02745	-0.006840619
44	0x3dcc0162	0.09961201
45	0x3c8e29fa	0.017354
46	0xbbe33112	-0.00693334
47	0xbdbe848b	-0.09302624
48	0x3cbba024	0.02290351
49	0xbdfa5018	-0.12222308

fc3.weight f4 [50, 50]
0	0xbd4bb726	-0.04973521
1	0x3e21f125	0.15814646
2	0xbd683740	-0.056693316
3	0xbd3e3fdb	-0.046447616
4	0xbcc63e40	-0.024199605
5	0xbc43dd56	-0.011954626
6	0x3e1a967f	0.15096472
7	0xbdc2e0cc	-0.09515533
8	0x3d0915c8	0.033468038
9	0x3d912859	0.07087774
10	0x3e2574cf	0.1615784
11	0x3d7091ff	0.058732983
12	0x3c1dec88	0.009638913
13	0x3e0f2b54	0.13981372
14	0x3e62fffd	0.22167964
15	0x3de124cc	0.109933466
16	0xbda9d45c	-0.082924575
17	0xbc49383c	-0.012281474
18	0x3e00ba5c	0.1257109
19	0xbd9fba08	-0.077991545
20	0x3dacae34	0.08431664
21	0xbd5663eb	-0.052341383
22	0xbd6ba95d	-0.057534564
23	0x3d99b68c	0.07505521
24	0x3dc0995a	0.094042495
25	0x3deae7de	0.114700064
26	0x3e074ca7	0.13212834
27	0x3cd72fd4	0.026267923
28	0xbb668a4b	-0.0035177644
29	0xbdbd06cb	-0.09229811
30	0xbd1dc2d7	-0.038515892
31	0xbe42b555	-0.19014485
32	0x3db9b73e	0.09068154
33	0x3d2ca674	0.04215093
34	0xbd27e0bd	-0.04098581
35	0x3e4f517e	0.2024593
36	0x3dff0abb	0.124532185
37	0xbc79f5ca	-0.015256355
38	0xbdeaff3e	-0.11474465
39	0xbd279b1f	-0.04091942
40	0xbd9981dc	-0.07495472
41	0xbd8b5c6f	-0.0680474
42	0xbd78f25b	-0.060778003
43	0x3dfd1202	0.1235695
44	0x3ddab830	0.10679662
45	0xbc842e18	-0.01613526
46	0xbd74216c	-0.059602186
47	0x3e3a50a0	0.18194818
48	0x3e17b249	0.14814104
49	0x3c2df7d1	0.010618166
50	0x3e074923	0.13211493
51	0x3cf0fbcd	0.029416943
52	0xbda2d919	-0.07951564
53	0xbd6dc383	-0.058047783
54	0xbd189471	-0.03725094
55	0x3e4f5fbd	0.20251365
56	0x3e298b62	0.16557077
57	0xbde3f110	-0.111299634
58	0x3e6bd2ee	0.23029682
59	0xbddd9baa	-0.10820706
60	0xbd6732c4	-0.0564449
61	0x3e36ba1e	0.17844436
62	0x3dec5246	0.1153913
63	0x3dd8b0eb	0.105806194
64	0xbccf8cd1	-0.025335701
65	0xbd692d64	-0.056928053
66	0xbddaffcb	-0.1069332
67	0xbcade5dd	-0.021227771
68	0x3e2dca3c	0.16971678
69	0xbccd4619	-0.02505784
70	0xbdafc7e7	-0.0858305
71	0x3c91ecb2	0.01781306
72	0x3d611552	0.054951973
73	0xbd9a1cce	-0.07525025
74	0xbc553225	-0.013012444
75	0xbda82f66	-0.082121655
76	0x3dbadb3a	0.091238454
77	0xbcde73a9	-0.02715476
78	0x3d098620	0.033575177
79	0x3d1d987e	0.038475506
80	0x3d9b3b38	0.075796545
81	0x3d3c5ce8	0.04598704
82	0x3e3c8788	0.18411076
83	0x3db64e80	0.089016914
84	0xbdc57108	-0.096406996
85	0x375bd890	1.310384e-05
86	0xbe050c42	-0.12992957
87	0x3e1d2ad7	0.15348373
88	0x3d0b08b3	0.033943843
89	0x3c1ee454	0.009697992
90	0xbc9f4b34	-0.01944504
91	0x3dbb9162	0.09158589
92	0xbd2fe171	-0.042939607
93	0xbce7648c	-0.028246187
94	0xbce330ab	-0.027733168
95	0xbd353af6	-0.044245683
96	0x3d9a2590	0.07526696
97	0x3e524210	0.20533013
98	0x3e213025	0.15741022
99	0x3db254ae	0.087075576
100	0x3e31f742	0.17379478
101	0x3e036f27	0.1283537
102	0x3e01036d	0.12598963
103	0x3cdcbe4a	0.026946206
104	0x3cdab657	0.026698275
105	0xbd9444ee	-0.0723971
106	0x3e313645	0.17305858
107	0xbdf1dba5	-0.11809472
108	0x3ddbd2a8	0.10733539
109	0xbe0ff034	-0.14056474
110	0xbd7a781a	-0.061149694
111	0x3dd6dde9	0.10491545
112	0xbe189446	-0.14900312
113	0x3b18d3df	0.0023319644
114	0xbc725a4b	-0.014792035
115	0x3ddfe725	0.10932759
116	0x3df91443	0.12162068
117	0xbe5af19a	-0.21381226
118	0x3e1e3d1e	0.15453002
119	0xbdb15a5f	-0.08659815
120	0x3d03ca28	0.032175213
121	0x3df6646c	0.12030873
122	0xbd2cf391	-0.04222447
123	0x3e1396a7	0.14412938
124	0x3c70e3ac	0.014702719
125	0x3dd43633	0.103619
126	0x3c200bbf	0.0097684255
127	0x3de50fbb	0.11184641
128	0x3e7c78de	0.24655482
129	0xbdff587b	-0.12468048
130	0x3e2ba472	0.1676195
131	0xbe2c0456	-0.16798529
132	0x3e064fa5	0.1311632
133	0x3d95c9ff	0.07313918
134	0xbc93f104	-0.018059261
135	0xbdc6ed4d	-0.0971323
136	0xbdd39b95	-0.10332409
137	0xbcba061c	-0.022707991
138	0xbdb36f42	-0.08761455
139	0x3e6c0091	0.23047091
140	0x3d890bc1	0.06691695
141	0x3c4eb3ba	0.012616092
142	0xbe278c0f	-0.16362022
143	0x3e8733a6	0.26406592
144	0x3dafff75	0.085936464
145	0x3dfdac19	0.12386341
146	0x3dc0ae5b	0.09408256
147	0x3dd09e07	0.10186391
148	0x3d88fa4f	0.066883676
149	0xbdbf24a2	-0.09333159
150	0x3e44a9d6	0.19205412
151	0x3d5d9c5d	0.054104198
152	0xbd3cb1ad	-0.046067882
153	0x3db2cae3	0.08730104
154	0xbd0aa456	-0.03384813
155	0x3dd7b3e1	0.10532356
156	0x3e17f174	0.14838201
157	0x3b8611d5	0.004091481
158	0x3d74308d	0.059616614
159	0x3ddd4c54	0.10805574
160	0xbd981f96	-0.074278995
161	0x3b61bb44	0.0034443894
162	0xbdd26594	-0.10273281
163	0xbcb4236b	-0.021989545
164	0x3d59627c	0.053072438
165	0x3e017aa5	0.12644441
166	0x3dd34bec	0.10317215
167	0xbe326fc5	-0.17425449
168	0x3d232d8b	0.039838355
169	0x3e200d6d	0.15630122
170	0x3e03a6f0	0.1285665
171	0x3cdb20cb	0.026749035
172	0xbd249ea6	-0.04019036
173	0x3d43aec5	0.047774095
174	0x3e575f4c	0.21032447
175	0xbc781d85	-0.015143757
176	0x3e226fa4	0.158629
177	0xbe07e2d0	-0.13270116
178	0x3e159fbc	0.14611715
179	0xbdfde0e2	-0.123964086
180	0xbe07f625	-0.1327749
181	0xbddbfe0c	-0.10741815
182	0xbacbec6e	-0.0015558132
183	0xbbc473d7	-0.0059952545
184	0x3d95c947	0.07313781
185	0x3e329597	0.17439876
186	0x3dcb0909	0.09913833
187	0xbbfc5a9f	-0.0077012326
188	0xbdea1359	-0.114294715
189	0x3e2c691b	0.1683697
190	0x3e091d69	0.13390125
191	0x3c964dcc	0.018347643
192	0xbc92d96d	-0.017925942
193	0xbac3423c	-0.0014897059
194	0xbd1100cf	-0.03540116
195	0x3de7ffc3	0.113280796
196	0xbe0fd86b	-0.140474
197	0xbcdef524	-0.027216502
198	0xbd8eefe1	-0.06979347
199	0xbd8bb3ba	-0.068213895
200	0x3dab6f58	0.083708465
201	0x3d9d6e16	0.07687013
202	0x3dbc615c	0.09198257
203	0x3e32e40b	0.17469804
204	0xbd2a77ce	-0.04161816
205	0x3e350cfd	0.17680736
206	0xbd2a2cff	-0.041546818
207	0xbce693ef	-0.028146712
208	0x3deddb61	0.11614109
209	0xbdbe1732	-0.09281768
210	0xbd62758f	-0.055287894
211	0x3e28041f	0.16407822
212	0x3d3f7a7a	0.046747662
213	0x3dea4319	0.11438579
214	0x3e199987	0.14999972
215	0xbd9ab285	-0.07553581
216	0x3ddfad02	0.109216705
217	0xbdc1ee32	-0.0946926
218	0xbdf7476e	-0.12074171
219	0xbda6caa6	-0.08144121
220	0xbe2ac979	-0.16678418
221	0xbd5d5b99	-0.054042432
222	0x3e19fd80	0.15038109
223	0x3e1231ba	0.14276782
224	0x3e38d036	0.18048176
225	0x3d3606ec	0.044440195
226	0x3da92ff2	0.08261098
227	0xbcbbb113	-0.022911584
228	0x3e18e597	0.14931332
229	0xbdcabdda	-0.098994926
230	0xbda8f671	-0.0825013
231	0xbdde5c0e	-0.10857402
232	0x3bbef40d	0.005827433
233	0x3d3de4a8	0.04636064
234	0x3db889b4	0.0901064
235	0x3cab4670	0.02090761
236	0xbceb9f0d	-0.028762365
237	0xbdc8406b	-0.09777912
238	0xbdfb9034	-0.12283364
239	0x3e12d04f	0.14337276
240	0xbd2387e7	-0.03992453
241	0x3e4cb296	0.1999
242	0xbda60dbf	-0.081080906
243	0xbd8ed97b	-0.06975075
244	0x3b97bb37	0.004630472
245	0x3d4280e2	0.047486193
246	0xbd84e5ef	-0.06489169
247	0xbdb542ab	-0.088506065
248	0x3d5ab082	0.053390987
249	0xbd03205a	-0.032013275
250	0x3d40d1f7	0.047075238
251	0x3dbb1c2d	0.091362335
252	0x3d0f70a5	0.035019536
253	0xbdda5ac5	-0.10661844
254	0xbe231b2b	-0.15928333
255	0x3e04ccf7	0.12968813

fc3.bias f4 [50]
0	0x3d7498f4	0.05971618
1	0x3dbad479	0.09122557
2	0xbcc15a6e	-0.02360269
3	0xbd6e3080	-0.058151722
4	0x3ce2a8b2	0.02766833
5	0x3de55cb5	0.11199323
6	0xbd4ab141	-0.04948545
7	0x3cdae269	0.026719289
8	0x3dd420ab	0.103577934
9	0xbda5f1bc	-0.08102748
10	0xbd84fa5d	-0.064930655
11	0xbcb9e621	-0.022692742
12	0xbdb135df	-0.08652853
13	0x3e04e3f4	0.12977582
14	0x3cf528e5	0.029926727
15	0x3dee935c	0.116492
16	0xbdd1d742	-0.10246135
17	0x3d65ae02	0.05607415
18	0x3d71b9df	0.05901515
19	0x3ded87fe	0.11598204
20	0x3d9d4873	0.07679834
21	0xbd874862	-0.06605603
22	0x3b9569eb	0.0045597455
23	0x3e2f424b	0.17115133
24	0x3e58ab7a	0.21159163
25	0x3e147be6	0.14500389
26	0x3d6663c4	0.056247488
27	0xbcd4eed1	-0.025992783
28	0x3e3029fd	0.17203517
29	0x3cc11504	0.023569591
30	0x3dbbd69a	0.091717914
31	0xbda71fbf	-0.08160352
32	0x3bf7fc47	0.0075679156
33	0x3be50d4b	0.00699011
34	0x3d9cb099	0.07650871
35	0x3d8fa5e1	0.07014061
36	0x3dad8cc4	0.084741145
37	0xbd0be334	-0.034152225
38	0xbd51113c	-0.051041827
39	0x3e86ea30	0.26350546
40	0x3bb4e54b	0.005520498
41	0x3d378561	0.044804934
42	0x3de1d726	0.110273644
43	0x3d950f84	0.0727835
44	0x3d854f14	0.065092236
45	0xbdc0052a	-0.09375985
46	0x3dc8ff0b	0.098142706
47	0xbc52c38c	-0.012864005
48	0xbdb8fb92	-0.09032358
49	0xbc873394	-0.016504087

fc1.weight f4 [50, 7]
0	0xbf1bab35	-0.60808116
1	0x3e10a732	0.1412628
2	0xbe3033f4	-0.17207319
3	0x3ec5dda5	0.38645664
4	0xbe8aa9cd	-0.27082673
5	0x3e8b3aa7	0.27193186
6	0xbde814fd	-0.11332128
7	0x3e1635ed	0.14669009
8	0xbea4ff25	-0.3222591
9	0x3e069c4b	0.13145559
10	0x3eb5ef56	0.3553416
11	0x3dbf9cc6	0.09356074
12	0x3ecfc25a	0.40577966
13	0xbe8168a2	-0.2527514
14	0xbe42e54c	-0.19032782
15	0xbe2a1a2a	-0.16611543
16	0xbea594cb	-0.32340083
17	0x3e2ba311	0.16761424
18	0x3ea1eb04	0.31624615
19	0x3e6c758a	0.23091713
20	0xbe0dc99c	-0.13846439
21	0x3d3092a2	0.04310859
22	0x3e5f4c11	0.21806361
23	0x3dd1debf	0.102475636
24	0x3ec4ad82	0.38413626
25	0xbdec1662	-0.11527707
26	0x3e870df9	0.26377848
27	0x3e75e634	0.24013597
28	0x3eb43be1	0.35201934
29	0x3eb171ba	0.3465708
30	0xbe0fb48f	-0.14033721
31	0xbe5d0e74	-0.21587545
32	0xbe766fe1	-0.24066116
33	0xbe6fd791	-0.23422076
34	0x3e6ec0e3	0.23315768
35	0xbe5c5ebf	-0.21520518
36	0x3e6eb498	0.23311079
37	0xbe5eee55	-0.21770604
38	0x3d18056c	0.037114546
39	0xbebe4086	-0.37158602
40	0x3e5460ae	0.20740005
41	0xbe223a11	-0.15842463
42	0x3e075477	0.13215815
43	0x3e89c7e6	0.26910323
44	0xbe0e266b	-0.13881843
45	0x3ea73670	0.3265872
46	0x3e175dbc	0.1478185
47	0x3e6bb33a	0.23017588
48	0x3e200b4e	0.15629312
49	0x3e9a23cb	0.30105433
50	0x3d890a88	0.06691462
51	0xbe13b365	-0.14423902
52	0xbe2dad76	-0.16960701
53	0x3e67dc1b	0.22642557
54	0x3c42c56b	0.011887888
55	0x3e3d0ca3	0.18461852
56	0x3e88f438	0.26748824
57	0xbcf2bb45	-0.029630313
58	0xbd02f28e	-0.0319696
59	0xba7007b3	-0.0009156421
60	0x3ebb2a57	0.3655574
61	0xbea2a3f1	-0.31765702
62	0x3ea0f63f	0.3143787
63	0xbd135aec	-0.03597538
64	0x3d0d49db	0.034494262
65	0x3e88e4bc	0.2673701
66	0xbe8725c2	-0.26395994
67	0xbea801f4	-0.3281399
68	0x3ebbfa94	0.36714613
69	0xbe35b197	-0.17743526
70	0x3d414cd3	0.047192406
71	0x3eb8906d	0.36047688
72	0xbe142500	-0.1446724
73	0x3d49bcf9	0.049252484
74	0x3e90930e	0.28237194
75	0xbe8dd9af	-0.27705142
76	0xbe9691d6	-0.2940814
77	0x3d7773a0	0.060413003
78	0x3e37b5c7	0.17940436
79	0x3da21bbd	0.07915447
80	0xbe67fba4	-0.22654587
81	0xbe865dcc	-0.26243436
82	0xbf022f96	-0.5085386
83	0x3d8f55eb	0.069988094
84	0xbe284987	-0.16434298
85	0xbe81b813	-0.2533575
86	0x3ea00baf	0.31258914
87	0xbe8a6f82	-0.270382
88	0xbd70425e	-0.058657043
89	0xbde9c71b	-0.114149295
90	0x3e9b0f3b	0.30285057
91	0xbe8e1e75	-0.27757612
92	0x3e586840	0.21133518
93	0x3dc3cb9f	0.09560322
94	0x3e5645bb	0.20925038
95	0x3d80f263	0.062962316
96	0xbdc38dfe	-0.09548567
97	0xbe42db42	-0.19028953
98	0x3e34f6ae	0.17672226
99	0x3da9eb55	0.08296839
100	0x3e4c600a	0.19958511
101	0xbe0d9184	-0.13825041
102	0xbdd728c8	-0.10505825
103	0xbe7eeca7	-0.24894963
104	0xbe0bae95	-0.13640817
105	0x3c5c7398	0.013455294
106	0xbe581e4a	-0.21105304
107	0x3e4824b0	0.19545245
108	0xbd340811	-0.043953005
109	0xbec1bde0	-0.37840176
110	0x3ed298d6	0.4113223
111	0xbe3b8948	-0.18314087
112	0xbeeb62d0	-0.45973825
113	0x3d626132	0.055268474
114	0xbdbad81f	-0.09123253
115	0x3dad9f71	0.08477677
116	0xbdc7427d	-0.097294785
117	0x3d07bc3e	0.033138506
118	0x3ea39387	0.31948492
119	0xbe830825	-0.2559215
120	0x3ea5ba28	0.32368588
121	0xbec8799a	-0.39155275
122	0x3d954211	0.07287992
123	0x3eac1ae0	0.33614254
124	0xbcc3d91f	-0.023907242
125	0xbdeaa567	-0.11457329
126	0xbf11b4ac	-0.5691631
127	0x3d9eb15f	0.077486746
128	0x3e0bed9e	0.13664863
129	0x3e54360d	0.20723744
130	0xbe3e7b4c	-0.18601722
131	0xbe0ac96c	-0.13553399
132	0x3e9cda68	0.3063538
133	0xbd17f1c8	-0.037095815
134	0xbecae9f1	-0.39631608
135	0xbe939770	-0.28826475
136	0x3eddac4e	0.4329552
137	0xbc816c89	-0.015798824
138	0xbc42744d	-0.011868549
139	0xbe3b000f	-0.18261741
140	0x3e3d64a0	0.18495417
141	0xbea2f54a	-0.31827766
142	0x3e62000d	0.22070332
143	0x3e945d81	0.28977588
144	0x3e9fd646	0.31218165
145	0xbd20195a	-0.039086677
146	0x3dd4407f	0.10363864
147	0x3ec8024d	0.39064255
148	0xbe1fdc42	-0.15611365
149	0xbe9491e5	-0.2901756
150	0xbe56fe93	-0.2099555
151	0xbdcb62a4	-0.099309236
152	0x3e892c74	0.26791728
153	0x3e484add	0.19559808
154	0x3ebf5327	0.37368128
155	0x3da56953	0.080767296
156	0x3e85e107	0.26148245
157	0xbe775cd9	-0.24156512
158	0xbe78c2d0	-0.24293065
159	0x3e03a892	0.12857273
160	0xbe0042f6	-0.12525544
161	0x3d10ea46	0.03537967
162	0x3d3cfc31	0.046138946
163	0x3d2003ef	0.03906625
164	0xbcd18ff9	-0.025581347
165	0xbd2f4726	-0.04279246
166	0xbe23c861	-0.15994407
167	0x3ead4cef	0.33847758
168	0xbe85478c	-0.26031148
169	0x3e31ed78	0.17375743
170	0x3e376a65	0.1791168
171	0xbdb60a2a	-0.088886574
172	0xbdb76e40	-0.089565754
173	0x3e90bb8d	0.2826809
174	0x3e97741f	0.2958078
175	0xbd84be6f	-0.06481635
176	0xbe487f3e	-0.19579789
177	0xbe51438d	-0.20435925
178	0xbc9659c0	-0.018353343
179	0xbeb9a267	-0.36256716
180	0x3e1d1710	0.15340829
181	0x3e18a6f2	0.14907435
182	0x3e818c45	0.2530233
183	0xbe9d8c81	-0.30771258
184	0x3e3a34cf	0.18184207
185	0xbe95c002	-0.29248053
186	0x3ebb0e0b	0.3653415
187	0xbdb262a4	-0.087102205
188	0x3ea02770	0.31280088
189	0xbdbc24de	-0.09186719
190	0xbe4fc811	-0.20291163
191	0xbdf85260	-0.12125087
192	0xbe783460	-0.2423873
193	0x3edbdf9c	0.42944038
194	0x3ec620fa	0.38697034
195	0xbdefeea1	-0.11715437
196	0xbe2c5a2b	-0.16831271
197	0xbd35f62e	-0.04442423
198	0x3daa9e51	0.08330978
199	0xbe3648c5	-0.17801197
200	0x3e8a59dc	0.27021682
201	0xbd491ebe	-0.049101584
202	0x3eab1f36	0.3342225
203	0x3e044b15	0.12919267
204	0xbe90ffdb	-0.28320202
205	0x3e84954d	0.25895157
206	0x3da7f300	0.082006454
207	0xbedd88fc	-0.43268573
208	0x3e95f5a4	0.2928897
209	0xbe5d05d9	-0.21584262
210	0x3e33cf39	0.17559518
211	0x394f9cb1	0.0001979943
212	0xbdd1dff4	-0.10247794
213	0xbe08a316	-0.13343462
214	0x3db2d25a	0.087315276
215	0x3e790587	0.24318515
216	0xbe8e5578	-0.27799582
217	0x3de6185b	0.11235114
218	0x3db69770	0.08915603
219	0x3e3ae98c	0.18253154
220	0xbd5b3afd	-0.053523052
221	0xbd5e7597	-0.05431136
222	0xbe23a59d	-0.15981145
223	0xbd52bf48	-0.05145195
224	0x3e301be8	0.17198145
225	0x3dac8b01	0.084249504
226	0x3e978eac	0.29601038
227	0xbe08b1d6	-0.13349089
228	0x3e98da08	0.29853845
229	0xbd7d1ffc	-0.06179808
230	0xbd819e49	-0.063290186
231	0xbf21890f	-0.6309976
232	0xbd15835a	-0.03650222
233	0xbe38d1d1	-0.18048789
234	0x3ec0ce75	0.37657514
235	0x3e84f72b	0.25969824
236	0x3e87a227	0.264909
237	0xbe0bbec0	-0.13646984
238	0x3e0e2303	0.13880543
239	0xbdd24d6b	-0.102686726
240	0xbe8efe51	-0.27928403
241	0x3e2eda87	0.17075549
242	0x3e70a547	0.23500548
243	0xbe670d40	-0.22563648
244	0x3eacb733	0.3373352
245	0xbe027756	-0.12740836
246	0x3e61ee92	0.22063664
247	0x3d809157	0.062777214
248	0xbe941701	-0.289238
249	0x3e45943c	0.19294828
250	0x3eb11596	0.3458678
251	0x3e78e003	0.24304204
252	0xbe361365	-0.17780836
253	0xbe6e3053	-0.23260622
254	0x3e627455	0.2211469
255	0xbea513e9	-0.32241753

fc1.bias f4 [50]
0	0xbe13e079	-0.14441098
1	0xbe95b48d	-0.29239312
2	0x3e57d2da	0.21076527
3	0xbd9e6a1f	-0.07735085
4	0x3e8bdc50	0.27316523
5	0xbd137a2e	-0.03600519
6	0x3d92c5b3	0.071666144
7	0x3eb17eb6	0.34666985
8	0xbe7361ff	-0.23767851
9	0x3eb0f5ac	0.34562433
10	0x3d250a3b	0.04029296
11	0x3f05ec51	0.52313715
12	0x3bd8b31c	0.0066131484
13	0x3ed23e0e	0.4106297
14	0x3e80fb91	0.2519193
15	0xbd1bd11a	-0.03804121
16	0x3e07d87b	0.13266174
17	0x3e1dd8a3	0.15414672
18	0x3e45726c	0.1928193
19	0x3e938b24	0.28817093
20	0x3e2c586a	0.16830602
21	0xbde51a1b	-0.1118662
22	0x3dd8a96c	0.1057919
23	0x3e93ae8e	0.28844112
24	0x3dd39a6a	0.103321865
25	0xbd70b74b	-0.05876855
26	0xbe8b8b2f	-0.27254626
27	0xbe6b981a	-0.23007241
28	0x3ea6b0e8	0.32556844
29	0x3d0f303e	0.034958117
30	0xbe88aa9b	-0.26692662
31	0xbe27394e	-0.16330454
32	0x3cf02f41	0.029319407
33	0x3ec72134	0.3889252
34	0xbeb5e285	-0.35524383
35	0xbeadbd9f	-0.33933732
36	0x3e9b9f55	0.30394998
37	0xbe77a65b	-0.24184553
38	0xbd8359d8	-0.06413621
39	0xbd329b49	-0.043605123
40	0x3cab6c96	0.020925801
41	0xbe9101be	-0.28321642
42	0xbd04b763	-0.032401454
43	0xbe59224a	-0.21204486
44	0x3c89c72c	0.016818605
45	0x3e95bfee	0.29247993
46	0x3cd48561	0.025942506
47	0xbd2c4fc7	-0.04206827
48	0x3eacef78	0.3377645
49	0x3ec29f5c	0.38012207

fc2.weight f4 [50, 50]
0	0xbec46406	-0.38357562
1	0x3cfa2f67	0.030540181
2	0xbd01f5e2	-0.031728633
3	0xbd8e4855	-0.0694739
4	0xbc039288	-0.008030541
5	0x3bcff904	0.0063468236
6	0xbd8e47e3	-0.06947305
7	0x3dbbadfc	0.09164044
8	0x3e191c2e	0.14952156
9	0x3d1ad7ba	0.03780339
10	0xbcfdf932	-0.031002615
11	0x3e271273	0.16315632
12	0xbd89fcea	-0.06737693
13	0xbdd0188e	-0.101609334
14	0xbdc4d977	-0.096117906
15	0x3dc9ab50	0.098471284
16	0xbe5ca654	-0.21547824
17	0xbd41bba7	-0.0472981
18	0xbe25d007	-0.16192637
19	0x3e4293d5	0.19001706
20	0x3e1b99fc	0.15195459
21	0xbd66a3b8	-0.056308478
22	0xbd3968f1	-0.045266096
23	0xbdc9dec2	-0.09856941
24	0xbd6717f8	-0.056419343
25	0xbdd58eda	-0.104276374
26	0xbd674c96	-0.056469522
27	0x3e6bf26c	0.23041695
28	0xbdc01fe7	-0.09381085
29	0xbccd4d0c	-0.025061153
30	0x3d7e569c	0.062094316
31	0xbd5a880b	-0.053352397
32	0x3dc214a2	0.09476592
33	0xbc89e1b9	-0.016831266
34	0x3c80a715	0.01570467
35	0xbc28025b	-0.010254468
36	0x39aac647	0.00032572655
37	0x3e054317	0.13013874
38	0x3dbd5426	0.09244566
39	0x3e74f564	0.23921734
40	0x3b8b4739	0.0042504338
41	0xbe35a1b0	-0.1773746
42	0x3d75893b	0.059945326
43	0xbdf30633	-0.11866417
44	0x3e000fe0	0.12506056
45	0xbd03ce79	-0.03217933
46	0x3d966914	0.07344261
47	0xbdfa761b	-0.12229558
48	0x3d8a578e	0.06754981
49	0x3dc13230	0.09433401
50	0x3d87b839	0.066269346
51	0x3cc93392	0.024560723
52	0xbde56274	-0.11200419
53	0x3e06f8e0	0.13180876
54	0x3e12c21c	0.1433186
55	0x3d1bebe9	0.03806678
56	0x3db45671	0.0880555
57	0xbd9ee4d4	-0.07758489
58	0x3da122fb	0.07868
59	0xbd61312f	-0.054978546
60	0xbac37f56	-0.0014915268
61	0xbd6ca66b	-0.057775896
62	0xbddcebf5	-0.10787193
63	0xbe126ff4	-0.14300519
64	0x3da8fe31	0.08251608
65	0x3d1666a0	0.036718965
66	0x3e2b9e39	0.16759576
67	0xbd9f0727	-0.07765036
68	0x3b966a42	0.0045903036
69	0x3d251167	0.0402998
70	0xbdd9246c	-0.1060265
71	0x3dc2daee	0.09514414
72	0xbc81262c	-0.015765272
73	0xbd1b93c6	-0.037982725
74	0xbe22fd66	-0.15916976
75	0xbc59d03f	-0.013294279
76	0xbd4386a5	-0.04773583
77	0xbd7af9cd	-0.061273385
78	0x3d99c0f1	0.07507504
79	0xbc127ff2	-0.008941637
80	0xbdb3184c	-0.08744869
81	0x3d5b2b10	0.053507864
82	0x3e0b7cbd	0.13621803
83	0xbeb26115	-0.34839693
84	0x3d1ff621	0.039053086
85	0x3c00154a	0.007817576
86	0x3cacd060	0.021095455
87	0xbd9a7d7e	-0.07543467
88	0xbe1c9e89	-0.15294851
89	0x3e755351	0.23957564
90	0xbe0ccb23	-0.13749366
91	0xbe1e0452	-0.15431336
92	0xbe1e6783	-0.15469174
93	0x3cd9bd03	0.026579386
94	0xbc499530	-0.0123036355
95	0x3da11247	0.07864814
96	0x3d917414	0.07102218
97	0x3d11aef9	0.035567258
98	0x3d3518bf	0.044213053
99	0x3deb66a5	0.11494187
100	0x3d8ef455	0.069801964
101	0xbd3b4c26	-0.045726918
102	0x3d4c3d60	0.04986322
103	0xbde1d5b4	-0.11027089
104	0x3d733057	0.059372272
105	0x3d2754ab	0.04085223
106	0xbd931a9f	-0.07182812
107	0x3dd03c2a	0.101677254
108	0x3e0ec0a2	0.13940671
109	0xbd75b04b	-0.05998258
110	0x3dc03900	0.09385872
111	0xbcfcb2ff	-0.03084707
112	0x3ae343bc	0.0017338912
113	0x3e390c20	0.18071032
114	0x3c80de43	0.015730983
115	0xbe4ff48a	-0.20308128
116	0xbdd44842	-0.103653446
117	0xbe0423ec	-0.12904328
118	0x3e06ad68	0.13152087
119	0x3db164d5	0.0866181
120	0x3d4922ba	0.049105383
121	0x3c56767e	0.013089774
122	0xbd6a3454	-0.05717881
123	0x3dc7be1d	0.09753058
124	0xbbde0a5b	-0.006776137
125	0xbdbed9a6	-0.09318857
126	0x3df66564	0.120310575
127	0xbde14087	-0.10998636
128	0xbceac4f1	-0.028658362
129	0xbdee7e71	-0.116452105
130	0xbe11fd22	-0.14256719
131	0x3d842f4b	0.06454333
132	0x3dc1ea44	0.09468511
133	0xbde6420a	-0.11243065
134	0x3d6ac976	0.057321034
135	0xbd53fa6a	-0.051752485
136	0x3dee1e00	0.11626816
137	0xbd958111	-0.07300008
138	0x3c639efd	0.013892886
139	0xbd90042d	-0.070320465
140	0xba8c325f	-0.0010696164
141	0xbd937130	-0.07199323
142	0x3dfdd03e	0.12393235
143	0xbd8dea5b	-0.069294654
144	0xbd87b43a	-0.06626172
145	0x3dfac557	0.12244671
146	0x3d30a09e	0.043121926
147	0xbc602138	-0.013679795
148	0xbe2561d4	-0.161506
149	0xbb657256	-0.0035010776
150	0xbe1de7c5	-0.15420444
151	0x3d3fb528	0.046803623
152	0x3da92395	0.0825874
153	0xbd25154e	-0.04030352
154	0x3dd33565	0.103129186
155	0x3d3f8233	0.046755027
156	0x3dd55d51	0.10418189
157	0x3d592b50	0.05301982
158	0x3d881492	0.066445485
159	0xbd1dd9c3	-0.038537752
160	0x3d380640	0.044927835
161	0x3e28bc0e	0.16477987
162	0xbcd74cab	-0.026281675
163	0xbd9b8ce8	-0.07595235
164	0xbe13e720	-0.14443636
165	0x3d7b05b9	0.061284754
166	0xbca88788	-0.020572439
167	0x3dd416cc	0.10355911
168	0x3da79623	0.08182933
169	0xbe4fc5cc	-0.20290297
170	0xbde8a261	-0.11359096
171	0xbe1b6eba	-0.15178958
172	0x3acbf7ae	0.0015561485
173	0x3c991bea	0.018690068
174	0xbd181e4f	-0.03713828
175	0x3d239708	0.039938956
176	0x3c45a4f5	0.012063255
177	0x3bf539e0	0.007483706
178	0x3dcaaf66	0.09896736
179	0x3dba31d0	0.09091532
180	0x3dcccdfe	0.100002274
181	0xbd110eae	-0.03541439
182	0x3bdcdafb	0.0067399717
183	0x3db489c9	0.08815343
184	0xbdade798	-0.084914386
185	0x3be5e557	0.007015865
186	0x3dda3f65	0.10656623
187	0x3e019e24	0.12657982
188	0xbccc615c	-0.024948768
189	0xbd228edb	-0.03968702
190	0x3db3184f	0.08744871
191	0x3cc9a038	0.024612531
192	0xbca32589	-0.01991536
193	0xbda3f3e0	-0.080055
194	0x3de2766b	0.11057743
195	0x3d0b169d	0.033957113
196	0x3cd56a0d	0.026051546
197	0x3bfe26bc	0.0077560823
198	0xbdce0a5e	-0.10060571
199	0xbd6eed45	-0.058331747
200	0xbe2b99fb	-0.16757958
201	0xbdecda0c	-0.11565027
202	0xbd06a311	-0.032870356
203	0xbdccc8de	-0.0999925
204	0x3d400f6c	0.046889707
205	0x3af9f754	0.0019070902
206	0x3d9fb6d6	0.07798545
207	0x3de80167	0.113283925
208	0xbd7d725f	-0.06187665
209	0xbcc8a695	-0.024493495
210	0x3dcd3c64	0.10021284
211	0xbdd0511b	-0.1017172
212	0xbb3abbfe	-0.00284934
213	0xbd5badf3	-0.053632688
214	0x3d2b944c	0.041889474
215	0x3cb6ce8e	0.02231529
216	0x3c83ca06	0.016087543
217	0x3d5d3775	0.054007966
218	0x3da50711	0.080579884
219	0xbdee90a7	-0.11648684
220	0x3b2fe46b	0.0026839029
221	0xbd4e0a08	-0.050302535
222	0xbdff78ad	-0.12474189
223	0x3db3f734	0.08787385
224	0x3d4ba6f7	0.049719777
225	0xbd1c4bd5	-0.038158257
226	0x3df72140	0.12066889
227	0xbd89f34c	-0.06735858
228	0x3d03b85f	0.03215825
229	0x3dc2f027	0.09518462
230	0x3e0dd7e1	0.13851883
231	0xbe028540	-0.12746143
232	0xbd3003f6	-0.042972527
233	0xbe8f67b1	-0.28008798
234	0xbdf4641c	-0.11933157
235	0x3cdbaa67	0.026814653
236	0xbe045a7a	-0.12925139
237	0xbdb7311f	-0.08944916
238	0x3dc4c1ac	0.096072525
239	0x3dcfef3e	0.10153054
240	0x3d781c62	0.060573943
241	0x3e2d05a8	0.16896689
242	0xbc0b1e6e	-0.008491142
243	0xbcac43f3	-0.021028494
244	0x3d629783	0.055320274
245	0xbe30ae34	-0.17253953
246	0x3e39abb2	0.18131903
247	0x3d0b3def	0.03399461
248	0xbd8c58d7	-0.06852882
249	0x3d85e1db	0.06537219
250	0xbccd6f13	-0.025077378
251	0x3e06daa4	0.13169342
252	0xbe21a092	-0.15783909
253	0x3db2a564	0.08722952
254	0x3d67a4ec	0.056553766
255	0x3dc401b2	0.09570636

fc2.bias f4 [50]
0	0xbda91649	-0.08256204
1	0x3e0b3b82	0.13596919
2	0xb9a51c12	-0.00031492166
3	0x3cf71cb8	0.030165061
4	0x3e483e98	0.19555128
5	0xbe0372a9	-0.12836708
6	0x3e2b14d4	0.16707164
7	0xbdeb2da2	-0.11483313
8	0xbd977314	-0.07394996
9	0xbe0de5fa	-0.1385726
10	0x3e1afb33	0.15134887
11	0x3de25edc	0.11053249
12	0x3d265757	0.040610638
13	0x3d33046d	0.043705393
14	0x3e05a488	0.13051045
15	0x3e17c592	0.14821461
16	0x3d47d337	0.048785415
17	0xbe1ac1e9	-0.15113033
18	0x3d689d7e	0.05679082
19	0x3e09f1c4	0.13471133
20	0x3cfc7875	0.030819157
21	0xbdbb801d	-0.09155295
22	0x3da2f0c9	0.079560824
23	0x3d5b26cc	0.053503796
24	0xbe09ff02	-0.13476184
25	0xbe02ff7b	-0.1279277
26	0x3b00cda8	0.001965383
27	0xbe112216	-0.14173159
28	0x3dbb62be	0.09149693
29	0xbbf5d45e	-0.007502123
30	0x3e299817	0.16561924
31	0xbda2af4e	-0.07943593
32	0xbd5a4ddb	-0.053296905
33	0xbc332c71	-0.010935889
34	0x3dcd3166	0.10019188
35	0x3dedef4e	0.11617909
36	0x3d694901	0.056954388
37	0xbdab7ae4	-0.08373049
38	0xbe15a818	-0.14614904
39	0xbdb13f81	-0.086546905
40	0xbd1f6506	-0.038914703
41	0xbd7f65a3	-0.062352788
42	0xbe09eb76	-0.13468727
43	0xbb0861a5	-0.0020810154
44	0x3dcae88c	0.09907636
45	0x3c607bd9	0.013701403
46	0xbb8ed122	-0.0043584267
47	0xbdb21e32	-0.086971655
48	0x3c92fec0	0.01794374
49	0xbe05837b	-0.13038437

fc3.weight f4 [50, 50]
0	0xbd8271ab	-0.06369337
1	0x3e1ee61a	0.15517464
2	0xbd4b3bfd	-0.049617756
3	0xbd7750c0	-0.060379744
4	0xbcdf89cc	-0.027287386
5	0xbca9d92f	-0.020733444
6	0x3e135b1a	0.14390221
7	0xbdc2d684	-0.09513572
8	0x3c940987	0.01807095
9	0x3d9126f6	0.07087509
10	0x3e2bd109	0.1677896
11	0x3d4d0717	0.05005559
12	0x3af4a20e	0.0018664019
13	0x3e0ff343	0.1405764
14	0x3e544ebd	0.20733161
15	0x3dcae51c	0.099069804
16	0xbda01ce7	-0.07818013
17	0xbb346f7d	-0.0027532273
18	0x3dec014c	0.11523685
19	0xbda6132d	-0.08109126
20	0x3d8cf24d	0.06882153
21	0xbd904b2d	-0.07045589
22	0xbd7ca080	-0.061676502
23	0x3d905070	0.07046592
24	0x3dbaa5e0	0.091136694
25	0x3de65e06	0.11248402
26	0x3dfcb338	0.12338871
27	0x3cd72831	0.026264282
28	0xbb9dcfe7	-0.0048160437
29	0xbdbcf949	-0.09227235
30	0xbd5e7b3b	-0.05431674
31	0xbe262a12	-0.16226986
32	0x3daa8e28	0.083278954
33	0x3d2c9ce6	0.042141818
34	0xbd48cb04	-0.049021736
35	0x3e45332e	0.19257805
36	0x3dd3c174	0.10339633
37	0xbcc4e6e5	-0.02403588
38	0xbdeaefd6	-0.11471526
39	0xbd5e6889	-0.05429891
40	0xbd95f060	-0.073212385
41	0xbda4cb1a	-0.08046551
42	0xbd9959cb	-0.0748783
43	0x3e052368	0.13001788
44	0x3dcd87f0	0.10035694
45	0xbcc473f0	-0.023981065
46	0xbd74263f	-0.059606787
47	0x3e30591f	0.17221497
48	0x3e164696	0.14675364
49	0x3c3bd74b	0.011464904
50	0x3e10aba2	0.14127973
51	0x3c87ef48	0.01659359
52	0xbd995a7a	-0.0748796
53	0xbd779ca2	-0.06045211
54	0xbd296701	-0.041357998
55	0x3e460a45	0.19339855
56	0x3e24091a	0.16019097
57	0xbde3e9c9	-0.11128575
58	0x3e684175	0.2268122
59	0xbdea798d	-0.11448965
60	0xbd492c27	-0.049114373
61	0x3e33f60b	0.17574327
62	0x3df96044	0.12176564
63	0x3dcba52a	0.09943612
64	0xbce42621	-0.027850213
65	0xbd473312	-0.04863269
66	0xbde4a66c	-0.11164555
67	0xbc5e6ee3	-0.013576242
68	0x3e138b3b	0.14408581
69	0xbd1cbb2f	-0.03826445
70	0xbdb75ded	-0.08953462
71	0x3b5ae479	0.003340034
72	0x3d78275c	0.06058441
73	0xbdce2596	-0.10065763
74	0xbce963a5	-0.028489897
75	0xbd9a88d4	-0.07545629
76	0x3db68658	0.08912343
77	0xbcde5666	-0.027140807
78	0x3ccd1387	0.025033725
79	0x3d1d89d7	0.038461532
80	0x3d8fff44	0.0703111
81	0x3d668d99	0.05628738
82	0x3e3c6450	0.18397641
83	0x3db64dd7	0.089015655
84	0xbdcd16b6	-0.100140974
85	0x3c7ef2c0	0.015560806
86	0xbdf27cd8	-0.11840218
87	0x3e1b9a80	0.15195656
88	0x3d0b0020	0.033935666
89	0x3be99a6a	0.0071290033
90	0xbcc81fc0	-0.024429202
91	0x3db03e40	0.08605623
92	0xbce39a5f	-0.02778357
93	0xbcd0404f	-0.02542129
94	0xbd2f5957	-0.04280981
95	0xbd3c3318	-0.045947164
96	0x3d9a2624	0.07526806
97	0x3e47f2f0	0.19526267
98	0x3e1f29d4	0.155433
99	0x3db2f02b	0.08737215
100	0x3e2da576	0.1695765
101	0x3df10897	0.117692165
102	0x3e0264a6	0.12733707
103	0x3ce6334e	0.028100636
104	0x3cc75a1b	0.024334958
105	0xbd969f50	-0.07354605
106	0x3e2acd79	0.16679944
107	0xbdf1d580	-0.118083
108	0x3dcbe753	0.09956231
109	0xbe16288a	-0.14663902
110	0xbd7c4913	-0.061593127
111	0x3dd3c0e0	0.10339522
112	0xbe1654b9	-0.14680757
113	0x3adbf066	0.0016780018
114	0xbca4f96e	-0.020138469
115	0x3de00229	0.10937912
116	0x3df471c8	0.119357646
117	0xbe60e26a	-0.2196137
118	0x3e14ef64	0.14544445
119	0xbdacc7b9	-0.084365316
120	0x3c9748f8	0.018467411
121	0x3df0016e	0.11719023
122	0xbd51499d	-0.051095594
123	0x3e0f9119	0.14020194
124	0x3c46e4de	0.012139527
125	0x3dd5e100	0.10443306
126	0x3b93ac28	0.0045066066
127	0x3de504cf	0.11182558
128	0x3e735f9a	0.23766938
129	0xbdff53bf	-0.12467145
130	0x3e1f1adf	0.15537594
131	0xbe28d8ba	-0.16488925
132	0x3dfafd75	0.12255374
133	0x3d95c7af	0.07313477
134	0xbc9965f8	-0.01872538
135	0xbdc203f5	-0.09473411
136	0xbdca7cc4	-0.098870784
137	0xbcc2d3ee	-0.023782697
138	0xbdb371f0	-0.08761966
139	0x3e4fd4d9	0.20296039
140	0x3d8cd6d2	0.06876911
141	0x3c092648	0.008370943
142	0xbe30b92b	-0.17258136
143	0x3e839f67	0.25707552
144	0x3db00e51	0.08596481
145	0x3dfabcc7	0.12243038
146	0x3dc0afa2	0.09408499
147	0x3dacfae6	0.084462926
148	0x3d8609f3	0.065448664
149	0xbdbf1ef5	-0.093320765
150	0x3e39b10c	0.18133944
151	0x3d555fdc	0.05209337
152	0xbd0fa233	-0.035066795
153	0x3da131ca	0.07870825
154	0xbd001e24	-0.031278744
155	0x3dc217c2	0.09477188
156	0x3e1015a3	0.14070754
157	0x3b8686c6	0.0041054217
158	0x3d72a211	0.05923659
159	0x3dde5af5	0.108571924
160	0xbd888038	-0.06665081
161	0xbbde6800	-0.0067873
162	0xbdd0967f	-0.10184955
163	0xbc88203c	-0.016616933
164	0x3d380057	0.0449222
165	0x3df5d540	0.12003565
166	0x3dd620df	0.104554884
167	0xbe28cdd1	-0.16484763
168	0x3d1bc1ed	0.03802674
169	0x3e1fc5b2	0.15602759
170	0x3ddeae4d	0.10873089
171	0x3cabe2a1	0.020982089
172	0xbd3a39cb	-0.045465272
173	0x3ce013f3	0.027353263
174	0x3e4825be	0.19545648
175	0xbce0e18d	-0.027451301
176	0x3e183311	0.1486323
177	0xbe07de15	-0.13268311
178	0x3e165539	0.14680947
179	0xbdfdd0ca	-0.12393339
180	0xbe0c7d98	-0.13719785
181	0xbdc85212	-0.09781279
182	0xbb89cea2	-0.0042055408
183	0xbbc43a5b	-0.005988402
184	0x3d85ad5f	0.065272085
185	0x3e30c78c	0.17263621
186	0x3db4e42c	0.08832583
187	0xbc127d7f	-0.008941053
188	0xbdea1188	-0.11429125
189	0x3e189076	0.14898857
190	0x3e009225	0.1255575
191	0x3c69a148	0.014259644
192	0xbd3147e3	-0.043281447
193	0x3b0166f9	0.0019745214
194	0xbd10f4ca	-0.0353897
195	0x3dd62bbf	0.10457563
196	0xbe0fd645	-0.14046581
197	0xbc77c581	-0.015122772
198	0xbd9545bd	-0.07288692
199	0xbdd3f0e5	-0.10348681
200	0x3da2abf9	0.079429574
201	0x3d9572b4	0.072972685
202	0x3d98623f	0.07440614
203	0x3e3f5e09	0.18688215
204	0xbd559e28	-0.052152783
205	0x3e2e82fa	0.17042151
206	0xbd1163e4	-0.035495654
207	0xbce67d84	-0.028136022
208	0x3dd3a136	0.10333483
209	0xbdbe0d75	-0.092799105
210	0xbd693e17	-0.05694398
211	0x3e264412	0.16236904
212	0x3d78ddfc	0.060758576
213	0x3dda1d85	0.10650162
214	0x3e156e55	0.1459287
215	0xbd94c189	-0.072634764
216	0x3dcdd971	0.10051239
217	0xbdbb56ca	-0.09147413
218	0xbdc61e86	-0.09673791
219	0xbdac5d77	-0.084162645
220	0xbe22f3be	-0.15913293
221	0xbd24466b	-0.04010622
222	0x3e160440	0.14650059
223	0x3e0f6498	0.14003217
224	0x3e1cece8	0.15324748
225	0x3ce7db3a	0.028302778
226	0x3daa79fa	0.083240464
227	0xbcbb8e21	-0.02289492
228	0x3e1bc075	0.15210135
229	0xbdcab9ba	-0.09898706
230	0xbdab7bc4	-0.08373216
231	0xbdbbeda9	-0.091761895
232	0x3b908d2c	0.0044113602
233	0x3d3de500	0.04636097
234	0x3db60a36	0.08888666
235	0x3cf413ed	0.029794658
236	0xbccb0b8b	-0.024785778
237	0xbdb95b19	-0.090505786
238	0xbdfb9042	-0.12283374
239	0x3df1a47b	0.1179895
240	0xbd0d90fa	-0.03456209
241	0x3e41e4a7	0.1893488
242	0xbdaa5d35	-0.08318559
243	0xbd91e22e	-0.071232185
244	0x3b97f1b1	0.004636966
245	0x3d5ec7eb	0.054389875
246	0xbd84dd38	-0.06487507
247	0xbdb95b35	-0.090505995
248	0x3d491848	0.049095422
249	0xbd13a201	-0.03604317
250	0x3d258092	0.040405817
251	0x3daaf482	0.083474174
252	0x3d33e8bf	0.043923136
253	0xbde27c42	-0.110588565
254	0xbe1e25ca	-0.15444103
255	0x3e04c48e	0.12965605

fc3.bias f4 [50]
0	0x3d529807	0.051414516
1	0x3db6b0f4	0.0892047
2	0xbcd98771	-0.026553841
3	0xbd765e99	-0.06014881
4	0x3d07d31a	0.033160307
5	0x3ddea662	0.10871579
6	0xbd526393	-0.051364493
7	0x3ccb438b	0.02481248
8	0x3ddcd41e	0.10782646
9	0xbda471f3	-0.080295466
10	0xbd7de5fd	-0.061986912
11	0xbc951054	-0.018196262
12	0xbdb12a59	-0.08650655
13	0x3dfc4c45	0.12319235
14	0x3c9a6b60	0.018850029
15	0x3def8da8	0.11696941
16	0xbddb40e9	-0.1070574
17	0x3d44d00d	0.048049975
18	0x3d5ad74b	0.053427976
19	0x3dfb4746	0.12269454
20	0x3d993197	0.07480162
21	0xbd8afe3d	-0.06786773
22	0x3bd7928f	0.0065787504
23	0x3e2b2e7b	0.1671695
24	0x3e597b5a	0.21238461
25	0x3e117a3a	0.14206782
26	0x3d74566c	0.05965273
27	0xbd0d86f9	-0.034552548
28	0x3e2ca5b1	0.16860081
29	0x3cad5de9	0.021162944
30	0x3dd31875	0.10307399
31	0xbdbc889e	-0.09205745
32	0x3c3a4b26	0.011370456
33	0x3b9a67b5	0.00471207
34	0x3da584de	0.08081983
35	0x3d8a2dab	0.06746992
36	0x3daa8319	0.08325786
37	0xbd14f2dd	-0.036364425
38	0xbd3c12ea	-0.045916475
39	0x3e823509	0.25431088
40	0x3c0c02a4	0.008545551
41	0x3d3764bb	0.0447738
42	0x3de6f54a	0.11277254
43	0x3d91a4cc	0.07111511
44	0x3da0e46a	0.078560665
45	0xbdd01cbe	-0.10161732
46	0x3dcf31ea	0.10116942
47	0xbcc2523a	-0.02372085
48	0xbdbcd5d7	-0.09220474
49	0xbc9c0660	-0.019046009
