checkpointing_test/sigmoid_example_s12345/models/eval_checkpoint_100.pt (torch, 95431 bytes, 24 tensors)

fc1.weight f4 [50, 7]
00000000: 9984 94be d2b7 d03e e9d7 ce3e 0520 1f3e
00000010: 6b06 c4be 15f1 f83c b609 70be 0c01 89be
00000020: 913f 07be 4748 a5be 0367 bdbe 42bd f4bd
00000030: 2293 bebd e578 b4be 33c0 0bbe 705f 53be
00000040: ba79 6abd d74e 8f3e 329e ab3e 589a ae3c
00000050: eabe 47be 8869 e2bd 1465 a63e 9653 babe
00000060: 1b6a b03d 9f5f efbd be25 91bc 7d1a 18be
00000070: e2be 9bbe 06d8 adbe d5be 2fbe 0d69 c1be
00000080: 9da1 b53e 15ba ecbd 59a3 4d3e ea18 a63e
00000090: 54a2 723e 2caa 023e bee9 a63e 888f a93d
000000a0: c650 4abd 552b 213e 9925 77bd fee9 1dbe
000000b0: d3c2 ff3c 1496 b83e b6b7 443e a094 4f3e
000000c0: 96f4 353e b10a 83be acbd 913e 04c2 2e3e
000000d0: 2b1c b5bd cf6f 723b c5cc 303e 5f98 cbbd
000000e0: 1902 98bb 99d8 1a3e 9e4c 97be 8a92 203e
000000f0: c949 0d3e 9cb4 703e fd6b b3be 4348 91be
00000100: 1c3e 4e3e e794 c03e ed91 b33e cc6b fd3d
00000110: 240f 5dbd b824 483d f9c0 9abe 6002 cfbd
00000120: 37d1 c83d 3c4c 91be 806c bbbe 5bc8 2d3e
00000130: 2209 78bd 951c c3be e2da e2bd bcc1 963e
00000140: 84fd 873e 83d5 d1bb c885 31be de76 7ebe
00000150: f8f6 aa3e 222f 85be 2a1e 86bc d57f 60be
00000160: 1da5 54be 0585 b2be 0809 7a3e 8917 c2be
00000170: 8154 20bd c9ac 223e 8254 153e e55a afbe
00000180: 39a0 38be f7cc a1be 8f37 92be 12cb b23e
00000190: c7f7 793e c4fd 8abc 935a 26be b49e b2be
000001a0: 7dfe ab3e 85df ad3e e697 27be 6683 77bd
000001b0: 88ce 4fbe 0ead 773e b398 30be 3c6d 30be
000001c0: c2bb bebe c915 b3be e253 363d f1ae ae3e
000001d0: 2a76 8dbe 851d 853e 0ccb 1a3e beea a6bd
000001e0: 79ca 84be 0aae 553e 6bd2 9a3e 3c8f b83e
000001f0: d3fd a43e b19e ed3d d218 14be e12f 763e
00000200: 82c4 d6bd 6563 95bc 9fdd 513e dea1 113e
00000210: 3934 5d3d 47bc a3be 2943 9d3e a435 2fbe
00000220: 251b a63d 9046 1fbe 5a19 32be b5e8 3bbd
00000230: f93d 34be a27f 0c3e ec32 32bd af5b ad3e
00000240: 4592 ffbd 99b0 0ebe fe62 c3bd 2217 b23d
00000250: 65d1 7cbe 9b59 f13d a529 53bc 3f48 9ebe
00000260: 127b 16bd da4c 03be 93ae bbbe 71b5 0bbe
00000270: e3bc 92be 399f 8e3e 94d4 6d3e e538 26be
00000280: 1c6c 19bd f55f c03e 1290 423e a5e4 f4bd
00000290: 9cab ccbe 8ce9 78be 0954 ebbc 7430 473a
000002a0: c72e 863e 828c 7abc 220b 5a3e b237 583e
000002b0: d106 75be 90f8 b3bd 0cf9 9b3d 8acf ae3e
000002c0: 8d16 133e 745e 99be 5fdb 6abd d16a fb3d
000002d0: fe01 f73d 349e 833e f9cd d2bd 7c18 c73b
000002e0: 30c7 f5bd e7cc 6e3e 6526 a23b 2c02 8fbe
000002f0: 18d9 23be 2e7e f1bd b6c3 653e a404 463d
00000300: d25a 93be 8d00 d1be 29f9 abbe 9880 893e
00000310: 1e71 1a3e 3634 c5be 69b9 9ebb 3a7e 723e
00000320: b216 253d 968d a9be 8128 893e 4d43 9f3e
00000330: 7527 aebe 7976 bfbe 0165 96be 6c13 1b3e
00000340: 2817 1ebe c545 b53e 4d64 563e 4c47 abbe
00000350: 153a a4be 3f50 5ebe 0245 4fbe ae36 503e
00000360: 2e7a 4fbd b635 d0bd 5ef9 0a3d 0b06 c03e
00000370: 9dcb a33e a690 cbbe 6a78 993d a732 a3be
00000380: 5a73 b2be be5c 333d 7218 9f3e cdea dfbd
00000390: 1b41 28bd b3e0 26be 12a2 dcbb ae53 aabe
000003a0: 616d 7dbe 7baf acbe 0986 56be a472 73be
000003b0: 1fdc 9abe 64bb 9a3d 1a8a a4bd b3be b6be
000003c0: 957d 44be e4e6 9abd 0f88 ec3c 86d5 a63e
000003d0: 2196 bd3e 6b7b a73d 2c71 cabe e93d e7bd
000003e0: 13ec 823d a9f4 be3d 0f28 28be 814a 99ba
000003f0: f4ed 603d e91d 933e 20ef 5fbe 7bd0 a9be
-0.29007414 0.40765244 0.403991 0.15539558 -0.38286147 0.030388394 -0.23441204 -0.2675861
-0.13207842 -0.32281706 -0.36992654 -0.119501606 -0.09305407 -0.35248485 -0.13647537 -0.20641875
-0.057244994 0.27989838 0.3351913 0.021313831 -0.19506422 -0.11055285 0.3249899 -0.36391896
0.08613988 -0.1168816 -0.017718192 -0.14853854 -0.3041907 -0.33953875 -0.1716264 -0.3777546
0.35474864 -0.1155893 0.20081843 0.32440883 0.23694736 0.12760228 0.32600206 0.082793295
-0.049393438 0.15739186 -0.06033859 -0.15421292 0.03122083 0.36052 0.19210705 0.2027154
0.17769083 -0.25594094 0.2846502 0.17066199 -0.08843263 0.0036992913 0.17265613 -0.09941172
-0.004638922 0.15121688 -0.29550642 0.156809 0.13797678 0.23506397 -0.35043326 -0.28375444
0.2014088 0.37613603 0.3507227 0.12374076 -0.053969517 0.048863143 -0.3022535 -0.10107875
0.098055296 -0.28378475 -0.36606216 0.16970961 -0.060555585 -0.38107744 -0.11076905 0.29444683
0.26560605 -0.0064036264 -0.1733619 -0.24850032 0.33391547 -0.26012522 -0.016371805 -0.21923764
-0.2076611 -0.3486711 0.24417508 -0.3790858 -0.03914309 0.15886225 0.14583018 -0.34249035
-0.1802987 -0.31601688 -0.28558013 0.34920555 0.24410926 -0.016966708 -0.16245489 -0.34886706
0.33592597 0.33959594 -0.16366538 -0.060428046 -0.20293629 0.24187109 -0.1724575 -0.1722917
-0.37252623 -0.34977558 0.04451359 0.34117845 -0.27629215 0.25999084 0.15116519 -0.08150242
-0.25935724 0.20867172 0.3023866 0.3604678 0.32224903 0.116025336 -0.14462593 0.24041702
-0.104867 -0.018235872 0.20494698 0.14221904 0.05400488 -0.31979582 0.30715302 -0.17110306
0.08110646 -0.15554261 -0.17392483 -0.045876224 -0.17601766 0.13720563 -0.043505594 0.33859012
-0.124790706 -0.13934554 -0.09540366 0.086958185 -0.24689253 0.11784669 -0.012888347 -0.30914494
-0.036738463 -0.12822285 -0.36656627 -0.13643433 -0.28659734 0.27855852 0.23225623 -0.16232641
-0.037456617 0.3757321 0.19000271 -0.11957673 -0.39974678 -0.24307841 -0.028726595 0.00075984676
0.26207563 -0.015292289 0.2129331 0.21114996 -0.23928382 -0.08787644 0.07615861 0.34142715
0.14364071 -0.29954875 -0.057338115 0.12276233 0.12060927 0.25706637 -0.102931924 0.006075917
-0.120008826 0.23320352 0.0049484246 -0.27931345 -0.16000783 -0.11791645 0.22437939 0.04834427
-0.28780228 -0.40820733 -0.33588532 0.26855922 0.15082213 -0.38516396 -0.00484388 0.23680964
0.040304847 -0.33115834 0.26788715 0.31106034 -0.34014478 -0.37395075 -0.29373935 0.15144128
-0.15438521 0.35404792 0.20936699 -0.33452833 -0.32075563 -0.21710299 -0.20241168 0.20333359
-0.05065363 -0.101664945 0.03392922 0.3750461 0.31991282 -0.39758795 0.0749367 -0.31874582
-0.3485363 0.043789618 0.31073338 -0.109334566 -0.041077714 -0.16296653 -0.0067331875 -0.33266968
-0.24748756 -0.3372763 -0.20949568 -0.237742 -0.30246064 0.07555273 -0.08034153 -0.35692367
-0.1918853 -0.0756357 0.028873472 0.3258478 0.37028602 0.08177837 -0.39539468 -0.11291105
0.06392684 0.09324009 -0.16421531 -0.0011695178 0.05491443 0.28733757 -0.21868563 -0.3316687

fc1.bias f4 [50]
00000000: f49f aabe a433 67be 2794 a2bd 1286 173e
00000010: 651e bc3e eba5 893c 63d8 cbbd 7605 bb3e
00000020: 8431 77be 32b6 9fba 31b6 67be 3a98 69be
00000030: 02b9 153e 35b3 f23d 3853 a43d cb7b b6bd
00000040: e09b a0be dfcd b53e 49dc af3d 96e4 5bbc
00000050: c139 9ebd c422 02bb 0c49 963e 381c b2bd
00000060: 31ec 893e 3e26 1e3e ec4e aa3d a0cc a93c
00000070: 4e6c 14bd 8067 5ebd dab8 9f3c ff8f 79bd
00000080: ba95 9abd f013 29be 35f1 793e 62a3 8cbe
00000090: 2345 7ebe 4abd 1bbe 4ea4 383e e2c9 803e
000000a0: bd57 993e b08a 21be ccc5 8ebc 9b81 243d
000000b0: df0d 7abd 61bf 9dbe 5e1b 393d f172 a2be
000000c0: 3eac 52be d923 f23d
-0.3332516 -0.22578293 -0.07938414 0.14797238 0.3674194 0.016802749 -0.09953382 0.36527604
-0.24139982 -0.0012185036 -0.22628094 -0.22811976 0.14621356 0.11850587 0.08023685 -0.089103304
-0.31368923 0.3550863 0.08586938 -0.013421198 -0.077258594 -0.0019857148 0.29352605 -0.086967885
0.26938012 0.15444276 0.083158344 0.020727456 -0.0362361 -0.054297924 0.019497324 -0.06092834
-0.07548089 -0.16511512 0.2440842 -0.274684 -0.24831061 -0.15208927 0.18031427 0.25154024
0.29949751 -0.15775561 -0.017428301 0.040162664 -0.061048385 -0.30810073 0.045192115 -0.31728318
-0.20573518 0.11823244

fc2.weight f4 [50, 50]
00000000: d682 183d dcd1 643a 3658 fc3d 1857 afbc
00000010: 0720 58bd be5c b63d be08 98bd 3018 6ebc
00000020: 30a9 ab3c 2573 cdbd f5fd 65bd df5e 97bd
00000030: 0ceb 55bc 9168 a9bc 6bf2 8bbc 35fa ac3d
00000040: 32c5 1dbe c246 8b3d 98bb abbd 1edb 103e
00000050: be1d cc3d 9fc7 de3d cd80 a0bd 105a d33d
00000060: fc5f f73c 9d7b efbb 1b53 643d e6b7 08be
00000070: a4db 2cbe 130e 86bd f0c1 7bbd eda6 a1bd
00000080: 5e5b d93d 3165 df3d 7c09 33be cd7f 0fbe
00000090: 1482 97bd 88e4 82bd 87f7 e33c faae 853d
000000a0: 287b d9bd 215c 823d df9e d5bd 9328 9cbd
000000b0: 7bb2 6f3c 0b4d 94bd 8222 d73d 5c79 ef3c
000000c0: 4f05 333c 54cc b23c a033 fe3d 4f7e e13d
000000d0: f379 8c3d fcbb 63bd 7ab6 223e 3230 d2bd
000000e0: c2b4 1dbd 109b dabc 11c7 cebd d11b 7fbd
000000f0: e28a 52bd 3f94 b5bc 0e63 10be 5ec8 c13d
00000100: 8f31 883d 1e1d 4f3d 785d db3d d11c 32bd
00000110: 9aa8 983c 5ebf 07bd e552 e5bd fd4d c73c
00000120: 5772 2c3d 6a96 d6bd f2b7 f63c 3054 b13d
00000130: 6398 a73d 7a5a ffbc 9f3e f93d f56c 03bd
00000140: d145 e7bd 7789 97bc e2ce 95bd 327f e0bd
00000150: 374d 16be 1587 0dbe 796e 9dbc 5052 0bbe
00000160: c3b7 103e fed4 503c 93a1 253d 5a37 343d
00000170: 0017 11be a739 933d a08b 04be 93a4 11be
00000180: d8a1 99bd f86a f73b 26d7 6fbd aeb3 ec3d
00000190: b9a2 babd e062 68bd ddaf 283d 525c 50bd
000001a0: 7539 f1bd 2301 0dbe 83e1 9bbd 137c 893d
000001b0: 01e1 ebbd 61e6 0a3e 3bf0 ed3c 0bce 81bd
000001c0: 722e a73d b2a7 d1bd c300 97bd 6551 bbbd
000001d0: 2d97 0dbe 98bb 98bd 112d 02be 11ae 533d
000001e0: 0a02 093e bc96 a8bd b61b 0cbe 884f cc3d
000001f0: 2452 98bd 908e 62bd 736f c3bd bdd2 aabd
00000200: ea40 c3bd f4ea 6ebd bb85 823c 8e26 043d
00000210: 48ed 883d 4458 e43d 278b 883d 3d87 54bd
00000220: a381 5b3d c934 f83d 379c 04bd d531 cdbc
00000230: 40ba 233d 775f 07bd d6fa afbc 8b23 bf3c
00000240: ed79 093e 9e87 3dbc 01bc 01be fe96 833c
00000250: 2652 efbd c849 013e 3202 da3d 336f 1bbd
00000260: 7bbe e4bc 0dda 103e e5c7 b2bd fb0b d7bc
00000270: 09e9 9fbd 722c da3d edd5 eebd 9bd0 11be
00000280: a7b5 5c3d e970 d03d dfea e0bd b86b e13d
00000290: b9b8 e1bd 9204 16bd eb61 0dbd 2d2d 013d
000002a0: 2e26 cb3d e236 d83d 63ea 873d 82e3 353c
000002b0: f5ee eb3d 51e3 28bd 26e8 083d 5c86 a73d
000002c0: 74d4 ce3d c244 763d 96db a33d 99b7 0cbe
000002d0: 33ff c5bd a42d dc3c c93b 11bd 5f58 fa3d
000002e0: 32ad c53c 4eda 823c 5a18 11bd 0ced 8f3d
000002f0: 8384 443d 517c a8bd cec8 f5bd fdd5 76bd
00000300: ee8c 5cbd 3270 9d3d 7149 8abd 6d63 c83d
00000310: 82df 9d3d c2bc 02be d3b4 da3d fd95 06bd
00000320: c34d 16be 4df1 35bd 96b4 c33d e381 36bd
00000330: 2b96 01be ea74 39bb ac7e 1d3d 7472 8cbd
00000340: b451 47bd aff6 f03d bded 2dbd b942 5c3d
00000350: 9e87 95bd c837 a43a 02df 5a3d 45cf fa3d
00000360: a511 f83d 8838 583d da36 2f3e 4de0 ba3c
00000370: 365c 9e3d 39fb 233c 765a 093e a017 9abc
00000380: 1991 063e d73f f73c f25a b0bc cd32 9e3d
00000390: c5e9 8a3d f442 eabd 0e45 753d 6ca6 813b
000003a0: b6ca 18be b2c0 e93d cf2f 003e d40d 053e
000003b0: a3a4 a6bd 3f28 763d 4a41 c4bc 5293 c2bd
000003c0: c9ac 07be 1f98 e0bd b21f 083d be7d f8bd
000003d0: 2304 313e d4e1 73bc 4af4 d6bc 2819 e0bd
000003e0: 81ec cb3d 3ef6 4b3d 27b5 06be 8387 6bbd
000003f0: 8933 a63c e790 383d 0744 f33c f030 06be
0.03723415 0.0008728781 0.123215124 -0.021403834 -0.05276492 0.08904408 -0.074235424 -0.014532134
0.020954698 -0.10031728 -0.056150395 -0.07391142 -0.013056528 -0.020679744 -0.017083367 0.08446161
-0.15407255 0.06800605 -0.0838539 0.14146087 0.0996661 0.108779185 -0.07837067 0.103199124
0.030197136 -0.007308437 0.055743318 -0.13351402 -0.16880661 -0.06545653 -0.06146425 -0.07893167
0.1061313 0.109079726 -0.17484087 -0.14013596 -0.07397857 -0.06391245 0.027827991 0.06527515
-0.10619193 0.063652284 -0.10430693 -0.076249264 0.014629955 -0.07241257 0.10504629 0.029232673
0.010926559 0.021825947 0.124121904 0.110104196 0.068591975 -0.055599198 0.15889922 -0.10263099
-0.038502462 -0.026685268 -0.10096563 -0.062282387 -0.05140198 -0.022165416 -0.14100286 0.09462045
0.066500776 0.050564878 0.10711187 -0.043484513 0.018635083 -0.033141486 -0.111974515 0.02432918
0.04210123 -0.10477908 0.030117009 0.086586356 0.08183362 -0.031171072 0.12170147 -0.03208633
-0.11292613 -0.018498166 -0.073148504 -0.109617606 -0.14677893 -0.13821061 -0.019217717 -0.13605618
0.141326 0.012746094 0.040437292 0.0439981 -0.1416893 0.07188731 -0.12943888 -0.14222936
-0.07501572 0.0075505935 -0.05855479 0.11557709 -0.09113068 -0.05673492 0.04118334 -0.050869294
-0.11778537 -0.13769965 -0.07611372 0.067131184 -0.115175255 0.13564445 0.029045215 -0.06338128
0.081631556 -0.102370635 -0.07373192 -0.09146384 -0.138272 -0.07457656 -0.12712504 0.051679675
0.13379684 -0.08231875 -0.13682446 0.09976107 -0.07437542 -0.05531174 -0.095427416 -0.083409764
-0.09533866 -0.058329538 0.015932908 0.03226333 0.06685883 0.11149648 0.06667166 -0.051886786
0.053590428 0.12119443 -0.03237554 -0.025048176 0.039972544 -0.033050027 -0.021481913 0.023332378
0.13425417 -0.011567978 -0.12669374 0.01606321 -0.116855904 0.12625802 0.1064495 -0.037947845
-0.02792286 0.1414568 -0.08729533 -0.02625083 -0.0780812 0.106530085 -0.11661897 -0.14239733
0.053884175 0.10177786 -0.10982298 0.11006874 -0.11021561 -0.036625452 -0.03451721 0.031537224
0.099193916 0.10557343 0.066365026 0.011101605 0.11520187 -0.04123241 0.03342452 0.08179924
0.10099116 0.060124166 0.08000867 -0.13741912 -0.09667816 0.026877232 -0.035457406 0.12223887
0.024130438 0.015973236 -0.035423614 0.07027635 0.047977936 -0.082268365 -0.12001191 -0.06026267
-0.05384534 0.07687415 -0.06752289 0.09784589 0.07708646 -0.12767318 0.10679021 -0.032857884
-0.14678101 -0.044419575 0.095559284 -0.044557463 -0.12654941 -0.0028298446 0.03845088 -0.06857768
-0.048661903 0.11765801 -0.042463053 0.05377457 -0.073012576 0.0012528831 0.053435333 0.12246565
0.121127404 0.052788287 0.17110768 0.022812033 0.077324316 0.010008627 0.13413414 -0.018810093
0.13141288 0.030181808 -0.021527741 0.07724533 0.06782869 -0.114385515 0.05988031 0.0039566066
-0.14921078 0.11413707 0.12518238 0.12993556 -0.08136871 0.060096975 -0.023956914 -0.09500755
-0.13249506 -0.10966515 0.033233352 -0.121333584 0.17286734 -0.014885385 -0.026239533 -0.10942298
0.09957219 0.04979538 -0.13155042 -0.05750228 0.020288246 0.045060065 0.029695524 -0.13104606

fc2.bias f4 [50]
00000000: c4d8 c23b f303 c23d 4844 b6bd 7449 c2bd
00000010: 86f3 babd e8f3 89bd fd0a fb3d 46ba 0cbe
00000020: 6452 3b3d e415 fcbd 702e f1bd f429 9b3d
00000030: 224b 833c 86f6 56bc 0ba7 1c3e 4530 7dbd
00000040: 6380 9cbd 0224 58bc ddd7 44bd c566 023e
00000050: 9d93 92bd 66ee b63d 305a 57bd acda 75bc
00000060: fbed 1e3d f01a 01bd 46ad c9bd 0acb 68bd
00000070: 77ec f43d 403e 04be ae6c d7bd 7fcd 4abd
00000080: 2754 9d3d 227f 503d 4e81 e23d f26e 863d
00000090: c4b4 b2bd b1a0 01be 3643 353d c053 1fbd
000000a0: f3a0 603c 01f2 b73d b0e9 74bc 4252 e5bd
000000b0: bf9b cdbd 9366 1d3d 2412 f8bd f590 05be
000000c0: 6119 ba3d 9f64 dabd
0.0059462506 0.094734095 -0.08899742 -0.09486666 -0.0912848 -0.067359746 0.12257955 -0.13742933
0.04573287 -0.12308863 -0.117764354 0.07576361 0.016027037 -0.013120299 0.15298097 -0.06181361
-0.07641675 -0.013192179 -0.048057426 0.12734516 -0.07157061 0.0893219 -0.052576244 -0.015005749
0.038801175 -0.03151983 -0.098475024 -0.05683426 0.119591646 -0.12914371 -0.10518776 -0.049512383
0.076820664 0.050902493 0.11059819 0.0656413 -0.087258846 -0.12658955 0.04425355 -0.03889823
0.013710248 0.089817055 -0.014948294 -0.1119733 -0.10039472 0.0384279 -0.12112835 -0.13043578
0.09086872 -0.10663723

fc3.weight f4 [50, 50]
00000000: 3ee0 f2bd 6583 0bbe 0447 903b 92a5 89bd
00000010: 791e da3c 480f 81bc 66f3 02bd 58fa a1bd
00000020: 853c f73d 3809 04be 4237 913d cdd9 5ebd
00000030: 3269 cbbd 20dd df3d 79c5 babd 692d 5c3d
00000040: f667 903d 2720 b9bd 3719 8c3d 5659 bfbd
00000050: c223 6c3d bf31 ecbd 7e7d c03d 3b43 e33d
00000060: e4a9 6bbb 9c2a 7a3d 40d3 d5bd fc26 c7bd
00000070: dcbc 223d 5e52 93bc dd89 74bc 79d8 83bb
00000080: 5a2c 1e3d 2be4 c03c 9023 073e 64e9 06be
00000090: 5c73 4a3d 0209 c13d ce2c 41bd 65a8 003e
000000a0: e5bd e3bd 66a4 e93c 2678 203d 808e 8bbd
000000b0: 7d8b 2f3d 3ec1 ad3d b708 853d b6b5 4bbd
000000c0: 4fa2 e03b 338a dcbc 9286 22bd b3f6 bb3d
000000d0: 09d2 0dbe 91bd 43bd 19d0 463d cf41 ebbc
000000e0: 1494 bfbb 62ea 2bbd 52cc 103e df23 1d3d
000000f0: ebdb f83b d924 843d ef2a 2b3d 0b09 0e3d
00000100: 824d 0e3c 7db4 07be 5c56 b2bd 677a 96bd
00000110: 239a d03d c571 303d 2042 a9bc 8005 cc3d
00000120: 5921 503d 9d24 b3bc 240b 75bd 5fa4 dc3d
00000130: d3a5 0c3d 23f1 093e b1e0 623c 5d9b 6b3d
00000140: 9263 abbd a008 cf3d 9b29 60bc 452c 9fbd
00000150: 3f04 df3d 80f2 fa3d 8a7f f6bd edab 36bd
00000160: fe09 0cbe db56 fe3d afa9 02be a144 a83d
00000170: ce67 423d 56d4 ebbd f171 d7bc 4fa3 f7bd
00000180: 6c15 c63c cca0 9f3c 74a2 08bd 51f1 983d
00000190: cc5f cdbd 281f e2bb e1f9 073e 38f8 e8bd
000001a0: 028b e43b cfe8 08bc acbf 2aba 19ba 263b
000001b0: 32a2 d3bd 612b afbd 4f61 9abd 54b9 123d
000001c0: 340c 473d ea84 5cbd 7746 a0bd 7b44 ba3d
000001d0: 9014 ef3d 3d69 6d3d 9758 bbbd 05a8 d4bd
000001e0: 3b3e 60bd 7bfb c43d 3bf9 8cbd 7c80 eabd
000001f0: 9a28 8e3b 60ee 253e 9b1a 58bd 9557 7d3d
00000200: b859 073e fb1e cdbd fc77 50bd b6b1 013e
00000210: f7b2 46bd ca30 27bd a9e4 a3bb 2d61 df3d
00000220: 4e0d 96bd 2e3c 8c3d e85c a0bd 8637 e4bd
00000230: ec8e 083e ddbb edbd 64ab 9c3d dd0b d5bd
00000240: 2b75 2c3e 9b69 9bbd a682 ab3d 5d46 c7bd
00000250: 84d1 e1bd 5499 0c3d 6f1d dabd f935 e93d
00000260: d60e 943d dd6f 23bc 0288 0bbe e47c e7bd
00000270: d220 f8bb 4792 cabd b677 0fbe 6753 a4bd
00000280: 48e6 34bd 11ae 483d d55f d83d 7a09 a23d
00000290: ea15 04be f794 093e 686a c7bd e626 e53d
000002a0: 8f86 a7bd f4ce ec3d 6c32 0d3e d4b5 323d
000002b0: e793 d53b 5991 bfbd bfca d6bb 112f ef3c
000002c0: bd26 59bd 1ac5 103e 733f 5f3d 961a a33d
000002d0: 05cc c2bd 3401 80bd cf3b 1b3d 54ba 843d
000002e0: 4701 733b 92a2 6fbd 46b6 04bd c7b0 4fbb
000002f0: fb94 f73d e1bb c23b aa56 e4bd 357e f1bc
00000300: 0d71 c13d f115 aa3b 75f5 01be cdc6 fdbd
00000310: 0a61 833d ba02 e73d 6796 edbd fe11 853d
00000320: a0ee ba3b 545c 67bd a79e a6bd bc52 bfbd
00000330: 8d0c 1b3d 7cb0 c5bd 691b 45bc 7cd6 f5bc
00000340: 21d5 663d 4142 dcbd 5e7d 9abd a42d e8bd
00000350: 417b 0bbe 63d2 123d 9999 523b d6c0 2dbb
00000360: 7cc0 0f3d d447 933d 039f ad3d 649f 833a
00000370: 2de2 863d b04d 323d d189 f93d b392 963d
00000380: bcb3 0cbe b522 5fbd 97ae d0bd 76ef e0bc
00000390: d589 fabd ab25 0cbe 8146 1cbd 8887 e93d
000003a0: 7b15 09be 8c21 55bd 1507 e13d d2ff cdbd
000003b0: 719e 023e 6c81 df3d 6155 093e 02eb b83d
000003c0: 49b0 09bc 3e52 c93d 4978 71bd 6fe0 a0bc
000003d0: 2f70 b2bd b368 153d eebc e43c 14f2 2c3d
000003e0: 2307 ea3d 6e4a dbbd bb7d b7bd 9c82 e6ba
000003f0: 36e7 9ebd f09f 60bd 5131 00bd 36c8 203d
-0.11859177 -0.13624342 0.004402997 -0.06721033 0.026625859 -0.015754357 -0.031970404 -0.079090774
0.1207209 -0.12894142 0.07090618 -0.05440693 -0.09932174 0.10930848 -0.09119696 0.053754244
0.07051079 -0.09039336 0.06840747 -0.09343211 0.05765129 -0.11532926 0.09398936 0.110968076
-0.0035959417 0.06107579 -0.10440683 -0.097242326 0.03973089 -0.017983612 -0.014925447 -0.0040236083
0.038616516 0.023546299 0.1319716 -0.13174969 0.04942642 0.09425546 -0.04716187 0.12564237
-0.11120204 0.028520774 0.039177082 -0.06814289 0.042857636 0.08484124 0.06495803 -0.04973384
0.006855286 -0.026921367 -0.039679118 0.091779135 -0.13849653 -0.047788206 0.0485383 -0.028717903
-0.0058465097 -0.04197157 0.14140442 0.038364287 0.0075945756 0.06452341 0.04178899 0.034676593
0.0086854715 -0.13252445 -0.08707878 -0.07347565 0.10185649 0.04307725 -0.020661414 0.099619865
0.050813053 -0.021868045 -0.059825078 0.10773539 0.03433783 0.13470893 0.013847516 0.057521213
-0.08368601 0.10109067 -0.0136817945 -0.077721156 0.10889482 0.122532845 -0.12036045 -0.044597555
-0.13675687 0.1241891 -0.12760042 0.08216215 0.047462277 -0.11515109 -0.026299449 -0.120916955
0.024180137 0.019485854 -0.033358052 0.074679025 -0.100280374 -0.006900687 0.13278915 -0.11375469
0.006974579 -0.008356287 -0.00065135467 0.0025440513 -0.10333671 -0.08553196 -0.075380914 0.035821274
0.048595622 -0.053837694 -0.0782594 0.09095093 0.11673844 0.05796169 -0.091477565 -0.1038361
-0.054746848 0.096182786 -0.068834744 -0.11450288 0.004338336 0.16204214 -0.052759748 0.061851103
0.13217819 -0.10015675 -0.050895676 0.12665448 -0.048510518 -0.040818013 -0.0050016236 0.10907207
-0.073267564 0.06847416 -0.078302205 -0.11143403 0.1333577 -0.11608098 0.07649878 -0.10402653
0.16841571 -0.07588502 0.083745286 -0.097302176 -0.1102629 0.034325913 -0.10650145 0.113872476
0.07229392 -0.009975401 -0.13626102 -0.11303118 -0.007572272 -0.098911814 -0.1401051 -0.0802372
-0.044164926 0.048994128 0.105651535 0.07911964 -0.12898985 0.13435732 -0.09737092 0.1118906
-0.08179962 0.11562911 0.13788766 0.043630436 0.0065178755 -0.09353895 -0.006554931 0.029197248
-0.05301546 0.14137688 0.05450387 0.07964055 -0.0951157 -0.062502295 0.037898835 0.06480852
0.0037079619 -0.05850465 -0.032400392 -0.003169106 0.12088963 0.005942807 -0.11149342 -0.029479126
0.09445391 0.005190604 -0.1269129 -0.12391434 0.06414993 0.11279817 -0.116009526 0.06497572
0.005704716 -0.056484535 -0.08135729 -0.09341952 0.037853766 -0.09652802 -0.012030461 -0.0300095
0.0563556 -0.107548244 -0.07543443 -0.1133683 -0.13621236 0.03584517 0.0032135008 -0.0026512644
0.035095677 0.071914345 0.08477595 0.0010042009 0.06586108 0.04353112 0.121844895 0.073521994
-0.13740438 -0.05447646 -0.1018955 -0.027457934 -0.122333206 -0.13686244 -0.038153175 0.11402804
-0.133871 -0.052033946 0.10987679 -0.100585595 0.12755753 0.10913357 0.13411476 0.09029199
-0.008403846 0.098301396 -0.058952603 -0.019638268 -0.087128036 0.036476802 0.02792212 0.04222305
0.114271425 -0.10707556 -0.08959528 -0.0017586532 -0.07758944 -0.05484003 -0.03129703 0.039253436

fc3.bias f4 [50]
00000000: f1a5 203d a6cf 053a 9b20 a63c 504f ccbc
00000010: 4422 123e ee86 1dbc b143 043e 461d 47bc
00000020: 6795 193d 3e8e 983d 8bbe 3dbd ab17 0fbc
00000030: 66a8 ee3c 37a8 f9bd 49a5 e6bd 6ce7 b13d
00000040: 81e5 683c 7043 b83d cb2d 643d c354 fc3d
00000050: fe91 d23d 33d9 a43d 85b1 d03d 1ccf 04bc
00000060: aa35 f23d 02d2 e53c e818 cbbc 1ad5 da3c
00000070: 426a 5e3d 8a80 403c 1430 dc3d 2349 cd3d
00000080: 9733 f43d a699 a0bc e5eb e9bd 1ef8 843d
00000090: 5718 823d e9f3 81bd 6f1e c53d e269 c13d
000000a0: 6152 343d 72ea a8bd c4d6 203d b607 d03d
000000b0: 1e17 d8bc 8e03 e3bd 0a4e a3bd 9a55 823c
000000c0: 0aa0 f83c 08c3 e03d
0.039220754 0.00051044894 0.02027922 -0.024940163 0.14270884 -0.009614689 0.12916447 -0.012152975
0.037495997 0.074490055 -0.046324294 -0.00873367 0.029133033 -0.121902876 -0.112619944 0.08686718
0.014214874 0.08997238 0.055707734 0.123208545 0.10281752 0.0804924 0.10190109 -0.008106019
0.11826642 0.028054241 -0.02479215 0.026712943 0.054300554 0.011749396 0.10751358 0.10023715
0.119239025 -0.019604515 -0.114219464 0.06492637 0.06352299 -0.0634535 0.09624945 0.09444024
0.044023875 -0.08247842 0.039267316 0.10157721 -0.02637821 -0.110846624 -0.07973869 0.015909959
0.03034975 0.10974699

fc1.weight f4 [50, 7]
00000000: 0136 9ebe 40a8 a63e d2d9 1a3e 910e fa3d
00000010: fc8a 08be 16af ab3d fbee 7dbe da30 32be
00000020: dc3b 86bd d3bc 82be 72cf 15be d672 1bbe
00000030: 81a4 36be fe34 d5bd 5f0f 8a3c 4ac4 9fbd
00000040: ea29 a63d e9a1 1d3d ec0b 873e bd1d c8bb
00000050: 0e01 1dbe a068 023d 9cce 2a3e fb73 5ebe
00000060: c4f3 b8bc 3ef1 7e3d 1a46 573d 5ec3 d4bd
00000070: c3c5 03be f5e0 b4bd 5190 dbbd a6ed 80be
00000080: 5684 df3d 8bb5 2f3d c6e8 bd3d e025 6f3e
00000090: f605 703e 963c 56bc 2365 b03e a338 3a3e
000000a0: e2b9 b43c 2b6e 6b3c 80a8 083d 340e d2ba
000000b0: b87a 873d 54f5 753e d53b e53d e2cc 993d
000000c0: d98c ce3d e0d6 23be 752f 8d3d d367 d63d
000000d0: b2a1 923d cc62 173d 189b 993d 2739 9b3b
000000e0: 8064 093e 6656 a43d f23c 9cbe 7454 b33c
000000f0: ec07 cb3c 19bd 8c3e 842e 17be da34 0cbe
00000100: 04bd 483e dd51 9b3e 7a71 893e 5f46 1abd
00000110: c740 bbbd 3085 193e c680 f9bd 4ac0 81bb
00000120: 8713 0e3d 0d53 09be e9c5 edbd 98ee f1bc
00000130: f546 cbbd 00f2 78be 50d3 8b3d 1706 0c3e
00000140: 9333 463e a3a2 d0bd 47a2 23be a090 5abe
00000150: 6fa4 003e 8f27 e4bd 8088 8cbd 2f6e 0cbe
00000160: 4f3a 57bd c8f0 2bbe 51d3 8e3e 3395 13be
00000170: 3d56 b1bd 662c 053e fdd1 1b3e 49a0 80be
00000180: 85b9 eabc eae5 12be d998 5dbe 0874 993e
00000190: a84a f13d 09fb 07be 3f4b 67bc 86f3 7fbe
000001a0: 406c 833e 741f 7a3e 0530 36be 2d30 f23c
000001b0: b90a dfbd c424 e43d 9bb5 11be e1c5 3fbe
000001c0: 3c74 45be 7670 83be c139 d93b 6794 233e
000001d0: f47c f4bd 37ca 513e 0f86 c93d 42d8 7fbc
000001e0: 3341 2abe 0511 143e b83b 1a3e 8f27 773e
000001f0: d83a 863e b684 743c 67cc 88bd 7f8b 923e
00000200: 5ab7 eebc 96ba d0bd bc3f 5f3c fadf 26bd
00000210: 9802 2b3d 8dbd 3ebe 76e0 803e c1f0 65be
00000220: 146c 143e 1627 bfbd 01ec f2bd bb82 4b3d
00000230: 87a6 56bd 496b ce3d c602 d03d 2c46 653e
00000240: 96f0 2a3d 6066 2cbd 91cf 0cbe 446f 093d
00000250: c017 08be 86cf 243d bd07 913d d603 afbd
00000260: 3ad3 a6bd 22fa 06be da97 b7be dcfc babd
00000270: 68bb 8abe d365 4c3d d401 793e a06a 1dbd
00000280: 522b 0f3d 13ba 0e3e 9204 963b 9f70 54be
00000290: 9ea5 b5be d434 4fbe 0f9f 1cbb e571 96bd
000002a0: 7dc0 e93d 8407 7fbb 1ead a73d 4c26 853d
000002b0: a5e4 ddbd 3f1d f7bd 922c 5bbd 6f89 3d3e
000002c0: a89a 0f3e e3db 2bbe afde ebbd d47b b33d
000002d0: 05e5 d23d 4393 763e a914 6e3d 945d 05bd
000002e0: 5c82 ee39 1cee 773e e358 743d 32a6 d5bd
000002f0: eea0 0cbe fc63 37be b96a 543e e0b8 b43d
00000300: 5d76 0abe 278c 83be e63f a7be 765a 003e
00000310: 5f8f d73d 8bff afbe d422 33bc 360c 893c
00000320: a464 45bd a029 90be 903e a13d 0e7a 183e
00000330: d7dd 8dbe 005e 28be 7203 92be 890b c83d
00000340: 1d4d 0cbe 3ea7 4b3e 8601 9d3d a741 89be
00000350: 9bf6 76be b662 d5bd 9233 8bbc 9575 643e
00000360: d547 1abe e419 30be d002 123c 02e7 1b3e
00000370: 6afc 493e 5f66 40be 7747 1cbd 1e59 66be
00000380: db81 24be bdb1 9a3c 7ad2 803e c0b9 ef38
00000390: 5350 c83c f927 e23c e4f2 ccbd 157a 6bbe
000003a0: a870 8bbd 66b7 91be 5e79 10be 5532 a1bd
000003b0: 0af6 9cbe d5d0 e13d d268 21bd 1763 89be
000003c0: 23db a1bd 5b63 fabd a755 f0bd fc00 1b3e
000003d0: 24ff 9e3e b1e0 a4bc 8605 b5be 588d 35be
000003e0: 917b 283e 5386 8b3d 4f25 fcbc d993 823d
000003f0: 1e08 c83d ba3a a23e fb3b ebbd 6bf0 b8bd
-0.30900577 0.3255024 0.15122154 0.122098096 -0.13334268 0.08383004 -0.24798195 -0.17401448
-0.06554386 -0.25534686 -0.14629915 -0.15180525 -0.17836191 -0.10410498 0.016853033 -0.07801111
0.08113463 0.038484488 0.26376283 -0.0061070607 -0.15332434 0.03183806 0.16680378 -0.2172393
-0.022577174 0.062241785 0.05255709 -0.10388826 -0.12868409 -0.0883197 -0.107208855 -0.2518131
0.10913913 0.042897742 0.09272914 0.23354292 0.23439774 -0.013075968 0.3445216 0.18185668
0.022061292 0.014369528 0.03336382 -0.0016025961 0.066152036 0.24019367 0.11193053 0.075097814
0.10085458 -0.15999937 0.06893817 0.10469022 0.07159747 0.036959454 0.07500285 0.0047370377
0.13417244 0.08024292 -0.30515248 0.021890856 0.02478405 0.2748802 -0.14763838 -0.13692036
0.19603354 0.30335894 0.26844388 -0.037664767 -0.09143215 0.14992213 -0.12182765 -0.00395969
0.03468659 -0.13410588 -0.11610014 -0.029532716 -0.09925643 -0.24311066 0.06827414 0.13674198
0.19355612 -0.101872705 -0.15979873 -0.21344233 0.12562726 -0.11140358 -0.06861973 -0.13713907
-0.05254584 -0.1679107 0.27895597 -0.14412384 -0.08659027 0.13005218 0.15216823 -0.25122288
-0.028652916 -0.14345518 -0.21640338 0.29971337 0.11781818 -0.13279356 -0.014117061 -0.2499524
0.25668526 0.24426061 -0.17791755 0.029563988 -0.10890717 0.11139825 -0.14229433 -0.18727829
-0.19282621 -0.25671738 0.0066291993 0.1597458 -0.119378954 0.20487295 0.09840023 -0.015615525
-0.16626434 0.14459617 0.15061843 0.24136184 0.2621677 0.014924219 -0.06679612 0.28622052
-0.029140163 -0.101918384 0.013626035 -0.040740944 0.04175052 -0.18626995 0.2517125 -0.22455122
0.14494354 -0.09333627 -0.118614204 0.04968522 -0.052404907 0.10079057 0.10156779 0.2239005
0.041733347 -0.04208982 -0.13751055 0.033553377 -0.1329031 0.040236972 0.07081554 -0.085456535
-0.08145757 -0.13181356 -0.3585804 -0.0913026 -0.27096105 0.049901795 0.24317104 -0.038431764
0.034953423 0.13938169 0.0045781815 -0.20746087 -0.35477918 -0.20234996 -0.0023898517 -0.073459424
0.11413667 -0.0038914392 0.08187316 0.06501445 -0.10834626 -0.12066125 -0.053509302 0.18509458
0.1402384 -0.16783099 -0.11517083 0.08763853 0.10297588 0.24079613 0.05812517 -0.032559946
0.00045492023 0.24211925 0.05965508 -0.1043209 -0.13733265 -0.17909235 0.20743836 0.088243246
-0.13521715 -0.25692865 -0.32665938 0.12534508 0.10525393 -0.3437465 -0.010933597 0.016729455
-0.04819168 -0.28156757 0.07873261 0.1489031 -0.27708313 -0.16442108 -0.28518254 0.09767825
-0.13701291 0.19888017 0.07666306 -0.268079 -0.2411751 -0.10419218 -0.016992364 0.22310479
-0.15066464 -0.17197376 0.008911803 0.15224841 0.19725195 -0.18789051 -0.03815409 -0.22494933
-0.16065161 0.01888358 0.2516058 0.00011431007 0.024452364 0.027606951 -0.10007265 -0.2299579
-0.06808597 -0.28460234 -0.14108798 -0.07870928 -0.30656463 0.1102616 -0.039406605 -0.26833412
-0.07903125 -0.12225982 -0.11735087 0.15137094 0.31054032 -0.020126672 -0.35355777 -0.177297
0.16453387 0.0681273 -0.030779509 0.06375856 0.09767173 0.3168543 -0.1148605 -0.09030231

fc1.bias f4 [50]
00000000: fe1a b7bd 2c4e a9bd 9fd8 3bbe 0dd6 4c3d
00000010: c20f ca3d c6f6 ce3d 755d 9b3c df90 8b3e
00000020: c52f 83be a79e 1abd d074 cdbc dbe1 69be
00000030: 5a4d 13bd 5da1 493e 52f2 1c3e a342 30be
00000040: 4dd3 c9bd 9d4e af3e a20e d63d 202d 883c
00000050: 2999 85bd def4 f13d 2165 0e3e cfb9 8c3d
00000060: 1d15 2d3e a2d3 243e add3 2b3c 8d24 86bd
00000070: 5c67 b23d e890 fa3c 695f 07be 3a34 e3bd
00000080: dfa7 533d a6c0 e8bd 703b 843e d9bf 8ebe
00000090: 5ae3 edbc 1af2 ddbd d6d1 103c a327 c03d
000000a0: 58e1 343e 9385 7cbc 9969 c23d cf5b f83d
000000b0: 1a3a 02bd d8c9 94bd 3ff1 76bc 8cf0 17be
000000c0: 61fd 72be 1c6f 15bd
-0.08940695 -0.08266863 -0.18344353 0.050008822 0.09866287 0.10105662 0.018965462 0.27258965
-0.25622383 -0.03774896 -0.025080115 -0.22840063 -0.03596244 0.19690461 0.15326813 -0.1721292
-0.098547556 0.34239665 0.1045201 0.01662308 -0.065233536 0.11814283 0.13905765 0.06871378
0.16902585 0.16096357 0.010487479 -0.0654994 0.087111205 0.030586675 -0.1321999 -0.11093946
0.051673766 -0.1136487 0.25826597 -0.27880743 -0.029039074 -0.10837193 0.008839091 0.0938256
0.17664087 -0.015412706 0.094927974 0.12126886 -0.03179369 -0.07265061 -0.015072166 -0.14837855
-0.23729469 -0.036482915

fc2.weight f4 [50, 50]
00000000: bb71 d9bc b87c 18bd a99a 0f3d 3fb0 66bd
00000010: 9317 b0bd 8f43 c03d 76dd a4bd 354c 80ba
00000020: b895 f03c a7f3 cbbc e1fc 01bd 1bf2 a3bc
00000030: 31c4 203c 79e6 febb 3ef2 1d3d 716b b13d
00000040: 938e babd b89b 003c c784 cbbc 3388 fe3d
00000050: 7d60 4c3d 0775 ca3c 28c3 6dbc 181d df3d
00000060: bec9 8d3d e52f 113d 0c1b ee3a d1ab 08bd
00000070: 621c 9fbd e962 f9bc 210e b43c fdc6 a0bd
00000080: eb3a a73d 6fb8 673d 6553 e3bd 92d0 68bd
00000090: 6895 9dbd 6751 aabd dc03 163d 3f5c bd3d
000000a0: 5e01 32bd 23e0 873d e8d0 a9bd 8552 95bd
000000b0: 1c78 2bbd 31da 01bd 5ecc e63d 8848 233d
000000c0: 7082 eabb 0cc3 a03c 0e06 b93d ba87 8a3d
000000d0: e37d 3f3d 39d1 02bd 1b9d 013e cbf8 cfbc
000000e0: 6a29 83bd ec47 38bd db8b b5bc ed71 6ebd
000000f0: 93aa 38bd 0ac4 38bd 788c 65bd 542e dd3d
00000100: 7cf9 b13d 7ab2 103c 42f4 d53d e6a9 9d3c
00000110: 1065 803d b4d7 6fbd 6b9d a6bd 57fe 5d3d
00000120: 3298 46bc fd41 9bbd 2f65 5e3d 0945 ac3c
00000130: 7ad7 9f3d 28c7 89bc 0d02 b93d 3113 1dbd
00000140: e28e 12bd ead4 d53c caa1 efbc 9467 8ebd
00000150: b52e 8fbd 8250 bebd 45a0 c4bc 2ab1 06be
00000160: d14e e33d 557d 433c 1a4b a7bc 48b5 a43d
00000170: 1c8b 8bbd fdb0 6d3d 397f d0bd 6199 b9bd
00000180: d4ca 30bd 809d 983c 2689 d93b 833b ca3d
00000190: 5962 d3bd fb10 95bd 56d8 6e3d 6c0d 90bb
000001a0: 3ce6 8fbd b51c 43bd 634a 38bc a05a 5e3d
000001b0: aa51 7abd 2788 f53d 123d 993c 94ff 2ebd
000001c0: 26b2 c63d b8c7 4ebd aeb5 27bd f2b7 a8bc
000001d0: 7818 e6bd 83ec 24bd 426d 06be f528 953d
000001e0: 69dc 293d b6a3 5fbd bbda 9dbd 2c90 3d3d
000001f0: 181e b6bb e7aa 30bd 876c 0bbd e298 68bd
00000200: 9627 4ebd d9c3 62bd 35d1 25bc 3276 a8bc
00000210: 47a7 983d a062 ce3d 901b c738 dbc2 a3bc
00000220: 9b30 213d 36a9 593d 6a9f 1fbd 2bd1 8fbc
00000230: 0583 6a3d 22a8 61bd ec30 42bd 63f5 6b3d
00000240: 8d84 be3d d71a 09bd 540b 05be 23e4 273d
00000250: ad98 8fbd 5cf1 683d f739 983d 389a 1bbd
00000260: 1a00 883b 0829 ac3d 1beb c2bd c434 bc3c
00000270: ea26 0dbd 14ac 2b3d ee88 b8bd a193 83bd
00000280: 3385 833d 9797 a33c 2cd0 b2bd 0e48 c23d
00000290: 2537 c6bd 39bd 60bd 8e8d f43c 06fd 043c
000002a0: f9ce bf3c 309c 663d 7837 1d3d f141 b13c
000002b0: 4b30 9d3d 189e 3abd f196 163d 59a3 bd3a
000002c0: 0b13 303d b320 953d 4ec8 a53d ff05 f1bd
000002d0: ac34 34bb a183 0a3c 2094 e6bc 07a5 cc3c
000002e0: b15e 233d 4602 3a3d 05b1 b2bc a226 b13d
000002f0: 7587 953d ecce aebd d6b1 c2bd 0d87 873b
00000300: 9fdb dabc 160c bd3d 6ba2 ddbc 30a2 103d
00000310: f8e6 0a3d 37ce 2dbd 63ab 6d3d 3ff8 e3bc
00000320: b552 40bd 2288 4dbd 2807 723a 5f0c b7bd
00000330: e3d6 65bd 4592 cdbc c7d9 28bd 3ca0 cabd
00000340: 085f 66bd b4b2 a13d 03c4 75bc 0b2c 4a3d
00000350: 470d aabd 0a49 1cbd 3070 db3c 388e 873d
00000360: 5615 da3d 038d 873d fa32 a93d e70e cb3c
00000370: db7a 793d 06cb b23b 55ac 093e 08f2 0ebd
00000380: bd37 c73d c4c2 943b b984 85bd 567c 343d
00000390: 1449 983c 6ea2 95bd 783e 8fbc 951a 203d
000003a0: 48c4 98bd 5dfa ca3d 63fa 823d 26ea 903d
000003b0: 1771 eabd dde9 aebb 0716 873b 6e66 b3bd
000003c0: 2305 02be dbc2 27bd ad4b 283d 9b0d 3ebd
000003d0: 1573 033e 867a d33c 6d31 1cbd 65f9 03be
000003e0: 7cc6 973b c79e a53d b7a2 d5bd d349 afbd
000003f0: f9cc 003d 6f14 6abc e9ce 723d 812e d1bd
-0.026543489 -0.037228316 0.035059605 -0.056320425 -0.085982464 0.09387886 -0.08050053 -0.0009788336
0.029368266 -0.024896456 -0.031735305 -0.020012906 0.009812401 -0.0077789393 0.0385611 0.08663071
-0.09109225 0.007849626 -0.024843587 0.12428322 0.049896706 0.024714006 -0.014511861 0.10894221
0.06923245 0.035446066 0.001816602 -0.033366982 -0.077690855 -0.030442672 0.021979393 -0.07850454
0.081655346 0.056572374 -0.110998906 -0.056839533 -0.076945126 -0.083163075 0.036624774 0.0924611
-0.043458335 0.066345476 -0.08291799 -0.0729113 -0.041862592 -0.031702224 0.11269449 0.039864093
-0.0071566626 0.019624256 0.09034358 0.06764169 0.046750914 -0.03193781 0.12657587 -0.025387188
-0.064043835 -0.044990465 -0.022161415 -0.058214117 -0.045084547 -0.045108832 -0.056042165 0.10799852
0.086901635 0.008831615 0.10446979 0.019246053 0.06269276 -0.05855532 -0.08135494 0.054197636
-0.012121247 -0.07580946 0.054295715 0.021029012 0.07804771 -0.016818598 0.09033594 -0.03834838
-0.035780795 0.026102502 -0.029251952 -0.0695335 -0.069913305 -0.092926994 -0.024002204 -0.1315352
0.110990174 0.011931737 -0.020421553 0.08042389 -0.068136424 0.058030117 -0.10180516 -0.09062458
-0.043162182 0.01862979 0.006638664 0.09874632 -0.10321493 -0.072786294 0.058311783 -0.0043961313
-0.070263356 -0.0476348 -0.011248204 0.054285645 -0.061113037 0.119888596 0.018705878 -0.042724207
0.09701948 -0.050483435 -0.040944748 -0.020595524 -0.11235136 -0.040264618 -0.13127616 0.072832026
0.041469965 -0.054599486 -0.07707735 0.04628007 -0.0055577867 -0.043131735 -0.034039047 -0.056786425
-0.05033072 -0.055362556 -0.01012068 -0.020564172 0.074537806 0.10077405 9.4941934e-05 -0.019990375
0.039352994 0.053139888 -0.03897039 -0.017555794 0.057253856 -0.055091985 -0.047409937 0.057607066
0.09302626 -0.033472862 -0.12992603 0.040989053 -0.070115425 0.056870803 0.07432931 -0.03798887
0.0041504027 0.084062636 -0.09517499 0.02297438 -0.03446094 0.041912153 -0.09010492 -0.06424642
0.0642189 0.019969745 -0.08731112 0.094863996 -0.09678487 -0.054867957 0.029852655 0.008116966
0.023414122 0.056301296 0.038382977 0.021637889 0.07675227 -0.045560926 0.036765043 0.0014468237
0.04298691 0.072816275 0.08094846 -0.11768722 -0.0027497215 0.008454234 -0.028146803 0.024981035
0.039885227 0.045412324 -0.021812925 0.08649947 0.07301227 -0.08535561 -0.09506576 0.0041359724
-0.026716052 0.09230821 -0.027054986 0.035310924 0.033911675 -0.04243299 0.058024775 -0.027828334
-0.046953876 -0.050178654 0.0009232634 -0.089379065 -0.056113135 -0.02509416 -0.041223314 -0.098938435
-0.056242973 0.07895413 -0.015000346 0.04935841 -0.08303314 -0.038155593 0.026786894 0.06618923
0.10648601 0.06618693 0.08261676 0.02478738 0.06090818 0.005456331 0.13444646 -0.034898788
0.09727428 0.0045398194 -0.065194555 0.04406389 0.018589534 -0.07306372 -0.017485842 0.03908785
-0.07459313 0.09911034 0.06395414 0.0707591 -0.114473514 -0.0053379373 0.004122499 -0.08759771
-0.12697272 -0.040957313 0.041087795 -0.046399694 0.12836869 0.02581526 -0.038133074 -0.12888105
0.0046318155 0.08086925 -0.10431426 -0.08559003 0.031445477 -0.014287098 0.059279356 -0.10213948

fc2.bias f4 [50]
00000000: 26db 723d 2c6e 683d 795a d8bd e5be 04bd
00000010: 977f b8bd 567e 0f3c 7776 a33d 21a0 2dbd
00000020: 145b 50bc 202b 03be aa48 d8bc d965 2d3d
00000030: 7f69 0cbd 768a d5bc bf88 003e 1033 c23b
00000040: 5f7c aabc 8eea 0c3c 590e 6cbc b89f 013d
00000050: 62a8 27bd 1d0a ca3c be75 38bd 439e 28bd
00000060: 202d 863d c0ef aa3b b646 31bd fc6e 913b
00000070: 9ee6 a73d 6ccb 89bd 4a12 9fbd e293 303c
00000080: b51f 983d 596f 1a3d 57e8 5f3d cb3b 563d
00000090: 8dbd 13bd e4d3 e1bd 6ced f43c 064c a7bc
000000a0: c632 283d 7509 6a3d c4d8 0ebc 6654 cabd
000000b0: 9866 a1bd a768 933d d1b2 edbd 74fb c4bd
000000c0: 57a6 1c3d a50b 1bbd
0.059291027 0.056745693 -0.10564131 -0.032408614 -0.09008711 0.008758148 0.0798158 -0.04238904
-0.012717027 -0.1280942 -0.026401836 0.042333458 -0.034280296 -0.026067 0.12552164 0.0059264973
-0.020811258 0.008600844 -0.014407718 0.03164646 -0.040932067 0.024663026 -0.045034163 -0.041166555
0.06551576 0.0052165687 -0.043280326 0.004438279 0.081982836 -0.06728253 -0.0776716 0.0107774455
0.07427923 0.037703846 0.054664936 0.052303117 -0.03606944 -0.11026743 0.029898368 -0.020421993
0.041064046 0.057137925 -0.008718673 -0.09879379 -0.07880896 0.07197695 -0.11606372 -0.096182734
0.03824457 -0.037852902

fc3.weight f4 [50, 50]
00000000: be7e 87bd 5692 60bd 1938 863c 1320 bfbd
00000010: a76a fc3c f6be cd3b d22c 4abd 0a79 b3bb
00000020: cb50 d93d 09b3 dfbd 07d4 6d3d f39d 80bd
00000030: 9ad9 79bd 62f6 e03d 49ab a3bc 819f 263d
00000040: 61cb 5a3d 2288 b3bd 7c9f 913d bd1b b3bd
00000050: a801 7d3d 4e12 00be ba00 bb3d e1f9 a93d
00000060: a28a a43c 6ebd 173d 4f77 f5bc af33 9cbd
00000070: 8d2c 993d da18 ddbb ba47 193d a1c7 69bc
00000080: 65bc 56bb 894e 22bc f24e 053e 9c10 a5bd
00000090: 46dc 8dbc 8393 d33d 2dff 87bd 2316 923d
000000a0: d945 4cbd 44e7 5a3d 1375 3d3d ee09 85bd
000000b0: 0d64 a33c e92a a53c 2411 123d 3b02 78bc
000000c0: 8cf1 a5bc aa99 a53c 1ae7 8a3c b449 b63c
000000d0: 6421 87bd 1430 29bd 2bd3 313d c09f 093c
000000e0: 64c2 9f3c d1e0 90bd 57a7 003e 42b7 703c
000000f0: 0df7 933c bd48 833d 1c45 32bc a626 7fbb
00000100: b1ae 54bc 0cf3 78bd b255 3fbd 2e98 94bd
00000110: e11c 903d f05f 0bbc 2034 ba3c 69b2 4e3c
00000120: 620d 983c a225 60b9 b1d7 b1bc ad53 913c
00000130: 9fab e6bc 4a16 e13d 92fc 0bbd ffde a23d
00000140: 3431 1bbc 060e 833d b3ab 173d aa90 b3bd
00000150: d9bc c03d bb87 dc3d 5309 cbbc 04a7 b4bb
00000160: ac46 27bd 0e9d 443d 5200 05be c19a b93d
00000170: 39bd a23d e20b edbd 01cf 4f3a 745a f8bd
00000180: a16b c8bc d78a bf3c 38bb 5dbc 926b a23d
00000190: 800e f8bd 55cc 013d d1a1 7e3d 016f c7bd
000001a0: 84eb 8e3c a280 ab3c b90a 48bc d3da d73c
000001b0: 0478 63bd cdca a7bd 9bd3 a8bd c3c2 16bd
000001c0: c79f a23b 6ff4 98bd 2d34 14bd 52a4 8e3d
000001d0: c3f1 d93c 2d3f 693c 8842 20bd 87e0 a2bd
000001e0: 3abf 2bbd c2f1 303d 4f4a 9abd 5ef1 ccbc
000001f0: ca6c 813c b6ee d53d 5699 76bd 8027 853d
00000200: adca ba3d 6cdc 3fbd e19b 393c d471 863d
00000210: 29d7 913c 003b 7bbd 88c5 663c 28a6 c83d
00000220: 3c72 b2b9 4c51 4d3c 146d 44bd 3bd8 0bbd
00000230: f87f 2b3d 8e8e 6abd 2710 853d 1428 d5bd
00000240: d914 923d 5d22 91bd 8466 1c3d dbee 41bd
00000250: 560f debd e717 62bc b2d9 9cbd c7af a53d
00000260: 252b a23c 8d1e 27bd a553 7dbd ba67 14bd
00000270: e6ac 343c a347 b7bc eae3 03be 8517 c8bd
00000280: 582f 48bd d6c1 133c ae37 a03d 240c 943d
00000290: 5048 83bd ffbc ba3d d56e 01bd 33c9 6d3d
000002a0: a016 f5bc ddf3 f93d 3956 053e e39e 3abc
000002b0: 8e31 633d e16a 29bd 55af b43a 8c2d 00bd
000002c0: 2291 a8bd fb93 d13d 9cfd 41bc 4ffc 943d
000002d0: 292e 7fbd 2f0f 77bb 04e2 883d b2d4 5f3d
000002e0: 4bba a2bc d1ee 87bd 5b88 e23b b89c 203b
000002f0: 4b81 f83d 8c0f 1c3c cff9 bbbd 5145 033c
00000300: 122e 0a3d 637f 1ebc 8bdb 50bd 9b21 39bd
00000310: bdac 8c3d 5d90 f23c 948b 64bd 614e b63d
00000320: 8e16 323d 873e 56bd d039 cabd 6650 16bd
00000330: db18 d9bc 4329 d0bd 7402 51bd f54b 5cbd
00000340: fc2f 003c 0958 aebd b52e 60bc b2f1 4abd
00000350: f54b afbd e42a e8bc c9f6 cd3c f846 4abc
00000360: fda5 2f3d 3011 2f3d 2d4f b73d 9cc5 b73b
00000370: 9e0f 1d3d 076c bb3c 83ae 043d 4fcb 893d
00000380: b160 b4bd fc45 95bd bfed 2dbd 123c febc
00000390: 2f73 39bd abae 9dbd 9c46 473c ec12 1c3d
000003a0: 6476 babd e316 13bb f298 963c 4a94 a4bd
000003b0: 4a01 2d3d 5ac9 663d d319 093e 45e8 a23d
000003c0: 6ee0 d73b 2af9 633d d634 aabd 6e2b 413c
000003d0: 0bb2 b5bd 4e3e 6f3c 4cab 92bb 3bdc 453c
000003e0: 78d7 5e3d 0559 cdbd eb3d cbbd 4ea0 2a3b
000003f0: 88fc 67bd 0a72 15bc e135 80bd 4ffd 103d
-0.06615971 -0.054827057 0.016384171 -0.093322895 0.030812575 0.006278868 -0.04935915 -0.0054770755
0.10611113 -0.1092282 0.058063533 -0.062801264 -0.060998537 0.10984494 -0.019979136 0.04067946
0.053416613 -0.087662 0.07110497 -0.08745525 0.061769158 -0.12506983 0.09130998 0.08299614
0.020085637 0.03704589 -0.029964117 -0.07627045 0.074792005 -0.0067473473 0.03742192 -0.014268787
-0.00327661 -0.00990642 0.13018396 -0.080598086 -0.017316949 0.1033087 -0.06640468 0.071331285
-0.0498713 0.05344321 0.04625423 -0.064960346 0.019945169 0.020162063 0.035660878 -0.015137251
-0.02025678 0.020214874 0.016955901 0.022251941 -0.06598166 -0.041305616 0.043414276 0.008399904
0.019501872 -0.0707413 0.12563835 0.01469213 0.018062139 0.06410358 -0.010880735 -0.0038932948
-0.012981103 -0.060778663 -0.046712585 -0.072555885 0.07036758 -0.00850676 0.022729933 0.0126157785
0.018561069 -0.00021376324 -0.021709295 0.017740095 -0.028158007 0.109905794 -0.034176417 0.079526894
-0.00947218 0.06399159 0.03702898 -0.08767827 0.0941102 0.10768076 -0.02478472 -0.005513074
-0.040838882 0.04800134 -0.12988403 0.0906272 0.079462476 -0.11574532 0.00079272693 -0.121266276
-0.024465384 0.023381634 -0.013533406 0.07930674 -0.12112141 0.031689007 0.06216604 -0.09737969
0.017446287 0.02093536 -0.012209588 0.02634946 -0.055534378 -0.08192978 -0.082434855 -0.036806833
0.0049628946 -0.07468497 -0.03618257 0.06964935 0.026604539 0.014236254 -0.03912595 -0.079529814
-0.041930415 0.04319931 -0.075337045 -0.025017437 0.015798945 0.10445921 -0.060204826 0.06501675
0.091206886 -0.04684107 0.011328668 0.0656468 0.017802792 -0.061335564 0.014085181 0.09797317
-0.00034035917 0.01253159 -0.047955588 -0.03414176 0.041870087 -0.057264857 0.064972214 -0.10408035
0.071328826 -0.070866324 0.038183704 -0.04734693 -0.10842769 -0.013799644 -0.076587096 0.080901675
0.019795964 -0.04080062 -0.061847348 -0.036231734 0.01102755 -0.022373026 -0.12879911 -0.09770111
-0.048873276 0.009018382 0.0782312 0.07228878 -0.06410277 0.091180794 -0.03159984 0.058053207
-0.029918015 0.12204716 0.13021173 -0.011390421 0.05546718 -0.041361693 0.0013785163 -0.031293437
-0.08230807 0.10233303 -0.01184025 0.072746865 -0.06229988 -0.003769826 0.06683734 0.0546462
-0.019864222 -0.066373475 0.0069132275 0.0024507474 0.12134036 0.009525191 -0.091785066 0.008012132
0.033735342 -0.009673926 -0.050990622 -0.045198064 0.06868885 0.029609853 -0.055797175 0.08901668
0.04347854 -0.052305724 -0.09874308 -0.036697768 -0.02650111 -0.1016412 -0.05102773 -0.053783376
0.00782394 -0.08512885 -0.013683011 -0.049546905 -0.085594095 -0.028340764 0.02514209 -0.012346022
0.042882908 0.042741 0.089506485 0.0056082737 0.03834497 0.02287866 0.03239299 0.06728231
-0.08807505 -0.07288739 -0.04246306 -0.031034503 -0.045275863 -0.07699331 0.012162831 0.038103983
-0.091046125 -0.0022444061 0.018383477 -0.080360964 0.042237557 0.056344368 0.13388757 0.07954458
0.0065880334 0.055657543 -0.08310859 0.01179014 -0.088718496 0.014602257 -0.0044759866 0.012076433
0.054404706 -0.10026745 -0.09923919 0.002603549 -0.056637317 -0.009121427 -0.062602766 0.035397824

fc3.bias f4 [50]
00000000: 9b3c 563d 3c48 90bc b192 8dbc c81a 8e3c
00000010: d7ab ae3d 8a4b 3f3c 6710 333d e74d c0bc
00000020: 6e9b 55bc b0d2 b93d a7dc 4abb aa53 be3c
00000030: 2d13 06bd 4597 74bd 2499 52bd 7539 b03c
00000040: 1771 153d 48d3 c43d da9c a8bb ef4d a93d
00000050: fcc4 5d3d d352 a03d c19c a53d 33df e3bc
00000060: b424 953d d958 133d 695c 09bd a9c3 c9bc
00000070: 7824 e63c 5a29 00bd 1c0a ca3d fd8c 823d
00000080: add8 ff3d ac3f f1bc 040f abbd f47c 083d
00000090: 16f5 803d 33fb 4bbd b093 b93c b58a b83d
000000a0: 307c 1d3d 2611 26bc 6ba2 ee3a 3c61 b63d
000000b0: ea7a 52bd 7970 61bd 167b 92bd 4883 6e3d
000000c0: 1766 9abc 4486 b33d
0.05230389 -0.017612569 -0.017281862 0.017346755 0.085288696 0.011675725 0.043716814 -0.023474647
-0.013037546 0.090733886 -0.0030954273 0.023233254 -0.03273313 -0.059714574 -0.051415578 0.021511773
0.036484804 0.09610611 -0.0051456513 0.08266818 0.054142937 0.078282975 0.08086539 -0.02781639
0.07282391 0.035973404 -0.033535395 -0.02462943 0.028093562 -0.031289436 0.098652095 0.06374548
0.124924995 -0.029449306 -0.083524734 0.03332229 0.062967464 -0.04980011 0.02265343 0.09010831
0.038448513 -0.010135924 0.0018206363 0.08905265 -0.05138675 -0.055038903 -0.07152383 0.05823067
-0.018847508 0.087658435
