checkpointing_test/sigmoid_example_s12345/models/eval_checkpoint_200.pt (torch, 95431 bytes, 24 tensors)

fc1.weight f4 [50, 7]
0	0xbe9aa724	-0.30205643
1	0x3ec38018	0.38183665
2	0x3ed2c4f6	0.41165894
3	0x3e270059	0.16308726
4	0xbed51af3	-0.41622123
5	0x3d89e0c4	0.06732324
6	0xbe5c6926	-0.21524486
7	0xbe89010c	-0.2675861
8	0xbe073f91	-0.13207842
9	0xbea54847	-0.32281706
10	0xbebd6703	-0.36992654
11	0xbdf4bd42	-0.119501606
12	0xbdbe9322	-0.09305407
13	0xbeb478e5	-0.35248485
14	0xbe0dd02d	-0.13848944
15	0xbe4a6ba3	-0.19767623
16	0xbd63a220	-0.055574536
17	0x3e98156e	0.2970385
18	0x3eaed73b	0.34148583
19	0x3d050bbc	0.032481894
20	0xbe33fa91	-0.17576052
21	0xbdd19818	-0.10234088
22	0x3eaaabf3	0.33334312
23	0xbec5d444	-0.38638508
24	0x3dc8733d	0.09787605
25	0xbdebaad8	-0.11507195
26	0x3ba8a13a	0.005146173
27	0xbdeb05ef	-0.11475741
28	0xbe900369	-0.28127602
29	0xbe9acd6b	-0.30234846
30	0xbe36544f	-0.17805599
31	0xbec3f156	-0.38270062
32	0x3ec0f59b	0.37687382
33	0xbd9f0f20	-0.07766557
34	0x3e63b84b	0.22238271
35	0x3ea20de7	0.31651232
36	0x3e64289f	0.2228112
37	0x3e0ce99b	0.13760988
38	0x3ea53f03	0.32274637
39	0x3d9f3e51	0.07775558
40	0xbd4de4d4	-0.050267056
41	0x3e1adce1	0.15123321
42	0xbd85f3b6	-0.06540625
43	0xbe210da2	-0.15727857
44	0x3ccdad97	0.025107188
45	0x3eb9303c	0.36169612
46	0x3e38851a	0.18019524
47	0x3e4a007e	0.1972675
48	0x3e377ac8	0.17917931
49	0xbe82281b	-0.25421223
50	0x3e93f385	0.28896728
51	0x3e30cecf	0.17266391
52	0xbdf1c791	-0.118056424
53	0x3babf111	0.005247243
54	0x3e3316dc	0.17489189
55	0xbdd6bca6	-0.104852006
56	0xbb36861c	-0.0027850932
57	0x3e1e8fc9	0.15484537
58	0xbe9748a9	-0.29547623
59	0x3e2becae	0.16789505
60	0x3e142792	0.1446822
61	0x3e7b2200	0.24524689
62	0xbea85c62	-0.32882982
63	0xbe92c9b5	-0.28669515
64	0x3e53007b	0.20605652
65	0x3ebda8a1	0.37042716
66	0x3eb54174	0.354015
67	0x3decf5e1	0.11570335
68	0xbd903d69	-0.07042963
69	0x3d1da8b3	0.038490962
70	0xbe9ac0f9	-0.3022535
71	0xbdcf0260	-0.10107875
72	0x3dc8d137	0.098055296
73	0xbe914c3c	-0.28378475
74	0xbebb6c80	-0.36606216
75	0x3e2dc85b	0.16970961
76	0xbd780922	-0.060555585
77	0xbec29e07	-0.3801119
78	0xbddd3965	-0.10801963
79	0x3e982eb0	0.2972312
80	0x3e8a2f28	0.26989102
81	0xbc91a6ac	-0.01777967
82	0xbe30c159	-0.17261256
83	0xbe816f33	-0.2528015
84	0x3ea73876	0.32660264
85	0xbe7fb6d6	-0.2497209
86	0xbd13e23f	-0.036104437
87	0xbe7aa57c	-0.2447719
88	0xbe5e44b1	-0.21705891
89	0xbebe81d0	-0.37208414
90	0x3e67e1e2	0.22644761
91	0xbebaab7c	-0.36458957
92	0xbc51af75	-0.01279818
93	0x3e3ef43a	0.18647853
94	0x3e30b06f	0.17254804
95	0xbebcf2f5	-0.36904112
96	0xbe1c623a	-0.15271845
97	0xbe92cf28	-0.28673673
98	0xbe911f74	-0.2834431
99	0x3eb42b22	0.35189158
100	0x3e81c4ef	0.2534556
101	0xbcb06397	-0.021531863
102	0xbe249bdc	-0.1607508
103	0xbeb3f59a	-0.35148317
104	0x3eab97b1	0.3351417
105	0x3eafa8e8	0.34308553
106	0xbe27c949	-0.16385378
107	0xbd6497fc	-0.055809006
108	0xbe57178f	-0.2100508
109	0x3e795774	0.24349767
110	0xbe2cbc3b	-0.16868679
111	0xbe33f621	-0.1757436
112	0xbebffddb	-0.37498364
113	0xbea50c14	-0.32235777
114	0x3d75841e	0.05994045
115	0x3eb5ad85	0.35483947
116	0xbe84a95d	-0.25910464
117	0x3e967897	0.29388878
118	0x3e408dec	0.18804139
119	0xbd982f5d	-0.07430909
120	0xbe7d75c7	-0.2475196
121	0x3e61f927	0.220677
122	0x3e97be60	0.29637432
123	0x3ebfd8f4	0.3747021
124	0x3eaa4306	0.3325426
125	0x3dac5bcd	0.08415947
126	0xbe0f8e3e	-0.14019105
127	0x3e76cca5	0.24101503
128	0xbdbdda9a	-0.092702106
129	0xbca7c7ae	-0.020480957
130	0x3e5866d8	0.21132982
131	0x3e13e851	0.1444409
132	0x3d223bd3	0.039607834
133	0xbeab8da0	-0.3350649
134	0x3e97d5da	0.29655343
135	0xbe222bd5	-0.15837033
136	0x3d954ab0	0.07289636
137	0xbe0bee0e	-0.1366503
138	0xbe3b9dc7	-0.18321906
139	0xbd9ae9db	-0.07564136
140	0xbe3231dd	-0.17401834
141	0x3dfe9636	0.12430994
142	0xbd0cb75f	-0.034354564
143	0x3eb0df21	0.34545234
144	0xbdf0d59b	-0.11759492
145	0xbe1bfdac	-0.15233487
146	0xbdc61d46	-0.09673552
147	0x3dcabdf4	0.09899512
148	0xbe763450	-0.24043393
149	0x3e030eba	0.12798586
150	0xbb29f570	-0.0025933646
151	0xbea61c79	-0.32443598
152	0xbbbeae3b	-0.0058191097
153	0xbdda2245	-0.10651068
154	0xbebd91d1	-0.37025312
155	0xbe034b34	-0.12821656
156	0xbe934a74	-0.2876774
157	0x3e906217	0.28199837
158	0x3e73f2b0	0.23823047
159	0xbe213c12	-0.15745571
160	0xbd21dec2	-0.03951908
161	0x3ec1610f	0.37769362
162	0x3e437774	0.19088537
163	0xbdfd9a77	-0.123829775
164	0xbec26daf	-0.37974307
165	0xbe77f8a5	-0.24215944
166	0xbcdb878f	-0.026798038
167	0x3b90325c	0.0044005346
168	0x3e8669d4	0.26252615
169	0xbc9341cd	-0.017975712
170	0x3e5a3398	0.21308744
171	0x3e6a5b9a	0.22886506
172	0xbe7c558a	-0.24642006
173	0xbdc45e78	-0.09588331
174	0x3d8313f6	0.064002916
175	0x3eafa4c9	0.3430541
176	0x3e11d5ba	0.14241686
177	0xbe95c577	-0.29252216
178	0xbd96af92	-0.07357706
179	0x3dfc74d9	0.123269744
180	0x3dfe572f	0.12418973
181	0x3e823b48	0.25435853
182	0xbdac2a13	-0.084064625
183	0x3cc7e939	0.024403201
184	0xbe1022b2	-0.14075735
185	0x3e786e04	0.24260718
186	0xbbd5ccbb	-0.00652465
187	0xbe8e859e	-0.27836317
188	0xbe279f6c	-0.16369408
189	0xbdadc1c3	-0.08484223
190	0x3e629de9	0.2213055
191	0x3d82e4c7	0.06391292
192	0xbe93bde3	-0.2885581
193	0xbed5ec1a	-0.41781694
194	0xbeb7ff41	-0.3593693
195	0x3e8af977	0.27143452
196	0x3e1dac87	0.15397845
197	0xbec62a5b	-0.3870419
198	0x3b4692db	0.0030299935
199	0x3e7526a6	0.23940524
200	0x3d254451	0.040348355
201	0xbea8c0ff	-0.32959744
202	0x3e8a7277	0.27040455
203	0x3e9b6205	0.3034822
204	0xbeafd09b	-0.3433884
205	0xbebf98e6	-0.3742134
206	0xbe962950	-0.29328394
207	0x3e1a4172	0.15064028
208	0xbe2897df	-0.16464184
209	0x3eb62c92	0.3558088
210	0x3e44320c	0.19159716
211	0xbeb22f89	-0.3480189
212	0xbea6bc7e	-0.32565683
213	0xbe5a9331	-0.21345212
214	0xbe4e9fcc	-0.20178145
215	0x3e7d4103	0.24731831
216	0xbd3b53e5	-0.045734305
217	0xbde4b295	-0.11166874
218	0x3b3bfc65	0.0028684374
219	0x3ebf6e7e	0.37388986
220	0x3ea88567	0.32914278
221	0xbed6e96c	-0.41974962
222	0x3d89645d	0.06708596
223	0xbe9a5ec6	-0.3015043
224	0xbeb1180a	-0.34588653
225	0x3d4e1238	0.050310344
226	0x3ea3d633	0.3199936
227	0xbdbf10cf	-0.09329378
228	0xbd1ef790	-0.038810313
229	0xbe173ae7	-0.14768563
230	0x3c7d239e	0.015450386
231	0xbeaa9239	-0.33314684
232	0xbe8056e2	-0.25066286
233	0xbeaaec2a	-0.33383304
234	0xbe593328	-0.21210921
235	0xbe70e45e	-0.23524615
236	0xbe99ce21	-0.30040076
237	0x3da9e9aa	0.08296521
238	0xbd9fcfbf	-0.07803296
239	0xbeb8b54d	-0.36075822
240	0xbe335479	-0.17512693
241	0xbd80bbc8	-0.062858164
242	0x3c4b64ce	0.01241417
243	0x3ea89bbe	0.32931322
244	0x3ebf683f	0.3738422
245	0x3dad6928	0.084673226
246	0xbecc5d25	-0.39914814
247	0xbd6f5654	-0.05843194
248	0x3d9a1c9b	0.07524987
249	0x3e0c8157	0.13721214
250	0xbe1a8e45	-0.15093334
251	0x3cc6f2d2	0.024285708
252	0x3d66ef95	0.056380827
253	0x3e9a9d15	0.3019797
254	0xbe796a97	-0.24357067
255	0xbea01da9	-0.3127263

fc1.bias f4 [50]
0	0xbeaeca81	-0.34138873
1	0xbe6733a4	-0.22578293
2	0xbd85a879	-0.06526274
3	0x3e2269c3	0.15860657
4	0x3ece2cbd	0.40268508
5	0x3c845210	0.016152412
6	0xbddb97e7	-0.107223324
7	0x3ebc9fbc	0.36840618
8	0xbe6f623c	-0.23377317
9	0xbbd8d177	-0.006616767
10	0xbe67b631	-0.22628094
11	0xbe668ccf	-0.22514652
12	0x3e01dc55	0.12681706
13	0x3e13d3c8	0.14436257
14	0x3da09733	0.07841339
15	0xbdae964e	-0.08524762
16	0xbe9648c0	-0.2935238
17	0x3ebd166a	0.36931163
18	0x3db5ba9b	0.08873483
19	0xbceee3c3	-0.02916134
20	0xbda496e6	-0.08036594
21	0x3c41cd9b	0.011828805
22	0x3e97fcf5	0.29685178
23	0xbdb055fd	-0.08610151
24	0x3e89f4b4	0.26944506
25	0x3e21834a	0.15772739
26	0x3dd25f39	0.102720685
27	0x3c1c2baa	0.009531895
28	0xbd030598	-0.031987756
29	0xbd89d5f0	-0.067302585
30	0x3ce4417a	0.027863253
31	0xbd92cc73	-0.07167902
32	0xbd8bdbad	-0.06829009
33	0xbe2bd033	-0.1677864
34	0x3e851430	0.25991964
35	0xbe85d0e7	-0.26135942
36	0xbe69ff35	-0.2285126
37	0xbdfa8a4d	-0.1223341
38	0x3e44f56d	0.19234248
39	0x3e806666	0.25078124
40	0x3e9082ed	0.28224888
41	0xbe210c7b	-0.15727417
42	0xbb800f39	-0.0039080647
43	0x3d24819b	0.040162664
44	0xbd60761c	-0.054800138
45	0xbe976256	-0.29567212
46	0x3d24aa22	0.040201314
47	0xbea105b5	-0.31449667
48	0xbe4f3d65	-0.20238264
49	0x3df6afba	0.12045236

fc2.weight f4 [50, 50]
0	0x3d6adb87	0.057338264
1	0x3a64d1dc	0.0008728781
2	0x3df05bff	0.11736297
3	0xbd28b20d	-0.041185427
4	0x3d19b944	0.0375302
5	0x3da7ec37	0.08199351
6	0xbd9e247b	-0.07721802
7	0x3beef141	0.0072919433
8	0x3c1cef3e	0.009578524
9	0xbdbf27b5	-0.093337454
10	0xbd65fdf5	-0.056150395
11	0xbd9b25b1	-0.075755484
12	0xbc448c09	-0.011996278
13	0xbca7167c	-0.020396464
14	0xbc633915	-0.01386859
15	0x3da486ca	0.080335215
16	0xbe1cc54b	-0.15309636
17	0x3d942c38	0.072349966
18	0xbd9b9707	-0.075971656
19	0x3dfd38b4	0.12364331
20	0x3daf2718	0.085523784
21	0x3e09577a	0.13412276
22	0xbda4f398	-0.08054274
23	0x3dc31605	0.09525684
24	0x3cd0183f	0.025402186
25	0xbc7c11bf	-0.01538509
26	0x3c9883e8	0.018617585
27	0xbe19ba72	-0.1501253
28	0xbe4130b5	-0.18866237
29	0xbd9c5fe8	-0.0763548
30	0xbd837147	-0.0641809
31	0xbd8a75ab	-0.06760725
32	0x3def48e4	0.11683825
33	0x3dab828c	0.08374509
34	0xbe353505	-0.17696007
35	0xbe2b199f	-0.16708992
36	0xbda1852c	-0.07886729
37	0xbdbac3ee	-0.09119402
38	0x3cfe1e15	0.031020204
39	0x3d6227a0	0.05521357
40	0xbdb4f5eb	-0.08835968
41	0x3d8e082a	0.06935151
42	0xbd9ad35d	-0.075598456
43	0xbd9c2893	-0.076249264
44	0x3d0eb578	0.03484103
45	0xbd765a18	-0.060144514
46	0x3dd6bbda	0.104850486
47	0x3ca9f959	0.020748781
48	0x3b459a8c	0.0030151932
49	0x3ce72139	0.028214084
50	0x3dfe2430	0.12409246
51	0x3de17e4f	0.110104196
52	0x3defb3d0	0.117042184
53	0xbd63bbfc	-0.055599198
54	0x3e3ff287	0.1874486
55	0xbdd14a43	-0.102192424
56	0xbd1ab6ba	-0.037771918
57	0xbcd60542	-0.026125554
58	0xbdcec711	-0.10096563
59	0xbd7b0472	-0.061283536
60	0xbd528ae2	-0.05140198
61	0xbcb5943f	-0.022165416
62	0xbe101be0	-0.14073133
63	0x3dc1c85e	0.09462045
64	0x3d8cdd70	0.06878173
65	0x3d500176	0.050782643
66	0x3ddb4da5	0.10708169
67	0xbd2e7933	-0.042596053
68	0x3c9dc234	0.019257642
69	0xbd07bf5e	-0.033141486
70	0xbde55c65	-0.111992635
71	0x3cc6fb9c	0.024289899
72	0x3d2c7257	0.04210123
73	0xbdd69750	-0.10478079
74	0x3cf87d44	0.030333169
75	0x3db2517c	0.08706948
76	0x3da79863	0.08183362
77	0xbcff9027	-0.031196667
78	0x3dfbf007	0.12301641
79	0xbd00bfba	-0.031432845
80	0xbde745d1	-0.11292613
81	0xbc97d3dd	-0.018533641
82	0xbd95d7d5	-0.07316557
83	0xbde07f32	-0.109617606
84	0xbe0cdc8c	-0.13756007
85	0xbe0d8715	-0.13821061
86	0xbc9d6e79	-0.019217717
87	0xbe0b5250	-0.13605618
88	0x3e10b7c3	0.141326
89	0x3c50a68b	0.012735019
90	0x3d25798b	0.040399116
91	0x3d34274c	0.04398279
92	0xbe0f750e	-0.14009497
93	0x3d9339a7	0.07188731
94	0xbe048ba0	-0.12943888
95	0xbe11add6	-0.1422647
96	0xbd99180e	-0.07475291
97	0x3c065757	0.008199534
98	0xbd6fd917	-0.058556642
99	0x3dedda56	0.1161391
100	0xbdbaa2b9	-0.09113068
101	0xbd6862e0	-0.05673492
102	0x3d28afdd	0.04118334
103	0xbd505c52	-0.050869294
104	0xbdf13975	-0.11778537
105	0xbe0d0123	-0.13769965
106	0xbd9be183	-0.07611372
107	0x3d897c13	0.067131184
108	0xbdebe101	-0.115175255
109	0x3e0ae661	0.13564445
110	0x3cedf03b	0.029045215
111	0xbd81ce0b	-0.06338128
112	0x3da72e72	0.081631556
113	0xbdd1a7b2	-0.102370635
114	0xbd9700c3	-0.07373192
115	0xbdbb5165	-0.09146384
116	0xbe0d972d	-0.138272
117	0xbd98bb98	-0.07457656
118	0xbe022d11	-0.12712504
119	0x3d53ae11	0.051679675
120	0x3e09020a	0.13379684
121	0xbda896bc	-0.08231875
122	0xbe0c1bb6	-0.13682446
123	0x3dcc4f88	0.09976107
124	0xbd985224	-0.07437542
125	0xbd628e90	-0.05531174
126	0xbdc36f73	-0.095427416
127	0xbdaad2bd	-0.083409764
128	0xbdc340ea	-0.09533866
129	0xbd6eeaf4	-0.058329538
130	0x3c8285bb	0.015932908
131	0x3d04268e	0.03226333
132	0x3d88ed48	0.06685883
133	0x3de45844	0.11149648
134	0x3d888b27	0.06667166
135	0xbd54873d	-0.051886786
136	0x3d5b81a3	0.053590428
137	0x3df834c9	0.12119443
138	0xbd049c37	-0.03237554
139	0xbccd31d5	-0.025048176
140	0x3d23ba40	0.039972544
141	0xbd075f77	-0.033050027
142	0xbcaffad6	-0.021481913
143	0x3cbf238b	0.023332378
144	0x3e0979ed	0.13425417
145	0xbc3d879e	-0.011567978
146	0xbe01bc01	-0.12669374
147	0x3c8396fe	0.01606321
148	0xbdef5226	-0.116855904
149	0x3e0149c8	0.12625802
150	0x3ddb7e2a	0.10717423
151	0xbd1b6f33	-0.037947845
152	0xbce71c72	-0.028211806
153	0x3e0adacf	0.13560031
154	0xbdbccace	-0.092183694
155	0xbccc0cc7	-0.024908436
156	0xbda1dd89	-0.079035826
157	0x3ddc73a3	0.107642435
158	0xbdef83bb	-0.116950475
159	0xbe1088e7	-0.14114724
160	0x3d5cb5a7	0.053884175
161	0x3dabf6c1	0.08396674
162	0xbdc598a3	-0.09648254
163	0x3de394da	0.111123756
164	0xbda832a5	-0.08212785
165	0xbd00dc42	-0.031460054
166	0xbd9b4932	-0.0758232
167	0x3d0b64fa	0.034031846
168	0x3dcd4ca9	0.100243874
169	0x3e068cb1	0.13139607
170	0x3d7cd30d	0.06172471
171	0x3d1f41c8	0.038881093
172	0x3de999d4	0.114062935
173	0xbd1bb8d0	-0.038018048
174	0x3d15da32	0.03658504
175	0x3da979df	0.08275198
176	0x3db836c1	0.089948185
177	0x3d9ecca3	0.07753875
178	0x3d8bbdba	0.06823297
179	0xbe0ed527	-0.13948499
180	0xbd9c6db2	-0.0763811
181	0x3c9e69cf	0.019337563
182	0xbd113d38	-0.035458773
183	0x3e09a33b	0.13441174
184	0x3c2a2ea1	0.010387094
185	0x3cc2337f	0.023706196
186	0xbcfb2d68	-0.0306613
187	0x3db7edfa	0.08980937
188	0x3db119df	0.08647513
189	0xbda8c30d	-0.08240328
190	0xbdb674e4	-0.08909014
191	0xbd5fa6d3	-0.054602455
192	0xbd4ea86b	-0.050453585
193	0x3d9d7032	0.07687415
194	0xbd8a49c7	-0.06752353
195	0x3dd3654e	0.10322057
196	0x3da4b0cb	0.08041533
197	0xbe016887	-0.1263753
198	0x3de08572	0.10962953
199	0xbce1cd9b	-0.02756386
200	0xbe033692	-0.12813786
201	0xbd35f14d	-0.044419575
202	0x3de865cc	0.11347541
203	0xbdfda948	-0.123858035
204	0xbe149e92	-0.14513615
205	0x3c2118d7	0.009832582
206	0x3d107b75	0.035273988
207	0xbb813414	-0.003942976
208	0xbd4f2133	-0.05056877
209	0x3e0bb086	0.13641557
210	0xbd2dedbd	-0.042463053
211	0x3caf0649	0.021365302
212	0xbd136ec2	-0.0359943
213	0xbd4a18eb	-0.04934017
214	0x3d5534dd	0.052052367
215	0x3e01de94	0.12682563
216	0x3e0da278	0.13831508
217	0x3d832e54	0.06405321
218	0x3e328a77	0.17435633
219	0xbbaa7a78	-0.0052025877
220	0x3db99496	0.09061544
221	0x3cafc9b3	0.021458482
222	0x3dc4e94a	0.09614809
223	0x3b1612de	0.002289943
224	0x3e24ad56	0.16081747
225	0x3ccd8901	0.025089743
226	0x3c9773ca	0.01848783
227	0x3dd7f661	0.1054504
228	0x3d823788	0.06358248
229	0xbe1ff73a	-0.15621653
230	0x3d018950	0.031625092
231	0x3c9dcb43	0.019261962
232	0xbe2cf748	-0.16891205
233	0x3de9842b	0.11402162
234	0x3dea4cf4	0.11440459
235	0x3e102ced	0.14079638
236	0xbe025bde	-0.12730357
237	0x3dd3061a	0.10303898
238	0xbcb48b27	-0.02203901
239	0xbd22dcf3	-0.039761495
240	0xbdd997a3	-0.106246255
241	0xbda17fb4	-0.078856856
242	0x3d8617a3	0.06547477
243	0xbdf87dbe	-0.121333584
244	0x3e585717	0.21126972
245	0x3c177997	0.009245298
246	0x3bb95b57	0.0056566405
247	0xbdd6826a	-0.10474093
248	0x3de330b1	0.110932715
249	0x3d8bbbed	0.068229534
250	0xbe06b527	-0.13155042
251	0xbd6b8783	-0.05750228
252	0x3ca63389	0.020288246
253	0x3d373f9c	0.044738397
254	0x3cf34407	0.029695524
255	0xbe0685e8	-0.13137019

fc2.bias f4 [50]
0	0x3c538755	0.012910684
1	0x3dc3f96b	0.09569057
2	0xbdb64448	-0.08899742
3	0xbdba252b	-0.090891205
4	0xbd7fe115	-0.062470514
5	0xbd8a9a96	-0.06767766
6	0x3df95274	0.1217393
7	0xbe0d1504	-0.13777548
8	0x3d3af235	0.045641143
9	0xbdfe26d1	-0.124097474
10	0xbe0a49a0	-0.13504648
11	0x3da29fb1	0.07940615
12	0x3c64c9d0	0.0139641315
13	0xbb7f7cb3	-0.0038984239
14	0x3e17d9df	0.14829205
15	0xbd57e749	-0.052710805
16	0xbd9e5dec	-0.07732758
17	0xbc8a74e6	-0.016901445
18	0xbd51fe95	-0.05126818
19	0x3e0a7520	0.13521242
20	0xbd871788	-0.06596285
21	0x3dc61fdc	0.096740454
22	0xbd20940b	-0.039203685
23	0xbc9dae20	-0.019248068
24	0x3d0cd0fa	0.034378983
25	0xbd5413b5	-0.051776607
26	0xbde30323	-0.11084583
27	0xbd532f38	-0.051558703
28	0x3e009270	0.12555861
29	0xbdf9d132	-0.12198104
30	0xbdd16968	-0.10225183
31	0xbd4ac194	-0.049501017
32	0x3dbde6ec	0.092725605
33	0x3d4bf89b	0.049797636
34	0x3dfe974c	0.12431201
35	0x3d8cf524	0.06882694
36	0xbdb42076	-0.08795254
37	0xbe04b794	-0.12960654
38	0x3d415253	0.04719765
39	0xbd11e874	-0.035622075
40	0x3cab9414	0.020944633
41	0x3db7e2a4	0.08978775
42	0xbc74fae1	-0.014952392
43	0xbde81feb	-0.11334213
44	0xbdd9ea9c	-0.10640451
45	0x3d5c7417	0.05382165
46	0xbdfc4477	-0.12317746
47	0xbdfbe273	-0.12299051
48	0x3db68f99	0.08914108
49	0xbddb7d40	-0.10717249

fc3.weight f4 [50, 50]
0	0xbdc53ebf	-0.096311085
1	0xbe0b8365	-0.13624342
2	0x3b904704	0.004402997
3	0xbd34c2ce	-0.044131093
4	0x3d3bc8cf	0.045845803
5	0xbc810f48	-0.015754357
6	0xbc9dc6a8	-0.019259766
7	0xbda1fa58	-0.079090774
8	0x3df739c2	0.12071563
9	0xbe040938	-0.12894142
10	0x3dc4d5c3	0.09611084
11	0xbcfbc622	-0.030734126
12	0xbdb4b331	-0.088232405
13	0x3e093f97	0.13403164
14	0xbdb5e79c	-0.088820666
15	0x3da15628	0.07877761
16	0x3daa3be6	0.08312206
17	0xbd89a037	-0.06720012
18	0x3d8fea36	0.07027094
19	0xbdb5f5cf	-0.08884775
20	0x3d96b1f2	0.07358159
21	0xbda900ec	-0.08252129
22	0x3dc85882	0.097825065
23	0x3de9e5e7	0.114208035
24	0x3ccfa956	0.0253493
25	0x3d7a2a9c	0.06107579
26	0xbdd5d340	-0.10440683
27	0xbd997776	-0.074934885
28	0x3d83a0f3	0.06427183
29	0xbc09a89a	-0.008402014
30	0xbbe2f1d1	-0.0069257994
31	0xbb83d879	-0.0040236083
32	0x3d8425ca	0.0645252
33	0x3cc0e42b	0.023546299
34	0x3e0ba19a	0.13635865
35	0xbe06777d	-0.13131519
36	0x3d7b3352	0.06132824
37	0x3dc656b0	0.09684503
38	0xbcdedb11	-0.027204068
39	0x3e1386ee	0.1440694
40	0xbdb37dd6	-0.08764236
41	0x3ce9a466	0.028520774
42	0x3d207826	0.039177082
43	0xbd534e02	-0.051588066
44	0x3d62b3d5	0.055347282
45	0x3dadc13e	0.08484124
46	0x3d8502fe	0.06494711
47	0xbd4bb5b6	-0.04973384
48	0x3be0a24f	0.006855286
49	0xbcdc8a33	-0.026921367
50	0xbcaae48e	-0.020860936
51	0x3dbbf6b3	0.091779135
52	0xbe0dd209	-0.13849653
53	0xbcf74378	-0.030183539
54	0x3d8966a3	0.067090295
55	0xbceb41cf	-0.028717903
56	0x3cfa5e88	0.030562654
57	0xbd2bea62	-0.04197157
58	0x3e10cc52	0.14140442
59	0x3d1d23df	0.038364287
60	0x3cd30c54	0.025762714
61	0x3da950d0	0.08267367
62	0x3d826d82	0.06368543
63	0x3d35139a	0.044208147
64	0x3cdece7f	0.027198074
65	0xbdc32b4e	-0.09529744
66	0xbd4d17a6	-0.05007138
67	0xbd1503df	-0.036380645
68	0x3dd09a23	0.10185649
69	0x3d7b5836	0.06136342
70	0x3c65581b	0.013998057
71	0x3e0baf48	0.13641083
72	0x3d8c31fc	0.06845471
73	0xbb424c74	-0.002964762
74	0xbd294c71	-0.041332666
75	0x3ddca45f	0.10773539
76	0x3d0ca5d3	0.03433783
77	0x3e2ff496	0.17183146
78	0x3d4d72c6	0.050158285
79	0x3d9a851e	0.07544921
80	0xbdab6392	-0.08368601
81	0x3dcf08a0	0.10109067
82	0x3c96521f	0.018349705
83	0xbd9f2c45	-0.077721156
84	0x3e025145	0.12726314
85	0x3dfaf280	0.122532845
86	0xbdf67f8a	-0.12036045
87	0xbce1f678	-0.027583346
88	0xbdf4d683	-0.11954977
89	0x3e25b3ff	0.16181944
90	0xbde093a6	-0.10965662
91	0x3da844a1	0.08216215
92	0x3d4267ce	0.047462277
93	0xbda0a112	-0.07843222
94	0x3c327d84	0.010894183
95	0xbdf7a34f	-0.120916955
96	0x3cc6156c	0.024180137
97	0x3c9fa0cc	0.019485854
98	0xbd08a274	-0.033358052
99	0x3d98f151	0.074679025
100	0xbdc56d43	-0.09639981
101	0xbbe21f28	-0.006900687
102	0x3e07f9e1	0.13278915
103	0xbdacd9ed	-0.084400035
104	0x3d89816f	0.067141406
105	0xbc08e8cf	-0.008356287
106	0xbc2a59d5	-0.010397394
107	0x3b26ba19	0.0025440513
108	0xbdd3a232	-0.10333671
109	0xbdaf2b61	-0.08553196
110	0xbd930c83	-0.07180121
111	0x3ce3f1e5	0.027825305
112	0x3d10efb6	0.035384856
113	0xbd57ed29	-0.052716408
114	0xbda04677	-0.0782594
115	0x3de19937	0.110155515
116	0x3dea1f6d	0.11431775
117	0x3d448765	0.047980685
118	0xbd8921b3	-0.06695881
119	0xbda968eb	-0.08271965
120	0xbd5453cb	-0.051837724
121	0x3cb3a0be	0.021927234
122	0xbd8cf93b	-0.068834744
123	0xbd9c71fa	-0.07638927
124	0xbbdad247	-0.006677899
125	0x3e2faa5b	0.17154829
126	0xbd581a9b	-0.052759748
127	0x3dc863e7	0.0978468
128	0x3e04527a	0.12922087
129	0xbdcd1efb	-0.10015675
130	0x3ba9a29e	0.005176856
131	0x3d994229	0.07483322
132	0x3c80f3e5	0.015741298
133	0xbd259763	-0.040427577
134	0xbc18e5a6	-0.009332096
135	0x3e355969	0.17709889
136	0xbd960d4e	-0.073267564
137	0x3db19dfb	0.086727105
138	0xbe25f3fd	-0.16206355
139	0xbddf8975	-0.1091489
140	0x3e1d200b	0.15344255
141	0xbdedbbdd	-0.11608098
142	0x3d9cab64	0.07649878
143	0xbde828d1	-0.1133591
144	0x3e31cc20	0.17363024
145	0xbd9b699b	-0.07588502
146	0x3dab82a6	0.083745286
147	0xbdc7465d	-0.097302176
148	0xbde1d184	-0.1102629
149	0x3d0c9954	0.034325913
150	0xbd9d7c7c	-0.07689759
151	0x3de935f9	0.113872476
152	0x3d940ed6	0.07229392
153	0xbc236fdd	-0.009975401
154	0xbdd9ffb2	-0.10644473
155	0xbde77ce4	-0.11303118
156	0x3cb69c8f	0.02229145
157	0xbdca9247	-0.098911814
158	0xbe0f77b6	-0.1401051
159	0xbda45367	-0.0802372
160	0xbd34e648	-0.044164926
161	0x3d885909	0.06657607
162	0x3e0aa654	0.13540012
163	0x3da2097a	0.07911964
164	0xbdcbe90a	-0.09956558
165	0x3e29a747	0.16567717
166	0xbd8a4a8b	-0.06752499
167	0x3e11ad80	0.14226341
168	0xbd6c429d	-0.057680715
169	0x3e157149	0.14593996
170	0x3e2c0c58	0.16801584
171	0x3d8b5f3a	0.068052724
172	0x3bd593e7	0.0065178755
173	0xbd82c28b	-0.063847624
174	0x3cb051d7	0.0215234
175	0x3cef2f11	0.029197248
176	0xbd5926bd	-0.05301546
177	0x3e10c51a	0.14137688
178	0x3daceb54	0.08443323
179	0x3de62b7f	0.11238765
180	0xbd8dacb7	-0.06917708
181	0xbd0741c0	-0.03302169
182	0x3d8fb2b5	0.070165075
183	0x3d84ba54	0.06480852
184	0x3d0a245d	0.033726085
185	0xbd6fa292	-0.05850465
186	0xbb6e8266	-0.0036393641
187	0x3c28f695	0.010312696
188	0x3df794fb	0.12088963
189	0x3d12aa6a	0.03580705
190	0xbde456aa	-0.11149342
191	0xbcf17e35	-0.029479126
192	0x3dc1710d	0.09445391
193	0x3d10110b	0.035172503
194	0xbdc75d3d	-0.09734581
195	0xbdca3aea	-0.09874518
196	0x3d83610a	0.06414993
197	0x3de702ba	0.11279817
198	0xbded9667	-0.116009526
199	0x3d8511fe	0.06497572
200	0x3c8a6cca	0.016897578
201	0xbd675c54	-0.056484535
202	0xbda69ea7	-0.08135729
203	0xbdbf52bc	-0.09341952
204	0x3d81e833	0.063431166
205	0xbdc5b07c	-0.09652802
206	0x3be19103	0.006883742
207	0xbcf5d67c	-0.0300095
208	0x3d66d521	0.0563556
209	0xbddc4241	-0.107548244
210	0xbd212ff2	-0.039352365
211	0xbde82da4	-0.1133683
212	0xbdf0e313	-0.11762061
213	0x3d12d263	0.03584517
214	0x3c988a1d	0.018620545
215	0x3d0a620d	0.033784915
216	0x3d5f450f	0.05450922
217	0x3d9347d4	0.071914345
218	0x3dcf9465	0.10135726
219	0x3ca5aa2b	0.020222744
220	0x3dadc710	0.08485234
221	0x3d1e170d	0.0385962
222	0x3e0867c1	0.13320829
223	0x3dba4760	0.09095645
224	0xbdf6bb32	-0.120474234
225	0xbd163b9f	-0.036677953
226	0xbdd0ae97	-0.1018955
227	0x3b6327ed	0.0034661249
228	0xbdfa89d5	-0.122333206
229	0xbe0c25ab	-0.13686244
230	0xbc90fe8e	-0.017699506
231	0x3e00333d	0.12519546
232	0xbde66115	-0.11248986
233	0xbd55218c	-0.052033946
234	0x3e0720d5	0.13196118
235	0xbd9f1943	-0.0776849
236	0x3e029e71	0.12755753
237	0x3dd5271b	0.104078494
238	0x3e095561	0.13411476
239	0x3db8eb02	0.09029199
240	0xbc09b049	-0.008403846
241	0x3dc9523e	0.098301396
242	0xbd717849	-0.058952603
243	0xbb08053f	-0.002075508
244	0xbd8baa4e	-0.068195924
245	0x3d1568b3	0.036476802
246	0x3ce4bcee	0.02792212
247	0x3d2cf214	0.04222305
248	0x3dea0723	0.114271425
249	0xbddb4a6e	-0.10707556
250	0xbd98b32a	-0.07456048
251	0xbae6829c	-0.0017586532
252	0xbd9ee736	-0.07758944
253	0xbd0f6151	-0.035004918
254	0xbc2123a1	-0.009835155
255	0x3d20c836	0.039253436

fc3.bias f4 [50]
0	0x3d65d19a	0.056108095
1	0x3d182153	0.037141155
2	0x3d21aa9b	0.039469343
3	0x3ba153ba	0.004923311
4	0x3e2573b3	0.16157417
5	0x3c119421	0.008885414
6	0x3e342a8e	0.17594358
7	0xbc351a6e	-0.011053665
8	0x3d246d4f	0.040143307
9	0x3d988e3e	0.074490055
10	0xbd2dedbc	-0.04246305
11	0x3c62c3dc	0.013840642
12	0x3ceea866	0.029133033
13	0xbdeb23eb	-0.1148146
14	0xbd6f2fc3	-0.05839516
15	0x3dc1690d	0.09443865
16	0x3d3c0558	0.045903534
17	0x3dbcab22	0.092123285
18	0x3d642dcb	0.055707734
19	0x3dfc54c3	0.123208545
20	0x3e08fb3e	0.13377091
21	0x3db4484d	0.08802853
22	0x3deba2f3	0.115056895
23	0xbc04cf1c	-0.008106019
24	0x3e09a694	0.13442451
25	0x3ce5d202	0.028054241
26	0xbcaa60cd	-0.020798111
27	0x3cdad51a	0.026712943
28	0x3d9e32a5	0.077245034
29	0x3c9c2ce2	0.01906437
30	0x3dea12af	0.11429345
31	0x3e00b45a	0.12568799
32	0x3e045087	0.12921344
33	0xbc25420c	-0.010086548
34	0xbde9ebe5	-0.114219464
35	0x3db5ece0	0.08883071
36	0x3d8316ae	0.0640081
37	0xbd2b900f	-0.04188543
38	0x3dc2dadb	0.095143996
39	0x3dde878b	0.108656965
40	0x3d381603	0.044942867
41	0xbda8ea72	-0.08247842
42	0x3d1784cd	0.036991883
43	0x3de1c66c	0.11024174
44	0xbc8069e1	-0.015675487
45	0xbde9aef4	-0.11410323
46	0xbda34e0a	-0.07973869
47	0x3c8e061b	0.017336896
48	0x3d49c7da	0.04926286
49	0x3de0c308	0.10974699

fc1.weight f4 [50, 7]
0	0xbe9b3fab	-0.30322012
1	0x3ebb33d1	0.3656297
2	0x3ea052a1	0.3131304
3	0x3e1688b5	0.14700587
4	0xbe9d030c	-0.30666387
5	0x3d89da04	0.06731036
6	0xbe6b00ed	-0.22949572
7	0xbe6eef9f	-0.23333596
8	0xbddc9ed9	-0.10772485
9	0xbe98a337	-0.29812023
10	0xbe937e32	-0.28807217
11	0xbe067a3f	-0.1313257
12	0xbdfe867b	-0.12427994
13	0xbe85ec84	-0.2615701
14	0xbda60453	-0.081062935
15	0xbe1f8b93	-0.15580587
16	0xbbc8211c	-0.0061074626
17	0x3e49d2bb	0.19709294
18	0x3e9faa4f	0.31184623
19	0x3c7a8403	0.015290263
20	0xbe2e8130	-0.17041469
21	0xbd4d6bf0	-0.050151765
22	0x3e8b4efb	0.27208695
23	0xbea42c54	-0.3206507
24	0x3d5c01a5	0.053712506
25	0xbd5a31f9	-0.053270314
26	0x3c99cf29	0.01877554
27	0xbdf12ef6	-0.11776535
28	0xbe66fcef	-0.22557424
29	0xbe6cbc83	-0.23118787
30	0xbe147055	-0.14495976
31	0xbea937d1	-0.33050397
32	0x3e8e5c0f	0.2780461
33	0xbd1f27f4	-0.03885646
34	0x3e331e32	0.17491987
35	0x3e932592	0.287396
36	0x3e6b4122	0.22974065
37	0x3da481a9	0.08032543
38	0x3ea94f91	0.33068517
39	0x3df0c8e2	0.11757065
40	0xbcd17295	-0.025567332
41	0x3dce5faf	0.10076844
42	0xbcef97d7	-0.029247208
43	0xbdcca5bb	-0.09992548
44	0x3d254e96	0.04035815
45	0x3ea28df1	0.31748918
46	0x3e21f872	0.1581743
47	0x3e1da6cc	0.15395659
48	0x3e1af9e0	0.15134382
49	0xbe6170dd	-0.2201571
50	0x3e549988	0.20761693
51	0x3e16efe6	0.14739951
52	0xbd138863	-0.03601874
53	0x3c89d927	0.01682718
54	0x3e0d94f2	0.1382635
55	0xbd7ebaa9	-0.06218973
56	0x3d40080f	0.046882685
57	0x3e02dde4	0.12779957
58	0xbe992e12	-0.2991796
59	0x3de66666	0.1125
60	0x3dcbb591	0.099467404
61	0x3e820694	0.25395644
62	0xbe883995	-0.26606432
63	0xbe6e6bed	-0.23283358
64	0x3e4de950	0.20108533
65	0x3eb1b3fe	0.34707636
66	0x3ea4642f	0.32107684
67	0x3d77c3cc	0.06048946
68	0xbd96c8c1	-0.073625095
69	0x3da82de0	0.08211875
70	0xbe71e193	-0.23621206
71	0xbd86349d	-0.06553004
72	0x3d99506e	0.07486044
73	0xbe6a7e6a	-0.22899786
74	0xbe8c942c	-0.27456796
75	0x3dc634d0	0.09678042
76	0xbd990770	-0.07472122
77	0xbea8b854	-0.3295313
78	0xbd2c24aa	-0.042027153
79	0x3e75abb4	0.23991281
80	0x3e786bf9	0.24259938
81	0xbd38f984	-0.04515983
82	0xbe29567a	-0.16536894
83	0xbe6f1fc7	-0.23351966
84	0x3e834f3e	0.25646394
85	0xbe4d0243	-0.20020394
86	0xbd18f230	-0.037340343
87	0xbe4c3d57	-0.19945274
88	0xbe1c7543	-0.15279107
89	0xbe95ba2d	-0.29243603
90	0x3e7f2564	0.24916607
91	0xbe9345c6	-0.2876417
92	0xbd3dc9d7	-0.046335068
93	0x3e22912f	0.15875696
94	0x3e22346d	0.15840311
95	0xbea37b86	-0.31930178
96	0xbde9a42e	-0.11408268
97	0xbe752ddb	-0.23943274
98	0xbe84c91d	-0.25934687
99	0x3ea9e1dd	0.33180133
100	0x3e4c9752	0.19979599
101	0xbd731680	-0.05934763
102	0xbddd5f14	-0.1080915
103	0xbea09930	-0.31366873
104	0x3e9d38d9	0.30707434
105	0x3e9cbe46	0.30613917
106	0xbe2cf1e9	-0.16889156
107	0xbcd2e4ff	-0.02574396
108	0xbe2e59e8	-0.17026484
109	0x3e478271	0.19483353
110	0xbe24260e	-0.16030142
111	0xbe38163c	-0.17977232
112	0xbe9c8eba	-0.30577642
113	0xbe9b3c72	-0.30319554
114	0x3d19c21e	0.03753864
115	0x3e90b568	0.28263402
116	0xbe57bc3c	-0.210679
117	0x3e81f3b4	0.25381243
118	0x3e1b9a9c	0.15195698
119	0xbd644775	-0.05573221
120	0xbe612ee0	-0.21990538
121	0x3e41d6bd	0.18929572
122	0x3e75fc35	0.2402199
123	0x3ea4ecab	0.32211813
124	0x3e9c23e5	0.30496135
125	0x3d8e925d	0.0696151
126	0xbde91162	-0.11380269
127	0x3e842055	0.25805917
128	0xbd966577	-0.07343572
129	0xbd4bedaa	-0.0497872
130	0x3e0cca71	0.137491
131	0x3d9d78ab	0.07689031
132	0x3d3e2d01	0.046429638
133	0xbe8be52b	-0.2732328
134	0x3e917aa4	0.2841388
135	0xbe41405d	-0.18872209
136	0x3dcf7ed7	0.10131615
137	0xbe03f5d5	-0.12886746
138	0xbe23b22e	-0.15985939
139	0xbcbae803	-0.02281571
140	0xbe03fc7e	-0.12889287
141	0x3df5a6b1	0.119946845
142	0x3c155b6d	0.009116036
143	0x3e9914dc	0.29898727
144	0xbd8024fc	-0.06257054
145	0xbdddb92c	-0.10826334
146	0xbdde9673	-0.1086854
147	0x3d97e77a	0.074171975
148	0xbe4c4913	-0.1994975
149	0x3dba4655	0.09095446
150	0x3cb960b4	0.02262912
151	0xbe701e8b	-0.23449151
152	0xbd34d299	-0.044146154
153	0xbdfa725d	-0.12228844
154	0xbeba6a42	-0.36409193
155	0xbdf3a4ae	-0.118966445
156	0xbe8f5130	-0.2799163
157	0x3e4857de	0.19564769
158	0x3e72c62e	0.23708412
159	0xbdef1b60	-0.11675143
160	0xbc49ced6	-0.01231738
161	0x3e9438e5	0.28949657
162	0x3dfa336e	0.12216841
163	0xbe1e914f	-0.15485118
164	0xbec10d6b	-0.3770555
165	0xbe69d383	-0.22834592
166	0xbc988862	-0.01861972
167	0xbccd8a8d	-0.02509048
168	0x3e548b28	0.20756209
169	0xbc4cab6a	-0.01249204
170	0x3e2929e0	0.1651988
171	0x3e27c01c	0.16381878
172	0xbe46f23d	-0.19428344
173	0xbdd31f12	-0.103086606
174	0x3cc45fe4	0.023971505
175	0x3e91e2ff	0.28493497
176	0x3e118f0d	0.14214726
177	0xbe7f214c	-0.24915045
178	0xbdad3706	-0.084577605
179	0x3de1cdc5	0.110255755
180	0x3deb454a	0.11487825
181	0x3e7f9e55	0.24962743
182	0xbd1e50fa	-0.038651444
183	0xbb52bd7a	-0.0032156394
184	0xbda58c38	-0.08083385
185	0x3e74f41a	0.23921242
186	0x3c99782e	0.018734064
187	0xbe5b3117	-0.21405445
188	0xbe1c62dc	-0.15272087
189	0xbe0660f7	-0.13122927
190	0x3e5a65f4	0.21327955
191	0x3d8976c8	0.06712109
192	0xbe6ee76a	-0.23330465
193	0xbeb8539a	-0.36001283
194	0xbeaef345	-0.34169975
195	0x3e5c4e74	0.21514302
196	0x3e0ae82c	0.13565129
197	0xbebdc065	-0.37060848
198	0xbb893037	-0.004186656
199	0x3e2507b9	0.16116227
200	0x3c0914ff	0.008366822
201	0xbe9fdbb0	-0.31222296
202	0x3e4c9085	0.19977005
203	0x3e7e97a8	0.2486254
204	0xbea30a02	-0.31843573
205	0xbe9845a6	-0.29740638
206	0xbe953d02	-0.29148108
207	0x3e060fc5	0.13091953
208	0xbe1b572c	-0.15169972
209	0x3e98b681	0.2982674
210	0x3e1dff99	0.15429534
211	0xbea1d106	-0.31604785
212	0xbe96a7ae	-0.29424804
213	0xbe34219d	-0.17590947
214	0xbe0a04ab	-0.13478343
215	0x3e64f442	0.22358802
216	0xbdb860bb	-0.09002825
217	0xbe0c4d79	-0.13701428
218	0x3bc02543	0.005863817
219	0x3e935fa0	0.28783894
220	0x3e8de214	0.27711546
221	0xbeab77d8	-0.3348987
222	0x3d084c00	0.033275604
223	0xbe8fa12f	-0.2805266
224	0xbe8e7d1a	-0.2782982
225	0x3d15c15a	0.036561348
226	0x3e95ab29	0.29232147
227	0xbd8030fc	-0.06259343
228	0xbc88a370	-0.016679496
229	0xbdb56920	-0.08857942
230	0xbd100848	-0.035164148
231	0xbe979abc	-0.2961024
232	0xbe3b6028	-0.182984
233	0xbea2330a	-0.31679565
234	0xbe3df9ab	-0.18552272
235	0xbe36c7a8	-0.178496
236	0xbe9bf381	-0.30459216
237	0x3db40c0d	0.08791361
238	0xbd8422d3	-0.06451955
239	0xbea7943a	-0.32730275
240	0xbe130828	-0.1435858
241	0xbdb376b2	-0.08762874
242	0xbd00c462	-0.031437285
243	0x3e864baa	0.26229602
244	0x3eb33e84	0.35008633
245	0x3d4a28ef	0.049355444
246	0xbec17014	-0.3778082
247	0xbde4c8ea	-0.11171134
248	0x3de004c2	0.109384075
249	0x3dd49ea7	0.10381823
250	0xbdd6654d	-0.1046854
251	0x3d1980c3	0.037476312
252	0x3d8a9745	0.067671336
253	0x3e9955e5	0.29948345
254	0xbe3eb6d6	-0.18624434
255	0xbe75ffde	-0.24023387

fc1.bias f4 [50]
0	0xbe7de1e1	-0.24793197
1	0xbe318f56	-0.17339835
2	0xbde5ed73	-0.112269305
3	0x3df7f743	0.12107708
4	0x3e92dbc3	0.2868329
5	0x3d3af54d	0.045644093
6	0xbd76b8a5	-0.060234684
7	0x3eaa7498	0.3329208
8	0xbe795408	-0.24348462
9	0xbc8edd43	-0.01743949
10	0xbe1c4c62	-0.15263513
11	0xbe666782	-0.22500423
12	0x3d9715ad	0.07377181
13	0x3e210cfc	0.1572761
14	0x3ddad104	0.10684398
15	0xbdf1bed7	-0.11803978
16	0xbe677aa4	-0.22605377
17	0x3eb60b13	0.35555324
18	0x3dc12e6e	0.09432684
19	0xbbf8b056	-0.0075893803
20	0xbd95381f	-0.07286095
21	0x3d4691c0	0.04847884
22	0x3e73521d	0.23761792
23	0xbcf5b6d6	-0.02999441
24	0x3e6da4da	0.23207417
25	0x3e217532	0.15767363
26	0x3d7e3717	0.062064257
27	0xbc8bd03a	-0.017067064
28	0x3c309f5a	0.01078018
29	0xbce9e5c7	-0.02855195
30	0xbd0f47b6	-0.0349805
31	0xbdb43e9f	-0.088010065
32	0xbcda9803	-0.026683813
33	0xbe16e46c	-0.14735574
34	0x3e8265bd	0.25468245
35	0xbe88a347	-0.2668707
36	0xbe295b30	-0.16538692
37	0xbdf921e1	-0.12164665
38	0x3df5cb3b	0.12001654
39	0x3e45327f	0.19257544
40	0x3e77f5b6	0.24214825
41	0xbdd8522d	-0.10562549
42	0x3ce6d276	0.028176527
43	0x3d8f0d87	0.06985002
44	0xbd45d641	-0.04830003
45	0xbe5d6609	-0.21620955
46	0x3cb3d8fc	0.021954052
47	0xbe81bc82	-0.25339133
48	0xbe5dfd71	-0.21678711
49	0x3d7e6a5c	0.06211315

fc2.weight f4 [50, 50]
0	0x3cbe6d37	0.023245437
1	0xbc5631f1	-0.01307343
2	0x3db1b73d	0.08677528
3	0xbd14ac71	-0.036297265
4	0xbcfc1f7a	-0.030776728
5	0x3db95791	0.09049905
6	0xbd9dd9ff	-0.07707595
7	0xba32abd8	-0.0006815768
8	0x3cc1472e	0.023593511
9	0xbd8c7dde	-0.06859945
10	0xbd416346	-0.047213815
11	0xbd6457c3	-0.05574776
12	0xbb8b7614	-0.0042560194
13	0xbc82f75f	-0.015987096
14	0x3c07882b	0.008272211
15	0x3dae0b4c	0.084982485
16	0xbe05fdce	-0.130851
17	0x3d470b0f	0.04859453
18	0xbd6a96c4	-0.057272688
19	0x3e071357	0.13190971
20	0x3da45fb1	0.08026064
21	0x3db1e6cc	0.08686599
22	0xbd6a6281	-0.057222847
23	0x3dd680c2	0.10473777
24	0x3d356945	0.044289846
25	0x3bff9f9a	0.0078010084
26	0x3ce0aa5b	0.027424982
27	0xbdc0f45c	-0.09421608
28	0xbe1281cb	-0.14307325
29	0xbd616ef4	-0.055037454
30	0xbcf37479	-0.029718624
31	0xbd96c99e	-0.07362674
32	0x3dca7ff3	0.098876856
33	0x3db42195	0.08795468
34	0xbe1c26b2	-0.15249136
35	0xbdfb0871	-0.122574694
36	0xbd9646f0	-0.07337749
37	0xbd931565	-0.07181815
38	0x3d16906c	0.036758825
39	0x3d9b87f3	0.0759429
40	0xbd9ffeae	-0.07812248
41	0x3d895b82	0.06706907
42	0xbdadb8bd	-0.08482502
43	0xbd99a802	-0.07502748
44	0x3a92001b	0.0011138947
45	0xbd5266d8	-0.05136761
46	0x3ddffd91	0.10937036
47	0x3d011044	0.031509653
48	0x3b78391a	0.0037875832
49	0x3cbba659	0.02290647
50	0x3de4d82d	0.11174045
51	0x3dc1a96f	0.09456145
52	0x3d8f4d48	0.06997162
53	0xbd40427e	-0.046938412
54	0x3e1ad03d	0.15118499
55	0xbd982662	-0.07429196
56	0xbd438d75	-0.047742326
57	0xbd086a6d	-0.03330462
58	0xbd93b418	-0.072120845
59	0xbd7869bc	-0.06064771
60	0xbd49122c	-0.049089596
61	0xbcfa604f	-0.030563502
62	0xbde0fe6d	-0.10986028
63	0x3dcbcfa1	0.099517114
64	0x3d982d69	0.07430536
65	0x3d10af38	0.03532335
66	0x3dd9591d	0.106127
67	0xbca7083e	-0.020389672
68	0x3d0ec5b8	0.034856528
69	0xbd2dd98e	-0.042443804
70	0xbdce6480	-0.100777626
71	0x3d105667	0.03523865
72	0x3cb64e1d	0.022254044
73	0xbdc0df72	-0.09417619
74	0x3d1fb52f	0.03899115
75	0x3d8055d3	0.0626637
76	0x3da4c1ce	0.08044778
77	0xbcd4712b	-0.025932869
78	0x3de223ec	0.11042008
79	0xbd0c6787	-0.03427842
80	0xbdad7130	-0.084688544
81	0xbb0fc954	-0.002194007
82	0xbd69d85b	-0.0570911
83	0xbdc272c4	-0.09494546
84	0xbdf01b14	-0.11723915
85	0xbdf91bf6	-0.12163536
86	0xbcabc71e	-0.02096897
87	0xbe09a097	-0.13440166
88	0x3e0558f5	0.13022216
89	0x3c4bd715	0.012441416
90	0x3c9496a8	0.018138245
91	0x3d6ac583	0.057317268
92	0xbdea9416	-0.114540264
93	0x3d88d67b	0.06681534
94	0xbdf46036	-0.11932413
95	0xbdfca4e1	-0.12336136
96	0xbd81ab65	-0.06331519
97	0x3c3fc3f2	0.011704432
98	0xbd0e1a47	-0.03469303
99	0x3de0417d	0.10949991
100	0xbdc3b1ea	-0.09555419
101	0xbd8039c0	-0.06261015
102	0x3d425e17	0.047453012
103	0xbd0aaf50	-0.033858597
104	0xbdcd99bc	-0.10039088
105	0xbdd67e33	-0.10473289
106	0xbd5682cb	-0.052370828
107	0x3d7fb5ee	0.06242936
108	0xbdc35a3f	-0.095386975
109	0x3e04fe81	0.1298771
110	0x3cceef73	0.025260663
111	0xbd64a3b8	-0.055820197
112	0x3db2b785	0.0872641
113	0xbdaac255	-0.08337847
114	0xbd7cd987	-0.061730888
115	0xbd86314e	-0.06552373
116	0xbe03e012	-0.12878445
117	0xbd7e05dd	-0.06201731
118	0xbe03bb5a	-0.12864438
119	0x3d7364a2	0.059422143
120	0x3dcccdf9	0.10000224
121	0xbd93cf30	-0.07217252
122	0xbdeb6daf	-0.1149553
123	0x3da43834	0.080185324
124	0xbd497736	-0.049185954
125	0xbd504baa	-0.05085341
126	0xbd956ab6	-0.07295744
127	0xbd96dda0	-0.0736649
128	0xbda1838d	-0.078864194
129	0xbd6a782f	-0.057243522
130	0x3bd1995c	0.0063964557
131	0x3c53cac4	0.012926761
132	0x3d8eaed9	0.06966943
133	0x3ddc4e97	0.10757177
134	0x3d2d454b	0.04230241
135	0xbd24b51a	-0.040211774
136	0x3d46293c	0.048379168
137	0x3dc5309f	0.09628414
138	0xbd0e7f52	-0.03478939
139	0xbcb6ba6c	-0.02230569
140	0x3d3da2f1	0.04629797
141	0xbd286b7a	-0.041118123
142	0xbcfdb9db	-0.030972412
143	0x3d12f4c2	0.03587795
144	0x3df40c02	0.11916353
145	0xbca07292	-0.019585881
146	0xbe02f240	-0.12787724
147	0x3cce54bd	0.02518689
148	0xbdcc484c	-0.09974727
149	0x3dce8fd5	0.100860275
150	0x3dc28147	0.09497314
151	0xbd1b7eda	-0.037962772
152	0xbc84dcac	-0.016218506
153	0x3df04299	0.117314525
154	0xbdbaf193	-0.09128108
155	0xbbfad47a	-0.0076547237
156	0xbd815055	-0.0631415
157	0x3daa41ab	0.083133064
158	0xbddafa51	-0.10692275
159	0xbde8e403	-0.11371615
160	0x3d6c343d	0.057667006
161	0x3d867088	0.065644324
162	0xbdc5079d	-0.09620593
163	0x3dd65079	0.10464568
164	0xbdcd8c12	-0.10036482
165	0xbd272651	-0.040808026
166	0xbcb77177	-0.022392971
167	0x3cc39158	0.023873016
168	0x3d9241f9	0.071414895
169	0x3db40f11	0.08791936
170	0x3d577647	0.052603032
171	0x3ccda700	0.025104046
172	0x3dc4ae94	0.09603611
173	0xbd23fc12	-0.040035315
174	0x3d16b8c5	0.036797304
175	0x3d584cb3	0.05280752
176	0x3d9cafb2	0.07650699
177	0x3d8a7bd8	0.067619026
178	0x3d9b4f5b	0.07583495
179	0xbe059657	-0.13045631
180	0xbd4d0409	-0.050052676
181	0x3c867209	0.016411798
182	0xbd0646c5	-0.032782335
183	0x3db415cc	0.0879322
184	0x3cc3eb01	0.02391577
185	0x3cedf8d3	0.029049313
186	0xbcc54fd9	-0.024085926
187	0x3daf97fc	0.085739106
188	0x3d9d4157	0.07678478
189	0xbda92715	-0.082594074
190	0xbdcd5259	-0.10025472
191	0xbd0e59ff	-0.034753796
192	0xbd3191cc	-0.043351933
193	0x3da9022a	0.08252366
194	0xbd57e734	-0.052710727
195	0x3d95bda2	0.0731156
196	0x3d80f2f4	0.0629634
197	0xbdc453df	-0.0958631
198	0x3db9d830	0.090744376
199	0xbcea60b3	-0.028610563
200	0xbdd2238c	-0.10260686
201	0xbd3e93c4	-0.04652764
202	0x3d88ad86	0.06673722
203	0xbdbd7434	-0.092506796
204	0xbde40aec	-0.11134896
205	0xbbb45e5b	-0.005504412
206	0x3c16290d	0.009165061
207	0xbd4f732a	-0.05064694
208	0xbd6094d8	-0.05482945
209	0x3dea423e	0.11438416
210	0xbd04c13f	-0.032410856
211	0x3d1379df	0.036004897
212	0xbd6fa296	-0.058504663
213	0xbd0c8032	-0.034301944
214	0x3d3a2f30	0.045455158
215	0x3dccf415	0.100074925
216	0x3dfa74d0	0.122293115
217	0x3d7e16a3	0.062033307
218	0x3e0fad08	0.1403085
219	0x3c7423aa	0.014901081
220	0x3d916e49	0.07101113
221	0x3c09b4c6	0.008404916
222	0x3dfffaf8	0.1249904
223	0xbc82e6f4	-0.015979268
224	0x3e05f71d	0.13082547
225	0x3c983c1d	0.018583352
226	0xbcee5677	-0.029093964
227	0x3d959f9c	0.07305834
228	0x3d51cb7f	0.05121946
229	0xbdf1e258	-0.1181075
230	0x3cbca253	0.023026621
231	0x3caef706	0.021358024
232	0xbe020a7a	-0.12699309
233	0x3dde6ec0	0.10860968
234	0x3dcbcde4	0.0995138
235	0x3de9f437	0.114235334
236	0xbde2d34a	-0.110754564
237	0x3d554a9a	0.0520731
238	0xbc826d11	-0.015921148
239	0xbd8d0c99	-0.068871684
240	0xbdf12c02	-0.11775972
241	0xbd954247	-0.07288032
242	0x3d51bb26	0.05120387
243	0xbdc05171	-0.09390534
244	0x3e2ef295	0.17084725
245	0x3c0ad66b	0.008473973
246	0xbca28ae4	-0.019841619
247	0xbde8ef7c	-0.11373803
248	0x3d8a84d2	0.06763615
249	0x3d8ab75b	0.067732535
250	0xbdf8ff8d	-0.121581174
251	0xbd8ad1f1	-0.067783244
252	0x3cc7a83a	0.024372209
253	0x3cbd9bb2	0.02314553
254	0x3d25fc9d	0.040524114
255	0xbdf71bc1	-0.120658405

fc2.bias f4 [50]
0	0x3cfadde8	0.030623391
1	0x3da5d5fd	0.08097456
2	0xbdc2be53	-0.09508958
3	0xbd90320a	-0.07040794
4	0xbda7f2c4	-0.08200601
5	0xbd228f5f	-0.03968751
6	0x3dd954c9	0.106118746
7	0xbdd2bbf3	-0.10289755
8	0x3cc744b6	0.024324756
9	0xbe004c1d	-0.12529035
10	0xbdbdabcd	-0.09261284
11	0x3d86815c	0.06567642
12	0xbb4194c0	-0.0029538125
13	0xbc662902	-0.014047863
14	0x3e10ad74	0.14128667
15	0xbd0b521f	-0.034013864
16	0xbd6dd99c	-0.058068857
17	0xbbc87d9d	-0.00611849
18	0xbd10fd2f	-0.035397705
19	0x3dc3247e	0.09528445
20	0xbd6fb931	-0.05852622
21	0x3d92631b	0.07147809
22	0xbd30edb9	-0.04319546
23	0xbccdd8af	-0.025127737
24	0x3d3432d8	0.0439938
25	0xbcedf764	-0.02904863
26	0xbda20437	-0.0791096
27	0xbd025cda	-0.03182683
28	0x3ddbe1c3	0.1073642
29	0xbdd41da0	-0.10357213
30	0xbdc0ea92	-0.09419741
31	0xbce21fc2	-0.027603034
32	0x3da87c2c	0.08226809
33	0x3d3a0370	0.045413435
34	0x3dc14570	0.09437072
35	0x3d7d940c	0.061908767
36	0xbd8ca948	-0.06868225
37	0xbdfb43d6	-0.12268798
38	0x3d27d473	0.04097409
39	0xbd006fab	-0.031356495
40	0x3cd9f8b5	0.02660785
41	0x3d9f6cf3	0.07784452
42	0xbc4f97eb	-0.012670497
43	0xbddc05ab	-0.107432686
44	0xbdc35160	-0.095370054
45	0x3d6e8431	0.058231536
46	0xbdf66dfd	-0.12032697
47	0xbdeb36dc	-0.11485073
48	0x3d8fa342	0.07013561
49	0xbda6e69f	-0.08149456

fc3.weight f4 [50, 50]
0	0xbdc6c0c2	-0.097047344
1	0xbdd9fe8b	-0.10644253
2	0x3c0ffdaf	0.00878851
3	0xbd984758	-0.07435483
4	0x3d04b858	0.032402366
5	0xbbfbf807	-0.0076894793
6	0xbd163b0f	-0.036677416
7	0xbd5596e2	-0.052145846
8	0x3dec473e	0.11537026
9	0xbdf94b54	-0.12172571
10	0x3d8cd3dc	0.068763465
11	0xbd616698	-0.05502948
12	0xbdab9509	-0.083780356
13	0x3de57016	0.11203019
14	0xbd842637	-0.064526014
15	0x3d5592a1	0.05214179
16	0x3d86d868	0.06584245
17	0xbdb1b865	-0.086777486
18	0x3d8f1d7b	0.06988045
19	0xbdb86755	-0.09004084
20	0x3d7a693c	0.061135516
21	0xbde993c6	-0.11405139
22	0x3dc0893c	0.094011754
23	0x3dcfff48	0.10156113
24	0x3c219860	0.009862989
25	0x3d5623a2	0.052280076
26	0xbd9e052d	-0.07715831
27	0xbdb1ce10	-0.086818814
28	0x3d636275	0.055513818
29	0xbc39b5e7	-0.011334873
30	0x3b8cef42	0.0043009827
31	0xbbfeba4b	-0.0077736727
32	0x3ce185f8	0.027529702
33	0x3c3929ff	0.011301517
34	0x3e079d17	0.13243519
35	0xbdedbfab	-0.116088234
36	0x3cd974cb	0.026544949
37	0x3dc92181	0.098208435
38	0xbd54eee6	-0.051985644
39	0x3ddc4016	0.10754411
40	0xbdb0c155	-0.08630625
41	0x3d1a2fcf	0.03764325
42	0x3d2b146a	0.041767515
43	0xbd850d90	-0.064967275
44	0x3d13b306	0.036059402
45	0x3d7a89d3	0.061166596
46	0x3d5e1e03	0.05422784
47	0xbd17d718	-0.037070364
48	0xbb491ade	-0.003068618
49	0xbc1e666e	-0.009667976
50	0xbc6dd543	-0.014516178
51	0x3d87d808	0.066330016
52	0xbde54814	-0.111953884
53	0xbd340c35	-0.043956954
54	0x3d512616	0.051061712
55	0xbc77ea7a	-0.015131587
56	0x3c168d4f	0.009188964
57	0xbd570caa	-0.05250231
58	0x3e0ae38d	0.13563366
59	0x3cf34c7e	0.02969956
60	0x3c538b15	0.012911578
61	0x3d86dd44	0.06585172
62	0x3cded40b	0.02720072
63	0x3cae2f8b	0.021262905
64	0x3ba88bea	0.005143632
65	0xbdcdbc42	-0.10045673
66	0xbd8830d5	-0.06649939
67	0xbd89e332	-0.06732787
68	0x3db8ff1d	0.09033034
69	0x3cea1e7a	0.028578985
70	0x3a5a86a0	0.0008336101
71	0x3d969fb7	0.07354682
72	0x3d317d6e	0.04333251
73	0xbc1bf57c	-0.009518977
74	0xbd35bec1	-0.04437137
75	0x3d992dba	0.07479425
76	0x3c3bcc8a	0.01146234
77	0x3e06978b	0.13143747
78	0x3b04409a	0.0020180107
79	0x3d8f3724	0.06992939
80	0xbd6782fb	-0.056521397
81	0x3db33931	0.08751143
82	0x3c281368	0.010258533
83	0xbda6a338	-0.081366
84	0x3ddcee85	0.107876815
85	0x3defd05e	0.11709665
86	0xbdaed9f7	-0.08537667
87	0xbcd4a1e4	-0.025956102
88	0xbdcd3709	-0.10020263
89	0x3dd133bc	0.10214946
90	0xbe020165	-0.12695844
91	0x3dae9d1e	0.085260615
92	0x3d726208	0.05917552
93	0xbde068c8	-0.109574854
94	0xbc2d35c3	-0.0105719
95	0xbdf7e664	-0.121044904
96	0x3bd0df71	0.0063742925
97	0x3cab4f5a	0.020911861
98	0xbcd5d31c	-0.026101641
99	0x3d9c694d	0.07637272
100	0xbdd9ab1f	-0.10628342
101	0x3becba7e	0.00722438
102	0x3ddb02dc	0.10693905
103	0xbdd747fb	-0.10511776
104	0x3cdfba5f	0.027310548
105	0x3b1b0506	0.0023654117
106	0xbc04a4ce	-0.008095933
107	0x3c3871d5	0.011257608
108	0xbdafcc9c	-0.08583948
109	0xbdac7820	-0.084213495
110	0xbdaa46d3	-0.0831429
111	0x3c0f128b	0.008732448
112	0x3ce46562	0.027880374
113	0xbd7a008e	-0.061035685
114	0xbd80bbac	-0.062857956
115	0x3db536d1	0.08848346
116	0x3daa0429	0.08301575
117	0x3d211954	0.039330795
118	0xbd88817a	-0.06665321
119	0xbdb6dfb9	-0.089293905
120	0xbd488b96	-0.048961245
121	0x3d497db6	0.049192153
122	0xbd91d901	-0.07121468
123	0xbd8ff082	-0.07028295
124	0x3adaaa1f	0.001668278
125	0x3e142312	0.14466503
126	0xbd634434	-0.055484965
127	0x3da97c35	0.08275644
128	0x3defef6a	0.117155865
129	0xbda5275e	-0.08064149
130	0xbc5030c3	-0.012706938
131	0x3da95222	0.08267619
132	0xbbdbbf88	-0.006706182
133	0xbd44ffea	-0.04809562
134	0x39a814ca	0.00032058946
135	0x3dfc558e	0.12321006
136	0xbd3ec436	-0.04657384
137	0x3d657bbb	0.0560262
138	0xbdcd2f01	-0.10018731
139	0xbda6f340	-0.08151865
140	0x3ddf5517	0.109049015
141	0xbdc1a4a3	-0.0945523
142	0x3d94076c	0.07227978
143	0xbddabfec	-0.106811374
144	0x3e08f9f0	0.13376594
145	0xbd97a67a	-0.074048
146	0x3d895b1d	0.067068316
147	0xbda1d3b7	-0.079017095
148	0xbde07147	-0.10959106
149	0x3c88e448	0.016710415
150	0xbdba9fc4	-0.09112504
151	0x3dd07eb0	0.10180414
152	0x3d596867	0.05307808
153	0xbcae263b	-0.021258464
154	0xbdd62e3d	-0.10458038
155	0xbdadeaa0	-0.08492017
156	0x3b711c31	0.0036790485
157	0xbd9131fa	-0.070896104
158	0xbe0b3ae9	-0.13596691
159	0xbdb16af7	-0.0866298
160	0xbd3bf55b	-0.045888286
161	0x3d198811	0.03748328
162	0x3dcce439	0.100044675
163	0x3d9ceabb	0.07661959
164	0xbdce81dc	-0.100833625
165	0x3dfc2248	0.12311226
166	0xbd8d0738	-0.068861425
167	0x3dc5faa1	0.09666944
168	0xbd710c81	-0.058849815
169	0x3dfacac0	0.12245703
170	0x3e0ee450	0.13954282
171	0x3ce0cc6a	0.027441222
172	0x3cc82bbc	0.024434917
173	0xbd8f6494	-0.07001606
174	0x3a2ca812	0.0006586324
175	0x3be7338c	0.0070557054
176	0xbd8288cc	-0.06373748
177	0x3e0222c1	0.1270857
178	0x3d0df6bf	0.034659144
179	0x3da789c1	0.08180571
180	0xbda195b9	-0.078898855
181	0xbd15e5fa	-0.036596276
182	0x3d59cab3	0.053171825
183	0x3d7a3840	0.0610888
184	0xb9f36d0a	-0.00046429812
185	0xbd7b6ed5	-0.061384995
186	0xbc5fc437	-0.013657621
187	0xb98d3bb0	-0.00026938086
188	0x3df7eb71	0.12105454
189	0x3c3f3203	0.011669639
190	0xbdd5908f	-0.10427963
191	0xbc8112fc	-0.015756123
192	0x3d93eccf	0.07222902
193	0x3b89a780	0.0042008758
194	0xbdc1f80a	-0.09471138
195	0xbdba7c88	-0.09105784
196	0x3d86c835	0.06581155
197	0x3da8a65a	0.08234854
198	0xbdc0733a	-0.09396978
199	0x3d9717a4	0.07377556
200	0x3c9a9cbe	0.018873569
201	0xbd61189b	-0.054955106
202	0xbdb3a725	-0.08772115
203	0xbd94cd8b	-0.07265767
204	0x3caa50f9	0.020790564
205	0xbdc985d8	-0.09839982
206	0xbca4f04c	-0.020134114
207	0xbd1e8ff4	-0.038711503
208	0x3d1e120c	0.03859143
209	0xbdcb73e8	-0.09934217
210	0xbd2a2f25	-0.041548867
211	0xbdb855dd	-0.09000752
212	0xbde59747	-0.112104945
213	0x3c4a5c09	0.012351044
214	0x3c87f5b5	0.016596654
215	0x3af38db3	0.0018581658
216	0x3d345ca7	0.044033673
217	0x3d7ad2b3	0.061236095
218	0x3db8b16c	0.090182155
219	0x3c080959	0.00830301
220	0x3d7c02e1	0.061526183
221	0x3cbf8b50	0.023381859
222	0x3db7e484	0.08979133
223	0x3d9d2497	0.076729946
224	0xbde6360d	-0.11240778
225	0xbd4f6dba	-0.050641753
226	0xbda4212e	-0.08014141
227	0xbc82b565	-0.015955636
228	0xbdc0c619	-0.09412784
229	0xbdeb6a30	-0.11494863
230	0xbc6ad9fe	-0.0143342
231	0x3db38e20	0.087673426
232	0xbde626a2	-0.112378374
233	0xbd0a7bb5	-0.033809382
234	0x3da99e95	0.082822
235	0xbdb2ddc7	-0.08733707
236	0x3dc54785	0.09632782
237	0x3da7ae71	0.08187569
238	0x3e093fa0	0.13403177
239	0x3db0dc90	0.08635819
240	0xbb3f1fe8	-0.0029163305
241	0x3da95aa9	0.08269245
242	0xbd8ad7e6	-0.067794606
243	0xbb29fa54	-0.002593656
244	0xbda76c0e	-0.08174907
245	0x3ce939e3	0.028469985
246	0x3c83974c	0.016063355
247	0x3cff7ed1	0.0311884
248	0x3dbd265c	0.09235832
249	0xbdd62fd8	-0.10458344
250	0xbdadf222	-0.08493449
251	0xb929cff3	-0.00016194563
252	0xbd8f3270	-0.06992042
253	0xbcdd0000	-0.026977539
254	0xbcfd435e	-0.030915912
255	0x3d1b005f	0.03784215

fc3.bias f4 [50]
0	0x3d3d2eb0	0.046187103
1	0xb9b3b6d2	-0.00034277752
2	0x3c45baf1	0.012068496
3	0xbba48b29	-0.005021472
4	0x3e0261cc	0.12732619
5	0x3c35fd23	0.011107716
6	0x3df27361	0.11838413
7	0xbc8fdbb2	-0.017560814
8	0x3ca49a17	0.020093007
9	0x3da4bb9a	0.08043595
10	0xbcea82c1	-0.028626801
11	0x3b948ca4	0.004533367
12	0x3bd49972	0.0064880187
13	0xbdc49b31	-0.09599913
14	0xbd8b95ef	-0.06815707
15	0x3d87e65a	0.06635733
16	0x3d21f98b	0.039544623
17	0x3dbf7813	0.09349074
18	0x3d08f186	0.03343346
19	0x3dddf0eb	0.10836967
20	0x3dc07da6	0.093989655
21	0x3da8630d	0.082220174
22	0x3dc3ab30	0.09554136
23	0xbc7b039d	-0.015320686
24	0x3dd5b36f	0.10434615
25	0x3cfd912f	0.030953018
26	0xbcd7b2ec	-0.026330434
27	0x3c01c2c4	0.007919971
28	0x3d5f428f	0.054506835
29	0xba9e7976	-0.0012090642
30	0x3dda92c4	0.106725246
31	0x3dc523ce	0.0962597
32	0x3dff46c0	0.12464666
33	0xbca02b31	-0.019551845
34	0xbdd2e975	-0.10298435
35	0x3d81a780	0.06330776
36	0x3d85cc57	0.06533115
37	0xbd4f2108	-0.05056861
38	0x3d8d6721	0.06904436
39	0x3dc9ad6f	0.09847533
40	0x3d2d7cdb	0.0423554
41	0xbd655ee7	-0.05599871
42	0x3cc1d7c9	0.023662465
43	0x3dcd84a6	0.10035066
44	0xbd028da8	-0.031873375
45	0xbdbca791	-0.09211648
46	0xbd9d2578	-0.07673162
47	0x3cf93e05	0.030425081
48	0x3ca3c7b3	0.019992685
49	0x3dd03427	0.10166197
