checkpointing_test/sigmoid_example_s12345/models/eval_checkpoint_checkpoint_700.pt (torch, 95431 bytes, 24 tensors)

fc1.weight f4 [50, 7]
-0.560372 0.13139622 -0.20651653 0.38491237 -0.25453237 0.25526538 -0.11325987 0.14067492
-0.32447073 0.12316002 0.3567585 0.10371285 0.41544166 -0.24454156 -0.20189022 -0.1722992
-0.3383881 0.15979943 0.31445774 0.21553065 -0.14017837 0.031010084 0.21140261 0.094817184
0.38110176 -0.106852315 0.26528114 0.24537171 0.35298583 0.34149945 -0.14025329 -0.22800967
-0.24591485 -0.24047273 0.23783456 -0.2204167 0.22819643 -0.25528985 0.037780724 -0.37168035
0.19989653 -0.1466595 0.12455837 0.26313415 -0.14558811 0.31837088 0.15561911 0.23178388
0.15767255 0.29066408 0.06414893 -0.13427077 -0.184799 0.22933315 0.013267552 0.18730377
0.26408583 -0.034137603 -0.03669407 -0.0032680104 0.37510523 -0.31869087 0.31549785 -0.0269215
0.041434903 0.27918077 -0.25560963 -0.32924 0.359195 -0.18609554 0.03712908 0.36002883
-0.14681506 0.035967916 0.28851026 -0.26749963 -0.2906426 0.046064246 0.17607959 0.07779231
-0.2432705 -0.26147428 -0.48507106 0.05840902 -0.16492967 -0.24848118 0.3267914 -0.26145247
-0.05107451 -0.12477999 0.28759295 -0.271176 0.20329955 0.111371234 0.20588557 0.061473496
-0.100315765 -0.1741196 0.1781846 0.082648575 0.1958124 -0.13619764 -0.10125593 -0.25175345
-0.1504748 -0.0014379007 -0.21280624 0.18890063 -0.04373443 -0.36935377 0.42590186 -0.23733498
-0.43559396 0.053370785 -0.06337303 0.07693505 -0.095465444 0.025034549 0.33490655 -0.25642908
0.3193441 -0.40212786 0.07371999 0.33917516 -0.02801621 -0.105508626 -0.5523242 0.060512546
0.1354787 0.20692828 -0.1680443 -0.1491312 0.312765 -0.027698858 -0.35721964 -0.2549574
0.45507333 0.013238086 -0.007945188 -0.18083581 0.180624 -0.32383114 0.20331949 0.28472903
0.32053217 -0.042184617 0.10768099 0.38457036 -0.17118417 -0.29431018 -0.23216403 -0.0930075
0.2695388 0.20230299 0.36778516 0.06819694 0.25210878 -0.24725157 -0.24093285 0.11923536
-0.122451395 0.043674927 0.056572895 0.038671248 -0.018419469 -0.036940046 -0.14562732 0.34487382
-0.25970337 0.18466844 0.18090169 -0.088075586 -0.0918731 0.28263247 0.29217547 -0.058765758
-0.20779568 -0.20703112 -0.028509539 -0.34670365 0.19231217 0.15289405 0.26171884 -0.30303153
0.17125563 -0.29204312 0.3687385 -0.07874406 0.3213355 -0.10037625 -0.20242734 -0.12396108
-0.22515686 0.43149266 0.39203918 -0.11914497 -0.17213939 -0.043464363 0.08684474 -0.18288314
0.27144042 -0.033723015 0.3351066 0.104263216 -0.2951467 0.23895153 0.0635391 -0.44068336
0.28802797 -0.2484098 0.17220356 0.0015192936 -0.10047397 -0.13032207 0.09241844 0.24460022
-0.26866582 0.104383625 0.08219064 0.17902394 -0.052018393 -0.04631197 -0.15694384 -0.06517508
0.17002319 0.08677064 0.29688781 -0.1347157 0.30683073 -0.049941383 -0.053831328 -0.59181577
-0.039011423 -0.1559303 0.38368505 0.26590115 0.25232866 -0.1326222 0.13828778 -0.104177535
-0.2750914 0.17219676 0.23698388 -0.22369915 0.3417715 -0.1195319 0.23091565 0.07236165
-0.28476685 0.1983164 0.35272875 0.247575 -0.17659348 -0.2315887 0.20637447 -0.32734695
00000000: 8a74 0fbf bb8c 063e 1279 53be 3c13 c53e
00000010: 1152 82be 25b2 823e caf4 e7bd 160d 103e
00000020: 0721 a6be 523b fc3d 0da9 b63e 6767 d43d
00000030: c5b4 d43e 1a69 7abe 4fbc 4ebe 346f 30be
00000040: 3441 adbe 76a2 233e 9b00 a13e 11b4 5c3e
00000050: eb8a 0fbe dc08 fe3c ed79 583e 832f c23d
00000060: c51f c33e 63d5 dabd eed2 873e b942 7b3e
00000070: 8fba b43e 04d9 ae3e 8f9e 0fbe 5e7b 69be
00000080: 1ad1 7bbe 7c3e 76be e78a 733e eab4 61be
00000090: 53ac 693e 5ab5 82be f6bf 1a3d e34c bebe
000000a0: adb1 4c3e e82d 16be 7518 ff3d 85b9 863e
000000b0: 0d15 15be 8201 a33e 9e5a 1f3e c158 6d3e
000000c0: ea74 213e ecd1 943e 8460 833d 477e 09be
000000d0: f33b 3dbe 4fd6 6a3e 2560 593c 8fcc 3f3e
000000e0: 4236 873e dfd3 0bbd 854c 16bd 1e2c 56bb
000000f0: cb0d c03e 732b a3be ef88 a13e 7a8a dcbc
00000100: a5b7 293d c8f0 8e3e 44df 82be 2592 a8be
00000110: 68e8 b73e d48f 3ebe aa14 183d b355 b83e
00000120: b056 16be 1853 133d 9eb7 933e b6f5 88be
00000130: 1bcf 94be ddad 3c3d 354e 343e 9351 9f3d
00000140: e71b 79be f5df 85be 3c5b f8be 4c3e 6f3d
00000150: 53e3 28be da71 7ebe 3451 a73e 19dd 85be
00000160: 8133 51bd a78c ffbd 623f 933e 95d7 8abe
00000170: c22d 503e 9a16 e43d abd3 523e a2cb 7b3d
00000180: 5a72 cdbd 694c 32be 0676 363e a843 a93d
00000190: 0c83 483e 6577 0bbe 455f cfbd d4e5 80be
000001a0: 1116 1abe f177 bcba e1e9 59be 2b6f 413e
000001b0: e022 33bd f01b bdbe cf0f da3e f107 73be
000001c0: 2c06 dfbe 539b 5a3d b8c9 81bd 2090 9d3d
000001d0: 6383 c3bd 4115 cd3c df78 ab3e ac4a 83be
000001e0: 1281 a33e b4e3 cdbe 82fa 963d 5ea8 ad3e
000001f0: 4082 e5bc e814 d8bd 1e65 0dbf 01dc 773d
00000200: eeba 0a3e 02e5 533e ce13 2cbe d9b5 18be
00000210: bc22 a03e b7e8 e2bc 7ee5 b6be c789 82be
00000220: 5fff e83e 8fe4 583c 892c 02bc 062d 39be
00000230: 7ff5 383e 32cd a5be fc32 503e 01c8 913e
00000240: cb1c a43e c7c9 2cbd da87 dc3d 68e6 c43e
00000250: e74a 2fbe d3af 96be 68bc 6dbe b77a bebd
00000260: fd00 8a3e 8428 4f3e 564e bc3e d6aa 8b3d
00000270: 6714 813e 842f 7dbe 1ab7 76be ab31 f43d
00000280: ccc7 fabd 7be4 323d fbb8 673d be65 1e3d
00000290: 6de4 96bc 724e 17bd 541f 15be 4d93 b03e
000002a0: d7f7 84be b919 3d3e 4b3e 393e f960 b4bd
000002b0: f727 bcbd 34b5 903e 0698 953e 5db4 70bd
000002c0: 64c8 54be f7ff 53be d68c e9bc 2483 b1be
000002d0: 7bed 443e 4290 1c3e 0300 863e f326 9bbe
000002e0: a35d 2f3e ad86 95be 4bcb bc3e 9144 a1bd
000002f0: 1686 a43e 1092 cdbd 1d49 4fbe 4fdf fdbd
00000300: 858f 66be 9bec dc3e 5cb9 c83e 4702 f4bd
00000310: 4f45 30be b007 32bd a8db b13d b845 3bbe
00000320: 3dfa 8a3e 2521 0abd 1893 ab3e f487 d53d
00000330: 781d 97be b6af 743e ca20 823d 40a1 e1be
00000340: 6778 933e 235f 7ebe 2156 303e 0923 c73a
00000350: 4cc5 cdbd 2673 05be e145 bd3d 7b78 7a3e
00000360: 918e 89be 15c7 d53d 9153 a83d 0d52 373e
00000370: 3d11 55bd 9fb1 3dbd e3b5 20be 837a 85bd
00000380: 8f1a 2e3e ceb4 b13d ae01 983e eaf2 09be
00000390: eb18 9d3e 568f 4cbd 3d7e 5cbd 3d81 17bf
000003a0: 71ca 1fbd 31ac 1fbe 5e72 c43e 3224 883e
000003b0: 3931 813e 1dce 07be 509b 0d3e 085b d5bd
000003c0: c8d8 8cbe 5954 303e e7ab 723e 6411 65be
000003d0: adfc ae3e 24cd f4bd 2775 6c3e 5832 943d
000003e0: f6cc 91be 7413 4b3e dd98 b43e 4d84 7d3e
000003f0: ecd4 34be 9725 6dbe d453 533e 059a a7be

fc1.bias f4 [50]
-0.16910568 -0.2860583 0.19951227 -0.075339794 0.2676911 -0.011230183 0.068145156 0.34230128
-0.237791 0.33469298 0.035942614 0.5078043 0.0011488737 0.39002264 0.2570538 -0.041835483
0.11710975 0.15319902 0.17435512 0.2987919 0.16382219 -0.11325911 0.09841891 0.2971096
0.10522427 -0.050843686 -0.2683374 -0.22024158 0.32779345 0.017975327 -0.26605698 -0.16296959
0.032000877 0.36314532 -0.3540994 -0.32863694 0.30326572 -0.24478972 -0.06801284 -0.032044154
0.016942218 -0.27489555 -0.02932826 -0.21003595 0.0050907307 0.24474975 0.025512556 -0.04190019
0.3390485 0.38304055
00000000: 0a2a 2dbe 3c76 92be f24c 4c3e c04b 9abd
00000010: cf0e 893e cdfe 37bc b08f 8b3d 1d42 af3e
00000020: 7c7f 73be e15c ab3e 9038 133d 76ff 013f
00000030: ce95 963a 0cb1 c73e 8e9c 833e af5b 2bbd
00000040: 3dd7 ef3d 34e0 1c3e 268a 323e 40fb 983e
00000050: 01c1 273e 64f4 e7bd da8f c93d c01e 983e
00000060: d27f d73d 7841 50bd 8563 89be 0287 61be
00000070: 8bd4 a73e fe40 933c 9f38 88be 80e1 26be
00000080: 5a13 033d 2fee b93e 844c b5be 1a43 a8be
00000090: a545 9b3e 28aa 7abe 514a 8bbd bb40 03bd
000000a0: 68ca 8a3c 1cbf 8cbe d241 f0bc aa13 57be
000000b0: 25d0 a63b ae9f 7a3e b5ff d03c 899f 2bbd
000000c0: c497 ad3e e41d c43e

fc2.weight f4 [50, 50]
-0.3284228 0.045069024 -0.019607455 -0.07099521 -0.015158387 0.081922814 -0.07038658 0.09036347
0.15258278 0.019062955 -0.032957822 0.1293054 -0.07755746 -0.08374362 -0.09666216 0.089241944
-0.1946311 -0.046286378 -0.151452 0.20133807 0.15726659 -0.054082226 -0.049212612 -0.09978333
-0.056565948 -0.07060177 -0.051397253 0.2203006 -0.09281734 -0.044836394 0.0564714 -0.053736944
0.096261054 0.008998036 0.020629242 -0.010354128 0.0025434324 0.13513024 0.091403835 0.24367994
0.0050569777 -0.1725761 0.058857933 -0.113662384 0.12144839 -0.0032922435 0.090301566 -0.12277394
0.06466405 0.09703799 0.06698542 0.033429746 -0.10541937 0.12756492 0.14077549 0.031257983
0.08505383 -0.07825905 0.08034687 -0.06625443 -0.001861224 -0.052657906 -0.09738609 -0.1297918
0.078226484 0.033296708 0.1575867 -0.07504196 -0.0042483592 0.06228238 -0.10307737 0.09731463
-0.020117901 -0.03679318 -0.15896735 -0.0048737666 -0.04265617 -0.07613245 0.079683654 -0.011174331
-0.0909729 0.050132625 0.13715285 -0.32281417 0.039613377 0.012599845 0.027245333 -0.069641545
-0.15870811 0.240129 -0.1342093 -0.15289277 -0.14969374 0.026002036 -0.018217087 0.075828195
0.09275092 0.035179354 0.038795304 0.11717181 0.028334338 -0.040585656 0.074281186 -0.109474495
0.060810983 0.037378933 -0.06917806 0.10563413 0.14189382 -0.06508235 0.0948835 -0.014400252
0.006721787 0.17682095 0.012844299 -0.19668281 -0.13267928 -0.12498086 0.08818346 0.077347994
0.051215053 0.019378034 -0.060414195 0.09800904 -0.009082526 -0.102034554 0.1233753 -0.09904565
-0.027371343 -0.11718708 -0.14420858 0.061514895 0.09580499 -0.10224292 0.06078531 -0.0496045
0.120721914 -0.06892528 0.0028285405 -0.07479641 0.0047484017 -0.07315161 0.12607427 -0.065835804
-0.062443927 0.07086497 0.03718735 -0.0146557 -0.16425742 -0.0027593998 -0.1493229 0.055737663
0.09116361 -0.032850854 0.09849235 0.041579466 0.1076685 0.052449066 0.065394215 -0.048267327
0.046759628 0.16801862 -0.016705988 -0.076470025 -0.14128815 0.027574573 -0.028242204 0.10512072
0.0751902 -0.19882819 -0.105982006 -0.16273357 0.01271419 0.020944633 -0.026974672 0.014380636
0.016313445 0.029644182 0.10517891 0.07077051 0.098137006 -0.028139759 0.015381303 0.12613375
-0.09149772 0.015707782 0.11698333 0.13444173 -0.016287748 -0.073378466 0.084044956 0.028131464
-0.026278762 -0.09975775 0.10281498 0.022834377 0.006928463 0.012815222 -0.09516412 -0.0500457
-0.14784396 -0.11595209 -0.024927923 -0.10209482 0.048728675 0.017574243 0.07912477 0.11687849
-0.056245975 -0.023550365 0.107463434 -0.08522567 -0.00389757 -0.029587248 0.043631658 0.025500596
0.025917854 0.06758969 0.08566985 -0.15276466 0.0036791235 -0.04940438 -0.1267649 0.089403
0.046936207 -0.035561074 0.124589585 -0.07318359 0.033569768 0.09039727 0.13635583 -0.123713605
-0.040560987 -0.2657768 -0.11405227 0.028803473 -0.1298094 -0.08561688 0.08608096 0.07462445
0.055661 0.15086927 -0.0005558136 -0.024576245 0.051612083 -0.15645283 0.19992542 0.03655849
-0.06659039 0.066746056 -0.0021733632 0.13658269 -0.15723148 0.08976567 0.055744793 0.10052026
00000000: 0927 a8be 4c9a 383d d09f a0bc f065 91bd
00000010: e25a 78bc 26c7 a73d d726 90bd 7c10 b93d
00000020: a93e 1c3e ea29 9c3c c8fe 06bd a368 043e
00000030: 72d6 9ebd c681 abbd cff6 c5bd 7bc4 b63d
00000040: 604d 47be c996 3dbd 3c16 1bbe 912b 4e3e
00000050: 7e0a 213e 5385 5dbd 2a93 49bd 345b ccbd
00000060: b2b1 67bd a997 90bd ed85 52bd 7b96 613e
00000070: 0417 bebd 5ea6 37bd 8e4e 673d 451b 5cbd
00000080: 8424 c53d 806c 133c a8fe a83c 5ca4 29bc
00000090: b7af 263b 955f 0a3e ef31 bb3d 3c87 793e
000000a0: 01b5 a53b cab7 30be 0415 713d d3c7 e8bd
000000b0: efb9 f83d aec2 57bb 07f0 b83d e770 fbbd
000000c0: 966e 843d dbbb c63d a72f 893d a1ed 083d
000000d0: 1ce6 d7bd 61a0 023e 7327 103e 5f08 003d
000000e0: b430 ae3d 4846 a0bd e68c a43d 67b0 87bd
000000f0: 50f4 f3ba d1af 57bd 5c72 c7bd 24e8 04be
00000100: 3535 a03d 2162 083d 685e 213e 99af 99bd
00000110: d235 8bbb cf1b 7f3d 3a1a d3bd e54c c73d
00000120: 4cce a4bc 72b4 16bd 56c8 22be 1eb4 9fbb
00000130: 3cb8 2ebd 54eb 9bbd 2f31 a33d 8b14 37bc
00000140: 0050 babd de57 4d3d cc71 0c3e e647 a5be
00000150: a341 223d 956f 4e3c 9b31 df3c 3aa0 8ebd
00000160: 6184 22be 60e4 753e 2a6e 09be ec8f 1cbe
00000170: 5149 19be 3902 d53c 003c 95bc d04b 9b3d
00000180: 32f4 bd3d 3a18 103d d3e7 1e3d c6f7 ef3d
00000190: 6a1d e83c 253d 26bd bc20 983d 2a34 e0bd
000001a0: f014 793d a71a 193d 3aad 8dbd b556 d83d
000001b0: 9d4c 113e e549 85bd 4852 c23d 09ef 6bbc
000001c0: 7042 dc3b 8d10 353e e570 523c 3867 49be
000001d0: 14dd 07be f7f5 ffbd 8899 b43d a068 9e3d
000001e0: e0c6 513d afbe 9e3c e074 77bd f7b8 c83d
000001f0: e0ce 14bc 7ef7 d0bd 30ac fc3d 72d8 cabd
00000200: de39 e0bc c8ff efbd 6aab 13be 0bf7 7b3d
00000210: 6835 c43d bc64 d1bd 04fa 783d 172e 4bbd
00000220: 0d3d f73d b228 8dbd 095f 393b dc2e 99bd
00000230: 7b98 9b3b 83d0 95bd 9d19 013e ecd4 86bd
00000240: 34c5 7fbd a721 913d c351 183d 761e 70bc
00000250: 1933 28be 0cd7 34bb 1ae8 18be 2d4d 643d
00000260: fdb3 ba3d 9e8e 06bd 5bb6 c93d 3b4f 2a3d
00000270: 4d81 dc3d d5d4 563d 67ed 853d f6b3 45bd
00000280: 0687 3f3d 130d 2c3e ffda 88bc 519c 9cbd
00000290: d7ad 10be 12e4 e13c 325c e7bc 8849 d73d
000002a0: 52fd 993d 9e99 4bbe 180d d9bd a1a3 26be
000002b0: 2e4f 503c 1494 ab3c fdf9 dcbc c29c 6b3c
000002c0: c6a3 853c 5bd8 f23c 0a68 d73d 21f0 903d
000002d0: 0efc c83d 5a85 e6bc dc01 7c3c 3529 013e
000002e0: 2863 bbbd 9bad 803c f594 ef3d 18ab 093e
000002f0: e26d 85bc 7347 96bd c31f ac3d f573 e63c
00000300: 8f46 d7bc cb4d ccbd a990 d23d 290f bb3c
00000310: 2908 e33b f0f6 513c 68e5 c2bd b8fc 4cbd
00000320: 6864 17be 4a78 edbd a535 ccbc 1717 d1bd
00000330: b897 473d dcf7 8f3c 2b0c a23d fd5d ef3d
00000340: 2e62 66bd b2ec c0bc ca15 dc3d cc8a aebd
00000350: 606e 7fbb f560 f2bc 1cb7 323d a0e6 d03c
00000360: ae51 d43c 776c 8a3d ad73 af3d 576e 1cbe
00000370: 731d 713b 3f5c 4abd a8ce 01be ec18 b73d
00000380: 2e40 403d 7da8 11bd d328 ff3d 47e1 95bd
00000390: 7480 093d 3422 b93d dda0 0b3e 8f5d fdbd
000003a0: 4723 26bd e613 88be 3d94 e9bd 43f5 eb3c
000003b0: c1ec 04be e757 afbd 374b b03d b4d4 983d
000003c0: cafc 633d 797d 1a3e 05b4 11ba 1f54 c9bc
000003d0: 3167 533d 2c35 20be 40b9 4c3e 5bbe 153d
000003e0: 8b60 88bd 28b2 883d fc6e 0ebb 55dc 0b3e
000003f0: 4a01 21be 10d7 b73d a754 643d 91dd cd3d

fc2.bias f4 [50]
-0.086468264 0.13084576 -0.00029865064 0.032009587 0.192667 -0.1223536 0.16074842 -0.114843
-0.073910855 -0.13838811 0.1555633 0.10036871 0.041864466 0.049226474 0.12521891 0.14607245
0.048802536 -0.1383274 0.0611386 0.13703065 0.036335446 -0.095837414 0.08458393 0.055237826
-0.139957 -0.12964325 1.4475296e-05 -0.14174154 0.08579473 -0.0075307284 0.15962444 -0.075618975
-0.050970517 -0.010930566 0.09716918 0.116594575 0.05310315 -0.07727806 -0.1459935 -0.094203144
-0.032961488 -0.06766813 -0.13592699 0.007938276 0.098923825 0.012333363 0.007439437 -0.080858335
0.012715707 -0.1321652
00000000: 4616 b1bd 6efc 053e 3694 9cb9 7c1c 033d
00000010: 804a 453e 8694 fabd 3c9b 243e cf32 ebbd
00000020: 935e 97bd 9db5 0dbe fc4b 1f3e 1c8e cd3d
00000030: 137a 2b3d b3a1 493d 6339 003e 0494 153e
00000040: 2be5 473d b3a5 0dbe 786c 7a3d c351 0c3e
00000050: 7ad4 143d 6846 c4bd 573a ad3d 0f41 623d
00000060: e350 0fbe 33c1 04be ecda 7237 b224 11be
00000070: 26b5 af3d 54c4 f6bb 9774 233e 1fde 9abd
00000080: 76c6 50bd 1e16 33bc a300 c73d 23c9 ee3d
00000090: b082 593d f643 9ebd 527f 15be 94ed c0bd
000000a0: a002 07bd 9795 8abd 7230 0bbe 8b0f 023c
000000b0: 9398 ca3d e011 4a3c 85c6 f33b 0e99 a5bd
000000c0: 8a55 503c 5056 07be

fc3.weight f4 [50, 50]
-0.07627896 0.16966845 -0.02736199 -0.0684119 -0.028699124 -0.021290293 0.14333211 -0.09515533
0.005083383 0.07087774 0.19324547 0.048570946 -0.0006676513 0.1589909 0.2019191 0.097106904
-0.05172519 0.016448798 0.10140374 -0.06991466 0.051191464 -0.07939343 -0.0633532 0.072259635
0.10317584 0.11433158 0.1207432 0.026267923 0.008172206 -0.09229811 -0.0725189 -0.113667935
0.082253665 0.04215093 -0.047865998 0.18989614 0.09927135 -0.03241244 -0.11474465 -0.07445731
-0.057301816 -0.083555505 -0.08864105 0.15600373 0.09938999 -0.02236933 -0.059602186 0.16843255
0.15332998 0.021519069 0.13982859 -2.881803e-05 -0.07757085 -0.0518447 -0.042035084 0.18611306
0.16163462 -0.111299634 0.21342318 -0.12180909 -0.050259635 0.17931505 0.122643605 0.08524002
-0.030944891 -0.03874106 -0.113474615 -0.012586523 0.13608372 -0.05855956 -0.08868661 -0.006303424
0.06342081 -0.108653285 -0.048432585 -0.05289586 0.09084329 -0.02715476 0.009216133 0.038475506
0.06467384 0.07620998 0.18237875 0.089016914 -0.10380048 0.04567257 -0.11938683 0.16109154
0.033943843 0.0022907408 -0.012673376 0.074997395 -0.014522484 -0.040777706 -0.044738732 -0.03682524
0.07526696 0.17459466 0.14875197 0.0587246 0.16927671 0.106426984 0.13061087 0.029100904
0.023307644 -0.073564045 0.1606376 -0.11809472 0.09030649 -0.1524334 -0.06186175 0.10622879
-0.14388378 0.00026392273 -0.023691794 0.11111335 0.11439572 -0.2316934 0.13149466 -0.08063579
0.004659517 0.110977784 -0.0605048 0.1444794 0.011116225 0.10632918 -0.00043223705 0.11184641
0.22950546 -0.12468048 0.14384556 -0.16100718 0.1115509 0.07313918 -0.017633947 -0.09079004
-0.09530113 -0.025041426 -0.08761455 0.16711149 0.069742985 0.0047437693 -0.18424301 0.2545088
0.085971795 0.121098526 0.09408256 0.06530686 0.06430962 -0.09333159 0.18173964 0.055158433
-0.021841032 0.05790583 -0.029545953 0.088366315 0.13740721 0.004091481 0.073140465 0.10805574
-0.050957654 -0.0116801895 -0.09790014 -0.009724919 0.050376117 0.11817706 0.10790318 -0.12692602
0.02911425 0.15723707 0.11002286 0.008753642 -0.04829625 0.005049581 0.18460175 -0.04445389
0.14356808 -0.13270116 0.14969589 -0.123964086 -0.14342766 -0.09012795 -0.00061483 -0.0059952545
0.058406122 0.17471257 0.08688321 -0.013385905 -0.114294715 0.1282583 0.109887 0.016242582
-0.041767575 0.019322256 -0.03540116 0.09516387 -0.140474 0.008455005 -0.07359073 -0.12993199
0.08337045 0.059598558 0.054724194 0.22571643 -0.0720161 0.15312065 -0.041872412 -0.028146712
0.09783315 -0.09281768 -0.06147951 0.15694758 0.09197505 0.10023703 0.13261257 -0.06359011
0.08842154 -0.08057559 -0.079262786 -0.08058335 -0.15903972 -0.018450757 0.14337666 0.11919405
0.14076224 0.0001977964 0.08342062 -0.022911584 0.14446805 -0.098994926 -0.097060926 -0.059810903
-0.0042426595 0.04636064 0.09546318 0.046197608 -0.013412531 -0.06494536 -0.12283364 0.09575079
-0.0161903 0.1760289 -0.08774677 -0.0753335 0.004630472 0.07063367 -0.06489169 -0.08343644
0.04874166 -0.056991577 0.03185607 0.07264112 0.040472846 -0.1265842 -0.16319937 0.12461983
00000000: 2538 9cbd 91bd 2d3e 4126 e0bc 8a1b 8cbd
00000010: 6d1a ebbc fb68 aebc a7c5 123e cce0 c2bd
00000020: 8292 a63b 5928 913d 24e2 453e 54f2 463d
00000030: 5205 2fba 83ce 223e e1c3 4e3e fcdf c63d
00000040: cbdd 53bd a1bf 863c c4ac cf3d 6b2f 8fbd
00000050: 24ae 513d 0699 a2bd 53bf 81bd dcfc 933d
00000060: db4d d33d ad26 ea3d 3648 f73d d42f d73c
00000070: b7e4 053c cb06 bdbd ca84 94bd bcca e8bd
00000080: 9c74 a83d 74a6 2c3d 230f 44bd 2274 423e
00000090: c74e cb3d e8c2 04bd 3eff eabd 137d 98bd
000000a0: 4fb5 6abd 261f abbd 7089 b5bd 71bf 1f3e
000000b0: fb8c cb3d e33f b7bc 6c21 74bd 9579 2c3e
000000c0: 8902 1d3e c248 b03c 3a2f 0f3e 40be f1b7
000000d0: 77dd 9ebd 1c5b 54bd fb2c 2cbd 6c94 3e3e
000000e0: 8c83 253e 10f1 e3bd 9b8b 5a3e 0b77 f9bd
000000f0: 0cdd 4dbd 5d9e 373e 922c fb3d 5292 ae3d
00000100: 2480 fdbc f2ae 1ebd 6165 e8bd b437 4ebc
00000110: 8859 0b3e 26dc 6fbd 53a1 b5bd f48c cebb
00000120: c5e2 813d 9d85 debd 3f61 46bd 54a9 58bd
00000130: 0c0c ba3d a973 debc 43ff 163c 7e98 1d3d
00000140: b873 843d fa13 9c3d 7fc1 3a3e 804e b63d
00000150: 5995 d4bd 2913 3b3d 1581 f4bd 2ef5 243e
00000160: b308 0b3d 4120 163b fea3 4fbc 3c98 993d
00000170: b6ef 6dbc 8606 27bd f63f 37bd 10d6 16bd
00000180: 9025 9a3d f1c8 323e 7052 183e 3589 703d
00000190: e056 2d3e 64f6 d93d dbbe 053e 0565 ee3c
000001a0: acef be3c bfa8 96bd 2f7e 243e a5db f1bd
000001b0: 9cf2 b83d 8017 1cbe bf62 7dbd 7b8e d93d
000001c0: 4556 13be 1c5f 8a39 4b15 c2bc 658f e33d
000001d0: 4e48 ea3d 0941 6dbe 89a6 063e 6124 a5bd
000001e0: ddae 983b 5248 e33d e2d3 77bd 68f2 133e
000001f0: d420 363c 1dc3 d93d e09d e2b9 bb0f e53d
00000200: 7b03 6b3e 7b58 ffbd 404c 133e 11df 24be
00000210: cc74 e43d ffc9 953d 1175 90bc 21f0 b9bd
00000220: 3d2d c3bd ad23 cdbc 426f b3bd 461f 2b3e
00000230: 69d5 8e3d 9f71 9b3b 33aa 3cbe fa4e 823e
00000240: fb11 b03d 8102 f83d 5bae c03d 9abf 853d
00000250: c3b4 833d a224 bfbd f519 3a3e cfed 613d
00000260: f7eb b2bc aa2e 6d3d 5b0a f2bc 66f9 b43d
00000270: 7ab4 0c3e d511 863b abca 953d 544c dd3d
00000280: f9b8 50bd 445e 3fbc de7f c8bd 4455 1fbc
00000290: 3057 4e3d d006 f23d 58fc dc3d e5f8 01be
000002a0: 0281 ee3c c102 213e aa53 e13d 706b 0f3c
000002b0: 4ad2 45bd f576 a53b 3e08 3d3e 4815 36bd
000002c0: 8303 133e d0e2 07be e149 193e e2e0 fdbd
000002d0: b3de 12be 0195 b8bd 8b2c 21ba d773 c4bb
000002e0: 423b 6f3d dae7 323e d3ef b13d 8e50 5bbc
000002f0: 5913 eabd 2556 033e 6f0c e13d 2a0f 853c
00000300: 7a14 2bbd b549 9e3c cf00 11bd 46e5 c23d
00000310: 6bd8 0fbe dc86 0a3c bdb6 96bd e40c 05be
00000320: 20be aa3d 9e1d 743d 7a26 603d 3522 673e
00000330: 2d7d 93bd a9cb 1c3e 6882 2bbd ef93 e6bc
00000340: bf5c c83d 3217 bebd f0d1 7bbd deb6 203e
00000350: 6a5d bc3d 1249 cd3d 97cb 073e 883b 82bd
00000360: 5a16 b53d d104 a5bd 8754 a2bd e208 a5bd
00000370: 4fdb 22be 0b26 97bc 55d1 123e 031c f43d
00000380: fa23 103e 9167 4f39 6ed8 aa3d 13b1 bbbc
00000390: 6fef 133e dabd cabd e1c7 c6bd 47fc 74bd
000003a0: 0206 8bbb a8e4 3d3d 3382 c33d b439 3d3d
000003b0: 3cc0 5bbc 1302 85bd 3490 fbbd fd18 c43d
000003c0: 85a1 84bc ec40 343e 94b4 b3bd 7348 9abd
000003d0: 37bb 973b 63a8 903d efe5 84bd b9e0 aabd
000003e0: 56a5 473d 0070 69bd 837b 023d dec4 943d
000003f0: dbc6 253d 4a9f 01be bc1d 27be ae38 ff3d

fc3.bias f4 [50]
0.052060746 0.08892571 -0.029110862 -0.062990166 0.04418561 0.100144275 -0.051110946 0.02230693
0.11161279 -0.07781747 -0.05767301 -0.0132328905 -0.08652853 0.11609322 0.011760237 0.11665984
-0.10821735 0.041204266 0.050956365 0.13419525 0.07618107 -0.073804155 0.006375923 0.16354583
0.21005467 0.13847113 0.06088758 -0.038532987 0.15313575 0.019717902 0.114134565 -0.10071237
0.012577676 0.0064831614 0.08566072 0.06569907 0.082044445 -0.039726965 -0.052519716 0.2402125
0.0047820844 0.04718576 0.11424679 0.07078642 0.08841058 -0.11213281 0.106736414 -0.03031758
-0.093197726 -0.021044053
00000000: a63d 553d af1e b63d e779 eebc fd00 81bd
00000010: f8fb 343d 7118 cd3d b659 51bd 06bd b63c
00000020: 3f95 e43d c45e 9fbd 893a 6cbd c4ce 58bc
00000030: df35 b1bd 48c2 ed3d 02ae 403c 5beb ee3d
00000040: 0fa1 ddbd cec5 283d 9fb7 503d 7b6a 093e
00000050: d204 9c3d a226 97bd 1eed d03b 8f78 273e
00000060: 9218 573e 60cb 0d3e 4165 793d c4d4 1dbd
00000070: 9ecf 1c3e 7087 a13c 62bf e93d 4942 cebd
00000080: 9912 4e3c b370 d43b e36e af3d 3c8d 863d
00000090: eb06 a83d beb8 22bd ea1e 57bd 44fa 753e
000000a0: 08b3 9c3b db45 413d 39fa e93d 78f8 903d
000000b0: 9b10 b53d e3a5 e5bd 9f98 da3d 935c f8bc
000000c0: 73de bebd 9464 acbc

fc1.weight f4 [50, 7]
-0.5042595 0.10209029 -0.23583618 0.37788406 -0.218422 0.23067692 -0.13202359 0.13076681
-0.32366621 0.12693954 0.35060912 0.108298235 0.41264692 -0.24236207 -0.21017522 -0.16957408
-0.3349149 0.14715217 0.31875047 0.20601703 -0.13081658 0.021270331 0.21006235 0.09693373
0.37520078 -0.10034347 0.27132538 0.24403223 0.34926057 0.3349885 -0.14297555 -0.24196067
-0.25573117 -0.25763187 0.23531021 -0.21607234 0.22916302 -0.25937328 0.024509631 -0.363595
0.19756186 -0.1302424 0.116239145 0.25899372 -0.14567524 0.3049071 0.15712366 0.22913423
0.15385108 0.28637666 0.061763603 -0.12959115 -0.1941592 0.21906917 0.015519287 0.19133258
0.2582295 -0.034702733 -0.027519807 -0.007604509 0.37074682 -0.32203105 0.31638697 -0.021890154
0.04452274 0.27533472 -0.2606738 -0.32302678 0.35793084 -0.18443422 0.028336434 0.35809007
-0.13166146 0.03251367 0.28276536 -0.2728674 -0.2975692 0.03412157 0.17223573 0.06637368
-0.2492828 -0.23837727 -0.44069025 0.051200118 -0.16777964 -0.24042743 0.3255785 -0.25554612
-0.052813526 -0.13232762 0.28197774 -0.2607835 0.19577517 0.11683747 0.20808414 0.04563479
-0.09787736 -0.16700274 0.17928357 0.0925405 0.19780791 -0.13795133 -0.09543987 -0.24542512
-0.14861335 0.00048292518 -0.21869034 0.18309951 -0.04829617 -0.3423717 0.43212804 -0.26794788
-0.41258788 0.040304754 -0.059425447 0.0856494 -0.106788054 0.017151913 0.3329932 -0.253367
0.32153687 -0.39658448 0.07601594 0.34302709 -0.025029192 -0.104243785 -0.515732 0.041148674
0.13944724 0.21521018 -0.18045281 -0.15758447 0.3118976 -0.049570404 -0.3523362 -0.26188117
0.43081182 0.03315329 -0.036402084 -0.19911562 0.17913449 -0.3243811 0.19750142 0.27739462
0.320859 -0.0494782 0.112059064 0.3809453 -0.17110491 -0.28564584 -0.23938678 -0.10163327
0.26464656 0.20756692 0.36492136 0.06377422 0.2573124 -0.24788703 -0.23450696 0.120296694
-0.11454606 0.04704283 0.05434838 0.03557405 -0.015618634 -0.036310844 -0.14839561 0.3405034
-0.24903141 0.19029729 0.18398541 -0.07477756 -0.09194512 0.28365088 0.2890241 -0.049415
-0.20825064 -0.20929208 -0.036701355 -0.3243653 0.19713306 0.152487 0.2621763 -0.3028237
0.16090217 -0.29487154 0.36587593 -0.07432979 0.32527283 -0.11812133 -0.20383541 -0.118011035
-0.22687787 0.42231786 0.39154765 -0.115320794 -0.17456493 -0.041367404 0.086892545 -0.1862125
0.27361345 -0.02984674 0.33882836 0.10957813 -0.2872249 0.23566349 0.050964188 -0.42853403
0.27926812 -0.26882398 0.17463432 -0.0006696278 -0.07490108 -0.12471585 0.08890752 0.2473372
-0.26036677 0.100295864 0.07927087 0.17269489 -0.053627104 -0.04701271 -0.16425289 -0.076071545
0.16706748 0.08449738 0.29412976 -0.14671813 0.30777684 -0.053089272 -0.04847677 -0.5439924
-0.060465325 -0.15196274 0.3887655 0.26704866 0.23695299 -0.14687973 0.13166706 -0.10139075
-0.2721651 0.16792674 0.2358454 -0.2224625 0.34579906 -0.124558635 0.22444844 0.06059869
-0.2976962 0.19857346 0.35135838 0.24735576 -0.17719287 -0.22369833 0.20871098 -0.3241737
00000000: 2717 01bf b714 d13d 0a7f 71be 057a c13e
00000010: 04aa 5fbe 9236 6c3e 3131 07be bce7 053e
00000020: 94b7 a5be 70fc 013e 0a83 b33e 77cb dd3d
00000030: 7546 d33e c32d 78be 2c38 57be d4a4 2dbe
00000040: f779 abbe 0faf 163e 4333 a33e 21f6 523e
00000050: c8f4 05be 1e3f ae3c 961a 573e 3185 c63d
00000060: 511a c03e e180 cdbd 29eb 8a3e 96e3 793e
00000070: 48d2 b23e 9d83 ab3e 2f68 12be 8ac4 77be
00000080: 32ef 82be 53e8 83be 29f5 703e 1142 5dbe
00000090: b6a9 6a3e 93cc 84be 6cc8 c83c 2029 babe
000000a0: a84d 4a3e 445e 05be ca0e ee3d d39a 843e
000000b0: e42b 15be c91c 9c3e 06e5 203e 2aa2 6a3e
000000c0: 238b 1d3e f69f 923e d5fb 7c3d 8bb3 04be
000000d0: abd1 46be ab53 603e 9c44 7e3c b0ec 433e
000000e0: a836 843e 7424 0ebd 3871 e1bc 3f2f f9bb
000000f0: 87d2 bd3e 41e1 a4be 79fd a13e fb52 b3bc
00000100: 7a5d 363d acf8 8c3e 0977 85be c463 a5be
00000110: b642 b73e 53dc 3cbe cf21 e83c 9557 b73e
00000120: 43d2 06be 0e2d 053d 9fc6 903e 47b5 8bbe
00000130: fd5a 98be 0fc3 0b3d 905e 303e edee 873d
00000140: fe43 7fbe 2c19 74be 27a2 e1be 37b7 513d
00000150: 6dce 2bbe 9c32 76be 3ab2 a63e f1d6 82be
00000160: ff52 58bd e480 07be 635f 903e 6a85 85be
00000170: 4979 483e 7c48 ef3d 0214 553e 8ceb 3a3d
00000180: ed73 c8bd c402 2bbe 1d96 373e e085 bd3d
00000190: 288e 4a3e 1d43 0dbe fb75 c3bd b950 7bbe
000001a0: 192e 18be 1f31 fd39 5cf0 5fbe 707e 3b3e
000001b0: 34d2 45bd 584b afbe e33f dd3e 7730 89be
000001c0: b83e d3be 9916 253d 1968 73bd f468 af3d
000001d0: b2b3 dabd 2b82 8c3c 167e aa3e 52b9 81be
000001e0: 7ba0 a43e 1f0d cbbe 3fae 9b3d 3fa1 af3e
000001f0: 050a cdbc c47d d5bd 0307 04bf 838b 283d
00000200: 42cb 0e3e 0f60 5c3e 9fc8 38be d35d 21be
00000210: 0bb1 9f3e 560a 4bbd 6965 b4be 4a15 86be
00000220: 5e93 dc3e bfcb 073d 5a1a 15bd f7e4 4bbe
00000230: 086f 373e 4815 a6be d03d 4a3e ab06 8e3e
00000240: a147 a43e a7a9 4abd 397f e53d 430b c33e
00000250: 2036 2fbe 2c40 92be cf21 75be 1b25 d0bd
00000260: c17f 873e 6c8c 543e f9d6 ba3e 0f9c 823d
00000270: 73be 833e 19d6 7dbe 9822 70be 1d5e f63d
00000280: 2097 eabd fcaf 403d 689c 5e3d 18b6 113d
00000290: 4de5 7fbc aeba 14bd 05f5 17be 7656 ae3e
000002a0: 1702 7fbe 4bdd 423e ac66 3c3e fa24 99bd
000002b0: b94d bcbd b03a 913e f8fa 933e 6267 4abd
000002c0: a83f 55be aa50 56be 2954 16bd 3513 a6be
000002d0: 40dd 493e 8d25 1c3e f93b 863e b50b 9bbe
000002e0: 8ac3 243e 67f9 96be 1754 bb3e 383a 98bd
000002f0: 298a a63e 99e9 f1bd 3bba 50be c5af f1bd
00000300: ac52 68be 0c3a d83e ef78 c83e 4f2d ecbd
00000310: 26c1 32be de70 29bd b8f4 b13d 7dae 3ebe
00000320: 1017 8c3e 2781 f4bc e97a ad3e 806a e03d
00000330: 240f 93be c551 713e d3bf 503d d068 dbbe
00000340: 3bfc 8e3e 4ca3 89be 57d3 323e f689 2fba
00000350: bd65 99bd 066b ffbd 2515 b63d f745 7d3e
00000360: cb4e 85be eb67 cd3d c458 a23d eed6 303e
00000370: 18a8 5bbd 6690 40bd e931 28be 66cb 9bbd
00000380: bd13 2b3e f60c ad3d 2d98 963e 473d 16be
00000390: ed94 9d3e 2374 59bd 948f 46bd 1643 0bbf
000003a0: 7daa 77bd 1f9c 1bbe 460c c73e 9aba 883e
000003b0: cea3 723e a467 16be bbd3 063e f4a5 cfbd
000003c0: 3959 8bbe fdf4 2b3e 7581 713e 36cd 63be
000003d0: 930c b13e 9918 ffbd d0d5 653e 5536 783d
000003e0: a36b 98be d756 4b3e 3fe5 b33e d44a 7d3e
000003f0: 0c72 35be 2d11 65be 55b8 553e 18fa a5be

fc1.bias f4 [50]
-0.1968237 -0.2883831 0.1939986 -0.07949377 0.262733 -0.01305926 0.057196863 0.33434677
-0.24505599 0.32610643 0.025812222 0.4869003 0.0011062508 0.3812753 0.26689425 -0.04761434
0.11107529 0.15611485 0.16470887 0.2726283 0.15609331 -0.12496855 0.09465815 0.29416186
0.112975866 -0.064206764 -0.26842123 -0.22484136 0.3317606 0.01148073 -0.27182904 -0.1675245
0.028950995 0.34555963 -0.3565944 -0.33083344 0.30632815 -0.24420595 -0.06907714 -0.039461836
0.01704453 -0.26908317 -0.025478669 -0.21317774 -0.013906504 0.20748211 0.028195648 -0.043695547
0.33838728 0.36791506
00000000: 278c 49be f3a6 93be 92a7 463e a1cd a2bd
00000010: f184 863e 82f6 55bc 4247 6a3d 802f ab3e
00000020: f5ef 7abe 6cf7 a63e 2774 d33c ff4a f93e
00000030: 9eff 903a 8436 c33e 5da6 883e 4107 43bd
00000040: 717b e33d 92dc 1f3e 71a9 283e f095 8b3e
00000050: edd6 1f3e 83ef ffbd 22dc c13d 629c 963e
00000060: e45f e73d d67e 83bd 826e 89be d03c 66be
00000070: 86dc a93e ac19 3c3c 2d2d 8bbe 8b8b 2bbe
00000080: a32a ed3c 31ed b03e 8b93 b6be 0063 a9be
00000090: 0bd7 9c3e 2011 7abe 5178 8dbd bca2 21bd
000000a0: f8a0 8b3c 45c5 89be a4b8 d0bc 444b 5abe
000000b0: 1bd8 63bc 3176 543e 8ffa e63c 1afa 32bd
000000c0: 1941 ad3e 5d5f bc3e

fc2.weight f4 [50, 50]
-0.2999065 0.041668415 -0.03295212 -0.07163353 -0.013368538 0.037873585 -0.07327397 0.08770603
0.15205334 0.010637202 -0.03999351 0.08488987 -0.060321096 -0.07502004 -0.10042786 0.07730933
-0.16406581 -0.05033951 -0.11684879 0.19897604 0.15561107 -0.05199824 -0.050641887 -0.098048024
-0.051851887 -0.060181994 -0.050143473 0.19593301 -0.09191334 -0.08150497 0.05092639 -0.055272434
0.094100304 0.02372634 0.022886468 -0.009460798 0.005011732 0.13076368 0.096028954 0.17422585
0.008647019 -0.15614 0.057990167 -0.10294995 0.12678587 0.04110893 0.09894535 -0.1209249
0.06005126 0.09639212 0.08737619 0.015930848 -0.097591445 0.1183971 0.13456655 0.031831868
0.07458165 -0.084790744 0.076538496 -0.06032332 -0.0045686755 -0.041731864 -0.06486979 -0.13410118
0.07745633 0.03791006 0.15657517 -0.077423155 -0.0011125668 0.08053657 -0.10770903 0.08537905
-0.02056342 -0.039684206 -0.1548377 -0.01081096 -0.041814715 -0.090504594 0.08331033 -0.012734405
-0.094696276 0.05028232 0.13457485 -0.28505054 0.03420259 0.014547196 0.032470524 -0.075323634
-0.15463994 0.22912623 -0.11763945 -0.14369412 -0.15001269 0.021963708 -0.031102428 0.081430554
0.10225388 0.03245853 0.037186112 0.11325666 0.027351977 -0.03877175 0.07685912 -0.10839483
0.061889283 0.045851655 -0.07007677 0.10426766 0.14169367 -0.06977618 0.09231417 -0.0047729374
0.021593641 0.17587443 0.01880813 -0.19348718 -0.13594632 -0.12828416 0.086267106 0.07513365
0.052171256 0.017530197 -0.056993775 0.0982821 -0.010803633 -0.09014675 0.12310641 -0.10859249
-0.029044878 -0.11637806 -0.14417891 0.06812595 0.09554047 -0.10514661 0.06003084 -0.05153233
0.12042435 -0.07081847 0.004502346 -0.045682672 0.009580511 -0.07100614 0.12373807 -0.06542324
-0.059617974 0.059947204 0.035310637 -0.015320782 -0.15945223 -0.0014780595 -0.114939936 0.05471645
0.09297528 -0.03377296 0.09756026 0.05262305 0.10533439 0.051446732 0.061805807 -0.044613905
0.045801323 0.14929405 -0.030783594 -0.070064 -0.13597962 0.023714846 -0.012101277 0.10394368
0.08483163 -0.18607587 -0.10960531 -0.15808086 0.023258816 0.019570405 -0.025797963 0.02557792
0.014940541 0.03683475 0.101204745 0.07011781 0.099954255 -0.02248681 0.01552716 0.13372973
-0.09700597 0.014341461 0.11386208 0.12663227 -0.016592402 -0.07952915 0.07688274 0.025905117
-0.027265398 -0.10405573 0.10087422 0.046593025 -0.004417563 0.009672764 -0.089848846 -0.052278012
-0.11679892 -0.11209611 -0.018016964 -0.1118473 0.049062226 0.03015727 0.07196982 0.1137818
-0.059609726 -0.02891428 0.1057967 -0.076444514 0.009305455 -0.04947682 0.045757283 0.020779956
0.033092324 0.071223766 0.0871869 -0.14427602 -0.0037570812 -0.05015518 -0.12302113 0.084239446
0.039744552 -0.02807868 0.12373704 -0.073559456 0.03169221 0.09534594 0.1349949 -0.12054995
-0.043499254 -0.2571773 -0.11810003 0.027505817 -0.12685587 -0.09478684 0.0630886 0.0684979
0.06487065 0.15349084 0.004088947 -0.022441022 0.053956386 -0.11990928 0.21066312 0.027805442
-0.06424641 0.06027318 0.0053287656 0.12688404 -0.15575543 0.08705838 0.05811781 0.10234204
00000000: 588d 99be 80ac 2a3d cdf8 06bd 9ab4 92bd
00000010: b607 5bbc 5521 1b3d aa10 96bd 389f b33d
00000020: dfb3 1b3e a947 2e3c 3cd0 23bd bdda ad3d
00000030: 4113 77bd 1ba4 99bd 1fad cdbd 5b54 9e3d
00000040: de00 28be cd30 4ebd 6b4e efbd 60c0 4b3e
00000050: 8258 1f3e 1bfc 54bd de6d 4fbd 67cd c8bd
00000060: a562 54bd 6581 76bd 3e63 4dbd aaa2 483e
00000070: 103d bcbd 14ec a6bd 3198 503d 5965 62bd
00000080: a9b7 c03d be5d c23c 677c bb3c 7701 1bbc
00000090: 7539 a43b eae6 053e d4aa c43d 4368 323e
000000a0: 3aac 0d3c 2ae3 1fbe 1987 6d3d 6cd7 d2bd
000000b0: 28d4 013e d661 283d dca3 ca3d 79a7 f7bd
000000c0: 4ff8 753d 3b69 c53d 4af2 b23d 6981 823c
000000d0: 06de c7bd 2e7a f23d d0cb 093e 2262 023d
000000e0: 44be 983d c5a6 adbd 37c0 9c3d 9615 77bd
000000f0: d4b4 95bb 08ef 2abd 74da 84bd d251 09be
00000100: 6da1 9e3d 9447 1b3d 3e55 203e 0890 9ebd
00000110: 8cd3 91ba 5bf0 a43d 8d96 dcbd 36db ae3d
00000120: 9e74 a8bc e88b 22bd c68d 1ebe 7420 31bc
00000130: e845 2bbd 795a b9bd 9b9e aa3d f7a3 50bc
00000140: 1ff0 c1bd d5f4 4d3d fdcd 093e 25f2 91be
00000150: 0418 0c3d 5d57 6e3c d0ff 043d 4743 9abd
00000160: ef59 1ebe 11a0 6a3e f4ec f0bd 8d24 13be
00000170: ed9c 19be 3ced b33c 85ca febc 10c5 a63d
00000180: 7b6a d13d 3cf3 043d 7750 183d 1cf3 e73d
00000190: 4111 e03c 20cf 1ebd 5068 9d3d 1cfe ddbd
000001a0: 9e7f 7d3d f2ce 3b3d 6984 8fbd 488a d53d
000001b0: 2518 113e d0e6 8ebd 360f bd3d 4d66 9cbb
000001c0: 26e5 b03c 6d18 343e 8213 9a3c 8121 46be
000001d0: 8335 0bbe ec5c 03be cfac b03d acdf 993d
000001e0: 87b1 553d 7d9b 8f3c 4e72 69bd 2048 c93d
000001f0: b901 31bc dc9e b8bd 371f fc3d bd65 debd
00000200: 86ef edbc 9f57 eebd a3a3 13be 9e85 8b3d
00000210: b9aa c33d 1b57 d7bd e6e2 753d 9113 53bd
00000220: 0ba1 f63d 4609 91bd 6a88 933b c11d 3bbd
00000230: 93f7 1c3c ab6b 91bd 636a fd3d 9ffc 85bd
00000240: fa31 74bd 338b 753d e3a1 103d 0404 7bbc
00000250: 7247 23be 72bb c1ba a165 ebbd 5b1e 603d
00000260: d369 be3d 8455 0abd accd c73d 448b 573d
00000270: 8fb9 d73d cfb9 523d 1628 7d3d 12bd 36bd
00000280: 2b9a 3b3d 8ae0 183e e02d fcbc b77d 8fbd
00000290: 3e3e 0bbe a345 c23c 6f44 46bc 6de0 d43d
000002a0: 35bc ad3d ac8a 3ebe c078 e0bd f3df 21be
000002b0: 4689 be3c 1d52 a03c 4056 d3bc c988 d13c
000002c0: 2cc9 743c 09e0 163d 6f44 cf3d ed99 8f3d
000002d0: d1b4 cc3d 4236 b8bc a165 7e3c 72f0 083e
000002e0: 11ab c6bd 72f8 6a3c 8630 e93d e4ab 013e
000002f0: caec 87bc 2ee0 a2bd b374 9d3d f836 d43c
00000300: af5b dfbc 2c1b d5bd 2597 ce3d 54d8 3e3d
00000310: 34c1 90bb 837a 1e3c ac02 b8bd 7821 56bd
00000320: 4634 efbd a592 e5bd 5098 93bc 3210 e5bd
00000330: 79f5 483d 610c f73c ea64 933d 6f06 e93d
00000340: 5429 74bd a4dd ecbc f1ab d83d f18e 9cbd
00000350: e875 183c 35a8 4abd fd6b 3b3d ba3a aa3c
00000360: d18b 073d c4dd 913d 0c8f b23d 18bd 13be
00000370: 5d39 76bb 856f 4dbd 81f2 fbbd bb85 ac3d
00000380: 2fcb 223d 4305 e6bc d869 fd3d 57a6 96bd
00000390: b1cf 013d bb44 c33d 1a3c 0a3e e4e2 f6bd
000003a0: 462c 32bd beac 83be 6ede f1bd e153 e13c
000003b0: 81e6 01be 9a1f c2bd 9934 813d a148 8c3d
000003c0: e7da 843d b42c 1d3e 93fc 853b 3cd6 b7bc
000003d0: 5f01 5d3d ff92 f5bd 13b8 573e 3dc8 e33c
000003e0: 9f93 83bd 03e1 763d ed9c ae3b e4ed 013e
000003f0: 5a7e 1fbe aa4b b23d f10c 6e3d b498 d13d

fc2.bias f4 [50]
-0.0945993 0.11950085 -0.0031931133 0.033944447 0.18320826 -0.12367503 0.1536457 -0.11476705
-0.08325543 -0.13231821 0.15022995 0.0864396 0.037941176 0.048423674 0.1049109 0.13768333
0.05116441 -0.13491425 0.048897784 0.13185358 0.03779138 -0.09300451 0.07931489 0.051942907
-0.13939899 -0.13429947 -0.006824471 -0.14166757 0.07454975 -0.007317224 0.14871931 -0.06942362
-0.056394197 -0.01097025 0.08605189 0.11583992 0.04800084 -0.07734155 -0.14509849 -0.098257296
-0.029565914 -0.06888033 -0.12963332 0.0133117 0.09888981 0.0059125777 0.0073989453 -0.08467313
0.009796726 -0.1353589
00000000: 47bd c1bd ddbc f43d 8d43 51bb 5509 0b3d
00000010: f29a 3b3e 5649 fdbd 4c55 1d3e fd0a ebbd
00000020: d381 aabd 6d7e 07be e1d5 193e 3f07 b13d
00000030: 3568 1b3d e757 463d 87db d63d dcfc 0c3e
00000040: c691 513d f626 0abe 0b49 483d a004 073e
00000050: 22cb 1a3d 2679 bebd d86f a23d 16c2 543d
00000060: 9cbe 0ebe cd85 09be d09f dfbb 4e11 11be
00000070: 8aad 983d 53c5 efbb e049 183e f92d 8ebd
00000080: 9afd 66bd 90bc 33bc f93b b03d 7b3d ed3d
00000090: 879c 443d 3f65 9ebd b394 14be 1f3b c9bd
000000a0: 3734 f2bc 2111 8dbd 99be 04be 5119 5a3c
000000b0: be86 ca3d 4cbe c13b da72 f23b 1b69 adbd
000000c0: 7282 203c 869b 0abe

fc3.weight f4 [50, 50]
-0.10348064 0.14889836 -0.05440844 -0.0853669 -0.02548902 -0.032195676 0.13598628 -0.09500986
-0.022153946 0.07086003 0.1701741 0.034702644 -0.02565066 0.13054563 0.18261553 0.07740187
-0.07459812 0.021095876 0.11098733 -0.09736088 0.047996227 -0.095327415 -0.05694404 0.056565687
0.10319042 0.121082164 0.11089475 0.02624039 -0.0042767227 -0.09210725 -0.0691303 -0.11387816
0.07724333 0.0420827 -0.06879842 0.16592664 0.07165289 -0.05635266 -0.11452304 -0.06509981
-0.08201913 -0.10863799 -0.08746001 0.12684293 0.099113956 -0.040621057 -0.05963709 0.13807216
0.14824426 0.02149681 0.1351684 -0.009496822 -0.08855055 -0.058587395 -0.05081838 0.17639257
0.15685871 -0.1111945 0.20052722 -0.124559015 -0.046757784 0.17761624 0.114805534 0.080858834
-0.039155953 -0.04504308 -0.1084992 -0.013654297 0.117398664 -0.06338945 -0.09315447 -0.019250562
0.057706077 -0.10975874 -0.050792214 -0.062639914 0.08831621 -0.02705047 0.006541564 0.03837078
0.05488605 0.08808013 0.17551708 0.08900947 -0.108748876 0.048635982 -0.12532875 0.15304369
0.03388328 0.004679303 -0.016776238 0.07084626 -0.020952372 -0.036513705 -0.044691917 -0.046276733
0.07527239 0.16509116 0.14506954 0.061000813 0.15509121 0.099469796 0.12986164 0.02879646
0.01609901 -0.074089564 0.15653954 -0.11800671 0.08002402 -0.15516318 -0.061913468 0.1015079
-0.14185324 0.00026780574 -0.01904527 0.11030407 0.12448843 -0.21608348 0.12212447 -0.0754635
0.0059531094 0.10892691 -0.057952937 0.13269691 0.010944168 0.10588406 -0.0055400403 0.111688815
0.22504443 -0.12461388 0.1185692 -0.15513216 0.10722565 0.07310459 -0.022758134 -0.08903969
-0.08993142 -0.029407352 -0.087653354 0.12436881 0.07275833 0.0017174142 -0.17793237 0.23360802
0.08595426 0.115393095 0.0941024 0.026353966 0.062493064 -0.09324811 0.17043185 0.052623242
-0.012322636 0.029771857 -0.03805369 0.0765239 0.12576367 0.004195469 0.07874168 0.111907594
-0.04738743 -0.024029758 -0.09701947 -0.007710228 0.045206208 0.1113508 0.1100369 -0.1281966
0.019982267 0.14781088 0.103521 -0.0017995168 -0.049226593 -0.014833003 0.18431577 -0.05808262
0.13599704 -0.13256805 0.14784445 -0.12373313 -0.1561933 -0.08977851 0.0005296098 -0.0059441105
0.045957673 0.17303774 0.07135409 -0.023336573 -0.11426716 0.10318858 0.089427635 0.011895815
-0.034105033 0.032232855 -0.035316028 0.082984395 -0.14040738 0.01706263 -0.08056442 -0.12988302
0.08386424 0.06435814 0.056163136 0.19459984 -0.06530556 0.1442835 -0.051835597 -0.028066799
0.08903984 -0.09267729 -0.05564719 0.14418715 0.101458885 0.099037826 0.12320577 -0.06884543
0.07816461 -0.07367593 -0.07027775 -0.07632825 -0.14028756 -0.03477831 0.14208716 0.10683452
0.085352875 -0.020448389 0.075716354 -0.022786625 0.14289513 -0.09893445 -0.102285534 -0.06717288
-0.0017017162 0.04636358 0.09255847 0.04920744 -0.0328625 -0.062320147 -0.12283228 0.03472469
-0.0435243 0.16791388 -0.060690735 -0.05343321 0.004678814 0.069829896 -0.0647679 -0.092266686
0.0458979 -0.05682462 0.034661684 0.06696663 0.059489947 -0.12777333 -0.15413645 0.12120422
00000000: a8ed d3bd d078 183e 62db 5ebd d7d4 aebd
00000010: 59ce d0bc 9ddf 03bd fd3f 0b3e 8894 c2bd
00000020: 317c b5bc 101f 913d 1f42 2e3e 5c24 0e3d
00000030: 5521 d2bc c1ad 053e 91ff 3a3e df84 9e3d
00000040: e6c6 98bd 42d1 ac3c 534d e33d 2465 c7bd
00000050: b197 443d 053b c3bd 273e 69bd 6cb1 673d
00000060: 8055 d33d edf9 f73d c91c e33d 16f6 d63c
00000070: c023 8cbb baa2 bcbd 3094 8dbd f438 e9bd
00000080: c031 9e3d e95e 2c3d 30e6 8cbd ace8 293e
00000090: c0be 923d 0cd2 66bd 0e8b eabd 0d53 85bd
000000a0: a5f9 a7bd 987d debd 3c1e b3bd 1de3 013e
000000b0: 42fc ca3d 4462 26bd 0546 74bd ca62 0d3e
000000c0: 58cd 173e 141a b03c 9669 0a3e 8f98 1bbc
000000d0: fe59 b5bd 56f9 6fbd ef26 50bd 41a0 343e
000000e0: 929f 203e f1b9 e3bd 0257 4d3e cc18 ffbd
000000f0: 1785 3fbd 08e1 353e 2a1f eb3d 5199 a53d
00000100: fe61 20bd 187f 38bd d434 debd 46b6 5fbc
00000110: b66e f03d 54d2 81bd c5c7 bebd 5bb3 9dbc
00000120: 355d 6c3d 31c9 e0bd 7f0b 50bd 5b49 80bd
00000130: 21df b43d f298 ddbc 9e5a d63b ae2a 1d3d
00000140: 32d0 603d 5b63 b43d c0ba 333e 994a b63d
00000150: bbb7 debd 8636 473d 2e56 00be 7cb7 1c3e
00000160: 32c9 0a3d d754 993b 526e 89bc d817 913d
00000170: 4fa4 abbc 658f 15bd df0e 37bd ac8c 3dbd
00000180: 6928 9a3d a80d 293e 1c8d 143e fddb 793d
00000190: 3bd0 1e3e d2b6 cb3d 73fa 043e 8ee6 eb3c
000001a0: 12e2 833c 45bc 97bd e74b 203e 81ad f1bd
000001b0: a2e3 a33d 19e3 1ebe fa98 7dbd 60e3 cf3d
000001c0: fa41 11be 4768 8c39 d304 9cbc 1ae7 e13d
000001d0: caf3 fe3d fd44 5dbe 651c fa3d 9c8c 9abd
000001e0: 4d12 c33b 1215 df3d 0f60 6dbd b3e1 073e
000001f0: 2b4f 333c bed9 d83d 3a89 b5bb 1bbd e43d
00000200: 0c72 663e 9035 ffbd 69d4 f23d f7da 1ebe
00000210: 1f99 db3d dcb7 953d 446f babc 715a b6bd
00000220: f72d b8bd b0e7 f0bc 9a83 b3bd 13b5 fe3d
00000230: 5202 953d dc1a e13a e733 36be f136 6f3e
00000240: c908 b03d 3753 ec3d c2b8 c03d 46e4 d73c
00000250: baf8 7f3d ddf8 bebd b085 2e3e 788b 573d
00000260: e2e4 49bc 1ce4 f33c 30de 1bbd 90b8 9c3d
00000270: 31c8 003e 257a 893b 5143 a13d cf2f e53d
00000280: 5219 42bd 0eda c4bc 25b2 c6bd 15a6 fcbb
00000290: 252a 393d e30b e43d 075b e13d f845 03be
000002a0: dab1 a33c bc5b 173e d102 d43d c4dd ebba
000002b0: d3a1 49bd 2006 73bc 46bd 3c3e 0be8 6dbd
000002c0: cf42 0b3e ebbf 07be 8964 173e cc67 fdbd
000002d0: 23f1 1fbe ccdd b7bd 83d5 0a3a d0c6 c2bb
000002e0: 1d3e 3c3d ce30 313e 1822 923d 572c bfbc
000002f0: e704 eabd 8954 d33d d625 b73d aae6 423c
00000300: b8b1 0bbd 9906 043d 8aa7 10bd b9f3 a93d
00000310: f4c6 0fbe eec6 8b3c f5fe a4bd 0e00 05be
00000320: 04c1 ab3d 33ce 833d 510b 663d 2e45 473e
00000330: ecbe 85bd 0ebf 133e 9051 54bd 58ec e5bc
00000340: 855a b63d 97cd bdbd 4fee 63bd cca5 133e
00000350: adc9 cf3d 58d4 ca3d 4f53 fc3d d5fe 8cbd
00000360: c414 a03d 68e3 96bd c8ed 8fbd fc51 9cbd
00000370: 8ba7 0fbe b473 0ebd 4c7f 113e 0fcc da3d
00000380: 7dcd ae3d 6183 a7bc 2d11 9b3d 04ab babc
00000390: 1a53 123e 259e cabd 147b d1bd ef91 89bd
000003a0: 1f0c dfba bde7 3d3d 4c8f bd3d be8d 493d
000003b0: d49a 06bd 6943 7fbd 7e8f fbbd 7a3b 0e3d
000003c0: 8946 32bd 9ef1 2b3e d996 78bd c8dc 5abd
000003d0: bd50 993b fa02 8f3d 08a5 84bd 51f6 bcbd
000003e0: 70ff 3b3d efc0 68bd 69f9 0d3d cd25 893d
000003f0: bbab 733d 03d7 02be f2d5 1dbe eb39 f83d

fc3.bias f4 [50]
0.037688956 0.08437901 -0.03540802 -0.06956998 0.03976703 0.10210145 -0.053075507 0.020442763
0.11035604 -0.08463169 -0.05418424 -0.00278469 -0.08636205 0.11894644 0.005818885 0.11694495
-0.1152446 0.035921168 0.05196026 0.12747921 0.06715348 -0.07840731 0.00819119 0.15115435
0.21027146 0.1482623 0.05680955 -0.04369694 0.15034893 0.020023482 0.11531997 -0.105022386
0.016902262 0.0011206487 0.09319916 0.062485605 0.06843146 -0.04653475 -0.057071928 0.22847572
-0.004193031 0.046696126 0.11094335 0.06976663 0.08792926 -0.11773042 0.096745096 -0.05348795
-0.09510043 -0.025180545
00000000: bc5f 1a3d e7ce ac3d 0008 11bd b57a 8ebd
00000010: c1e2 223d 911a d13d b465 59bd 9577 a73c
00000020: 5902 e23d 6153 adbd 4bf0 5dbd 587f 36bb
00000030: 96de b0bd 319a f33d 58ac be3b d580 ef3d
00000040: 5c05 ecbd 1322 133d 48d4 543d e989 023e
00000050: c487 893d 0394 a0bd 5734 063c 35c8 1a3e
00000060: 6751 573e 13d2 173e 21b1 683d 90fb 32bd
00000070: 12f5 193e 4908 a43c e02c ec3d fa15 d7bd
00000080: 9d76 8a3c bbe2 923a 34df be3d e8f0 7f3d
00000090: cb25 8c3d 399b 3ebd 41c4 69bd 8af5 693e
000000a0: b265 89bb 7044 3f3d 4436 e33d cfe1 8e3d
000000b0: 4214 b43d a51c f1bd 4b22 c63d 2e16 5bbd
000000c0: 04c4 c2bd 6e47 cebc
