checkpointing_test/sigmoid_example_s12345/models/eval_checkpoint_300.pt (torch, 95431 bytes, 24 tensors)

fc1.weight f4 [50, 7]
-0.31458032 0.34001827 0.41734415 0.15329345 -0.41315663 0.06607224 -0.24473035 -0.2675861
-0.13207842 -0.32281706 -0.36992654 -0.119501606 -0.09305407 -0.35248485 -0.118825056 -0.19159774
-0.03280362 0.31294662 0.3525135 0.040880628 -0.15091607 -0.104905225 0.32606217 -0.39187407
0.08942923 -0.123034544 -0.019577464 -0.10859993 -0.28434077 -0.28938952 -0.18819986 -0.3719757
0.3842816 -0.060984053 0.23010516 0.30753717 0.22112888 0.12164447 0.33093944 0.076273195
-0.051722303 0.1487035 -0.062239446 -0.14905833 0.019833503 0.37258825 0.17959756 0.19549121
0.18566728 -0.24694985 0.29682145 0.17606308 -0.10985383 0.006889431 0.17873956 -0.10753932
-0.0029236944 0.15436015 -0.2951028 0.15706155 0.14647762 0.2461301 -0.32745188 -0.2936655
0.2061162 0.37628335 0.34232217 0.1150532 -0.06839232 0.02846249 -0.2746388 -0.06424671
0.15440628 -0.2272273 -0.40514225 0.22540572 -0.05400112 -0.3835185 -0.10338356 0.29236326
0.2774521 -0.009500142 -0.16730481 -0.25371864 0.34845483 -0.2342812 -0.030048119 -0.21225645
-0.22163343 -0.36022 0.24409844 -0.35338795 0.008754738 0.18769537 0.20121531 -0.3638948
-0.1205934 -0.31924692 -0.28745756 0.342325 0.25481805 -0.03708067 -0.16352913 -0.3471656
0.33888134 0.35309976 -0.15940256 -0.062923945 -0.19081658 0.24547136 -0.16032085 -0.16773163
-0.36798358 -0.3274658 0.040293008 0.35795125 -0.27121398 0.32036135 0.1970337 -0.070302755
-0.2485443 0.23231083 0.29868397 0.38358954 0.32984346 0.06614092 -0.1310658 0.24008998
-0.082873814 -0.019084038 0.21965265 0.14878714 0.030621972 -0.36072448 0.28124455 -0.13376951
0.059389457 -0.12631255 -0.19546881 -0.08584662 -0.17152953 0.11361325 -0.024150994 0.35421476
-0.12672815 -0.15404934 -0.097667605 0.12645952 -0.22847646 0.15347092 0.02977509 -0.32559192
0.024944142 -0.109204575 -0.37581345 -0.07311725 -0.2885498 0.30819982 0.23964922 -0.13695426
-0.017075516 0.37898293 0.18770708 -0.13000976 -0.36867657 -0.24062999 -0.02712516 0.001894191
0.25265995 -0.023533506 0.20872329 0.23058757 -0.25527525 -0.10025945 0.060569204 0.34892833
0.14877138 -0.29909942 -0.051706 0.12692149 0.13136226 0.26011106 -0.09601568 0.057602316
-0.15075067 0.25731066 -0.0020417748 -0.27344656 -0.15931636 -0.054840785 0.25537506 0.024055583
-0.25095978 -0.4561818 -0.33976823 0.28913802 0.1544934 -0.39358288 -0.00046782396 0.2199982
0.04440936 -0.33189014 0.26922554 0.30048314 -0.34748837 -0.36981353 -0.31720805 0.14804898
-0.17650041 0.35048744 0.21950768 -0.3290683 -0.33371392 -0.17641395 -0.22653386 0.2680274
-0.03614888 -0.12077834 -0.0071166344 0.3504537 0.3401584 -0.43748814 0.05743135 -0.29640678
-0.36860093 0.060576 0.3316872 -0.024009516 -0.03046194 -0.09726151 0.06322942 -0.29996678
-0.22091189 -0.3657979 -0.18635677 -0.25552073 -0.2945341 0.10320884 -0.057616584 -0.35998398
-0.19905572 -0.056744937 -0.0053950027 0.35266808 0.3836344 0.098760046 -0.40298575 -0.057766147
0.089209385 0.15358312 -0.15952684 0.02905386 0.064803176 0.32572457 -0.26882878 -0.2893725
00000000: ac10 a1be e016 ae3e 22ae d53e f5f8 1c3e
00000010: 4489 d3be e250 873d 989a 7abe 0c01 89be
00000020: 913f 07be 4748 a5be 0367 bdbe 42bd f4bd
00000030: 2293 bebd e578 b4be 8d5a f3bd 3332 44be
00000040: 175d 06bd 8a3a a03e a67c b43e 7272 273d
00000050: be89 1abe 8dd8 d6bd 9ff1 a63e b8a3 c8be
00000060: ac26 b73d 89f9 fbbd eb60 a0bc a469 debd
00000070: 1d95 91be dd2a 94be 77b7 40be 9973 bebe
00000080: 8fc0 c43e 6aca 79bd b0a0 6b3e 8375 9d3e
00000090: 9c6f 623e bc20 f93d e570 a93e 1f35 9c3d
000000a0: c4da 53bd bb45 183e caee 7ebd bfa2 18be
000000b0: df79 a23c e3c3 be3e 6ce8 373e d92e 483e
000000c0: 901f 3e3e 6ce0 7cbe fbf8 973e e149 343e
000000d0: 0bfb e0bd bcc0 e13b 8107 373e 933d dcbd
000000e0: 749b 3fbb 9610 1e3e b717 97be bed4 203e
000000f0: 3bfe 153e 8709 7c3e c6a7 a7be 535b 96be
00000100: 2010 533e 36a8 c03e da44 af3e 03a1 eb3d
00000110: 4611 8cbd 2b2a e93c 759d 8cbe c793 83bd
00000120: ae1c 1e3e 46ae 68be ce6e cfbe c2d0 663e
00000130: 4730 5dbd 895c c4be c3ba d3bd a3b0 953e
00000140: 340e 8e3e 7ca6 1bbc f451 2bbe 69e7 81be
00000150: ac68 b23e 69e7 6fbe 7927 f6bc c159 59be
00000160: e0f3 62be c16e b8be f1f4 793e 44ef b4be
00000170: 0870 0f3c 3733 403e 630b 4e3e 6b50 babe
00000180: acf9 f6bd 5574 a3be a32d 93be 3945 af3e
00000190: 8377 823e e7e1 17bd 2e74 27be b1bf b1be
000001a0: db81 ad3e 7ec9 b43e 6d3a 23be 45de 80bd
000001b0: 6c65 43be d85c 7b3e 262b 24be d7c1 2bbe
000001c0: 5868 bcbe 99a9 a7be 480a 253d 6345 b73e
000001d0: 8fdc 8abe 6706 a43e 34c3 493e e4fa 8fbd
000001e0: 6682 7ebe e4e2 6d3e 1bed 983e d965 c43e
000001f0: 3ee1 a83e e474 873d 1d36 06be 26da 753e
00000200: bfb9 a9bd 2156 9cbc a0ec 603e a85b 183e
00000210: eeda fa3c e1b0 b8be 49ff 8f3e e0fa 08be
00000220: 5c42 733d 1458 01be fa28 48be 5ad0 afbd
00000230: 70a5 2fbe 10ae e83d 4ed8 c5bc a35b b53e
00000240: 06c5 01be 1cbf 1dbe f405 c8bd 9b7e 013e
00000250: bcf5 69be 7b27 1d3e e4ea f33c fcb3 a6be
00000260: a857 cc3c a6a6 dfbd 9f6a c0be 7fbe 95bd
00000270: cdbc 93be 5ecc 9d3e 9b66 753e bd3d 0cbe
00000280: f4e1 8bbc 0d0a c23e 4936 403e 4721 05be
00000290: 2dc3 bcbe b567 76be 9535 debc 8146 f83a
000002a0: a55c 813e 57c9 c0bc 8fbb 553e 261f 6c3e
000002b0: 70b3 82be d454 cdbd 6a17 783d bca6 b23e
000002c0: 8657 183e 8f23 99be acc9 53bd b5f7 013e
000002d0: d483 063e 472d 853e dea3 c4bd 68f0 6b3d
000002e0: 625e 1abe 39be 833e 4ccf 05bb 3001 8cbe
000002f0: d423 23be bba0 60bd 85c0 823e 3710 c53c
00000300: cd7d 80be a990 e9be 1af6 adbe e609 943e
00000310: 8533 1e3e b283 c9be 4546 f5b9 3547 613e
00000320: 97e6 353d 81ed a9be eed7 893e edd8 993e
00000330: ffe9 b1be 3358 bdbe 1869 a2be 279a 173e
00000340: 86bc 34be 1773 b33e 9fc6 603e a47b a8be
00000350: 8ddc aabe dca5 34be 7ef8 67be e33a 893e
00000360: d910 14bd a25a f7bd a832 e9bb ab6e b33e
00000370: 3e29 ae3e 72fe dfbe 233d 6b3d a1c2 97be
00000380: 43b9 bcbe 8a1e 783d e8d2 a93e 9baf c4bc
00000390: 528b f9bc 0b31 c7bd 6d7e 813d 3f95 99be
000003a0: ba36 62be dd49 bbbe 4fd4 3ebe 9dd3 82be
000003b0: 2ccd 96be 285f d33d 5eff 6bbd d24f b8be
000003c0: 43d5 4bbe 616d 68bd 90c8 b0bb e990 b43e
000003d0: ba6b c43e b542 ca3d 2654 cebe 329c 6cbd
000003e0: 69b3 b63d e544 1d3e 015b 23be 5c02 ee3c
000003f0: 87b7 843d 5fc5 a63e eda3 89be a228 94be

fc1.bias f4 [50]
-0.3640612 -0.22578293 -0.049567077 0.13678242 0.41931185 0.020286048 -0.099481635 0.37690324
-0.23342255 -0.008499505 -0.18194464 -0.21997434 0.14646332 0.16243307 0.06477108 -0.07511494
-0.2838422 0.37311068 0.09093788 -0.044833295 -0.07154405 0.045354825 0.32658863 -0.085801125
0.26993695 0.16694726 0.11861443 0.03733227 -0.033026353 -0.079492256 0.06569695 -0.07903973
-0.04660928 -0.14097695 0.28139868 -0.24884315 -0.20006032 -0.124608144 0.22018267 0.27263585
0.29146847 -0.1586251 0.014350932 0.040162664 -0.046626758 -0.30128235 0.035106033 -0.3078552
-0.19354904 0.12523104
00000000: 3b66 babe a433 67be d906 4bbd b110 0c3e
00000010: 0bb0 d63e ed2e a63c 07bd cbbd 76f9 c03e
00000020: 5206 6fbe 8241 0bbc b24f 3abe f440 61be
00000030: 7bfa 153e db54 263e b3a6 843d ddd5 99bd
00000040: c453 91be 5d08 bf3e a43d ba3d 1ea3 37bd
00000050: b085 92bd fbc5 393d a036 a73e 80b8 afbd
00000060: 2d35 8a3e 39f4 2a3e 1fec f23d b9e9 183d
00000070: a446 07bd d6cc a2bd 1f8c 863d 95df a1bd
00000080: 5fe9 3ebd 435c 10be 7d13 903e bdd0 7ebe
00000090: 9ddc 4cbe 8e32 ffbd 9177 613e ed96 8b3e
000000a0: 5b3b 953e 9e6e 22be 2c20 6b3c 9b81 243d
000000b0: b3fb 3ebd ae41 9abe 58cb 0f3d 329f 9dbe
000000c0: b831 46be 913c 003e

fc2.weight f4 [50, 50]
0.06542968 0.0008728781 0.109379865 -0.05549283 0.08268242 0.07709047 -0.0763043 0.021867499
0.0060296175 -0.09165725 -0.13869745 -0.066014946 -0.008056756 -0.011916772 -0.035376485 0.083574176
-0.14772978 0.08093785 -0.06784397 0.11241748 0.055833466 0.16225259 -0.087439954 0.09465377
0.019124122 -0.017036032 -0.008092759 -0.21459275 -0.20615843 -0.07277531 -0.05542777 -0.06130302
0.1746295 0.072781585 -0.17395452 -0.19969022 -0.083223164 -0.09140995 0.046888012 0.038940616
-0.063410066 0.065802686 -0.055990763 -0.076249264 0.073041566 -0.06251625 0.108942665 0.016158303
0.0037544593 0.042399112 0.11848967 0.110104196 0.13927345 -0.04775038 0.2396148 -0.10094793
-0.038485292 -0.024152337 -0.11170598 -0.061047878 -0.07669328 -0.047056798 -0.1289807 0.06727335
0.08122399 0.05208853 0.093129106 -0.04051075 0.02097974 -0.045453753 -0.14336944 0.013073287
-0.0047110463 -0.10104696 0.0323241 0.08914675 0.037504993 -0.01035545 0.12820485 -0.027422875
-0.09940947 -0.02704403 -0.08334406 -0.109617606 -0.099315904 -0.14278232 -0.01805131 -0.13605618
0.15234226 0.016330443 0.04839584 0.048279263 -0.13201226 0.07188731 -0.072735876 -0.1566604
-0.07326491 0.011014366 -0.06415798 0.12183772 -0.09113068 -0.05673492 0.04118334 -0.050869294
-0.11778537 -0.13769965 -0.07611372 0.067131184 -0.115175255 0.13564445 0.029045215 -0.06338128
0.081631556 -0.102370635 -0.07373192 -0.09146384 -0.138272 -0.07457656 -0.12712504 0.051679675
0.13379684 -0.08231875 -0.13682446 0.09976107 -0.07437542 -0.05531174 -0.095427416 -0.083409764
-0.09533866 -0.058329538 0.015932908 0.03226333 0.06685883 0.11149648 0.06667166 -0.051886786
0.053590428 0.12119443 -0.03237554 -0.025048176 0.039972544 -0.033050027 -0.021481913 0.023332378
0.13425417 -0.011567978 -0.12669374 0.01606321 -0.116855904 0.12625802 0.16787337 -0.037947845
-0.028471999 0.16083927 -0.097591706 -0.022186637 -0.07342835 0.108249694 -0.109757595 -0.1374912
0.11939589 0.088767596 -0.11206819 0.16939048 -0.05849803 -0.028832244 -0.065251455 0.035981506
0.1034578 0.1742481 0.10016621 0.02338898 0.10752898 -0.041169863 0.037548646 0.08628825
0.11865558 0.08050426 0.055892527 -0.13598011 -0.06850873 0.058966387 0.028565645 0.15819569
0.021395495 0.012925289 -0.01970702 0.087739855 0.08750323 -0.081203476 -0.12616138 -0.052997306
-0.04387645 0.07687415 -0.06752353 0.14278105 0.08066938 -0.12541018 0.113408074 -0.02844176
-0.08875604 -0.044419575 0.12329386 -0.10987592 -0.12184315 0.026270587 0.050794754 0.029978579
-0.04704987 0.1508825 -0.014206819 0.0012643272 -0.020204253 -0.076321006 0.029906182 0.14223161
0.15423198 0.08698455 0.21294121 -0.0076159635 0.1383612 0.03437725 0.03334023 0.016146474
0.1718875 0.050838016 0.025832906 0.107313074 0.06445493 -0.11110944 0.07085404 0.0663633
-0.20894487 0.12547642 0.13750081 0.13405505 -0.114515305 0.14449929 0.010502932 -0.03501957
-0.1253844 -0.07226648 0.091006875 -0.121333584 0.25962877 0.042225372 0.032764886 -0.095808946
0.1276 0.085966304 -0.13155042 -0.05750228 0.020288246 0.044738397 0.029695524 -0.13137019
00000000: ffff 853d dcd1 643a 8d02 e03d 734c 63bd
00000010: 6755 a93d 9ce1 9d3d 6e45 9cbd 7823 b33c
00000020: 1994 c53b ccb6 bbbd b406 0ebe d832 87bd
00000030: 7c00 04bc 913e 43bc efe6 10bd f028 ab3d
00000040: 7a46 17be bec2 a53d c8f1 8abd 233b e63d
00000050: a2b1 643d 8b25 263e b813 b3bd d6d9 c13d
00000060: 31aa 9c3c 268f 8bbc 7e97 04bc 34be 5bbe
00000070: 321b 53be 390b 95bd 3b08 63bd e018 7bbd
00000080: 13d2 323e 830e 953d 2221 32be 987b 4cbe
00000090: e870 aabd 2435 bbbd a50d 403d 3280 1f3d
000000a0: 23dd 81bd 8fc3 863d 9256 65bd 9328 9cbd
000000b0: d196 953d 8508 80bd 551d df3d 6b5e 843c
000000c0: 600d 763b b1aa 2d3d b6aa f23d 4f7e e13d
000000d0: b39d 0e3e e795 43bd 955d 753e cabd cebd
000000e0: c1a2 1dbd 1fdb c5bc 1bc6 e4bd 570d 7abd
000000f0: 5e11 9dbd a1be 40bd 8413 04be 9cc6 893d
00000100: c358 a63d c85a 553d 79ba be3d 9aee 25bd
00000110: b4dd ab3c b72d 3abd 70cf 12be 5731 563c
00000120: 1f5f 9abb b5f1 cebd 4766 043d 9292 b63d
00000130: d69e 193d e8a9 29bc 2248 033e f0a5 e0bc
00000140: 3197 cbbd 718b ddbc 4ab0 aabd 327f e0bd
00000150: 2366 cbbd 8735 12be 57e0 93bc 5052 0bbe
00000160: 9cff 1b3e 6cc7 853c b73a 463d 7ac0 453d
00000170: 392e 07be a739 933d 8cf6 94bd 956b 20be
00000180: ea0b 96bd 9975 343c 4265 83bd 0e86 f93d
00000190: b9a2 babd e062 68bd ddaf 283d 525c 50bd
000001a0: 7539 f1bd 2301 0dbe 83e1 9bbd 137c 893d
000001b0: 01e1 ebbd 61e6 0a3e 3bf0 ed3c 0bce 81bd
000001c0: 722e a73d b2a7 d1bd c300 97bd 6551 bbbd
000001d0: 2d97 0dbe 98bb 98bd 112d 02be 11ae 533d
000001e0: 0a02 093e bc96 a8bd b61b 0cbe 884f cc3d
000001f0: 2452 98bd 908e 62bd 736f c3bd bdd2 aabd
00000200: ea40 c3bd f4ea 6ebd bb85 823c 8e26 043d
00000210: 48ed 883d 4458 e43d 278b 883d 3d87 54bd
00000220: a381 5b3d c934 f83d 379c 04bd d531 cdbc
00000230: 40ba 233d 775f 07bd d6fa afbc 8b23 bf3c
00000240: ed79 093e 9e87 3dbc 01bc 01be fe96 833c
00000250: 2652 efbd c849 013e ffe6 2b3e 336f 1bbd
00000260: 1c3e e9bc 0db3 243e 29de c7bd c0c0 b5bc
00000270: 9a61 96bd 04b2 dd3d 97c8 e0bd 7eca 0cbe
00000280: d585 f43d c9cb b53d 0284 e5bd b374 2d3e
00000290: a19b 6fbd 9931 ecbc 8ea2 85bd 5861 133d
000002a0: afe1 d33d 186e 323e f123 cd3d 3f9a bf3c
000002b0: 2738 dc3d bba1 28bd 9ccc 193d e5b7 b03d
000002c0: b201 f33d 6bdf a43d 90ef 643d 5f3e 0bbe
000002d0: 4e4e 8cbd bd86 713d 8002 ea3c 0dfe 213e
000002e0: 9b45 af3c 97c4 533c 9e70 a1bc f4b0 b33d
000002f0: e534 b33d 024e a6bd 7330 01be b413 59bd
00000300: cbb7 33bd 3270 9d3d c749 8abd 3235 123e
00000310: fd35 a53d 876b 00be 7e42 e83d b2fe e8bc
00000320: bac5 b5bd 4df1 35bd 7e81 fc3d a006 e1bd
00000330: e788 f9bd 6a35 d73c 290e 503d a395 f53c
00000340: 5db7 40bd f180 1a3e b8c3 68bc c8b7 a53a
00000350: 6483 a5bc 304e 9cbd cffd f43c 2aa5 113e
00000360: fdee 1d3e f524 b23d 430d 5a3e 558f f9bb
00000370: 8fae 0d3e 29cf 0c3d c48f 083d 9c45 843c
00000380: 4703 303e 863b 503d 889f d33c f5c6 db3d
00000390: f200 843d 598d e3bd ec1b 913d 7be9 873d
000003a0: a5f5 55be e47c 003e 03cd 0c3e ba45 093e
000003b0: 0087 eabd 9ff7 133e 7d14 2c3c ae70 0fbd
000003c0: c564 00be 7300 94bd d061 ba3d be7d f8bd
000003d0: 10ee 843e 83f4 2c3d 7934 063d 7b37 c4bd
000003e0: 93a9 023e 1a0f b03d 27b5 06be 8387 6bbd
000003f0: 8933 a63c 9c3f 373d 0744 f33c e885 06be

fc2.bias f4 [50]
0.018210003 0.09735939 -0.08899742 -0.086558275 -0.018998163 -0.06767766 0.12572658 -0.13577546
0.050406724 -0.122758456 -0.14647247 0.07236693 0.0113347145 0.0070683034 0.1459225 -0.04292728
-0.06987108 -0.015877059 -0.048468433 0.1438143 -0.061147045 0.11868581 -0.028204195 -0.025519859
0.04725975 -0.0411136 -0.11800572 -0.034120433 0.13916428 -0.11560079 -0.10013893 -0.04247291
0.113133125 0.049797606 0.1387246 0.06880268 -0.08652363 -0.14850979 0.05580834 -0.031770848
0.026993163 0.08888988 -0.014952392 -0.115179025 -0.10410174 0.06364675 -0.12515192 -0.13283788
0.09701467 -0.10962156
00000000: 252d 953c 5c64 c73d 4844 b6bd 7745 b1bd
00000010: 09a2 9bbc 969a 8abd 78be 003e b908 0bbe
00000020: 4877 4e3d c968 fbbd e1fc 15be 1d35 943d
00000030: 3db5 393c 3a9d e73b b56c 153e 84d4 2fbd
00000040: 9218 8fbd 9b10 82bc d686 46bd 0e44 133e
00000050: 5375 7abd 8c11 f33d 7c0c e7bc 060f d1bc
00000060: 7193 413d bc66 28bd fcac f1bd dec1 0bbd
00000070: 1581 0e3e 1bc0 ecbd a415 cdbd 13f8 2dbd
00000080: 57b2 e73d 93f8 4b3d d20d 0e3e 6be8 8c3d
00000090: 4d33 b1bd f312 18be 4997 643d 2622 02bd
000000a0: c420 dd3c e60b b63d e1fa 74bc fbe2 ebbd
000000b0: 4b33 d5bd 3a59 823d d327 00be a706 08be
000000c0: a1af c63d 4581 e0bd

fc3.weight f4 [50, 50]
-0.090520285 -0.13624342 0.004402997 -0.039239723 0.03599942 -0.015754357 -0.01970771 -0.079090774
0.12071563 -0.12894142 0.10050377 -0.026232013 -0.08860897 0.13780013 -0.090671964 0.08072248
0.082645126 -0.062734686 0.07031841 -0.09277374 0.074062906 -0.08066524 0.09483752 0.111644804
0.027359711 0.041609123 -0.10440683 -0.07181314 0.066446684 -0.017069742 -0.01088213 -0.0040236083
0.06028301 0.023546299 0.13257052 -0.1442617 0.061501566 0.09207292 -0.020032706 0.14707816
-0.08271668 0.028520774 0.039177082 -0.04987437 0.05517915 0.08484124 0.06494711 -0.04973384
0.028447308 -0.026921367 -0.035320163 0.091779135 -0.13849653 -0.010278359 0.05899658 -0.028717903
0.052216664 -0.04197157 0.14140442 0.038364287 0.046452496 0.10746093 0.038852427 0.05470089
0.006653509 -0.07195227 -0.027328342 -0.01770505 0.11042567 0.052638527 0.026183594 0.1536953
0.06803634 -0.006917861 -0.019735185 0.13385572 0.03433783 0.19200043 0.07249363 0.06188629
-0.07936921 0.051455192 0.04034322 -0.077721156 0.12089072 0.16058849 -0.067323424 -0.031258795
-0.105318405 0.18437584 -0.08803094 0.06717519 0.047462277 -0.06470232 0.032403335 -0.13282302
0.024180137 0.019485854 -0.01825972 0.074679025 -0.09526206 -0.006900687 0.13278915 -0.065846555
0.09926386 -0.008356287 -0.0048274724 -0.035049554 -0.06378946 -0.08553196 -0.050505854 0.04014667
0.03624271 -0.051183257 -0.0782594 0.13202545 0.12142952 0.051501255 -0.056482792 -0.07118952
-0.044325836 0.023701474 -0.068834744 -0.07308848 0.01030424 0.17757048 -0.052759748 0.09771013
0.14108397 -0.10015675 0.036418453 0.074238166 0.0458933 -0.040427577 0.002053319 0.20904194
-0.032241844 0.08909036 -0.16244397 -0.10467001 0.17133917 -0.11608098 0.07649878 -0.11143851
0.1844795 -0.061261043 0.083745286 -0.097302176 -0.071236946 0.034325913 -0.08589119 0.113872476
0.07229392 0.05372683 -0.10263397 -0.11303118 0.030988041 -0.0742214 -0.1401051 -0.0802372
-0.08181188 0.042779002 0.13005705 0.14747997 -0.0876816 0.16506442 -0.079832725 0.1432639
-0.09371024 0.13842195 0.15949634 0.06413613 -0.027423343 -0.061258707 0.036250126 0.029197248
-0.05301546 0.1276787 0.096697584 0.11619693 -0.066746496 -0.042118974 0.075329974 0.06480852
0.037217874 -0.061431423 -0.007031171 0.059739135 0.10039558 0.04525542 -0.16942197 -0.029479126
0.09445391 0.036493145 -0.10428501 -0.080121264 0.06414993 0.058176048 -0.101738945 0.06497572
0.017515337 -0.056484535 -0.08135729 -0.09341952 0.05153777 -0.09652802 0.0024294541 -0.05699711
0.0563556 -0.107548244 -0.057516005 -0.10867697 -0.12198181 0.03584517 0.01810943 0.01687295
0.04578321 0.071914345 0.093707 0.01222967 0.07878936 0.027001275 0.11799216 0.08231
-0.12933546 -0.03667727 -0.1018955 -0.006927888 -0.122333206 -0.13686244 -0.02468835 0.111656204
-0.12084582 -0.052033946 0.12157583 -0.08816687 0.12755753 0.08399046 0.10540396 0.09029199
-0.008403846 0.098301396 -0.058952603 -0.007486009 -0.07404207 0.036476802 0.02792212 0.04222305
0.114271425 -0.10707556 -0.07502238 -0.0017586532 -0.07758944 0.018781139 0.019057898 0.039253436
00000000: b362 b9bd 6583 0bbe 0447 903b d5b9 20bd
00000010: 2174 133d 480f 81bc 1072 a1bc 58fa a1bd
00000020: c239 f73d 3809 04be ecd4 cd3d 85e4 d6bc
00000030: 9f78 b5bd 7a1b 0d3e 39b2 b9bd d451 a53d
00000040: d941 a93d 0b7b 80bd 1903 903d 2900 bebd
00000050: 4bae 973d d133 a5bd 2c3a c23d 08a6 e43d
00000060: 7921 e03c 546e 2a3d 40d3 d5bd c412 93bd
00000070: 3315 883d d8d5 8bbc f64a 32bc 79d8 83bb
00000080: 51eb 763d 2be4 c03c 91c0 073e 57b9 13be
00000090: 11e9 7b3d ba90 bc3d a11b a4bc a89b 163e
000000a0: 5d67 a9bd 66a4 e93c 2678 203d 1149 4cbd
000000b0: 8803 623d 3ec1 ad3d fe02 853d b6b5 4bbd
000000c0: 540a e93c 338a dcbc e0ab 10bd b3f6 bb3d
000000d0: 09d2 0dbe 9066 28bc 66a6 713d cf41 ebbc
000000e0: 24e1 553d 62ea 2bbd 52cc 103e df23 1d3d
000000f0: f944 3e3d 7a14 dc3d b923 1f3d 0a0e 603d
00000100: ae05 da3b b65b 93bd b0df dfbc 2e0a 91bc
00000110: db26 e23d 7f9b 573d fa7e d63c 4d62 1d3e
00000120: a356 8b3d 39af e2bb afab a1bc 7911 093e
00000130: d3a5 0c3d c39b 443e 8a77 943d 7a7c 7d3d
00000140: 538c a2bd aec2 523d ef3e 253d 452c 9fbd
00000150: 8e95 f73d 4f71 243e dde0 89bd 3909 00bd
00000160: 2db1 d7bd 05cd 3c3e 9149 b4bd 2593 893d
00000170: ce67 423d a682 84bd 5cb9 043d c202 08be
00000180: 6c15 c63c cca0 9f3c 6995 95bc 51f1 983d
00000190: c118 c3bd 281f e2bb e1f9 073e 8fda 86bd
000001a0: da4a cb3d cfe8 08bc c62f 9ebb 1f90 0fbd
000001b0: 0ca4 82bd 612b afbd 3adf 4ebd d670 243d
000001c0: 3c73 143d 89a5 51bd 7746 a0bd ae31 073e
000001d0: 0ab0 f83d fbf2 523d 805a 67bd d0cb 91bd
000001e0: 028f 35bd 9829 c23c 3bf9 8cbd 6aaf 95bd
000001f0: 1dd3 283c 09d5 353e 9b1a 58bd 401c c83d
00000200: 5178 103e fb1e cdbd 842b 153d 2e0a 983d
00000210: 9dfa 3b3d 6397 25bd fa90 063b 170f 563e
00000220: 0610 04bd 0275 b63d b657 26be 3b5d d6bd
00000230: 8973 2f3e ddbb edbd 64ab 9c3d e039 e4bd
00000240: 32e8 3c3e dcec 7abd a682 ab3d 5d46 c7bd
00000250: ade4 91bd 5499 0c3d b8e7 afbd f935 e93d
00000260: d60e 943d aa10 5c3d c231 d2bd e47c e7bd
00000270: a2da fd3c 6401 98bd b677 0fbe 6753 a4bd
00000280: fd8c a7bd 0939 2f3d ad2d 053e fd04 173e
00000290: 6992 b3bd a606 293e 577f a3bd c6b3 123e
000002a0: 28eb bfbd 7cbe 0d3e 0253 233e ce59 833d
000002b0: eba6 e0bc 69ea 7abd 037b 143d 112f ef3c
000002c0: bd26 59bd 35be 023e 6209 c63d a8f8 ed3d
000002d0: 63b2 88bd f284 2cbd 9a46 9a3d 54ba 843d
000002e0: c571 183d 849f 7bbd bd65 e6bb 06b1 743d
000002f0: 339c cd3d bf5d 393d f47c 2dbe 357e f1bc
00000300: 0d71 c13d d679 153d 6193 d5bd 9e16 a4bd
00000310: 0a61 833d 024a 6e3d 825c d0bd fe11 853d
00000320: 537c 8f3c 545c 67bd a79e a6bd bc52 bfbd
00000330: 4519 533d 7cb0 c5bd 7a37 1f3b cd75 69bd
00000340: 21d5 663d 4142 dcbd e795 6bbd 0892 debd
00000350: 99d1 f9bd 63d2 123d 3a5a 943c 2439 8a3c
00000360: 2d87 3b3d d447 933d 75e9 bf3d f45e 483c
00000370: 515c a13d c731 dd3c e0a5 f13d 2592 a83d
00000380: 8470 04be e83a 16bd 97ae d0bd 5603 e3bb
00000390: d589 fabd ab25 0cbe 393f cabc 02ac e43d
000003a0: 037e f7bd 8c21 55bd c0fc f83d d590 b4bd
000003b0: 719e 023e 3103 ac3d 08de d73d 02eb b83d
000003c0: 49b0 09bc 3e52 c93d 4978 71bd 324d f5bb
000003d0: 5ea3 97bd b368 153d eebc e43c 14f2 2c3d
000003e0: 2307 ea3d 6e4a dbbd 55a5 99bd 9c82 e6ba
000003f0: 36e7 9ebd e7da 993c 4f1f 9c3c 36c8 203d

fc3.bias f4 [50]
0.05641628 0.056855924 0.054637313 0.0060206773 0.15532735 0.01761584 0.19346897 -0.005811761
0.047680903 0.10850494 -0.03463498 0.02169442 0.029133033 -0.10161535 -0.047965426 0.09872038
0.05906036 0.09471402 0.07686262 0.16195017 0.1389257 0.09819296 0.11875739 0.011387644
0.14386635 0.07708643 -0.019894533 0.026712943 0.076433316 0.02785802 0.1206751 0.120441675
0.14038429 -0.0073789707 -0.114219464 0.103874266 0.067299396 -0.024365747 0.10606598 0.12074462
0.045584258 -0.079233676 0.045421798 0.13578251 -0.0075674662 -0.11022724 -0.049000576 0.021545315
0.06214437 0.12941903
00000000: c214 673d c2e1 683d 60cb 5f3d 1a49 c53b
00000010: 220e 1f3e 184f 903c bb1c 463e 9670 bebb
00000020: 0d4d 433d d737 de3d 69dd 0dbd 7fb8 b13c
00000030: 66a8 ee3c b51b d0bd 6577 44bd e92d ca3d
00000040: 47e9 713d 6df9 c13d 266a 9d3d 44d6 253e
00000050: 8a42 0e3e 6419 c93d 1337 f33d 3e93 3a3c
00000060: b351 133e 7ddf 9d3d dcf9 a2bc 1ad5 da3c
00000070: 1289 9c3d 8136 e43c 8224 f73d 20aa f63d
00000080: e6c0 0f3e 4bcb f1bb e5eb e9bd 08bc d43d
00000090: 44d4 893d ad9a c7bc 1f39 d93d f548 f73d
000000a0: 8fb6 3a3d 4445 a2bd 350c 3a3d 920a 0b3e
000000b0: 82f8 f7bb d2be e1bd d4b4 48bd cd7f b03c
000000c0: 188b 7e3d 6c86 043e

fc1.weight f4 [50, 7]
-0.30556872 0.35889104 0.37795112 0.15490311 -0.37625626 0.067214556 -0.23357718 -0.2550495
-0.123164445 -0.3137766 -0.33996582 -0.123829596 -0.10448379 -0.31920677 -0.11071071 -0.17927007
-0.030731836 0.2694991 0.33473033 0.031623907 -0.16466035 -0.08397962 0.30868655 -0.3657266
0.08001814 -0.09437122 0.00067339075 -0.111703254 -0.26433796 -0.2717675 -0.17143081 -0.3601857
0.3423135 -0.057821594 0.20708907 0.30147368 0.22396204 0.111103535 0.32741258 0.09090099
-0.040148813 0.13114238 -0.05112414 -0.1338678 0.030794308 0.35120097 0.17169112 0.18159725
0.16988413 -0.23909205 0.26169112 0.16502579 -0.08643195 0.010185161 0.16297464 -0.09017389
0.015024985 0.14401823 -0.2972906 0.1426459 0.12884153 0.248556 -0.30600974 -0.27047712
0.20249106 0.36382502 0.33563143 0.094807886 -0.073704585 0.0495742 -0.26676953 -0.07098091
0.11288702 -0.24029084 -0.35039353 0.16329248 -0.05416323 -0.3621249 -0.08200546 0.27457896
0.26342788 -0.025232047 -0.16819382 -0.24668209 0.31246305 -0.22260098 -0.036417603 -0.21364272
-0.19351202 -0.33626792 0.24512216 -0.3295295 -0.017013425 0.18026386 0.17958677 -0.35117912
-0.12660809 -0.28400373 -0.27316743 0.34320283 0.23592046 -0.039667524 -0.13837872 -0.33168414
0.33157584 0.33357123 -0.1638094 -0.04744966 -0.1881633 0.22605342 -0.1616872 -0.17380641
-0.34614775 -0.3155931 0.04660552 0.3320012 -0.24749027 0.29154506 0.18138573 -0.065450214
-0.23791856 0.21314715 0.27782014 0.35846132 0.32330325 0.0716519 -0.12798657 0.24691716
-0.083587445 -0.029625216 0.18657283 0.12084887 0.03680429 -0.3234371 0.28647318 -0.15870576
0.07881028 -0.12702568 -0.1761628 -0.061622232 -0.15622777 0.11755679 -0.01297275 0.3319846
-0.100729175 -0.13768174 -0.10176531 0.10106459 -0.2189455 0.12402472 0.017036272 -0.2955268
-0.010019986 -0.11099904 -0.37080604 -0.104371265 -0.2880556 0.2588832 0.23655114 -0.13628085
-0.024076357 0.3468537 0.16497089 -0.13635178 -0.3717509 -0.2360639 -0.024416499 -0.007656741
0.23878188 -0.018222034 0.19445612 0.20496677 -0.23115444 -0.09997417 0.047296356 0.32395402
0.14441419 -0.27905077 -0.070115186 0.11985197 0.124477774 0.2551567 -0.068456285 0.029127464
-0.1260968 0.24827796 0.005354729 -0.25035235 -0.1597874 -0.08576397 0.23683347 0.050995227
-0.25102678 -0.4123524 -0.34074092 0.26255286 0.14743851 -0.38388133 0.00047323984 0.20494738
0.030388827 -0.32386744 0.24344659 0.2824833 -0.3360616 -0.34471646 -0.3005418 0.14274444
-0.16529238 0.3325513 0.18982153 -0.32765454 -0.31900507 -0.1828432 -0.18614174 0.24938959
-0.05313352 -0.124036446 0.00013615454 0.33471757 0.3133709 -0.3941386 0.0519563 -0.29002526
-0.32526186 0.05090931 0.31674773 -0.057868622 -0.027239379 -0.10654019 0.018613622 -0.30044946
-0.20810641 -0.34656087 -0.18682836 -0.22704567 -0.29681525 0.09787841 -0.06604453 -0.34790087
-0.17020632 -0.070222415 -0.0100080175 0.3148466 0.37026954 0.078166954 -0.39086312 -0.07548494
0.09340983 0.13220248 -0.13786675 0.030082991 0.06459915 0.31122628 -0.2338645 -0.27659318
00000000: 8173 9cbe 91c0 b73e cf82 c13e ec9e 1e3e
00000010: a9a4 c0be c9a7 893d db2e 6fbe d995 82be
00000020: a43d fcbd 54a7 a0be 0010 aebe 5f9a fdbd
00000030: 99fb d5bd 126f a3be 4cbc e2bd 9392 37be
00000040: 55c1 fbbc c9fb 893e c661 ab3e 1288 013d
00000050: b99c 28be 82fd abbd 2a0c 9e3e 8440 bbbe
00000060: 8de0 a33d b345 c1bd 7d86 303a adc4 e4bd
00000070: 4e57 87be 1c25 8bbe 8f8b 2fbe 436a b8be
00000080: b743 af3e 56d6 6cbd 280f 543e c25a 9a3e
00000090: 4e56 653e 408a e33d 9fa2 a73e 4c2a ba3d
000000a0: 1573 24bd 304a 063e 8c67 51bd a414 09be
000000b0: 5844 fc3c 9dd0 b33e cccf 2f3e a1f4 393e
000000c0: 1bf6 2d3e 8cd4 74be 61fc 853e 85fc 283e
000000d0: 3c03 b1bd a9df 263c d3e2 263e 17ad b8bd
000000e0: 5b2b 763c 8479 133e 7936 98be c411 123e
000000f0: 09ef 033e 7785 7e3e 4fad 9cbe fa7b 8abe
00000100: d159 4f3e 4647 ba3e e2d7 ab3e a32a c23d
00000110: 6ef2 96bd 510e 4b3d 0496 88be 705e 91bd
00000120: 4f31 e73d cd0e 76be c866 b3be 2536 273e
00000130: 43da 5dbd 6f68 b9be 7bf2 a7bd 9d95 8c3e
00000140: 05e0 863e 70b3 cebc 003b 2cbe 3b9a 7cbe
00000150: 28fb 9f3e 83f1 63be a02a 15bd 28c5 5abe
00000160: 0428 46be 4f2b acbe 4e01 7b3e 17b8 a8be
00000170: bd5f 8bbc 1797 383e 98e5 373e c0cd b3be
00000180: 8da5 01be f068 91be 9adc 8bbe 48b8 af3e
00000190: 2295 713e 6a7a 22bd 27b3 0dbe 81d2 a9be
000001a0: 4fc4 a93e d9c9 aa3e a7bd 27be 935a 42bd
000001b0: e1ad 40be 8c7a 673e 5491 25be 4ffa 31be
000001c0: 473a b1be 6b95 a1be 6ee5 3e3d 10fc a93e
000001d0: 176e 7dbe 6545 953e 2ebd 393e c30a 86bd
000001e0: eca0 73be 3f43 5a3e 713e 8e3e 3e88 b73e
000001f0: 0188 a53e 3bbe 923d e90e 03be dad7 7c3e
00000200: e52f abbd 95b0 f2bc f30c 3f3e 9d7f f73d
00000210: 18c0 163d 8c99 a5be 9dac 923e c383 22be
00000220: 4967 a13d 0513 02be 0564 34be 9867 7cbd
00000230: 2cfa 1fbe 9dc1 f03d a88b 54bc e3f9 a93e
00000240: 194b cebd 71fc 0cbe 556a d0bd f4fa ce3d
00000250: 4033 60be ac00 fe3d a78f 8b3c 4a4f 97be
00000260: de2a 24bc 7753 e3bd 4ada bdbe 9ac0 d5bd
00000270: 067c 93be 578c 843e 763a 723e 358d 0bbe
00000280: c83b c5bc cf96 b13e 21ee 283e cd9f 0bbe
00000290: 2256 bebe bcba 71be 1c05 c8bc 66e5 fabb
000002a0: 3d83 743e 6046 95bc 811f 473e cfe2 513e
000002b0: c0b3 6cbe 42bf ccbd d3b9 413d 4ddd a53e
000002c0: 50e1 133e bedf 8ebe 8d98 8fbd f374 f53d
000002d0: 34ee fe3d e6a3 823e cf32 8cbd b89c ee3c
000002e0: 851f 01be 943c 7e3e b976 af3b 2f2e 80be
000002f0: 4f9f 23be 05a5 afbd 7984 723e 5fe0 503d
00000300: 9586 80be db1f d3be 9875 aebe 546d 863e
00000310: 1ffa 163e 188c c4be 2d1d f839 badd 513e
00000320: fdf1 f83c f4d1 a5be 104a 793e a7a1 903e
00000330: 4410 acbe ad7e b0be 9de0 99be 992b 123e
00000340: 6842 29be 2a44 aa3e 9360 423e 56c2 a7be
00000350: a254 a3be 3f3b 3bbe f19b 3ebe fc5f 7f3e
00000360: 89a2 59bd d206 febd b5c4 0e39 1a60 ab3e
00000370: 2772 a03e 89cc c9be 21d0 543d 317e 94be
00000380: b988 a6be 4886 503d c22c a23e a607 6dbd
00000390: 1e25 dfbc be31 dabd 987b 983c 83d4 99be
000003a0: d919 55be 6d70 b1be ef4f 3fbe a97e 68be
000003b0: 2bf8 97be 7a74 c83d 5b42 87bd 1020 b2be
000003c0: 914a 2ebe c5d0 8fbd abf8 23bc 9333 a13e
000003d0: f893 bd3e ff15 a03d 361f c8be d997 9abd
000003e0: a74d bf3d 1660 073e f12c 0dbe 9b70 f63c
000003f0: 8f4c 843d 0d59 9f3e 2d7a 6fbe 9f9d 8dbe

fc1.bias f4 [50]
-0.31575832 -0.20660828 -0.07536234 0.13625078 0.36599126 0.028358402 -0.086995654 0.35841435
-0.23801975 -0.013450858 -0.17982407 -0.2225916 0.11844996 0.15746489 0.08680477 -0.092967115
-0.2628102 0.3665253 0.09153085 -0.027190486 -0.07448958 0.038005542 0.28559655 -0.06503093
0.25569203 0.16124268 0.09655494 0.015753003 -0.016489075 -0.057997514 0.021500735 -0.08140825
-0.04408929 -0.14417478 0.26608384 -0.25809532 -0.19537209 -0.12085415 0.17565389 0.23810254
0.2736239 -0.13849807 0.014694843 0.05102924 -0.048876297 -0.26764348 0.031025415 -0.2893524
-0.20496024 0.10160908
00000000: 13ab a1be 1f91 53be 9257 9abd 5385 0b3e
00000010: 3563 bb3e e14f e83c c72a b2bd 1682 b73e
00000020: 73bb 73be fd60 5cbc cd23 38be 0def 63be
00000030: e595 f23d 7a3e 213e b3c6 b13d 8b65 bebd
00000040: 0f8f 86be 34a9 bb3e 8774 bb3d 95be debc
00000050: fe8d 98bd b3ab 1b3d b639 923e f02e 85bd
00000060: 11ea 823e cd1c 253e 99be c53d 710c 813c
00000070: 1914 87bc cd8e 6dbd 4f22 b03c 5eb9 a6bd
00000080: f996 34bd 8ea2 13be 243c 883e 1225 84be
00000090: 9f0f 48be 6182 f7bd 9dde 333e 27d1 733e
000000a0: 6f18 8c3e 70d2 0dbe a4c2 703c 0904 513d
000000b0: 8332 48bd 9108 89be 0329 fe3c ff25 94be
000000c0: 19e1 51be 6c18 d03d

fc2.weight f4 [50, 50]
0.048768394 -0.0042319335 0.101432756 -0.04621741 0.031952392 0.08146438 -0.07904978 0.010593246
0.013477919 -0.08483201 -0.07093555 -0.06584197 -0.0065310737 -0.016252203 -0.016107555 0.08368475
-0.14353508 0.06561962 -0.06642244 0.12021051 0.06908449 0.12869874 -0.07480764 0.09888699
0.028144866 -0.008939234 0.010015612 -0.15701781 -0.1814838 -0.06781356 -0.048897687 -0.06718984
0.12594715 0.07874799 -0.16733131 -0.16645585 -0.07843991 -0.08261871 0.040111385 0.05550796
-0.073857024 0.066551015 -0.07111101 -0.07580207 0.037988003 -0.05971239 0.10819009 0.021191243
0.0025972624 0.031017266 0.11882526 0.10441495 0.1180025 -0.050278734 0.20232116 -0.09051164
-0.039976332 -0.027603047 -0.09011237 -0.059181955 -0.05586238 -0.030687248 -0.1237731 0.09049196
0.078135096 0.045827508 0.10410989 -0.03230739 0.02606007 -0.03819046 -0.114736 0.02625344
0.02231956 -0.099312834 0.036302973 0.07966742 0.070671484 -0.021140005 0.12321266 -0.030445207
-0.09990286 -0.014069636 -0.06938946 -0.1042471 -0.10804716 -0.13075818 -0.018595923 -0.13545093
0.1393893 0.014934119 0.036756504 0.05145414 -0.12535444 0.070031084 -0.10658081 -0.13790683
-0.06976037 0.011460355 -0.050603412 0.11663867 -0.0927501 -0.05888557 0.043478344 -0.0446428
-0.111418545 -0.12563269 -0.06742304 0.06541022 -0.10793236 0.13353308 0.027659925 -0.060613766
0.08369328 -0.09541915 -0.069339044 -0.08196912 -0.13479955 -0.06997953 -0.12768105 0.054513797
0.121426955 -0.078604765 -0.12881969 0.09259574 -0.0651553 -0.053679805 -0.087202966 -0.07984302
-0.089308314 -0.05793202 0.012442249 0.025185483 0.067887425 0.11005998 0.057751656 -0.047613494
0.05168304 0.112076305 -0.033259008 -0.024044309 0.04228776 -0.03600324 -0.024955742 0.027924472
0.1287304 -0.01450279 -0.12712727 0.019402822 -0.11059351 0.11696186 0.12969437 -0.037953228
-0.027505862 0.14034057 -0.09455103 -0.018224962 -0.071593925 0.09885623 -0.11070236 -0.13009398
0.07885756 0.075041905 -0.103069045 0.12946351 -0.07557691 -0.034709346 -0.056101043 0.030422429
0.09096338 0.13725963 0.07335978 0.02668942 0.107939385 -0.040140487 0.03534315 0.07280442
0.09385763 0.08168008 0.06283856 -0.13563524 -0.06317155 0.033378158 -0.012550456 0.13151036
0.020259373 0.017231967 -0.021197097 0.088403426 0.0853237 -0.08268678 -0.10836071 -0.044860885
-0.04547958 0.078942224 -0.062101584 0.10958519 0.07352432 -0.115603164 0.10296385 -0.028471837
-0.10095309 -0.045191254 0.09939078 -0.10816901 -0.118808754 0.009075662 0.030723171 -0.007056552
-0.049713787 0.13334395 -0.027755935 0.018559378 -0.04118501 -0.05483513 0.042581327 0.11891987
0.14013456 0.07145704 0.1764667 0.0031986744 0.104896024 0.024716528 0.08548446 0.0010764042
0.153761 0.03102215 0.0085579045 0.096869364 0.05591749 -0.12740526 0.04251457 0.040323917
-0.16881484 0.116872646 0.11823133 0.12407662 -0.11709762 0.10245904 -0.0044041695 -0.04873884
-0.117846325 -0.0706747 0.07194114 -0.11129395 0.21817169 0.023988692 0.0044365027 -0.10746081
0.09957327 0.07609144 -0.12790138 -0.061265416 0.021783158 0.03683476 0.03365908 -0.12744942
00000000: 5ec1 473d 08ac 8abb fabb cf3d 784e 3dbd
00000010: 83e0 023d ccd6 a63d dae4 a1bd 4b8f 2d3c
00000020: 7dd2 5c3c 68bc adbd a846 91bd 28d8 86bd
00000030: 9e02 d6bb 5723 85bc fef3 83bc e962 ab3d
00000040: dcfa 12be 9463 863d 7d08 88bd ee30 f63d
00000050: 2b7c 8d3d 9ac9 033e bf34 99bd 4385 ca3d
00000060: 1090 e63c dd75 12bc 8518 243c 47c9 20be
00000070: e4d6 39be d6e1 8abd f148 48bd d49a 89bd
00000080: 4af8 003e a046 a13d e658 2bbe 6773 2abe
00000090: 1ba5 a0bd 0034 a9bd d64b 243d 515c 633d
000000a0: 5a42 97bd e64b 883d a6a2 91bd 1e3e 9bbd
000000b0: 4f99 1b3d fb94 74bd c492 dd3d 4299 ad3c
000000c0: d536 2a3b ec17 fe3c a85a f33d 81d7 d53d
000000d0: 4bab f13d 13f1 4dbd 472d 4f3e 2b5e b9bd
000000e0: 39be 23bd c91f e2bc d68c b8bd c768 72bd
000000f0: f3cf 64bd d363 fbbc c07c fdbd d953 b93d
00000100: 4b05 a03d a0b5 3b3d 9137 d53d c154 04bd
00000110: ee7b d53c 9a6d 1cbd b5fa eabd 7411 d73c
00000120: 83d7 b63c 8764 cbbd 6db2 143d ac28 a33d
00000130: 36bc 903d ce2d adbc eb56 fc3d 3a68 f9bc
00000140: df99 ccbd 5584 66bc 101c 8ebd 817f d5bd
00000150: d447 ddbd 79e5 05be 7a56 98bc a6b3 0abe
00000160: 12bc 0e3e 3cae 743c fd8d 163d 94c1 523d
00000170: ea5c 00be 756c 8f3d 0a47 dabd 7337 0dbe
00000180: 86de 8ebd 36c4 3b3c 8645 4fbd 41e0 ee3d
00000190: c4f3 bdbd ff31 71bd 5916 323d 5edb 36bd
000001a0: 682f e4bd dba5 00be 1715 8abd cbf5 853d
000001b0: a40b ddbd e5bc 083e 1197 e23c 2446 78bd
000001c0: 6267 ab3d 1e6b c3bd a101 8ebd 6ddf a7bd
000001d0: e508 0abe 6e51 8fbd d2be 02be dc49 5f3d
000001e0: b2ae f83d 89fb a0bd 4fe9 03be d6a2 bd3d
000001f0: 2470 85bd 5bdf 5bbd 7897 b2bd bd84 a3bd
00000200: 47e7 b6bd 204a 6dbd 93da 4b3c c951 ce3c
00000210: 9008 8b3d 2067 e13d 008d 6c3d 5e06 43bd
00000220: 98b1 533d 4388 e53d 993a 08bd 92f8 c4bc
00000230: ee35 2d3d 2278 13bd fc6f ccbc ddc1 e43c
00000240: e7d1 033e 1c9d 6dbc a72d 02be abf2 9e3c
00000250: da7e e2bd b389 ef3d 9ace 043e d874 1bbd
00000260: f953 e1bc 70b5 0f3e f8a3 c1bd 844c 95bc
00000270: d69f 92bd 2375 ca3d ebb7 e2bd 5b37 05be
00000280: 1380 a13d 92af 993d dd15 d3bd 1592 043e
00000290: 11c8 9abd 632b 0ebd 35ca 65bd 7538 f93c
000002a0: 024b ba3d ca8d 0c3e a73d 963d c5a3 da3c
000002b0: 530f dd3d 5a6a 24bd fbc3 103d 7c1a 953d
000002c0: 6e38 c03d e347 a73d 81b1 803d f7e3 0abe
000002d0: 1660 81bd 89b7 083d 6ea0 4dbc a7aa 063e
000002e0: fcf6 a53c 0e2a 8d3c 89a5 adbc db0c b53d
000002f0: 31be ae3d b057 a9bd 38ec ddbd 0cc0 37bd
00000300: cc48 3abd 76ac a13d 3b5e 7ebd 336e e03d
00000310: eb93 963d 5ac1 ecbd b6de d23d c53d e9bc
00000320: 7ec0 cebd 771a 39bd 658d cb3d b787 ddbd
00000330: 0152 f3bd 16b2 143c 29af fb3c a63a e7bb
00000340: afa0 4bbd 518b 083e 6a60 e3bc d609 983c
00000350: 9db1 28bd cd9a 60bd c269 2e3d 438c f33d
00000360: 6f7f 0f3e 1258 923d b0b3 343e daa0 513b
00000370: bad3 d63d 517a ca3c 7a12 af3d 2216 8d3a
00000380: 8673 1d3e 2a22 fe3c 7436 0c3c 7263 c63d
00000390: bd09 653d 8676 02be c223 2e3d b12a 253d
000003a0: ccdd 2cbe ed5a ef3d 4423 f23d e21b fe3d
000003b0: e1d0 efbd 0cd6 d13d da50 90bb 61a2 47bd
000003c0: 6a59 f1bd e6bd 90bd e055 933d 15ee e3bd
000003d0: 6668 5f3e ef83 c43c 1560 913b 6a14 dcbd
000003e0: 12ed cb3d d4d5 9b3d 94f8 02be 72f1 7abd
000003f0: 9872 b23c 0ce0 163d 1ade 093d 1a82 02be

fc2.bias f4 [50]
0.020460559 0.09244828 -0.091227256 -0.082058825 -0.051950026 -0.05743242 0.1170563 -0.12331543
0.039201293 -0.12382172 -0.12199291 0.07383018 0.006891022 -0.004912216 0.14420041 -0.042221315
-0.06758517 -0.012757182 -0.044702265 0.123413704 -0.061369583 0.0963742 -0.03575891 -0.022744616
0.04538349 -0.03927263 -0.10349912 -0.037376802 0.12388199 -0.11350941 -0.09878813 -0.038940664
0.096794166 0.048192784 0.11883791 0.066791825 -0.0800433 -0.13306549 0.048702132 -0.03240172
0.024653625 0.085415125 -0.01411715 -0.11233529 -0.10189168 0.061351504 -0.12278329 -0.12415652
0.08478316 -0.09920014
00000000: e79c a73c 8655 bd3d 5bd5 babd 750e a8bd
00000010: 8dc9 54bd 423e 6bbd 37bb ef3d cd8c fcbd
00000020: 8991 203d 3e96 fdbd 6bd7 f9bd 4734 973d
00000030: 15ce e13b a8f6 a0bb 46a9 133e 42f0 2cbd
00000040: 186a 8abd 8003 51bc b919 37bd 53c0 fc3d
00000050: ac5e 7bbd d65f c53d ef77 12bd eb52 babc
00000060: 0ae4 393d 56dc 20bd 59f7 d3bd 6b18 19bd
00000070: d7b5 fd3d 9f77 e8bd 6e51 cabd 3f80 1fbd
00000080: 053c c63d cc65 453d 4a61 f33d 27ca 883d
00000090: beed a3bd 5242 08be e37b 473d aab7 04bd
000000a0: 66f6 c93c 20ee ae3d 9e4b 67bc 0b10 e6bd
000000b0: 96ac d0bd b74b 7b3d ce75 fbbd c645 febd
000000c0: cba2 ad3d 7129 cbbd

fc3.weight f4 [50, 50]
-0.09320623 -0.12533547 0.006008252 -0.052614216 0.033846796 -0.012802352 -0.026143378 -0.06922816
0.11875925 -0.1263003 0.08799321 -0.03747624 -0.0868156 0.12851268 -0.081050605 0.06995866
0.07638045 -0.07182939 0.070106246 -0.09169283 0.068979315 -0.093486525 0.094576545 0.10803385
0.01997891 0.050079517 -0.094432816 -0.07791147 0.062015135 -0.014749726 -0.0063282284 -0.005396247
0.047686428 0.019064296 0.1325604 -0.13384259 0.047485195 0.09453151 -0.033099093 0.13183782
-0.08445688 0.03185994 0.040125243 -0.05570295 0.048053484 0.076175585 0.061023533 -0.045098558
0.008261658 -0.020606078 -0.026792431 0.08246404 -0.12878096 -0.022618487 0.050402224 -0.023744881
0.03620414 -0.045826305 0.13929233 0.035192676 0.03517714 0.091678895 0.03916937 0.03838463
0.007320562 -0.08353013 -0.042739127 -0.035626777 0.101512365 0.039015736 0.019271715 0.12722318
0.049614083 -0.01493435 -0.02510494 0.1127141 0.025964694 0.17147043 0.044949636 0.06132588
-0.07041528 0.08718946 0.02392251 -0.07905553 0.10903084 0.13289686 -0.08279914 -0.039190527
-0.102744475 0.15532444 -0.10319961 0.0797949 0.051749818 -0.078810684 0.017319515 -0.12192121
0.017662616 0.020007845 -0.027388152 0.075298786 -0.09940862 -0.0017304518 0.12332743 -0.08331748
0.06609745 -0.004431802 -0.0071242373 0.00083242904 -0.0892173 -0.08504936 -0.06683443 0.025767572
0.033773396 -0.055472367 -0.072622016 0.11164345 0.10600858 0.046318695 -0.061764628 -0.07964681
-0.047491975 0.03216319 -0.069705725 -0.07300342 0.0034557623 0.16356176 -0.05375732 0.092318445
0.12945633 -0.0930135 0.014055348 0.07783267 0.020270748 -0.043234374 -0.0016777462 0.17153285
-0.04948622 0.07690039 -0.14095135 -0.09731447 0.14486529 -0.10820073 0.07495457 -0.10998907
0.16397199 -0.07283423 0.07764102 -0.09060939 -0.10077473 0.027878106 -0.08239376 0.109455116
0.06526034 -0.0021070936 -0.10275747 -0.10274176 0.020257073 -0.083430514 -0.13859051 -0.082577385
-0.053038225 0.046926867 0.123892464 0.08930033 -0.09449911 0.1525808 -0.06796351 0.12767574
-0.064475864 0.13830408 0.15763777 0.05206401 0.0005988047 -0.06283542 0.020763148 0.021092772
-0.056940034 0.13018362 0.07170156 0.10526456 -0.071286164 -0.03273107 0.06531986 0.06344713
0.024651093 -0.062374353 -0.005167867 0.03006583 0.11541494 0.032027524 -0.1264699 -0.024456093
0.086318985 0.026668854 -0.09533804 -0.08903816 0.06475839 0.08706003 -0.104466155 0.06819683
0.019755939 -0.05592486 -0.08368677 -0.08582028 0.04563958 -0.09721336 -0.003783154 -0.03799577
0.049853276 -0.1045447 -0.043568168 -0.1018362 -0.11620297 0.02724555 0.0183431 0.018564776
0.04902278 0.06800588 0.09608426 0.01458107 0.07534642 0.030579168 0.115223974 0.084532954
-0.119551 -0.04178882 -0.0939329 -0.007719496 -0.11200925 -0.12884146 -0.017384669 0.10821493
-0.11376792 -0.045363292 0.11215754 -0.08300387 0.11612658 0.092414014 0.12840071 0.08885221
-0.0063952343 0.09258809 -0.06218915 -0.0030157012 -0.07407072 0.0335461 0.02358147 0.038184114
0.106250614 -0.10616325 -0.07826917 -0.0011742064 -0.07478249 -0.00837795 -0.0008203427 0.038736857
00000000: e8e2 bebd f157 00be dfe0 c43b 0182 57bd
00000010: f0a2 0a3d f5c0 51bc a32a d6bc 7ec7 8dbd
00000020: 0d38 f33d de54 01be c935 b43d b080 19bd
00000030: 61cc b1bd d498 033e dcfd a5bd 7c46 8f3d
00000040: 5a6d 9c3d 4a1b 93bd dd93 8f3d 73c9 bbbd
00000050: 0745 8d3d dd75 bfbd 59b1 c13d da40 dd3d
00000060: d0aa a33c 2e20 4d3d fe65 c1bd 0c90 9fbd
00000070: 9503 7e3d d6a8 71bc 075d cfbb 00d3 b0bb
00000080: d852 433d ba2c 9c3c eabd 073e 080e 09be
00000090: d67f 423d bc99 c13d ea92 07bd 7e00 073e
000000a0: bbf7 acbd 927f 023d 5e5a 243d c728 64bd
000000b0: bbd3 443d f201 9c3d d0f3 793d 44b9 38bd
000000c0: e85b 073c 14ce a8bc cd7b dbbc e8e2 a83d
000000d0: 28df 03be 684a b9bc 9072 4e3d a084 c2bc
000000e0: cb4a 143d 5db4 3bbd a6a2 0e3e 3226 103d
000000f0: e815 103d 25c2 bb3d 1070 203d 3439 1d3d
00000100: 53e1 ef3b d811 abbd 390f 2fbd 62ed 11bd
00000110: b7e5 cf3d f7ce 1f3d b7df 9d3c cb46 023e
00000120: 2338 4b3d 34af 74bc e0a8 cdbc a6d6 e63d
00000130: e9b3 d43c f295 2f3e 1c1d 383d d930 7b3d
00000140: e335 90bd 6390 b23d 24f9 c33c dee7 a1bd
00000150: 904b df3d 1d16 083e 9892 a9bd 3f86 20bd
00000160: b26b d2bd 5f0d 1f3e 515a d3bd 826b a33d
00000170: 9ef7 533d 7f67 a1bd a8e1 8d3c d4b1 f9bd
00000180: 31b1 903c 7ee7 a33c 1e5d e0bc 4036 9a3d
00000190: bf96 cbbd 54d0 e2ba 1793 fc3d 5ba2 aabd
000001a0: 1a5e 873d a638 91bb 6f72 e9bb 5e37 5a3a
000001b0: 8fb7 b6bd 5c2e aebd 7de0 88bd 8416 d33c
000001c0: f955 0a3d fe36 63bd daba 94bd 52a5 e43d
000001d0: 071b d93d acb8 3d3d e8fc 7cbd de1d a3bd
000001e0: f286 42bd 8dbd 033d e0c1 8ebd d182 95bd
000001f0: 127a 623b bc7c 273e a330 5cbd 7411 bd3d
00000200: 3390 043e dd7d bebd 6748 663c bc66 9f3d
00000210: d70e a63c 8716 31bd d2e7 dbba 4fa6 2f3e
00000220: 10b2 4abd f47d 9d3d 8d55 10be cf4c c7bd
00000230: 9157 143e 5898 ddbd c881 993d f341 e1bd
00000240: 46e8 273e 1d2a 95bd 4102 9f3d 6a91 b9bd
00000250: fb62 cebd a060 e43c 0fbe a8bd 012a e03d
00000260: 37a7 853d 2a17 0abb 8272 d2bd 466a d2bd
00000270: 29f2 a53c 9edd aabd acea 0dbe 551e a9bd
00000280: 9c3e 59bd 6336 403d 55bb fd3d 17e3 b63d
00000290: c088 c1bd 243e 1c3e 7430 8bbd 6ebd 023e
000002a0: ec0b 84bd 969f 0d3e cc6b 213e 1241 553d
000002b0: 1af9 1c3a dbaf 80bd 7a17 aa3c c0ca ac3c
000002c0: f439 69bd db4e 053e 44d8 923d f294 d73d
000002d0: 7bfe 91bd 0411 06bd 6bc6 853d 92f0 813d
000002e0: 17f1 c93c 407c 7fbd 3657 a9bb 9e4c f63c
000002f0: ab5e ec3d 4b2f 033d 5381 01be 2558 c8bc
00000300: 02c8 b03d a478 da3c 9740 c3bd a459 b6bd
00000310: 0ca0 843d 874c b23d 5af2 d5bd c8aa 8b3d
00000320: 35d7 a13c 7711 65bd f863 abbd 8bc2 afbd
00000330: 91f0 3a3d cc17 c7bd cbee 77bb 74a1 1bbd
00000340: f332 4c3d 881b d6bd 8974 32bd 7f8f d0bd
00000350: d3fb edbd 0f32 df3c 4544 963c 2815 983c
00000360: 1ccc 483d ab46 8b3d d3c7 c43d 71e5 6e3c
00000370: 394f 9a3d 2a81 fa3c 8cfa eb3d 9d1f ad3d
00000380: 28d7 f4bd c12a 2bbd e45f c0bd d3f3 fcbb
00000390: 1b65 e5bd 04ef 03be 4b6a 8ebc ca9f dd3d
000003a0: 28ff e8bd dcce 39bd dab2 e53d effd a9bd
000003b0: c6d3 ed3d 8f43 bd3d 7a7b 033e 26f8 b53d
000003c0: 1d8f d1bb d39e bd3d 0dba 7ebd 12a3 45bb
000003d0: 64b2 97bd a367 093d ed2d c13c f266 1c3d
000003e0: ec99 d93d 1e6c d9bd 964b a0bd d4e7 99ba
000003f0: 9027 99bd ab43 09bc 440c 57ba 8aaa 1e3d

fc3.bias f4 [50]
0.0524437 0.035556827 0.03610515 0.0031094295 0.14807276 0.013428518 0.15902197 -0.013958436
0.03574772 0.08091934 -0.034041174 0.01744546 0.02084426 -0.10299709 -0.059652843 0.08571551
0.050696474 0.09356451 0.05931372 0.124781616 0.119860336 0.0896045 0.11011433 -0.009764545
0.1275282 0.042675905 -0.022413656 0.019834114 0.067696944 0.014314383 0.114119686 0.10835435
0.13197914 -0.014942564 -0.11010723 0.08378314 0.06559786 -0.03688422 0.09049336 0.10972648
0.044341635 -0.07104409 0.03431064 0.1178053 -0.01843133 -0.10457054 -0.06815924 0.024958832
0.04389017 0.11724784
00000000: 35cf 563d 09a4 113d fee2 133d 92c7 4b3b
00000010: 63a0 173e 4903 5c3c a8d6 223e edb1 64bc
00000020: 346c 123d 0ab9 a53d c26e 0bbd c8e9 8e3c
00000030: 95c1 aa3c 23f0 d2bd 8a56 74bd 9d8b af3d
00000040: 1ba7 4f3d c09e bf3d f1f2 723d 818d ff3d
00000050: 5679 f53d 9082 b73d 9f83 e13d 78fb 1fbc
00000060: c196 023e eecc 2e3d d89c b7bc 277b a23c
00000070: b2a4 8a3d e086 6a3c 95b7 e93d e3e8 dd3d
00000080: 8a25 073e a8d1 74bc e67f e1bd 7f96 ab3d
00000090: 2c58 863d e813 17bd 9554 b93d 47b8 e03d
000000a0: 939f 353d 907f 91bd 5089 0c3d e843 f13d
000000b0: 4dfd 96bc 1429 d6bd 1297 8bbd 7776 cc3c
000000c0: 2ec6 333d a31f f03d
