checkpointing_test/sigmoid_example_s12345/models/eval_checkpoint_checkpoint_800.pt (torch, 95431 bytes, 24 tensors)

fc1.weight f4 [50, 7]
00000000: 9104 1fbf 2ae2 0e3e d7b5 2fbe 2a4d c43e
00000010: 6250 8bbe 51ec 893e 4633 e5bd 949a 163e
00000020: 3c63 a5be cb26 083e da77 b53e 4360 bd3d
00000030: 5deb cf3e cf3d 81be a826 39be 1083 26be
00000040: 0952 a7be 2510 313e 87b0 9f3e d5b7 6f3e
00000050: 21bf 0ebe 013c 273d b92c 5d3e 9395 d23d
00000060: 1624 c53e 80e9 edbd 79a2 853e fb87 753e
00000070: 649f b43e 6f29 b03e 38fe 12be 8160 5abe
00000080: d68d 77be def8 6bbe e4f1 6f3e f6c7 61be
00000090: a485 683e 4c84 5abe 5c16 093d 0928 bfbe
000000a0: 16f0 4a3e 6baf 24be 1cf9 073e bf49 8a3e
000000b0: 1784 0bbe 9878 a73e b1d2 173e 4ccb 6a3e
000000c0: f333 213e 7444 9c3e 9ea2 8b3d 47fa 10be
000000d0: d705 2ebe b878 6b3e 4864 1c3c 2519 3f3e
000000e0: 8396 8a3e 5595 d9bc f07d 00bd 6bc0 b9ba
000000f0: 02c0 bb3e 37e3 a1be 62b8 a13e 52d7 0dbd
00000100: 6ab3 0e3d 00c5 873e dbbc 83be 84a5 a6be
00000110: 76ae bb3e 2836 38be 986c 523d 39b8 ba3e
00000120: 239c 13be c258 563d 56d2 913e 28cf 8abe
00000130: 3de9 93be 26cf 733d dd61 313e b81d 9d3d
00000140: 5319 6bbe 84cb 85be 6b9f 05bf e717 8e3d
00000150: b154 28be 9cd5 80be a769 a03e 20fc 8cbe
00000160: f961 73bd 87d3 efbd 9901 993e d212 8cbe
00000170: 3325 5b3e 1956 ba3d abbc 523e b76b 803d
00000180: 48d9 c5bd 8350 43be 9832 303e eea0 a23d
00000190: 0d03 483e e5aa 14be e42d e0bd 0943 81be
000001a0: d490 10be 791b 043c 40b2 59be 9708 463e
000001b0: 10fe 2abd c946 c0be e700 d23e dff6 3ebe
000001c0: 8d8d ecbe 1ec2 603d e515 d5bd d582 b33d
000001d0: 4080 c0bd eb64 153d 0c0d a33e 5d31 84be
000001e0: a72f a33e d730 cabe 71f9 813d 4ba6 aa3e
000001f0: ed35 f1bc ed84 f4bd a425 13bf 20b6 9e3d
00000200: dd36 073e 7ea6 513e 12e8 3dbe b01e 09be
00000210: efef 9d3e a02f d4bc 32cb c1be 8bd4 90be
00000220: 8cbf e33e 0201 36bd 0028 e7bb 56b8 43be
00000230: bd1f 3e3e f491 a2be 3ef1 623e 08a0 933e
00000240: d1f3 9f3e abf9 20bd 7694 d23d 2385 c73e
00000250: 71ff 20be 1f9b 93be f50f 59be e6e4 c8bd
00000260: 8671 883e eee7 483e d1ed bf3e 4308 a43d
00000270: 28ca 853e 9307 75be a93f 7ebe be41 043e
00000280: 496e fabd f9c3 043d 478a 3f3d 62eb 1c3d
00000290: d503 dcbc 4525 2abd fa98 24be d2c2 ac3e
000002a0: 8971 89be 54ef 2f3e 076f 363e 02a4 bbbd
000002b0: 7460 bebd e39c 903e 4fee 963e fe8f 99bd
000002c0: dc84 47be fb8b 51be 46da b4bc 2993 b8be
000002d0: 4a20 183e 29e5 113e a5d6 823e 69e6 9cbe
000002e0: d128 413e 5462 93be d64d bb3e 61e3 b4bd
000002f0: e348 a03e 27cb aebd 12fb 49be b973 f0bd
00000300: 20f9 77be c785 dd3e 8c67 c73e b21c f1bd
00000310: 0dad 2bbe dd0e 38bd f3a9 af3d e2ae 33be
00000320: d7ec 8a3e 8cf6 3fbd 9f79 ab3e 8c97 023e
00000330: a3f7 91be 7bec 823e 43d5 b33d 94bf dbbe
00000340: 791d 953e 6079 5ebe da1f 363e fc5d 6d3b
00000350: 9197 d1bd f957 06be 5975 b43d 9f27 7f3e
00000360: e089 8cbe 4215 e53d c661 b73d 344a 3c3e
00000370: 0461 54bd 834b 55bd 7117 24be 7106 40bd
00000380: c00e 2f3e 6c1d a83d 74ea 973e 386f 0abe
00000390: e246 993e 946a 82bd 71a9 81bd 8919 23bf
000003a0: 5707 27bd 6f6e 41be 49a9 bf3e 8da3 853e
000003b0: 5075 873e 5c91 09be d41e 0f3e ef57 d3bd
000003c0: 6811 8fbe b6ba 2b3e 5633 6f3e 1c77 68be
000003d0: 7dc1 ac3e 1ccf 00be 126d 643e ec64 833d
000003e0: c3f2 91be e7f4 453e c1b8 b13e 7c26 783e
000003f0: e844 37be fcc2 70be b9d4 5c3e 3b0b a8be
-0.6211634 0.13953462 -0.1715921 0.38340122 -0.27209765 0.26938108 -0.1119142 0.14707404
-0.32302272 0.13296048 0.35443002 0.09246876 0.40609255 -0.2524247 -0.18081152 -0.16260934
-0.32679775 0.17291315 0.31189367 0.2340997 -0.13940097 0.04082871 0.21599092 0.10282435
0.38504094 -0.11616802 0.2610052 0.23977654 0.35277855 0.3440661 -0.1435479 -0.21325876
-0.241752 -0.23044154 0.23432118 -0.22048935 0.2270723 -0.2133953 0.03346859 -0.37335232
0.19818148 -0.16082542 0.13278621 0.2700939 -0.13624607 0.32709193 0.14826466 0.22929114
0.15742473 0.30520976 0.06818126 -0.14157973 -0.16994415 0.2299527 0.009545393 0.18661936
0.27067956 -0.026560465 -0.031370103 -0.0014171725 0.36669928 -0.31618664 0.31585985 -0.034629174
0.03483907 0.26517487 -0.25730023 -0.32548153 0.3665654 -0.17989409 0.051373094 0.36468676
-0.1441503 0.05233074 0.28480786 -0.27111173 -0.28888884 0.059523724 0.17322488 0.07671684
-0.22958879 -0.26131833 -0.5219638 0.06938153 -0.16438557 -0.2516297 0.31330606 -0.27536106
-0.059419606 -0.117102675 0.2988403 -0.2735811 0.21400909 0.09098453 0.20579784 0.06270545
-0.09660584 -0.19073682 0.172068 0.07940851 0.19532414 -0.14518316 -0.10946253 -0.25246456
-0.14117748 0.008063191 -0.21259403 0.19339214 -0.0417462 -0.37554005 0.41016313 -0.18648861
-0.46201745 0.054872625 -0.10404567 0.087651886 -0.09399462 0.036473196 0.3184589 -0.2581891
0.31872293 -0.39490387 0.06346405 0.33329996 -0.02944466 -0.11939416 -0.5747931 0.07749581
0.13204522 0.20473668 -0.18545559 -0.13390613 0.30847117 -0.025901616 -0.37850338 -0.28287157
0.44482076 -0.044434555 -0.007054329 -0.19113287 0.18566795 -0.31751978 0.22162339 0.28833032
0.31240705 -0.039300602 0.10282223 0.38968763 -0.15722443 -0.28829286 -0.21197493 -0.09809284
0.26649112 0.19619724 0.37486127 0.08009388 0.26130795 -0.2392867 -0.24828972 0.12915704
-0.122280665 0.032413457 0.04676273 0.038310416 -0.026857296 -0.04153945 -0.16073981 0.33742386
-0.26844433 0.1718114 0.17815791 -0.091621414 -0.09295741 0.28244695 0.2947869 -0.074981675
-0.19484276 -0.20463555 -0.022076737 -0.36049774 0.14856067 0.14247574 0.25554386 -0.3064454
0.18863226 -0.28785956 0.36582822 -0.088324316 0.31305608 -0.08534842 -0.19724682 -0.11740822
-0.24216127 0.43266127 0.38946187 -0.11773051 -0.16765232 -0.04493605 0.08577337 -0.17547181
0.2713382 -0.046865985 0.33491227 0.12753123 -0.28509244 0.25571045 0.08780911 -0.429196
0.29124048 -0.21725988 0.17785588 0.003621935 -0.10233987 -0.13119496 0.08811445 0.24917458
-0.2744894 0.11185695 0.08954196 0.18387681 -0.051850334 -0.052073967 -0.16024567 -0.046881143
0.1709547 0.08208737 0.2967106 -0.13518989 0.29936892 -0.063679844 -0.063311465 -0.6371084
-0.040778484 -0.18889783 0.37433842 0.26101342 0.2645669 -0.13434356 0.13976604 -0.103195064
-0.27942967 0.16770443 0.23359427 -0.22701687 0.3374137 -0.12579006 0.22307232 0.06415734
-0.28505525 0.19331704 0.3471127 0.2423343 -0.1789738 -0.2351188 0.21565522 -0.32821068

fc1.bias f4 [50]
00000000: abba 11be a1a9 96be 5425 5a3e c3a0 a3bd
00000010: aa53 8c3e 993b 3abd aeb8 923d dc39 b33e
00000020: eadc 70be e2f6 b03e 4a9b 2c3d 17bd 053f
00000030: 2797 943b 063e d33e 254d 7d3e 4100 2cbd
00000040: 8026 083e 4484 183e 8671 443e a02d 983e
00000050: be73 2d3e 6af8 e2bd d250 dc3d 8684 933e
00000060: 5fc7 ce3d 7e86 86bd 41aa 8abe 4714 69be
00000070: 6cba a63e 775c 0b3d 8072 88be 5b1d 25be
00000080: b3d4 e13c edd5 c53e 8bdc b5be 3bd3 acbe
00000090: f5b6 993e 6fef 78be e795 89bd c5cd 31bd
000000a0: fcd9 bd3c 5704 91be 4658 00bd e3b7 59be
000000b0: ae9c 853c 0f55 943e b924 063d a313 37bd
000000c0: 426f aa3e 7e4c c33e
-0.14231364 -0.29426292 0.21303302 -0.07989647 0.2740758 -0.045466993 0.07164131 0.3500508
-0.23521772 0.34563357 0.042140283 0.52241653 0.0045346203 0.41258258 0.2473646 -0.04199243
0.13295937 0.14894205 0.19183931 0.2972231 0.16938683 -0.110825375 0.10757603 0.28812045
0.10096621 -0.06568621 -0.27083018 -0.22761641 0.32564104 0.03402373 -0.26649857 -0.1612448
0.027567243 0.38639775 -0.35519823 -0.33754906 0.30022398 -0.24310087 -0.06718045 -0.043409128
0.023175232 -0.28323624 -0.031334184 -0.21261553 0.016310062 0.28971145 0.032749865 -0.04469646
0.33288008 0.38144296

fc2.weight f4 [50, 50]
00000000: fb6e ccbe 0d5b e33c 5f54 04bd 7184 8bbd
00000010: 3a5c adbb 4c4b 4ebc 0180 89bd 26d3 c23d
00000020: 8385 1b3e 0cdd 1f3d f682 eebc e270 2d3e
00000030: 3dc5 91bd 17df cbbd bac8 c9bd ee5b c83d
00000040: fc18 62be 1306 34bd c280 2cbe 7741 393e
00000050: 0638 1c3e b5ce 53bd d887 3ebd 849d c5bd
00000060: 4186 63bd 4c30 00be ed21 5fbd 678a 743e
00000070: d467 bbbd 64f5 b3bc 07ff 823d 3c55 63bd
00000080: 5fa5 c43d c9f1 a5bc f29a 8f3c cb20 e0bb
00000090: 2a96 013b 2b0e 073e dcbc bd3d 2981 6f3e
000000a0: 6226 9a3b 1e8a 3abe b9b4 813d 5eb6 f0bd
000000b0: 0114 003e 3ad0 21bd 666c a13d 708a f5bd
000000c0: 54be 863d 4f83 c33d c99e 863d 6386 cc3c
000000d0: a381 cdbd b995 083e 81b4 123e 27e3 143d
000000e0: 0b96 b83d b4ca 9dbd 3167 a23d 3d5a 71bd
000000f0: dc87 76ba ef3b 6fbd 9ef8 dfbd 1c35 0bbe
00000100: 67f1 a53d 3777 103d 7396 2c3e 6980 92bd
00000110: 79d4 2f3b 5177 4f3d 573e d8bd bfa5 c63d
00000120: 0050 9fbc 50b0 15bd 0fc5 23be f309 21bc
00000130: 69bc 46bd 8eb1 81bd d120 9b3d e1fe 07bc
00000140: e189 b5bd 18b7 533d 9467 0a3e 3707 afbe
00000150: 5be9 313d 6821 eb3b 4a1a ae3c f258 93bd
00000160: 6782 1cbe 8a96 793e e6c2 0ebe e631 1bbe
00000170: 2ab4 1cbe d57e 003d aaae 0fbc 6795 983d
00000180: 64d4 9c3d 9643 1e3d 3540 2d3d d39c eb3d
00000190: 9309 943d ae7e 31bd 757a 423d 0391 debd
000001a0: 89da 7b3d 3e04 403d 0952 8fbd 6c6e d43d
000001b0: 1b5d 103e d77c 81bd b882 c43d f961 b8bc
000001c0: ff95 6fba 4eff 373e b121 8a3c bc12 4bbe
000001d0: 76ba d4bd fa56 03be 2da8 043e 7ade be3d
000001e0: 8b25 4f3d 5c75 883c e578 62bd fbc3 c93d
000001f0: f601 d3bb 23c8 b6bd 9787 f83d 57c1 dcbd
00000200: 7434 e5bc 047c e3bd 068e 10be a0b4 853d
00000210: 31d6 c33d f13a eebd 39a6 723d 3c55 51bd
00000220: ba05 ef3d 6105 94bd 168f 513c 9a2d 8bbd
00000230: 9e49 a6ba f5d2 8bbd 67f0 ff3d 9da9 88bd
00000240: 8dad 7fbd 6aa4 fa3d a0b0 473d c056 52bc
00000250: 8a8b 23be 2a2d 0cbb b24b 2dbe 6c5e 473d
00000260: f697 973d fe69 25bd ff94 d73d eef6 1d3d
00000270: 36e5 d63d 88f7 603d 79ad 893d 36cb 46bd
00000280: 4603 2e3d b60a 253e 614d dcbc 0ca3 b3bd
00000290: 5222 17be 2b67 4d3d d693 d3bc 61b0 cb3d
000002a0: fa95 9e3d ba1f 4ebe 9ffd e6bd 7b43 14be
000002b0: 5b46 79ba 896a 9c3c cf78 22bd a691 1b3d
000002c0: 0d5a 4c3c d711 88bb 239b c83d d6d1 a13d
000002d0: 9a4f d13d be1a 1cbd 1a77 e13b cc86 9d3d
000002e0: 60af acbd 0e6d d53b af6a d73d 6382 fe3d
000002f0: 618e eebc bd50 00bd 04dc a83d c607 c43c
00000300: 1972 b1bc 698b 9bbd a570 e73d f838 c83c
00000310: 75e8 853c e24d c13b 9001 d3bd d9cc 6dbd
00000320: c925 30be 44da efbd 2e41 03bd 410c c9bd
00000330: a7b6 473d cd71 273b 8bd1 a33d cef0 eb3d
00000340: 8d80 73bd 0690 e9bc fdc1 d03d f5ed c8bd
00000350: c0d2 71bb a857 2bbd 15a6 293d 6124 923c
00000360: 3817 733c 3541 613d 775f a53d 1790 dabd
00000370: d35b b23b 56b9 3fbd d11f 01be 8804 b83d
00000380: dae9 4e3d dfb5 07bd 534e f93d 1546 8bbd
00000390: e81b 093d c523 ba3d eeef 0d3e 33b8 01be
000003a0: a8be 2bbd 034a 93be 0a73 edbd 9d5f dc3c
000003b0: e201 04be fcf1 b2bd faaa cb3d f5a5 dc3d
000003c0: 4f53 753d abe0 323e 2416 14bc a561 84bc
000003d0: 7f1f 6e3d 5c85 37be 7762 3f3e 03f5 143d
000003e0: 7d75 8cbd 7271 8b3d 0420 90bc 7f53 073e
000003f0: 6e2f 1ebe 146d af3d f86f 693d 9ec0 cb3d
-0.3992842 0.027753377 -0.032307025 -0.068123706 -0.0052905353 -0.012591194 -0.06713868 0.095129296
0.1518765 0.039029166 -0.029115181 0.16937593 -0.07117698 -0.099546604 -0.09852739 0.09783159
-0.22079843 -0.043951105 -0.16845992 0.18091379 0.15255746 -0.051710803 -0.04651627 -0.09649184
-0.055547956 -0.12518424 -0.054475714 0.23880921 -0.09150663 -0.021967597 0.06396299 -0.055501208
0.096018545 -0.020256894 0.017529938 -0.0068398467 0.0019773343 0.13188998 0.09264538 0.23389114
0.0047042826 -0.1821675 0.06333298 -0.11753534 0.12507631 -0.03950522 0.078820035 -0.119892955
0.06579271 0.095465295 0.065732546 0.024966424 -0.10034492 0.13338365 0.1432667 0.03634944
0.090129934 -0.07704678 0.079298384 -0.05892395 -0.00094044 -0.058406767 -0.10936092 -0.13594478
0.081026845 0.035269942 0.16854267 -0.071533985 0.0026829524 0.0506509 -0.105587654 0.09699582
-0.019447327 -0.036545098 -0.1599314 -0.009829032 -0.048519526 -0.06332694 0.075746186 -0.008300514
-0.08864189 0.051688284 0.13516074 -0.34185192 0.043435436 0.007175613 0.02125277 -0.07194699
-0.1528412 0.24373832 -0.13941535 -0.15155753 -0.15303102 0.031370956 -0.0087696705 0.07450371
0.07657698 0.038638674 0.04229756 0.11504521 0.07228389 -0.0433337 0.047480065 -0.108675025
0.06148771 0.046879046 -0.06998069 0.10372624 0.14098017 -0.063226394 0.09595245 -0.022507655
-0.00091394776 0.17968485 0.016861768 -0.19831365 -0.10387127 -0.12826148 0.12954779 0.09319778
0.050572913 0.016657524 -0.055291075 0.098518334 -0.0064394427 -0.08924892 0.12135237 -0.10779064
-0.027979113 -0.111076385 -0.14116678 0.06528592 0.09562338 -0.11632336 0.059240554 -0.051106676
0.11671014 -0.072275884 0.012790462 -0.06795807 -0.0012686735 -0.06827346 0.12497025 -0.06672976
-0.06242137 0.12238391 0.048752427 -0.012838066 -0.15971199 -0.0021389225 -0.16923407 0.048674032
0.07402031 -0.040384285 0.105264656 0.03856557 0.10492937 0.054923564 0.067225404 -0.04853364
0.04248359 0.16117367 -0.026892366 -0.08771333 -0.14759186 0.050147217 -0.02582733 0.09945751
0.077434495 -0.2012929 -0.11278843 -0.14478867 -0.000950908 0.019093769 -0.039665993 0.037980698
0.012472642 -0.0041525173 0.09795215 0.07901351 0.10220261 -0.03811144 0.006880653 0.07691726
-0.084318876 0.0065132445 0.10518395 0.12427213 -0.029120626 -0.031326998 0.0824509 0.023929488
-0.021660851 -0.0759495 0.11300782 0.024441227 0.016346196 0.005899177 -0.103030324 -0.058056686
-0.17201914 -0.11711553 -0.032044582 -0.0981679 0.048758175 0.0025550008 0.079989515 0.11520539
-0.059448767 -0.028511059 0.1019325 -0.09811012 -0.0036899298 -0.041831642 0.041418154 0.017839612
0.014837079 0.054993827 0.08074849 -0.10672014 0.005443075 -0.04680761 -0.12609793 0.08985239
0.050515987 -0.03313243 0.12173142 -0.068004765 0.03347388 0.09088854 0.13861057 -0.12667923
-0.04192987 -0.28767404 -0.115942076 0.02690106 -0.12891343 -0.08737561 0.099447206 0.10773841
0.059893902 0.17468517 -0.009038482 -0.016159842 0.058135506 -0.17921966 0.18689905 0.036366474
-0.068583466 0.06808747 -0.017593391 0.13215445 -0.1544778 0.08565727 0.056991547 0.09948848

fc2.bias f4 [50]
00000000: 94aa a4bd 1fd4 0c3e 9914 f03a 62dc e83c
00000010: 0604 4b3e 0ca1 03be 1d7e 2a3e cf32 ebbd
00000020: 6ecb 9abd f5cb 0fbe e428 1c3e ec94 e53d
00000030: d9b4 1b3d 4f5a 2f3d 0d8e 073e 6c7a 1a3e
00000040: 2999 473d ca0e 19be 4fe8 733d a1ca 0b3e
00000050: 88f7 073d 6447 bfbd 2907 a73d 4946 613d
00000060: f9f9 0ebe ec00 04be b7d8 0fb9 b224 11be
00000070: d43d bb3d 54c4 f6bb 8ccb 293e 6ae9 a5bd
00000080: 07db 57bd 1e16 33bc fca7 cf3d 17e5 ee3d
00000090: 3354 673d b7bf acbd b676 15be 2b26 b5bd
000000a0: f71b 1dbd 43bc 82bd 8ab3 0cbe bd6a afbb
000000b0: 01a1 ca3d 7ea2 753c 1b13 e3bb f9f1 b2bd
000000c0: 832e 8e3c 1305 08be
-0.08040348 0.13752793 0.0018316685 0.0284254 0.19825754 -0.12854403 0.16649671 -0.114843
-0.075583324 -0.14042647 0.15249974 0.11210045 0.038014267 0.042810734 0.13237782 0.15085763
0.04873005 -0.14947048 0.05954772 0.13651516 0.03319505 -0.093397886 0.081556626 0.05499867
-0.13962545 -0.12890977 -0.00013718275 -0.14174154 0.09142652 -0.0075307284 0.16581553 -0.08101161
-0.052699115 -0.010930566 0.10139462 0.11664789 0.056476783 -0.08435004 -0.14596066 -0.088451706
-0.038356747 -0.06383564 -0.13740364 -0.0053533004 0.0989399 0.014992354 -0.006929768 -0.08737559
0.017356163 -0.13283186

fc3.weight f4 [50, 50]
00000000: 1941 68bd 54cc 1f3e 189f 33bd f7ea 78bd
00000010: e626 ffbc fc86 bdbc 9a46 113e cce0 c2bd
00000020: 4388 d53c 5928 913d 7f09 303e 11cf 4c3d
00000030: ecb6 e13b c124 1b3e 5fc2 543e 8356 ce3d
00000040: 5c82 9fbd dfec 94bb 48ef dd3d f098 9bbd
00000050: ac66 863d 490d 91bd 2aa7 89bd b4f4 8d3d
00000060: db4d d33d e4c5 d93d c45d fb3d d42f d73c
00000070: dec2 c3bb cb06 bdbd c244 74bd 5714 27be
00000080: 2367 a53d 74a6 2c3d 4fc1 3ebd 5829 493e
00000090: ddb1 d73d 7ca7 81bb 3eff eabd 5248 72bd
000000a0: 89de 8ebd 0fb4 9cbd 2d96 a5bd a395 0c3e
000000b0: fb8c cb3d 8a51 b1bc 6c21 74bd a03b 3b3e
000000c0: daa2 153e c248 b03c 3182 153e 7933 983c
000000d0: eabd 92bd 3ffa 82bd c46e 1dbd 75ea 483e
000000e0: 2cbc 253e 10f1 e3bd ced9 6d3e ab04 edbd
000000f0: 5ba6 2bbd 4d96 343e dde7 003e 17dd cd3d
00000100: dd82 c2bc 2e2b 2cbd 4a71 edbd 5cbf 2ebb
00000110: 41fc 0a3e d439 2abd f55c bbbd ae10 bbba
00000120: 2cdd 913d 76e2 f2bd f0e9 ecbc 14ec 94bd
00000130: e483 b93d a973 debc cf42 fe3c 7e98 1d3d
00000140: fac4 913d bc16 4b3d 5988 423e 804e b63d
00000150: e2d1 cfbd d31e 1e3c e008 d4bd a46b 173e
00000160: b308 0b3d ea1b 103c fd31 0fbd f643 b33d
00000170: 632e 29bc 7403 9bbc f63f 37bd ff07 4dbd
00000180: 9025 9a3d aab6 4a3e 8b6f 243e 46fb ed3d
00000190: d471 303e 0036 ed3d e907 033e 02a4 f23c
000001a0: 41ea d23c 096f 98bd c41e 283e a5db f1bd
000001b0: ac52 d03d 41ad 17be 8eb9 7dbd 8b8e d13d
000001c0: 00bf 14be 43a1 133b 7e1e c4bc 09c3 e03d
000001d0: 3881 eb3d 7b6f 66be 13dc 163e 326c aebd
000001e0: a58f 583c dc1b f43d 181f 58bd ca04 113e
000001f0: 7a0e 373c 701c d73d 66c0 623b bb0f e53d
00000200: 3f3d 703e 7b58 ffbd d852 223e a283 28be
00000210: 06aa f83d ffc9 953d a3bb 88bc 51e9 c0bd
00000220: 23b4 c7bd 6ed4 b8bc 426f b3bd ce33 563e
00000230: ee4f 8e3d 9036 043c 3c7d 36be b845 843e
00000240: fb11 b03d 2064 fe3d 5bae c03d 837e bc3d
00000250: 84d2 853d a224 bfbd f683 3b3e 910b 5d3d
00000260: 4b6b 03bd 0821 b93d 43d6 c8bc f4e6 c43d
00000270: a066 133e d511 863b ea48 623d 544c dd3d
00000280: c593 83bd 0f3e 8ebb ee6e cdbd 1aae 70bc
00000290: fa28 323d 041e fa3d c63f d63d 17bf 2cbe
000002a0: ddba 363d 42ba 253e d475 d03d 3f4c d43c
000002b0: 3d9c 40bd 9841 e83c 6e0b 413e a224 c6bc
000002c0: 9254 183e d0e2 07be a3de 193e e2e0 fdbd
000002d0: b63c 08be be08 bcbd 3314 85bb d773 c4bb
000002e0: 0dab 8e3d e98c 323e ccad ba3d 7672 3fbb
000002f0: 5913 eabd 99d4 193e b682 083e 9a7f 7f3c
00000300: 3302 6ebd 5822 9cba cf00 11bd 1043 de3d
00000310: 6bd8 0fbe 94d3 6ebc 1e78 8dbd 7ba7 02be
00000320: e17f 913d 3866 a13d c547 953d f8eb 393e
00000330: da7a 43bd de68 333e 268d d5bc ef93 e6bc
00000340: 7a04 d33d 3217 bebd 590e 55bd e57d 293e
00000350: e52c 563d 839d dc3d ddf7 1d3e 8289 99bd
00000360: bff9 d03d 681b b0bd 4cad b7bd 42fb b1bd
00000370: b430 24be be97 26bd da87 1b3e 67f9 143e
00000380: 4b08 223e 900a 063d 8437 af3d 13b1 bbbc
00000390: 750b 253e dabd cabd ca63 93bd 5487 c2bd
000003a0: 6ed3 283c a8e4 3d3d c251 ae3d 91db d03c
000003b0: a08e c2bc 4d06 cdbd 3490 fbbd fd9c 043e
000003c0: 0a6c 14bd d021 443e ca29 b5bd 1027 91bd
000003d0: 37bb 973b 6e07 503d efe5 84bd 6c74 b2bd
000003e0: 6209 453d 6c22 03bd 8ddc 263d 6826 a83d
000003f0: 5c3b 413d f919 dbbd 2d07 1bbe 3d90 063e
-0.056702707 0.15605289 -0.043852895 -0.060770955 -0.031146478 -0.023135655 0.14187089 -0.09515533
0.026065951 0.07087774 0.17191122 0.05000216 0.006888261 0.15150739 0.20777272 0.100750946
-0.07788536 -0.004544839 0.10836655 -0.0759753 0.06562552 -0.07082612 -0.06721337 0.06931439
0.10317584 0.10633448 0.12273744 0.026267923 -0.0059741577 -0.09229811 -0.059635885 -0.16316353
0.080763124 0.04215093 -0.046571072 0.19644678 0.105319716 -0.0039567333 -0.11474465 -0.059151
-0.06976039 -0.07651531 -0.080852844 0.13728957 0.09938999 -0.021645326 -0.059602186 0.18284464
0.14612904 0.021519069 0.14600445 0.018579232 -0.071651295 -0.06395387 -0.038435712 0.19620688
0.16185063 -0.111299634 0.23227617 -0.11573156 -0.041906696 0.1763546 0.12588449 0.10051935
-0.023744041 -0.042033367 -0.11593874 -0.0026664352 0.1357279 -0.041559055 -0.091485895 -0.0014271939
0.07122263 -0.118596 -0.028920144 -0.07271591 0.09058359 -0.02715476 0.031037716 0.038475506
0.071176484 0.049582228 0.18997325 0.089016914 -0.10147454 0.009650904 -0.10353255 0.14787155
0.033943843 0.008795718 -0.034959782 0.08753197 -0.010326001 -0.018922545 -0.044738732 -0.050056454
0.07526696 0.19796243 0.16058175 0.11620192 0.17230922 0.11582565 0.12795986 0.02961922
0.025746467 -0.07443053 0.16417986 -0.11809472 0.101720184 -0.14812185 -0.061944537 0.10232266
-0.14525986 0.002252654 -0.023940321 0.109747 0.11499256 -0.22503464 0.14732389 -0.0851673
0.013217841 0.11919376 -0.05276403 0.14161983 0.011172885 0.10503471 0.0034599542 0.11184641
0.23460864 -0.12468048 0.15851915 -0.16456464 0.121418044 0.07313918 -0.016691035 -0.094195016
-0.09751155 -0.022562232 -0.08761455 0.209182 0.06948839 0.008069649 -0.1782121 0.2583444
0.085971795 0.12421441 0.09408256 0.09203818 0.06534293 -0.09333159 0.18312058 0.05396611
-0.032084744 0.09039503 -0.02451623 0.09614363 0.14394617 0.004091481 0.055245318 0.10805574
-0.06424669 -0.004340894 -0.10030924 -0.014689947 0.04349611 0.12212756 0.104613826 -0.1686977
0.0446118 0.16184333 0.10178724 0.025915263 -0.047024 0.02835159 0.18852016 -0.02418739
0.14876011 -0.13270116 0.15026335 -0.123964086 -0.1330441 -0.09181355 -0.004061246 -0.0059952545
0.06966219 0.17436565 0.091151804 -0.002921251 -0.114294715 0.15022506 0.13331112 0.015594387
-0.058107566 -0.0011912091 -0.03540116 0.10852635 -0.140474 -0.014576811 -0.06907676 -0.12759201
0.07104469 0.07880825 0.072890796 0.18156421 -0.047724582 0.17520472 -0.026068281 -0.028146712
0.10303588 -0.09281768 -0.052015636 0.16551931 0.05228891 0.107722305 0.15426584 -0.07496931
0.10203885 -0.08598977 -0.08968601 -0.08690502 -0.16034204 -0.040672056 0.15188542 0.14548264
0.15823476 0.032724917 0.08555511 -0.022911584 0.16117652 -0.098994926 -0.07196768 -0.09498468
0.010304315 0.04636064 0.08511688 0.025495322 -0.02374965 -0.100109674 -0.12283364 0.12950511
-0.036235847 0.19153523 -0.08845861 -0.07087529 0.004630472 0.050788336 -0.06489169 -0.08713612
0.04810465 -0.03201525 0.040737677 0.082104504 0.04717575 -0.10698313 -0.15139456 0.1314096

fc3.bias f4 [50]
00000000: 93e1 533d cebc b63d 9813 cbbc a6a0 64bd
00000010: c456 083d 318f e03d b0ef 50bd 923b b33c
00000020: 4829 dd3d 9f6f a9bd 57d3 85bd 55b9 9cbc
00000030: df35 b1bd cfc6 f73d 4cad 913c 5a05 f03d
00000040: 92ac dabd 1396 453d 5fe3 4a3d faf5 013e
00000050: 83bc 9f3d 3b32 89bd 47d1 073c 2f91 2c3e
00000060: c973 583e 99c7 133e 1407 7c3d 360e 2dbd
00000070: 1d66 2f3e e8df a63c 5652 da3d 4772 c4bd
00000080: e268 5d3c 515e a33b 161f a83d d192 923d
00000090: e745 b03d f740 0bbd e3e2 33bd c651 833e
000000a0: aa87 0b3c cfdc 2f3d 4428 ea3d d006 913d
000000b0: 9c11 a23d d112 d3bd 0464 da3d a41a 95bc
000000c0: 8464 babd 461d a6bc
0.051728796 0.089227304 -0.024789616 -0.05581727 0.03328587 0.109648116 -0.051009834 0.021878991
0.107988894 -0.08273243 -0.065344505 -0.019131342 -0.08652853 0.120984666 0.01778283 0.11719771
-0.106774464 0.048238825 0.049533244 0.12691489 0.07799628 -0.06699034 0.008289642 0.16852258
0.21137919 0.14431609 0.061530188 -0.04224988 0.17128797 0.020370439 0.106602356 -0.09592109
0.013513776 0.0049856086 0.08209054 0.07156909 0.08607083 -0.033997502 -0.043917548 0.25648326
0.008516232 0.04293519 0.11433461 0.070813775 0.07913515 -0.10306323 0.10663608 -0.01820118
-0.09101203 -0.02027763

fc1.weight f4 [50, 7]
00000000: 6dc2 0fbf 4d76 ff3d 3941 52be afcd c43e
00000010: 281b 7cbe 42fc 803e 91d8 f2bd 6d30 0d3e
00000020: 0c3b a6be fb57 043e 364c b53e 9dd9 cc3d
00000030: 5fee d13e ebd0 7cbe e594 44be 39e5 27be
00000040: 8994 a9be 547d 273e 132c a33e d084 643e
00000050: 8eb0 09be e4c1 f83c c813 593e 9a20 c83d
00000060: 2ae3 c23e 3549 dfbd 08c6 873e c180 783e
00000070: 89b4 b33e 7dd4 ad3e 8ced 11be 5199 68be
00000080: f4dd 7fbe 0d69 79be 58d7 703e 38a0 5fbe
00000090: 2971 693e dbc8 76be 67a5 083d 8942 bcbe
000000a0: c8e8 493e 0e17 16be 1adb fc3d 68e2 863e
000000b0: ffba 11be 075b a23e 3938 1c3e 6d36 6a3e
000000c0: ea3f 1f3e bd57 963e 406b 843d 4b3a 0cbe
000000d0: bd57 3abe 0a97 653e 3dfe 6a3c ca7d 413e
000000e0: 84ed 863e ef39 02bd 51d6 07bd acae 51bb
000000f0: 02d3 bc3e de54 a3be eb94 a13e 9713 f0bc
00000100: 5b39 243d ab33 8b3e 8a3a 84be f355 a7be
00000110: f44b b93e 5b61 3dbe c47d 233d 432a b93e
00000120: 4aa0 0ebe 5415 2d3d 4b00 923e 7033 8abe
00000130: 5a57 95be f90d 3b3d 6e10 323e 1c8f 973d
00000140: 16f3 76be dd61 83be 8751 f7be 94b8 683d
00000150: 5a7b 2bbe c3d5 7bbe 9ce7 a43e ef57 87be
00000160: 0459 66bd 07f5 febd caec 933e a8ed 88be
00000170: 2504 503e 5be1 d73d dd25 513e 0768 693d
00000180: b255 cebd 390e 37be c574 343e b370 ad3d
00000190: 3fb6 473e 28e4 11be 6a20 d1bd 7215 80be
000001a0: 99c6 15be 09f8 9a3b cc14 5abe d275 443e
000001b0: 665f 32bd 1f43 b8be 8c41 d83e d425 69be
000001c0: b16a e0be 9a33 463d 1f9d 9ebd ef66 a83d
000001d0: 2ad9 cebd f088 c93c 0920 a73e 04a5 82be
000001e0: 94ca a33e 1af9 cbbe 356e 933d d63e ad3e
000001f0: 6c82 d9bc 828d e0bd d56b 0cbf e55d 713d
00000200: 1aa8 083e e667 533e d94a 38be a809 16be
00000210: b9e7 9e3e 71ca 05bd 2acf b9be ea53 88be
00000220: bb87 e33e 5500 adbb 450a 86bc 84ff 44be
00000230: 4e85 393e 11f2 a4be 9621 563e 29c1 903e
00000240: 774a a23e cb36 35bd 2ad1 db3d 400a c53e
00000250: 37ff 29be 3420 94be 55b2 69be 2f4b cbbd
00000260: af69 883e ad2b 503e 2375 bd3e 8370 913d
00000270: 98c5 833e 03b7 79be 0592 78be 6daa fb3d
00000280: cced f0bd ae72 283d 0db3 563d d189 163d
00000290: e22e a3bc d2c4 1abd 147e 1cbe 7207 ae3e
000002a0: 7746 84be d492 3a3e 74cc 383e 8206 afbd
000002b0: 1e4d bcbd a856 913e 1efe 953e fc68 80bd
000002c0: 2e74 4ebe 3db0 56be 48d4 f5bc 2b9c aebe
000002d0: 8ec0 353e d4f6 183e eb54 843e 7938 9cbe
000002e0: d9ca 313e 0e75 95be 4c95 bb3e 0903 a8bd
000002f0: 143b a33e 5c29 d4bd 4405 4ebe a5a0 f2bd
00000300: df7c 6dbe 556d db3e 6ef9 c73e 908d f0bd
00000310: 7632 2fbe 8bfc 31bd 3480 b23d d246 39be
00000320: cb5d 8b3e 0cc1 18bd 441f ac3e 6e6a ec3d
00000330: 6f85 93be 0eb4 7b3e d327 8e3d 3f83 dcbe
00000340: 6213 933e f76c 77be 1caa 323e 3bd4 ec3a
00000350: 9294 bfbd 7c22 04be 0d05 b43d a1be 7d3e
00000360: e0d0 88be b0f7 d73d ec17 ab3d 945b 363e
00000370: f9fb 63bd bf9c 4abd 1ffb 24be 827a 7ebd
00000380: 04b7 2c3e e980 ab3d adc1 973e 2134 0ebe
00000390: 4d98 9b3e 73e2 66bd 3c5f 67bd 849b 17bf
000003a0: acd1 42bd 3ad1 2abe 4070 c43e b108 863e
000003b0: b1dd 7f3e 5526 0ebe 4611 0a3e 7f0d d4bd
000003c0: 57f8 8cbe c4aa 2b3e d86b 703e bdff 66be
000003d0: 1080 ae3e 505f ffbd 6f26 663e b10e 833d
000003e0: 7e86 95be c593 473e 7f97 b23e b35b 7a3e
000003f0: d4c8 36be e6ab 6bbe 41cd 573e f173 a7be
-0.56156045 0.12473736 -0.20532693 0.38438174 -0.24619734 0.25192457 -0.11857713 0.13788004
-0.32466924 0.12924187 0.35409707 0.10002444 0.41002175 -0.24689071 -0.19197424 -0.16396035
-0.33121136 0.16356403 0.31869563 0.22316289 -0.13446257 0.030365892 0.21198952 0.09771843
0.38063937 -0.10902635 0.26518273 0.24267866 0.35098675 0.33951178 -0.14250773 -0.22714736
-0.24987012 -0.2435648 0.23519647 -0.21838462 0.22797073 -0.24100058 0.033360865 -0.36769512
0.19717705 -0.14657232 0.12346478 0.2634461 -0.1423149 0.31710073 0.15255822 0.22872324
0.15551725 0.29363814 0.06465769 -0.13694112 -0.18197532 0.22420898 0.014342842 0.18895641
0.26353085 -0.03179353 -0.033163372 -0.0031994982 0.36879736 -0.31900686 0.31558928 -0.029306216
0.04009376 0.27187857 -0.25825912 -0.32682762 0.3619076 -0.1849417 0.03991486 0.36165056
-0.13928333 0.04225667 0.2851585 -0.2699237 -0.29168206 0.045667622 0.1738908 0.07400343
-0.24116167 -0.256606 -0.48304388 0.056816652 -0.16746274 -0.24593262 0.32207954 -0.26434276
-0.056237236 -0.12449079 0.28891593 -0.26743817 0.20314081 0.1054103 0.204246 0.056983974
-0.10074939 -0.1787652 0.17622669 0.08468761 0.19503115 -0.14247191 -0.102112606 -0.2501636
-0.1462654 0.004729275 -0.21296996 0.1918557 -0.04354801 -0.3598871 0.42237508 -0.22768337
-0.438314 0.048389055 -0.07744812 0.08222758 -0.101000145 0.02460143 0.32641628 -0.25516522
0.31990492 -0.39838487 0.07198755 0.33837003 -0.026551448 -0.109644905 -0.5485204 0.058927435
0.13345376 0.20645103 -0.17997302 -0.14652121 0.31036165 -0.032663766 -0.36290866 -0.2662652
0.44439492 -0.0052795806 -0.016362319 -0.19238096 0.18117258 -0.32215932 0.2091125 0.2827237
0.31697437 -0.044241708 0.10733254 0.38484383 -0.16601263 -0.2893082 -0.22821935 -0.099264495
0.2664313 0.20329161 0.3700343 0.07101538 0.2573669 -0.2438622 -0.24274452 0.122883655
-0.11764106 0.041124992 0.05241685 0.036752526 -0.019919816 -0.03778536 -0.1528247 0.33990055
-0.2583501 0.18220073 0.18046743 -0.08546163 -0.091943964 0.28386426 0.2929544 -0.06270024
-0.20161507 -0.20965667 -0.03000845 -0.34103522 0.17749235 0.14937907 0.25846037 -0.30511835
0.17362536 -0.29190868 0.36637342 -0.08203704 0.3188101 -0.10359451 -0.20119196 -0.11847047
-0.23192166 0.4285685 0.39057487 -0.11745751 -0.17109093 -0.043453734 0.08715859 -0.18093422
0.27219996 -0.03729348 0.33617604 0.11543737 -0.2881274 0.24580404 0.069411896 -0.43068883
0.28725725 -0.2416266 0.17447704 0.0018068621 -0.093545094 -0.1290378 0.08790026 0.2477975
-0.2672186 0.105452895 0.08354172 0.17808372 -0.05566022 -0.04946589 -0.1611142 -0.06212855
0.1686669 0.08374197 0.2963995 -0.13887073 0.30389634 -0.056368303 -0.056487307 -0.59221673
-0.04756324 -0.16681376 0.3836689 0.26178506 0.24986912 -0.1388181 0.13483152 -0.10354137
-0.27533218 0.1676436 0.23478639 -0.22558494 0.3408208 -0.12469351 0.22475599 0.063992865
-0.29204172 0.19489963 0.34881207 0.24449043 -0.17850047 -0.23014793 0.21074392 -0.32705644

fc1.bias f4 [50]
00000000: c9d0 2bbe 6700 95be 0d30 533e 78f8 a1bd
00000010: 4830 893e 37b1 cabc ecbe 843d 6872 af3e
00000020: ad73 75be 4a9b ab3e e0f0 103d 038a 013f
00000030: ddd9 393b b577 c93e c676 833e c318 32bd
00000040: 3ec1 f43d bb88 1c3e df42 343e 2461 943e
00000050: 061d 263e 89f8 eebd 7eb4 cd3d fd1e 963e
00000060: 36cf db3d c247 7abd 583e 8abe ec32 66be
00000070: a51f a83e 66d3 b63c 9a53 89be 6166 28be
00000080: 4254 ea3c 0016 bb3e 2688 b6be 4284 aabe
00000090: 9003 9b3e a94f 7abe 3b00 8bbd 87f1 2cbd
000000a0: f308 933c 165a 8cbe 661c ecbc e9f7 59be
000000b0: ebfb 9138 5d33 803e febf f03c 9ff4 32bd
000000c0: 37ac ac3e dff6 bf3e
-0.16778864 -0.2910187 0.20623799 -0.0790872 0.26794648 -0.024742706 0.06481728 0.34266973
-0.23969908 0.33516914 0.035385966 0.50601214 0.0028358616 0.39349142 0.25676554 -0.043480646
0.119509205 0.15286534 0.17603634 0.28980362 0.16222009 -0.11668498 0.10044192 0.29320517
0.10732882 -0.06110359 -0.2700069 -0.22480363 0.32836643 0.0223176 -0.26821595 -0.16445304
0.02860463 0.36540222 -0.35650748 -0.3330403 0.30276155 -0.2444445 -0.06787153 -0.042222526
0.017948603 -0.2741248 -0.028822135 -0.21285976 6.961062e-05 0.25039187 0.029388424 -0.04369032
0.3372514 0.37493035

fc2.weight f4 [50, 50]
00000000: de64 afbe fd00 173d 4637 e9bc 481d 90bd
00000010: 7d63 4bbc 8143 dd3c 002a 92bd c17b b63d
00000020: 6e05 1a3e 2962 f03c b764 12bd 18de 073e
00000030: 7941 8dbd 69f8 acbd 04b1 cabd 9153 be3d
00000040: 4ff1 44be 0c41 3ebd f3e1 12be 6edb 463e
00000050: 4c28 1d3e 36ad 60bd 4f38 4abd 0d01 cabd
00000060: 52fb 5dbd 82be b7bd eb5c 5cbd 782b 5e3e
00000070: ab36 bebd 544a 30bd 5e70 633d 6b1e 62bd
00000080: 8a88 c03d 61f4 ed3b 283a 9c3c 6898 1ebc
00000090: 2723 373b 7f56 073e e331 c33d f994 593e
000000a0: f808 b33b 4e68 31be d7ed 733d 1819 e5bd
000000b0: 07a6 fe3d c8b3 8cb9 f3ac b43d 2fd2 f7bd
000000c0: 9233 803d 3e7a c23d 4dac 913d ea7d c43c
000000d0: ac45 cebd 4141 013e 0691 0d3e f5d9 fe3c
000000e0: f37f a73d 9b05 a8bd 679f 9d3d 047d 6bbd
000000f0: 6f07 8abb 5497 42bd f637 b4bd 08b7 06be
00000100: 169c a23d ebc0 243d cad6 243e 8894 9abd
00000110: 52bd 92b8 e51e 843d 2e7a dabd 4a51 bb3d
00000120: e101 a2bc d87a 1cbd 316f 21be 3282 0cbc
00000130: c996 3cbd 3e55 a2bd 4031 a13d f076 b6bb
00000140: a392 bdbd ec73 523d 0ba9 093e 8e8d a1be
00000150: 2540 1a3d f933 233c ede5 dc3c 3c60 96bd
00000160: 7913 1dbe 76ac 733e 70b3 05be 280f 1abe
00000170: 0fc9 1bbe 1e5b d33c 8f34 a3bc 6c07 9b3d
00000180: 2783 bb3d 7b11 103d 3793 213d 69d4 e93d
00000190: 7657 3e3d 5a98 1fbd f7b9 8f3d b138 ddbd
000001a0: f6e9 7b3d 8dfe 3c3d 0d54 8dbd 617f d63d
000001b0: 1212 113e debf 87bd 0921 c23d d4b0 5fbc
000001c0: bcc0 ec3b 231a 373e 9777 873c 5f0a 48be
000001d0: 765c f8bd eb74 01be 12cd d13d 65e8 b43d
000001e0: 9e92 533d e069 973c e977 6cbd 8586 c93d
000001f0: bd7d 0cbc 2dfe b7bd db86 fa3d e31c d7bd
00000200: e1a3 e7bc 1e8b e7bd 9f48 12be 1b2a 853d
00000210: b0aa c33d e786 d9bd b09b 783d f865 50bd
00000220: 7bae f33d 7831 8fbd fe5b f83b 06b5 6dbd
00000230: 38f1 773b a362 8fbd 2721 003e e4f0 83bd
00000240: 4cda 74bd 300a b13d 42ee 213d d5d6 60bc
00000250: 46d3 24be 2061 03bb a13f 14be f6cc 613d
00000260: e790 b83d dd59 15bd 8e71 cc3d 7f8a 3c3d
00000270: e8ab d83d 1e3c 563d 5dd5 813d 644a 3bbd
00000280: 8df2 353d 31a1 203e 7800 e7bc 48b9 9ebd
00000290: 08d7 11be 3550 163d f0b7 a9bc 9064 d43d
000002a0: 9aab a33d ef44 41be 76cc e2bd 54ec 1bbe
000002b0: 41b0 343c af74 923c 7b65 03bd 9689 f13c
000002c0: df9d 4a3c fe7a b53c d574 cb3d d657 993d
000002d0: 6a66 d13d 04f9 fcbc 8970 313c 81e2 e73d
000002e0: 5a06 babd 9f13 303c 983e e53d d1c3 033e
000002f0: 58bb afbc 53a2 5abd 57fb 9f3d 589b e03c
00000300: e084 d3bc 5ef7 b7bd 4280 dc3d 41b5 033d
00000310: 9a4b bb3a b8ca fc3b 3de5 c5bd e9e1 64bd
00000320: d8e9 17be 6953 f0bd d37a d5bc c1e5 d8bd
00000330: 0ed9 3f3d 124e 7d3c 6157 9a3d 8a6e e83d
00000340: 1afb 75bd 3bfd edbc b682 d53d 9428 b5bd
00000350: 0b0a 30ba eb31 1abd 19ed 2e3d d88f 983c
00000360: 3e9b bd3c 312c 833d 49bc aa3d 7a29 07be
00000370: 0b19 8839 8554 52bd 8283 02be c6c2 b03d
00000380: ad5f 343d 65be 08bd ec62 f93d 7df8 96bd
00000390: 2d3f 023d 1cf3 b63d 071f 0b3e fb37 ffbd
000003a0: 7e29 30bd a41a 8bbe dfb5 f0bd 2961 d73c
000003b0: 56a8 03be 0224 b8bd 8981 a73d c789 ab3d
000003c0: 95e3 733d 54aa 243e 73a7 5abb bb27 adbc
000003d0: 95e3 583d 7b8d 1cbe f6c6 4c3e a2d6 043d
000003e0: e484 8abd 1a0c 823d dbc6 45bb 67ea 053e
000003f0: ab2a 1ebe bc8c b23d 3e00 693d aacb ce3d
-0.34256643 0.036866177 -0.02846874 -0.07036835 -0.012413857 0.027009727 -0.07136917 0.08910323
0.15041134 0.029343681 -0.03574058 0.13268316 -0.068972535 -0.08445818 -0.09897044 0.09293283
-0.19232677 -0.046448752 -0.14344005 0.19419643 0.15347403 -0.054852687 -0.049370106 -0.09863482
-0.054194756 -0.08971883 -0.05379955 0.2169627 -0.09287771 -0.043039635 0.055527084 -0.05520479
0.09401043 0.0072617983 0.0190707 -0.009679891 0.0027944536 0.1321659 0.095309995 0.21248235
0.0054637156 -0.17324945 0.059552994 -0.11186427 0.12434011 -0.00026836828 0.0882205 -0.12100636
0.06259836 0.09495972 0.07112942 0.023985822 -0.100718826 0.12622549 0.13824853 0.03110979
0.08178701 -0.08204194 0.07696419 -0.05749227 -0.004212312 -0.0475076 -0.08799736 -0.13155758
0.07939927 0.040223043 0.1609756 -0.07547861 -6.997086e-05 0.06451205 -0.10667835 0.09146364
-0.019776287 -0.03820309 -0.15765072 -0.008575963 -0.046042237 -0.07926415 0.07870722 -0.0055683777
-0.09256484 0.051380083 0.13443391 -0.3155331 0.03765883 0.009961122 0.026965106 -0.07342574
-0.1533946 0.23796257 -0.13056731 -0.15044844 -0.15213417 0.025800284 -0.019922523 0.07569775
0.09155875 0.03517292 0.039447036 0.11417467 0.046470128 -0.038963653 0.07017892 -0.10801829
0.06150242 0.046141196 -0.06900797 0.10473514 0.1416705 -0.06628393 0.09478957 -0.013652999
0.007225124 0.17881064 0.016536517 -0.19535206 -0.121270105 -0.12642257 0.10244192 0.08833388
0.051653497 0.018483102 -0.057731543 0.09840111 -0.0085749 -0.08984027 0.12232753 -0.105035566
-0.028276386 -0.113058314 -0.14285515 0.065021716 0.095540404 -0.10621434 0.06069535 -0.050878495
0.11898514 -0.06991857 0.0075793257 -0.058033966 0.0037832987 -0.07001235 0.12512647 -0.064424306
-0.059778497 0.08644521 0.03953386 -0.013723095 -0.1609622 -0.0020046905 -0.14477398 0.055127107
0.09012013 -0.036462653 0.09982596 0.046030518 0.105796635 0.052303426 0.06339524 -0.04572524
0.044420768 0.1568649 -0.028198466 -0.07750183 -0.14242184 0.036697585 -0.020717591 0.10370743
0.07991715 -0.18873952 -0.11074154 -0.15226871 0.01102835 0.017877905 -0.0320792 0.029484551
0.012366741 0.022153374 0.09934393 0.074874565 0.10224612 -0.030880459 0.010830053 0.11322499
-0.09083243 0.0107468655 0.111935794 0.12867667 -0.021451637 -0.05337746 0.07811611 0.027417824
-0.025820196 -0.089827284 0.10766651 0.03215528 0.0014289499 0.0077145956 -0.09662864 -0.055879507
-0.14835298 -0.11734659 -0.026059544 -0.10590697 0.04683786 0.015460508 0.075361975 0.11349209
-0.060053922 -0.029051414 0.10425322 -0.0884563 -0.00067153637 -0.03764526 0.042706583 0.018623278
0.023145314 0.06404913 0.08336694 -0.13199416 0.000259586 -0.051350135 -0.12745479 0.086309
0.044036556 -0.0333847 0.12177071 -0.07371614 0.03179853 0.08933088 0.13586055 -0.12461849
-0.04300832 -0.27168763 -0.11753439 0.026291447 -0.12857184 -0.08991243 0.08179004 0.08375888
0.05954321 0.160806 -0.0033363968 -0.021137109 0.052951414 -0.15288346 0.19997773 0.032431252
-0.06763628 0.063499644 -0.0030178342 0.13077699 -0.15445964 0.08718249 0.056884997 0.100974396

fc2.bias f4 [50]
00000000: 6a11 b5bd 8a79 033e ddd7 8f37 318c 003d
00000010: 7557 423e ee5c 00be f666 233e 5924 ebbd
00000020: 4dcc 9ebd 8df7 0bbe 197f 1c3e 1a89 cb3d
00000030: 9e71 223d 23fc 3a3d 1e96 f43d d4fe 133e
00000040: 6fb6 4b3d 74df 11be f9b0 5f3d 89ea 093e
00000050: b6a7 0b3d 3f08 c1bd 5f0c a73d b130 5f3d
00000060: 0a2f 10be c93a 06be b2e0 47bb 981d 11be
00000070: 0a05 ad3d c534 f4bb 8f0a 213e 0a17 9abd
00000080: 232e 5abd 0d53 33bc 9402 c03d b9f5 ec3d
00000090: 5063 523d 0982 a4bd 0126 15be 5f14 bdbd
000000a0: ba1d 09bd 3115 89bd 26a7 09be f4bd 9b3b
000000b0: 2d93 ca3d d10f 283c e4ba d338 7847 abbd
000000c0: ec3e 603c 256e 08be
-0.08841212 0.12839332 1.7147448e-05 0.031383697 0.18978675 -0.1253545 0.15957245 -0.11481542
-0.07753811 -0.13668652 0.15282859 0.099382594 0.039659135 0.045650613 0.11942695 0.14452678
0.04973453 -0.14245397 0.054612134 0.13468374 0.03409549 -0.09425401 0.081566565 0.054489795
-0.14080444 -0.13108362 -0.003049892 -0.14171445 0.08448227 -0.0074525797 0.15726684 -0.075239256
-0.053266656 -0.010945094 0.09375492 0.115703054 0.051364243 -0.08032615 -0.14565279 -0.09232401
-0.033475615 -0.06693495 -0.13442668 0.004752869 0.09891353 0.010257677 0.00010096075 -0.08363241
0.013686877 -0.13323267

fc3.weight f4 [50, 50]
00000000: fbee a5bd 3184 203e a892 32bd 8389 97bd
00000010: ca7f ecbc 2aa5 dbbc feef 0e3e d7c4 c2bd
00000020: 3e61 503a da24 913d cb32 353e 3885 303d
00000030: 34bd 13bc d936 143e e73d 483e a416 b83d
00000040: fc5d 8cbd e4de 3d3c c608 da3d 5a0a aabd
00000050: a53e 5c3d 6296 aabd a8a0 80bd bd5d 843d
00000060: 9f50 d33d 94d3 e83d 9475 ef3d c31a d73c
00000070: e29e f4ba 17e2 bcbd 2355 8bbd 0fcd 05be
00000080: e017 a23d 478c 2c3d 60b3 66bd d93f 3a3e
00000090: 9e02 b93d 02cf 09bd d3d4 eabd 5ef0 88bd
000000a0: 7c95 91bd 22bf bbbd c474 b0bd 0317 0d3e
000000b0: 0c58 cb3d eb8e f4bc c32e 74bd d658 233e
000000c0: e424 183e cb37 b03c 020b 103e 2a77 403b
000000d0: e6b2 a2bd 7759 72bd 8c20 37bd b37e 3d3e
000000e0: f664 223e f9dc e3bd d282 5d3e e893 f7bd
000000f0: d331 3ebd 32fe 333e 2fe6 f73d 0211 b73d
00000100: 785e 03bd 4e5d 33bd f681 e6bd 794c 15bc
00000110: 4881 013e 407d 60bd 9d77 bbbd 0b60 26bc
00000120: e4a0 833d 9043 e8bd 3877 2dbd e119 86bd
00000130: 533a b63d a023 debc 9313 7c3c 5570 1d3d
00000140: 867a 803d a487 8d3d 1ca6 3a3e fc4c b63d
00000150: dbcf d6bd f03c 033d 2764 efbd 518e 1a3e
00000160: 65f1 0a3d 7375 c53b 8ba9 c3bc c39c a03d
00000170: d5fc 7bbc c676 fdbc 1d2e 37bd 9e42 41bd
00000180: b926 9a3d de8f 383e a6e8 1a3e 84f7 a03d
00000190: 9907 293e 3d68 dd3d 5f46 043e 3522 ee3c
000001a0: 8e23 af3c bae8 96bd 4218 263e c9ca f1bd
000001b0: c722 b93d bb14 1bbe 49ee 7ebd 4d07 d53d
000001c0: 3829 13be 982f 823a 3022 aabc 6afb e13d
000001d0: 898f f13d df93 64be 4630 0c3e 4fcc a5bd
000001e0: bb26 0a3c 4e37 ea3d 7323 63bd d024 0e3e
000001f0: e760 353c d699 d83d b0e6 2c38 9bf1 e43d
00000200: 8dce 6c3e a94b ffbd e444 0f3e 81e7 23be
00000210: 856e ec3d 72c3 953d 36c2 a1bc c3e5 babd
00000220: 1cb9 c0bd e683 d3bc ab76 b3bd dbcc 2b3e
00000230: 08e3 913d 2ff2 9c3b b530 38be 771a 7d3e
00000240: 8d0e b03d 82ee f63d 15b2 c03d 358f 7c3d
00000250: 071b 833d c014 bfbd 78e1 353e 70aa 593d
00000260: 30ca afbc 8c43 7c3d 5253 f0bc 069a b23d
00000270: 714e 0a3e 3051 873b 63f5 883d 952f e03d
00000280: 68b6 60bd f63c 5fbc 3b4d c9bd 0de5 31bc
00000290: 652e 363d 9bc3 ef3d c172 da3d 8d07 17be
000002a0: 88fa 053d 5370 1f3e 91b9 d43d 991b 423c
000002b0: 2b96 43bd 66a6 f43b 7614 3d3e 4f3a 27bd
000002c0: 339d 113e ffd5 07be a7de 183e a7b4 fdbd
000002d0: cce7 12be 15fe b7bd 0c42 ecba cfd6 c3bb
000002e0: 2dbb 6f3d d451 323e 4ad9 a93d de75 4abc
000002f0: 260e eabd 2246 003e fa8e e53d cf50 643c
00000300: d144 3ebd 609a 663c 13e0 10bd 8ae8 c43d
00000310: 2cd2 0fbe ffe3 143b 5c89 98bd 1c02 05be
00000320: 7bb6 9b3d 4742 853d 6fa5 6a3d 0213 4e3e
00000330: 4226 85bd 71ff 1e3e e182 24bd 9c56 e6bc
00000340: d829 c53d 55fc bdbd d993 6dbd 7c48 1e3e
00000350: 54f2 a73d 1514 d23d 031d 0c3e 5e4f 8fbd
00000360: eef6 ba3d 0340 a7bd eecf 9bbd 433f a9bd
00000370: 3370 22be c6ee dfbc 0504 163e 7a95 f33d
00000380: 8faa 043e 3d4d 083b 6f5d a53d 4451 bbbc
00000390: 4bee 183e 56b2 cabd 7dbe b7bd 1a20 93bd
000003a0: 3556 5a3a b9e5 3d3d 08e0 b63d aa97 223d
000003b0: 0a1e b3bc dc75 9ebd 1290 fbbd e31f ba3d
000003c0: cfac fabc 8076 353e cfa1 abbd e684 8dbd
000003d0: c44f 983b b89a 813d 2cce 84bd 6b93 b0bd
000003e0: 8fff 3b3d 9038 30bd 6a74 1e3d 5dd3 9d3d
000003f0: c3a9 563d 4156 efbd f649 1cbe 5a1f 043e
-0.081022225 0.15675427 -0.043596894 -0.07399275 -0.028869528 -0.026812155 0.13958737 -0.095102005
0.00079490605 0.07087107 0.17695157 0.043095797 -0.0090172775 0.14474048 0.19554864 0.08988693
-0.068538636 0.011588786 0.10646205 -0.08302756 0.05377068 -0.083294645 -0.06280643 0.06463192
0.10318112 0.1136848 0.11692348 0.026257878 -0.0018663073 -0.09222811 -0.06803348 -0.13066505
0.0791471 0.042125966 -0.05632341 0.18188418 0.09033702 -0.033644684 -0.11466374 -0.066864714
-0.0710859 -0.09167315 -0.08616021 0.1377831 0.09928903 -0.029853305 -0.059614908 0.15951857
0.14857823 0.02151098 0.14066699 0.0029367902 -0.079442784 -0.05916735 -0.044708773 0.18505363
0.15858826 -0.111261316 0.21631935 -0.12088758 -0.046434235 0.17577437 0.12104451 0.08938791
-0.032072514 -0.043790154 -0.11255257 -0.009112471 0.12646973 -0.054806948 -0.09153674 -0.010154734
0.06427172 -0.113410115 -0.042350024 -0.06547905 0.08897843 -0.027116597 0.015385526 0.038437206
0.062733695 0.06910637 0.18227428 0.08901402 -0.10488864 0.032040536 -0.116890244 0.15093352
0.033921618 0.006025964 -0.023884555 0.078424 -0.015380104 -0.030940425 -0.04472171 -0.04718267
0.07526917 0.18023631 0.15127811 0.0785971 0.16506805 0.108108975 0.1291747 0.029069046
0.021379258 -0.07368608 0.16220191 -0.11806256 0.090398364 -0.15144627 -0.062238965 0.10401783
-0.14371192 0.0009932397 -0.020768255 0.110342816 0.11794955 -0.22322033 0.1369029 -0.080956094
0.008432086 0.1143633 -0.05545373 0.1388123 0.011070467 0.10576217 4.122284e-05 0.11178895
0.23125668 -0.12465603 0.13991123 -0.1600628 0.115445174 0.07312669 -0.019745927 -0.09125855
-0.09410307 -0.02581973 -0.087628685 0.16777365 0.07123381 0.0047896127 -0.1798733 0.24717127
0.08596525 0.120572105 0.094089665 0.06166001 0.064016394 -0.093301296 0.17761791 0.053141057
-0.021458715 0.061587855 -0.029336605 0.08720784 0.13506486 0.0041295514 0.06687429 0.109465756
-0.054861456 -0.013625374 -0.09829184 -0.010857833 0.04447784 0.11707231 0.10666419 -0.14748974
0.03270963 0.15570192 0.103869565 0.0118474 -0.047750633 0.0074661253 0.18464836 -0.04082709
0.14220123 -0.13265227 0.14928685 -0.12387972 -0.14346236 -0.08984009 -0.0018025055 -0.005976535
0.058528114 0.17414027 0.08293398 -0.012357203 -0.1142848 0.12526754 0.11208911 0.013935282
-0.046452347 0.014074892 -0.035369944 0.09614666 -0.14045018 0.0022718904 -0.07448074 -0.12989086
0.07603165 0.06506782 0.057286676 0.20124438 -0.06501438 0.1552713 -0.04016388 -0.02811747
0.09627122 -0.09276644 -0.058002327 0.15457338 0.08200517 0.102577366 0.13682942 -0.0699756
0.09129129 -0.08166506 -0.07608019 -0.08264019 -0.15863113 -0.027335536 0.14649971 0.11893745
0.12955688 0.002079799 0.08074462 -0.022865899 0.14934652 -0.09897296 -0.0897188 -0.07183857
0.0008328886 0.04636166 0.08929449 0.03969542 -0.02186491 -0.07737324 -0.122833386 0.09088113
-0.03059998 0.17720985 -0.08380472 -0.06910114 0.0046481807 0.063283384 -0.06484637 -0.08621868
0.045898017 -0.043022692 0.03868524 0.0770633 0.05240799 -0.116863735 -0.15262589 0.12902585

fc3.bias f4 [50]
00000000: e253 3c3d bda8 b13d e1a6 eebc 9d15 7fbd
00000010: 5a55 223d f121 db3d 63b5 55bd ec75 b73c
00000020: 5518 e03d 281c a4bd d4cb 72bd 0c8a 45bc
00000030: 0916 b1bd 7597 f33d 07e5 293c 991b f03d
00000040: ed44 e5bd ea67 2b3d b615 533d 3805 063e
00000050: a7ff 933d 4e11 92bd bc5d 003c a8d8 243e
00000060: bf3a 573e 8e34 123e 7281 793d 7ace 30bd
00000070: 55f2 223e 2c4d 9f3c ba97 ea3d 156f cfbd
00000080: c3c5 703c 94df 4a3b 3ea4 b13d 81de 873d
00000090: bfdc a03d a274 25bd 7180 4ebd e83b 773e
000000a0: f4bf 3a3b 64b3 393d 0579 e63d ab14 903d
000000b0: 7e2d b33d 8731 e1bd a5e0 d63d 5780 10bd
000000c0: 021f bfbd 2da6 b6bc
0.045978434 0.086747624 -0.029132308 -0.06227647 0.03963218 0.10699833 -0.052174937 0.022395097
0.10942141 -0.08013183 -0.059276417 -0.012056839 -0.08646781 0.118941225 0.010369546 0.11724014
-0.11194787 0.041847147 0.051534377 0.13087928 0.07226496 -0.07132207 0.007834848 0.16098273
0.21018504 0.1427786 0.060914464 -0.04316566 0.15912755 0.019445978 0.11454721 -0.10128609
0.014695588 0.0030956017 0.08673905 0.06634236 0.07854604 -0.040394433 -0.05041546 0.24143946
0.002849576 0.045337096 0.112535514 0.07035192 0.08748911 -0.10995775 0.10492066 -0.035278644
-0.09332086 -0.022296036
