checkpointing_test/sigmoid_example_s12345/models/eval_checkpoint_700.pt (torch, 95431 bytes, 24 tensors)

fc1.weight f4 [50, 7]
00000000: 0b18 93be 48f7 963e 9d13 d73e 49e7 343e
00000010: 9051 e8be 7a5a 3e3d eff2 44be 0c01 89be
00000020: 913f 07be 4748 a5be 0367 bdbe 42bd f4bd
00000030: 2293 bebd e578 b4be febf c2bd 9c87 3dbe
00000040: 65ac a0bd ed39 913e 65bb bb3e 5f33 f23c
00000050: 9959 0cbe 670f ecbd dad2 b03e 4f08 e4be
00000060: 2e5c 8a3d e0b0 10be 2f00 54bd a78a a0bd
00000070: 7062 8dbe 84d3 7dbe e2de 5bbe 5808 dfbe
00000080: 20bc d03e 701e d5bc d864 4d3e ca75 ae3e
00000090: 9eee 6b3e 4889 083e 59ee b03e bd53 873d
000000a0: f990 57bd dd5a 0f3e fcbe 5bbd 4f2b 20be
000000b0: e664 d53c e98b c83e 6086 383e 4d05 213e
000000c0: 908d 2b3e 38ab 5ebe 21c3 a03e 16f0 2b3e
000000d0: f982 f1bd b8ad 9c3a 818a 3c3e 7ef1 e3bd
000000e0: 42f2 983c 18fc 2f3e 9be6 b7be 52d9 f43d
000000f0: d94d 253e bcac 643e b469 94be 390e 87be
00000100: bb09 523e c956 c03e 3c81 aa3e 080d 053e
00000110: 64e7 d5bd 2299 5b3d 97f2 01bf 0632 88bd
00000120: 5887 523e c8e3 70be f29b b4be c3f3 7e3e
00000130: 289e a1bd 27d3 bbbe e45e a2bd 1804 a53e
00000140: 4985 913e 2f2c b63d 0ee0 1abe 1921 b9be
00000150: 5b16 ca3e af0d 55be b23b 91bd 1b67 47be
00000160: c688 68be 6b92 b2be d4dc 723e d551 86be
00000170: 1cff 8b3d 7e2b 2f3e fe49 873e d66c d5be
00000180: a952 06be 149f dabe aa12 c1be 8f5e 8c3e
00000190: 460e 783e 344c 38bd 7d5c 63be 2a8e aabe
000001a0: 630b bf3e c265 b93e 8906 1abe 15ea cabd
000001b0: c2b9 6abe 27a0 7f3e f3d6 1ebe 0ad0 3cbe
000001c0: e61e a0be ffef bbbe 0091 a53d 0a2e d53e
000001d0: 5793 96be 8d45 a73e a6db 593e f448 0cbd
000001e0: daf7 78be 22ed 753e 7287 9b3e 1711 c03e
000001f0: 5a6d ad3e e111 a13d 7ae9 febd b983 6c3e
00000200: cc75 bdbd 710a a3bc 1058 643e 9c27 273e
00000210: 391c 263d 5225 17bf f23b b33e 0997 adbb
00000220: b14c 173e 0517 00be b72c 85bc a90b 143d
00000230: 2194 46be 2e9f af3d 2d7b 573c 432a c43e
00000240: 8e79 22be 0020 3bbe 5659 fdbd 0c11 1e3e
00000250: b780 7fbe 6553 493e 0b80 c53d 001e aebe
00000260: 13c5 a23d 68c9 3dbe 52ec 1abf dd04 e3bb
00000270: de1d 5abe c668 b03e 5f9c 753e 02e6 44bd
00000280: cf0c 603d 7adb bf3e 1981 483e 1797 24be
00000290: 4b3c d3be dded 6cbe 7789 d0bc 9ed1 8d3c
000002a0: 8ac4 9b3e e815 84bc 90ce 4a3e cf01 723e
000002b0: 7a22 8bbe 582e ecbd a2bd 7a3d 86ba c43e
000002c0: 8961 353e 6306 8bbe b0e4 37bc 8530 073e
000002d0: e1b0 1f3e 82d8 873e e2d9 a8bd dc61 c83d
000002e0: 7342 3cbe 8212 8a3e fecc 5fbc b47a b4be
000002f0: c5e8 11be 7d7f 01bd b177 a13e cfa0 353b
00000300: a5a3 88be b75d dabe 0485 b9be 7f05 993e
00000310: d7f6 2b3e 73c2 c7be d406 bdbb b53f 803e
00000320: 5681 593d 62ce acbe 41e2 8d3e 22b7 8e3e
00000330: 2143 b0be cb9f d3be f446 9dbe f75f 143e
00000340: 04a9 5cbe f1b8 b63e 5346 703e e2ed 9ebe
00000350: 113f cebe a5e1 39be c311 5bbe c4d8 663e
00000360: 5dc3 20bd adb4 a9bd 361c 9dbd 8473 be3e
00000370: 5b58 c83e 64f2 e0be 074b 053d 8b4e 93be
00000380: 966c 0abf d946 983d c9ac b23e 8c75 1b3d
00000390: a759 043c db62 bf3c 889c 9c3d ae52 7dbe
000003a0: 7ee1 48be cf33 efbe 4269 6abe dc05 90be
000003b0: a0e3 cebe 5b7e fc3d 40aa 46bd a410 e1be
000003c0: 186a 6cbe ecd7 b3bd 5bc6 d4bb fea7 ac3e
000003d0: f1f6 a63e 1549 e83d 0bd6 e0be 235e 92bd
000003e0: ee40 003e ae46 0c3e cad8 3fbe f3f0 4a3c
000003f0: cb74 893d dc19 c33e 8e9e 8abe 5090 95be
-0.2872928 0.29485536 0.4200715 0.17666353 -0.45374727 0.046473004 -0.19233297 -0.2675861
-0.13207842 -0.32281706 -0.36992654 -0.119501606 -0.09305407 -0.35248485 -0.09509276 -0.18508762
-0.07845382 0.28364506 0.36666408 0.029565511 -0.13706054 -0.11526375 0.34535867 -0.4453759
0.06755863 -0.14129972 -0.051757988 -0.07838946 -0.27614164 -0.24787718 -0.21471742 -0.43561053
0.40768528 -0.02601549 0.20058 0.3407424 0.23040244 0.13333619 0.34556845 0.06607769
-0.05262849 0.13999505 -0.053648934 -0.15641521 0.026049089 0.39169243 0.1802001 0.15724678
0.1675322 -0.21745002 0.31398872 0.16790804 -0.11792559 0.0011953628 0.1841221 -0.11130045
0.018670205 0.1718601 -0.35918126 0.11955513 0.16142978 0.22331518 -0.28986895 -0.2637804
0.20511524 0.37566212 0.33301723 0.12993252 -0.10444525 0.053612836 -0.5076079 -0.06650166
0.20559442 -0.23524392 -0.35275227 0.24897675 -0.07891494 -0.36684534 -0.07928255 0.32229686
0.28422 0.08895146 -0.15124533 -0.36158064 0.3947018 -0.20806001 -0.07091464 -0.19472925
-0.22708425 -0.34877333 0.23717052 -0.26234308 0.068357676 0.17106435 0.2642364 -0.41684598
-0.1311747 -0.42699492 -0.37709552 0.27415892 0.24224195 -0.044994548 -0.2220325 -0.33311588
0.37313375 0.36210448 -0.15041555 -0.09907929 -0.22922423 0.24963437 -0.15511684 -0.18438736
-0.31273574 -0.3670654 0.08084297 0.41636688 -0.29409286 0.3267025 0.21275195 -0.03424926
-0.24313298 0.2401624 0.30376774 0.3751304 0.3387249 0.07864738 -0.12446876 0.23097123
-0.092509836 -0.01990244 0.22299218 0.16323704 0.04055426 -0.5904132 0.35006672 -0.005297546
0.14775349 -0.12508781 -0.016256673 0.036143932 -0.19392444 0.08575283 0.013151926 0.38313493
-0.15866682 -0.18273926 -0.12370555 0.1543619 -0.24951445 0.19660719 0.09643563 -0.34007263
0.07947745 -0.18533862 -0.60516846 -0.00692807 -0.21300456 0.34454936 0.23985432 -0.048070915
0.054699715 0.37472135 0.19580497 -0.16073261 -0.41256937 -0.23137613 -0.025456173 0.017311867
0.30423385 -0.016123727 0.1980536 0.23633502 -0.2717474 -0.11532277 0.061216004 0.38423556
0.17712988 -0.2715331 -0.011223957 0.13202102 0.15594818 0.2653237 -0.08244683 0.0978429
-0.18384723 0.26967245 -0.013659714 -0.35249865 -0.14248951 -0.031615723 0.3153663 0.0027714258
-0.2668735 -0.42649624 -0.36234295 0.29887006 0.1679338 -0.3901554 -0.0057686362 0.25048605
0.05310186 -0.33751208 0.2771168 0.27874094 -0.34426215 -0.4133285 -0.30718195 0.14489733
-0.2154885 0.35687974 0.23464327 -0.31040865 -0.4028249 -0.18152483 -0.21393494 0.22543627
-0.039248813 -0.08286414 -0.076713964 0.37197506 0.3912991 -0.4393493 0.032542255 -0.2877086
-0.5407194 0.07435388 0.3489745 0.0379539 0.008078015 0.023362568 0.076470435 -0.24738571
-0.19617268 -0.46719214 -0.22891715 -0.2812947 -0.4040804 0.12328788 -0.048502207 -0.43958008
-0.23087347 -0.08781418 -0.0064933724 0.33721918 0.32610276 0.11342064 -0.43913302 -0.071468614
0.12524769 0.13698837 -0.18735042 0.012386548 0.067117296 0.38105667 -0.27074093 -0.29211664

fc1.bias f4 [50]
00000000: 6ba8 b4be a433 67be 008c 26bc 8732 e33d
00000010: f7f0 ea3e 20fc a13d d49b a4bd d91e d03e
00000020: 9c6c 3ebe 1131 2f3d a1ee 2bbe adf8 47be
00000030: 0394 183e 81a0 633e 3ed0 983c 2735 56bd
00000040: c8fb 80be 54ed d63e c96b b83d 1c83 783d
00000050: ac66 42bd 68a7 663d 49c9 b03e f1bb a2bd
00000060: 5e0c aa3e 93ff 6d3e a69a 2b3e 8fd7 593d
00000070: e914 edbb 679f babd daf1 a43d 5520 d1bd
00000080: 7e6a 42bd fcba e6bd 7b20 8b3e 3041 5ebe
00000090: 03c9 e4bd 555b 2dbd 2356 5d3e 0a6a bb3e
000000a0: beb2 ac3e d94f 2abe 6043 283d 5dcb b03d
000000b0: 2a88 7fbd 62c8 9bbe 154d b7bb 5aed 83be
000000c0: 14fd 09be 2159 2d3e
-0.35284743 -0.22578293 -0.010165215 0.11093622 0.45886967 0.07909417 -0.08037534 0.40648535
-0.18596119 0.042771403 -0.16790248 -0.19528456 0.14900212 0.22229196 0.018653985 -0.052296784
-0.25192094 0.41977942 0.090049334 0.06067191 -0.047461197 0.056311995 0.34528568 -0.07946003
0.3321256 0.23242025 0.16758212 0.05318409 -0.0072351587 -0.09112435 0.08053942 -0.10211245
-0.04746484 -0.11266133 0.27173218 -0.21704555 -0.111711524 -0.04232343 0.2161489 0.3660434
0.3373012 -0.16632022 0.04107988 0.086325385 -0.062385716 -0.30426317 -0.0055939057 -0.25767022
-0.13475448 0.16928531

fc2.weight f4 [50, 50]
00000000: cdd7 9e3d dcd1 643a a2ea 393d 10e5 aabd
00000010: 22e4 343e df10 823d 3ca8 cfbd f09f 97bc
00000020: 298a 8abc 412d 3abe 70f4 5ebe eb08 56be
00000030: df5b 603d 2c4a 283d c4fc 8dbd a472 ae3d
00000040: dc05 2bbe ac03 053d 7960 70bd 3b3f d33d
00000050: e58a 8d3d 4ab2 873e d18b 09be 2f2c 0f3e
00000060: b1a1 a93c e97b 323b 64e2 85bd 1c25 62be
00000070: 9423 5fbe e813 3fbc 3c2c 25bd d573 bcbc
00000080: 44b3 803d e411 753d 5a3c 22be 4c57 34be
00000090: 2c66 98bd 463e 05be 56c0 5d3d dce1 153d
000000a0: c842 8fbc f9e4 f03d 1977 f2bd 7ed4 0ebe
000000b0: c953 eb3d 1f05 82bd 5609 b13d 4b96 bebc
000000c0: b7ef c139 bf64 723d e9bc 8f3d 4f7e e13d
000000d0: d22c 5a3e 2aa6 063e d57d ac3e aa44 b7bd
000000e0: c223 2dbd e56a ff3d f1c6 0d3e e635 28bd
000000f0: 2e6c c5bd f798 0ebe 48b4 19be af3d c83d
00000100: 5fec 743d e687 903d 331a 0e3d b687 ddbc
00000110: 4a17 ab3d 21fd a0bd 0e28 55be d286 62bd
00000120: 9277 00bc 2635 e0bd b305 a4bb 290e ea3d
00000130: 3351 083e 0311 c9bb 93d8 ba3d 2466 bdbc
00000140: 63b7 1abe 7199 a4bd 3c67 1ebe f165 4cbd
00000150: 60cd d5bd f197 20be 7bde 83bc 3bed 9ebe
00000160: 0b56 2a3e aa5e dc3c c8a0 b23b 9a98 3e3d
00000170: 4f90 fbbd a739 933d 5729 f9bd 7dbf 70be
00000180: 9595 3abd 5c77 e03c a24a 58bd 4acf e03d
00000190: b9a2 babd e062 68bd ddaf 283d 525c 50bd
000001a0: 7539 f1bd 2301 0dbe 83e1 9bbd 137c 893d
000001b0: 01e1 ebbd 61e6 0a3e 3bf0 ed3c 0bce 81bd
000001c0: 722e a73d b2a7 d1bd c300 97bd 6551 bbbd
000001d0: 2d97 0dbe 98bb 98bd 112d 02be 11ae 533d
000001e0: 0a02 093e bc96 a8bd b61b 0cbe 884f cc3d
000001f0: 2452 98bd 908e 62bd 736f c3bd bdd2 aabd
00000200: ea40 c3bd f4ea 6ebd bb85 823c 8e26 043d
00000210: 48ed 883d 4458 e43d 278b 883d 3d87 54bd
00000220: a381 5b3d c934 f83d 379c 04bd d531 cdbc
00000230: 40ba 233d 775f 07bd d6fa afbc 8b23 bf3c
00000240: ed79 093e 9e87 3dbc 01bc 01be fe96 833c
00000250: 2652 efbd c849 013e 08ad 423e 336f 1bbd
00000260: c199 28bd f7e7 173e 5f5e 05be a564 79bc
00000270: 3734 90bd bcc0 e03d 2039 debd a8bc 03be
00000280: f8ad b43c 9a26 d3bc 0713 27be 5eff 383e
00000290: b580 a5bd 09ed 4fbc fb73 57be b153 2e3d
000002a0: 4451 ef3d 2a20 723e 8295 be3d fa6e e33c
000002b0: 53fd 493c b98c 8bbd e8a2 f23c 4b79 b83d
000002c0: 4591 4e3d c4e1 513d e0b9 723d 32ff 0abe
000002d0: f0d3 f1bd a3f5 a43d c2f3 16bc 01b8 273e
000002e0: 1865 2b3a fc8d 1ebc 2156 81bd b17e dcbb
000002f0: 7dfe 193b 585a acbd b4eb 19be 2ab6 a3bd
00000300: 7061 1cbd a985 043e 600b 0fbe 6293 123e
00000310: 68fe b93d 9231 eabd 9103 003e e1a9 00bd
00000320: c43b 91bd 4df1 35bd c3be 3a3d 7ff0 d0bd
00000330: caab 35bd 27eb 873d 9569 253d d130 a2bd
00000340: 398a 06bd bada c43d 588a 52be 41db 20be
00000350: a5c7 cd3c 92fe b5bd 9e94 98bd c971 373e
00000360: 75d0 0c3e bd2c a33d cef4 273e 95b8 b9be
00000370: 50f0 143e 968f 283e 51b3 44be 875f 783d
00000380: 847c 853e 1c63 d93d 6f34 3e3d 9bc3 d83d
00000390: 9695 073e 1afd 63bd 0698 0a3e 698b 0f3e
000003a0: f302 e6be fdac 923e b3d8 f83d f065 393e
000003b0: 0c12 57bd 4b95 2c3e c8cc 833d c860 1c3d
000003c0: 0a21 aebc 9fde 57bd 1d33 373d a25d 7ebe
000003d0: 6ae2 1f3e 85b3 233d 22cd 223d c356 c8bd
000003e0: 5590 453e 4146 273e 27b5 06be 8387 6bbd
000003f0: 8933 a63c 9c3f 373d 0744 f33c e885 06be
0.077560045 0.0008728781 0.04538978 -0.083444715 0.17665151 0.06350874 -0.1013951 -0.018508881
-0.016911583 -0.18181325 -0.21772933 -0.2090184 0.054775115 0.04108636 -0.06932977 0.0851796
-0.16701454 0.032474205 -0.058685753 0.10314795 0.06911258 0.2650321 -0.13432242 0.13981698
0.020706983 0.00272345 -0.06537321 -0.22084469 -0.21790916 -0.011662461 -0.04032539 -0.023004452
0.06284192 0.059831515 -0.15843335 -0.17611426 -0.07441363 -0.13012037 0.054138504 0.03659235
-0.017487898 0.11762423 -0.11839122 -0.13948247 0.1149059 -0.06348633 0.08644359 -0.023265025
0.0003699043 0.05917811 0.07018454 0.110104196 0.2130616 0.13149324 0.33689752 -0.089486435
-0.04227043 0.124715604 0.13845421 -0.041067027 -0.09639774 -0.13925539 -0.15010178 0.0977739
0.059795734 0.070571706 0.034692954 -0.027042251 0.083540514 -0.078607805 -0.20816061 -0.055304356
-0.007841008 -0.10947637 -0.005005562 0.11428482 0.13312225 -0.006136061 0.091233395 -0.023119994
-0.15109019 -0.08037079 -0.15469068 -0.049901906 -0.10439563 -0.15682961 -0.016097298 -0.31040367
0.16634385 0.026900608 0.0054512955 0.04653225 -0.12283384 0.07188731 -0.12166088 -0.23510547
-0.04555281 0.027400665 -0.05280555 0.10977037 -0.09113068 -0.05673492 0.04118334 -0.050869294
-0.11778537 -0.13769965 -0.07611372 0.067131184 -0.115175255 0.13564445 0.029045215 -0.06338128
0.081631556 -0.102370635 -0.07373192 -0.09146384 -0.138272 -0.07457656 -0.12712504 0.051679675
0.13379684 -0.08231875 -0.13682446 0.09976107 -0.07437542 -0.05531174 -0.095427416 -0.083409764
-0.09533866 -0.058329538 0.015932908 0.03226333 0.06685883 0.11149648 0.06667166 -0.051886786
0.053590428 0.12119443 -0.03237554 -0.025048176 0.039972544 -0.033050027 -0.021481913 0.023332378
0.13425417 -0.011567978 -0.12669374 0.01606321 -0.116855904 0.12625802 0.19011319 -0.037947845
-0.041162256 0.14834581 -0.13024281 -0.015221749 -0.07041209 0.10974261 -0.108507395 -0.12864935
0.022055611 -0.025775243 -0.16315852 0.18066165 -0.080811895 -0.012690791 -0.21040337 0.042560283
0.11685422 0.23645082 0.0930586 0.027762879 0.012328464 -0.0681395 0.029618695 0.0900751
0.05043151 0.051240698 0.059259295 -0.13573912 -0.11808002 0.08054664 -0.00921339 0.16378786
0.00065381965 -0.009677406 -0.06315256 -0.00672897 0.0023497634 -0.08415669 -0.1503132 -0.079937294
-0.03817886 0.12941612 -0.13969183 0.14314035 0.09081727 -0.11435236 0.1250136 -0.03141201
-0.070914775 -0.044419575 0.04559208 -0.10202121 -0.044353284 0.066366486 0.040383894 -0.07919467
-0.032846663 0.09612031 -0.20560586 -0.15708639 0.025119612 -0.08886446 -0.074502215 0.179145
0.13751395 0.079675175 0.1640198 -0.36273637 0.14544797 0.16461024 -0.19209029 0.060637977
0.2607156 0.10614607 0.046436723 0.10584184 0.13240656 -0.0556613 0.13534555 0.14018025
-0.44924125 0.28647605 0.12150707 0.18105292 -0.052507445 0.16853826 0.06435543 0.038178235
-0.021255989 -0.052702542 0.04472648 -0.24840406 0.15613714 0.039966125 0.03974641 -0.097821735
0.1929334 0.16335393 -0.13155042 -0.05750228 0.020288246 0.044738397 0.029695524 -0.13137019

fc2.bias f4 [50]
00000000: 7469 cc3c 9efb 153e 4844 b6bd ff7f c6bd
00000010: 2a93 4f3d 969a 8abd 3c56 1e3e 30d6 23be
00000020: 2284 413d ec3a debd 7087 07be 13be 8b3d
00000030: d2d9 773b 5676 f93c 46d7 263e 7a0c a03c
00000040: 7bcb f1bc ac09 bbbb 1b77 52bc 244a 453e
00000050: 261c b4bc fd64 413e 8221 29bc df3d 00bc
00000060: 42ec 733d 3ad4 37bd 19ad f1bd 6031 163d
00000070: e462 5e3e aef6 f7bd 2a1f a2bd c36f 34bd
00000080: 98d5 293e 93f8 4b3d 5ed6 473e 48bf 613d
00000090: 2e0c 67bd baa9 21be 44b3 663d 5e25 eebc
000000a0: 9a07 c93c bc44 a83d fc60 f2bb 69dc d4bd
000000b0: 6586 d7bd 7e38 493d 0a99 01be 1432 c8bd
000000c0: 8dad 973d d4ea dcbd
0.024952628 0.14646766 -0.08899742 -0.09692382 0.050677456 -0.06767766 0.15462583 -0.15999675
0.047245152 -0.10851082 -0.13235259 0.06823363 0.003781904 0.030451935 0.16293058 0.0195372
-0.029515972 -0.00570794 -0.01284578 0.19266564 -0.021986078 0.1888618 -0.01032293 -0.007827251
0.059551485 -0.04488013 -0.11800594 0.03666818 0.21717411 -0.12107597 -0.079161 -0.044051897
0.16585386 0.049797606 0.19515368 0.05511406 -0.0564081 -0.15787402 0.056323305 -0.029070552
0.024539758 0.08216235 -0.0073968153 -0.103936024 -0.105236806 0.04912614 -0.12656036 -0.09775177
0.07406149 -0.107869774

fc3.weight f4 [50, 50]
00000000: 4e9a 71bd bf93 8ebd 0447 903b 7c46 9a3c
00000010: 70c5 aa3d 480f 81bc 9c52 23bc e066 0ebe
00000020: e43c f73d 3809 04be 5af9 ac3d 0216 53bc
00000030: 5c7e 5bbd fd12 1b3e 9539 5dbd 6825 d63d
00000040: 4da5 ae3d f865 ccbc 8e59 193d 4373 b3bd
00000050: a447 e73d d516 83bc dc20 b43d 4e8d 083e
00000060: 3e8d 353d 3cf7 093d 40d3 d5bd abc3 7ebc
00000070: d8ae e13d 087e 1a3d 3af6 4bbc 9c41 01bd
00000080: 673d 9c3d 2be4 c03c ef6f 223e f978 2cbe
00000090: 6e7f ea3d 26b6 fc3d 52ec a9bc ea3d 493e
000000a0: 5396 a8bd 66a4 e93c 2678 203d 80b3 52bc
000000b0: de0c 783d fc1f 283e 366b 833d d07f f1bd
000000c0: bc72 a83d 338a dcbc bd3d 89bd 2fe9 8dbd
000000d0: 09d2 0dbe 04ca 86bd 004f 9c3d cf41 ebbc
000000e0: e687 a13d 5f9e ecbc 4e8f b33c 08be 013c
000000f0: 9cb9 c73c b8da e63d 40e6 40bd 6938 413e
00000100: 4fcb cfbd c3fb 57bd ca05 d3bb 2a20 9b3c
00000110: 1159 e73d c0d8 813d 98a9 bbbc 3d44 133e
00000120: 5dc5 bb3d c4cf 9a3d 98fb 1dbd 9ff7 803e
00000130: d3a5 0c3d 05bd 533e ce33 883d 1138 483b
00000140: 32a5 cfbd cc7e 56bd 6986 493d 452c 9fbd
00000150: 6e17 2a3e 4ecc d03d 9d2d d93d 7841 913c
00000160: 0408 28be 6c1f 503e 116f 02bc 5413 463e
00000170: ce67 423d 6806 65bd c8d7 9c3d acef 77be
00000180: 539c ad3d b6b6 ae3d 03e9 a3bd 51f1 983d
00000190: 67cb a1bd e65a 843c e1f9 073e 80ba b53d
000001a0: c902 fe3d cfe8 08bc ca8b cb3b 95f0 a1bd
000001b0: 8330 f9bc 612b afbd 0e03 ebbc 0711 b73d
000001c0: 4f43 013d c385 8fbb 941a 45bd f8ed 2e3e
000001d0: c688 fd3d 4175 613d 96b9 a7bd a900 afbd
000001e0: 8b28 42bd 26eb a2bc 3156 31be e3a6 1cbd
000001f0: 7d41 773d 9da1 793e 9b1a 58bd fdc0 a23d
00000200: 094f 3d3e e640 8abe ffce 2a3c 9f7f aa3d
00000210: 9898 3a3d 6397 25bd 7328 9b3d 9b2b 2d3e
00000220: 4158 243c b192 29bd 7a00 00be d8b0 acbd
00000230: 78af 483e ddbb edbd 64ab 9c3d a356 efbd
00000240: 63e1 4b3e 147a 8f3d a682 ab3d c9be 0ebd
00000250: 3318 783d 5499 0c3d e0f0 acbd 552f 6f3e
00000260: d60e 943d 3657 403c d735 c6bd e47c e7bd
00000270: 264b 753d 58d9 dd3d b677 0fbe 37cd d1bd
00000280: e9a9 b2bd 5f9b 1b3c 71e4 293e 7a9d 6c3e
00000290: e261 d6bc 0e90 343e f5d3 afbd 91db 233e
000002a0: ae79 36bd b16a 233e 2aee 1e3e 9f27 8d3d
000002b0: 7384 ca3c 5e1b acbc a5da 2e3c 13e8 23bb
000002c0: bd26 59bd fbe0 403e aeb6 a13d 1872 223e
000002d0: 294f b33c 94fd 883c 65d7 053d 54ba 843d
000002e0: 1a69 343d a6f4 cc3c 2594 aabb a906 8f3d
000002f0: 27fb 5d3d cb8a f33c 9138 80be 357e f1bc
00000300: 0d71 c13d 5962 953d 671d babd 1ca3 bb3b
00000310: 7fa6 cabb 9255 9abd 448b 36be fe11 853d
00000320: 6a36 803d 177f 6f3d a79e a6bd 600e 7dbd
00000330: bb44 a53d 7cb0 c5bd cc7f ad3d f458 d3bd
00000340: 21d5 663d 4142 dcbd 47dd 12bc 2478 f7bd
00000350: dc3d 78bd 63d2 123d 3791 8a3d b806 503d
00000360: 4824 753d 9c40 cc3c 6207 fa3d eb9e ad3c
00000370: 0238 d33d 4147 213e d2bf 003e 1c08 b53d
00000380: 3ec0 adbd 7236 d6bc 97ae d0bd a06c 133e
00000390: a194 19be 5d6b ad3c b822 0abc 7861 2e3e
000003a0: 7901 ddbd 8c21 55bd 7faa be3d 84db 28bd
000003b0: 480e abbc b755 c1bd 4e09 333e 7d2a f33d
000003c0: 90bd 8abd 3e52 c93d 4978 71bd 0f55 823d
000003d0: e37e 94bc 8832 91bd 8e3b 56bc 5ccd a63d
000003e0: 088c 403d 6e4a dbbd c889 38bc 9e46 37bd
000003f0: 36e7 9ebd 9927 d73d 25f8 933d 36c8 203d
-0.058985047 -0.06961774 0.004402997 0.018832438 0.083384395 -0.015754357 -0.009968426 -0.13906431
0.12072161 -0.12894142 0.084459975 -0.012883665 -0.053587303 0.15143962 -0.054009993 0.104563534
0.08527622 -0.024950966 0.03743892 -0.08762219 0.11292961 -0.016002098 0.0879533 0.13335153
0.044324152 0.033683047 -0.10440683 -0.015549581 0.11019677 0.03771785 -0.012448842 -0.03155671
0.07628899 0.023546299 0.15863012 -0.16843022 0.114500865 0.123394296 -0.02074257 0.19652525
-0.08231797 0.028520774 0.039177082 -0.012860179 0.060559146 0.16418451 0.06416933 -0.117919564
0.08225009 -0.026921367 -0.06701229 -0.06929242 -0.13849653 -0.065815 0.076322556 -0.028717903
0.07887249 -0.028884111 0.021918919 0.007918842 0.024380498 0.11272186 -0.047094584 0.18869175
-0.101462 -0.052730333 -0.006439899 0.018936235 0.11296285 0.0634017 -0.022908017 0.143815
0.091685034 0.075591594 -0.038570017 0.2518892 0.03433783 0.20677574 0.06650506 0.0030550996
-0.101389304 -0.052367017 0.04920045 -0.077721156 0.166105 0.10195218 0.10604403 0.017731413
-0.16409308 0.20324486 -0.007961051 0.1934331 0.047462277 -0.055914313 0.076583445 -0.24212521
0.08477082 0.08530943 -0.08003428 0.074679025 -0.07900124 0.016156625 0.13278915 0.08873463
0.12402875 -0.008356287 0.0062117325 -0.079072155 -0.03041864 -0.08553196 -0.02868798 0.089387946
0.03155833 -0.0043799593 -0.04812105 0.17082965 0.12379603 0.055043463 -0.081896946 -0.08545048
-0.047401946 -0.019887518 -0.17318036 -0.038245093 0.06036519 0.24378057 -0.052759748 0.07946966
0.18487181 -0.2700264 0.010425328 0.08325123 0.04555568 -0.040427577 0.075760745 0.16911165
0.010030807 -0.04139966 -0.12500182 -0.08432168 0.19598186 -0.11608098 0.07649878 -0.116864465
0.19910197 0.070057064 0.083745286 -0.034849916 0.060569953 0.034325913 -0.08444381 0.233579
0.07229392 0.011739543 -0.09678238 -0.11303118 0.05988612 0.10832471 -0.1401051 -0.1024422
-0.08723814 0.009497493 0.1659105 0.23106948 -0.026169721 0.17633078 -0.085853495 0.16001727
-0.044549637 0.15958668 0.1552054 0.06892323 0.02472136 -0.021009143 0.010672246 -0.0025010153
-0.05301546 0.18835823 0.078961715 0.15863836 0.021888332 0.016722478 0.03267612 0.06480852
0.044045545 0.025019001 -0.0052056485 0.06983692 0.054194596 0.029729268 -0.25043157 -0.029479126
0.09445391 0.07294149 -0.09087639 0.0057262313 -0.0061843987 -0.075358525 -0.17826563 0.06497572
0.06260379 0.05847081 -0.08135729 -0.061781287 0.0806975 -0.09652802 0.08471641 -0.10319701
0.0563556 -0.107548244 -0.008963889 -0.12083462 -0.06060587 0.03584517 0.06765979 0.050787657
0.059849054 0.024933152 0.122084394 0.021193942 0.10313417 0.15749837 0.12573174 0.08839437
-0.08483933 -0.026149008 -0.1018955 0.14396906 -0.14998104 0.021169359 -0.008431129 0.17029369
-0.107912965 -0.052033946 0.09309863 -0.04122497 -0.020880833 -0.09440177 0.17484018 0.11873338
-0.067744374 0.098301396 -0.058952603 0.0636388 -0.01812691 -0.07089716 -0.013075722 0.08144638
0.047008544 -0.10707556 -0.011263318 -0.04474508 -0.07758944 0.105055995 0.07225064 0.039253436

fc3.bias f4 [50]
00000000: fc73 973d d986 ce3c c1ca 533d 85db f23c
00000010: 1cdc 463e e6eb 3b3d a2c7 3e3e 913e 1a3d
00000020: fa46 fa3c c31a 433e d126 69bc a5c1 803d
00000030: 66a8 ee3c cf1f b0bd 7ac5 c4bc 99ad f83d
00000040: bbd5 da3d 4e75 033e ecc1 b13d 7c3b 4a3e
00000050: 227e 283e 22da c93d ed30 cb3d 42bd 593d
00000060: ec14 103e 46bf 963d 39b7 42bc a01a a53d
00000070: 2642 963d 941e 703d dc81 0f3e 50c4 f13d
00000080: 3079 183e 9846 a23b ad3f 2ebd 0ea4 e93d
00000090: 2469 953d 5cc3 a03c 74ed c83d 6bb9 2b3e
000000a0: 10b8 3c3d 25ca 0dbd 59cd ff3d 7e5e 353e
000000b0: 5a22 973c 6d6b c4bd 04d9 0bbd e2f7 073d
000000c0: 61b7 b93d 3d7c 153e
0.07395169 0.025210785 0.051707033 0.02964569 0.19419903 0.045879267 0.18630841 0.037657324
0.030551422 0.19053178 -0.014230446 0.06286935 0.029133033 -0.08599817 -0.024019945 0.12142486
0.10685297 0.12837717 0.08679566 0.19749254 0.16454366 0.09856059 0.09921441 0.053159006
0.14070481 0.07360701 -0.011884504 0.08061719 0.073368356 0.05862291 0.14014381 0.11805022
0.1488998 0.004952263 -0.042541195 0.11408244 0.072954446 0.019624405 0.098109156 0.1676995
0.046073973 -0.03461661 0.12490339 0.17711827 0.018448997 -0.09590802 -0.03414251 0.033195384
0.0906818 0.14598174

fc1.weight f4 [50, 7]
00000000: 624b 97be 0f4b 9c3e 8343 d23e 0d75 2e3e
00000010: 0f7f e9be 6783 723d d6b2 47be 93e3 88be
00000020: 8715 07be e632 a5be ab20 bdbe ece5 f4bd
00000030: b9fe bebd 872a b4be 2450 d6bd f4ed 41be
00000040: 5e37 98bd ef0a 913e eb14 b83e 8c61 dd3c
00000050: 739c 11be 6266 f4bd 36cf ad3e 2db0 d9be
00000060: 9ac9 8c3d 43c1 febd 3513 01bd 9b23 abbd
00000070: db2d 90be 1831 84be d359 53be 9cef d7be
00000080: df02 ce3e b779 ffbc 55dc 553e 358c aa3e
00000090: 937b 6a3e 5481 043e f6f9 af3e 5f50 8f3d
000000a0: ec39 55bd 7f99 0e3e a9d8 63bd ce60 1fbe
000000b0: cbcc b33c e57b c83e 3fb8 373e 1fb3 263e
000000c0: c616 2f3e 50a1 64be 56f0 9e3e 6607 2d3e
000000d0: fa4d e3bd 136f 863a 4a9e 3c3e 4d6f e4bd
000000e0: 3a62 813c 8a35 2c3e fa5e b3be 156b 033e
000000f0: dc7a 203e 0642 693e d56f 9bbe fcb8 89be
00000100: b2a0 4d3e 72f9 bf3e 9201 aa3e 8b21 f23d
00000110: fcbd b8bd 843f 533d d387 efbe 4295 83bd
00000120: dbe0 463e 1fa9 74be 0522 b8be 48be 753e
00000130: 783e 9cbd 245e b8be 43ee d1bd 67d5 9f3e
00000140: e1eb 923e 3c4c a73d 21f4 2abe 654d aabe
00000150: 75af c53e 40f9 4ebe 7d57 74bd 5f50 48be
00000160: c689 69be aa85 b6be 9e63 723e 7830 8cbe
00000170: 7f18 833d 9d47 2b3e 874b 823e 8e68 d2be
00000180: 24d5 09be 190a ccbe 5251 b6be be0c 913e
00000190: f3b0 7a3e b4b4 52bd 39ee 52be c99d adbe
000001a0: 40aa bb3e 1314 bc3e d71f 17be f014 adbd
000001b0: 9d4a 5dbe e68f 813e 50e4 25be 5698 2fbe
000001c0: d249 a2be 5238 b7be 2b0f 9d3d 7893 cb3e
000001d0: e98d 9dbe 8acf a43e b3f7 533e ab6a 1dbd
000001e0: 92ee 74be 2015 6d3e d257 9a3e 8e8a c03e
000001f0: 5984 ad3e ac2c 9c3d 44a5 ffbd 8f4e 703e
00000200: 0dd8 bbbd 2574 cdbc 2060 603e 55ed 213e
00000210: 0536 193d 677e 05bf c4b8 ac3e bf9e b1bc
00000220: dfdd 043e 6ced 03be 22b7 7ebd 62d9 913c
00000230: abd3 3fbe 80ae b73d efa9 f93b 0618 bf3e
00000240: 4a94 20be 079f 36be 84a2 fbbd ef04 173e
00000250: 2451 73be 6265 473e 900f b43d 27e8 afbe
00000260: 3a84 9e3d b45e 23be 12c7 0bbf df8c d7bc
00000270: eb9c 5dbe 5da9 af3e 1a37 773e 58f7 9fbd
00000280: 858f 303d b693 be3e f7c1 463e 81d2 1fbe
00000290: 86d5 cebe b79d 70be 24cb d7bc 41fb 6b3c
000002a0: 1e98 933e 809b bcbc 0e75 503e 40e9 6a3e
000002b0: 2a89 88be e79a e9bd 2be8 673d e7f9 bf3e
000002c0: 9685 2e3e ca4d 8bbe 5bdb 91bc 94c2 063e
000002d0: c4b9 1a3e 50a7 853e c7e9 afbd 47c3 bd3d
000002e0: a9b7 37be 1f43 883e 5fdc adbc e7b8 a5be
000002f0: 1f04 13be 1c31 1ebd c9a4 9b3e a7d3 643c
00000300: 5085 89be eadd dbbe 6457 b9be fcc7 953e
00000310: c443 263e d6b5 c8be 9e23 9dbb f7a8 723e
00000320: 6bf4 5c3d 94c1 adbe d6f0 8c3e b52f 913e
00000330: 5703 b1be 3151 cbbe 1ac8 9cbe 72e8 113e
00000340: 25aa 51be 53d5 b63e 1908 6d3e bee1 9bbe
00000350: 1889 bfbe 3dea 3fbe a486 75be d6a4 783e
00000360: c063 1ebd 564d b9bd 29d7 4dbd cef4 ba3e
00000370: 5efb c13e 0214 e5be 91e4 2b3d a25c 93be
00000380: 9077 ffbe d59e 883d 37c9 b43e 040b db3c
00000390: d99b c43b a93a 2abc ad55 7c3d 765f 7bbe
000003a0: d82f 40be 5a2b e8be e12c 5ebe 4997 8fbe
000003b0: 88d6 c6be e352 ee3d b38c 6dbd c21e dcbe
000003c0: e161 5fbe 0a4a adbd c184 8dbc 4997 ac3e
000003d0: b693 ab3e c39e de3d be6a d7be 66a6 9bbd
000003e0: 6ebe f33d 2aef 133e de76 37be 510b aa3c
000003f0: 7192 883d 11dd bd3e 2498 89be 2174 90be
-0.295497 0.30526015 0.41067132 0.17036839 -0.4560475 0.059207346 -0.19501814 -0.26736125
-0.13191806 -0.32265395 -0.36938986 -0.119579166 -0.09325928 -0.35188696 -0.10464504 -0.18938428
-0.074324355 0.28328654 0.3595346 0.027024053 -0.14219837 -0.119335905 0.33947152 -0.42517224
0.0687439 -0.124392055 -0.031512458 -0.083564006 -0.28159985 -0.25818706 -0.20639734 -0.42174995
0.40236565 -0.031185968 0.20884831 0.33310094 0.22898702 0.1293996 0.34370393 0.069977514
-0.05205719 0.13925742 -0.055626545 -0.15564272 0.021948239 0.39157024 0.17941378 0.16279267
0.17098531 -0.22327161 0.31042737 0.16897354 -0.11098857 0.0010256491 0.18419757 -0.111540414
0.015793908 0.16817299 -0.350334 0.12833817 0.15671867 0.22779092 -0.3035876 -0.26898944
0.20080832 0.37495 0.33204323 0.11822804 -0.09020612 0.051574245 -0.46783313 -0.06424953
0.19421713 -0.2389264 -0.35963455 0.23998368 -0.076291025 -0.36009324 -0.10250523 0.312175
0.28695586 0.081688374 -0.1669469 -0.33262172 0.38610426 -0.20212269 -0.059653748 -0.19561909
-0.22806463 -0.35648853 0.23670813 -0.2738073 0.06401157 0.16726537 0.25448248 -0.41095394
-0.13460213 -0.39851454 -0.35608917 0.28330034 0.24481563 -0.051441863 -0.20598687 -0.33909443
0.36653328 0.36734065 -0.1475824 -0.08451259 -0.21610494 0.25305098 -0.16200376 -0.17147955
-0.31696945 -0.35785156 0.07668909 0.39760947 -0.3077233 0.3218959 0.20699959 -0.038431805
-0.23919132 0.2315259 0.30145127 0.3760571 0.33890036 0.07625708 -0.12482694 0.23467468
-0.09172068 -0.025079796 0.21911669 0.15813191 0.037405033 -0.52146 0.33734715 -0.021682141
0.12975262 -0.12883538 -0.062186368 0.017803852 -0.18733089 0.0896883 0.0076191346 0.37323016
-0.15681568 -0.17834102 -0.12286857 0.14747976 -0.23761421 0.19472268 0.08792031 -0.34356806
0.07740064 -0.15954095 -0.5460063 -0.02631229 -0.2164189 0.343089 0.24142113 -0.07810849
0.04310562 0.3722207 0.19409929 -0.15607645 -0.4039728 -0.23497663 -0.026341982 0.014403165
0.28826994 -0.023023367 0.20357153 0.2294054 -0.26667148 -0.114064984 0.056617897 0.37495348
0.17043146 -0.27207786 -0.017804792 0.13160163 0.15109926 0.26104212 -0.08589511 0.09265762
-0.17941155 0.2661371 -0.021223245 -0.32367632 -0.14357041 -0.038621053 0.3039916 0.0139664775
-0.26859522 -0.42942744 -0.36199486 0.29254138 0.16236788 -0.3920123 -0.0047955057 0.23697267
0.053944033 -0.3393675 0.27527493 0.2835671 -0.3457286 -0.39710382 -0.30621415 0.14248827
-0.20475061 0.35709628 0.2314762 -0.30445665 -0.37409282 -0.18741699 -0.23977143 0.2428163
-0.038669348 -0.09047954 -0.05025402 0.36514896 0.3788709 -0.44741827 0.041966025 -0.2878161
-0.49895906 0.0667092 0.35309765 0.026738651 0.006000024 -0.010389962 0.061605144 -0.24548134
-0.18768251 -0.45345575 -0.21696807 -0.2804511 -0.3883555 0.11636903 -0.05799551 -0.42992216
-0.21814682 -0.084613875 -0.017275216 0.3370917 0.33511132 0.10870125 -0.42073625 -0.07600097
0.11901556 0.14446703 -0.17916438 0.02075735 0.066685565 0.37082723 -0.26873887 -0.282136

fc1.bias f4 [50]
00000000: aebe b4be 51d9 66be 648f a9bc 6777 f13d
00000010: 456a e83e 334e 843d 443c acbd c0ce cc3e
00000020: 9715 4bbe f0eb 0a3d 8366 2ebe 9091 4fbe
00000030: 317a 1e3e 7ba4 583e 3e73 e83c b875 5ebd
00000040: e228 82be 6bb4 d33e e191 b13d 58db 113d
00000050: 8441 68bd 74a4 6d3d 4a61 ab3e 77bb a7bd
00000060: 2e17 a03e 7fc9 5d3e 1e0d 223e e27e 4f3d
00000070: 4630 6bbc 01e6 b4bd a572 ab3d 9fd1 c3bd
00000080: f8a6 56bd 0b1a dabd 4ce8 8a3e 73a3 62be
00000090: a85a fcbd 5208 63bd 0a37 5d3e 5bc9 b03e
000000a0: 1435 a53e 7b3c 2cbe f5a7 163d 0815 a13d
000000b0: a0f6 7bbd 8f62 9abe 1a37 403b 3863 8abe
000000c0: 010e 1abe c12a 233e
-0.35301727 -0.22543837 -0.020698257 0.11790352 0.45393577 0.06460228 -0.08409932 0.40001488
-0.19832455 0.033916414 -0.17031293 -0.20270371 0.154763 0.21156494 0.028375264 -0.054311484
-0.25421816 0.41348585 0.08670402 0.035609573 -0.056703106 0.058018163 0.33472663 -0.08190053
0.31267685 0.21658896 0.15825316 0.050658114 -0.014354771 -0.08832932 0.08371476 -0.095614664
-0.052405328 -0.106494986 0.27130353 -0.22132663 -0.12321979 -0.055427857 0.21603027 0.34528622
0.32267058 -0.16819946 0.03678127 0.078653395 -0.061514497 -0.3015332 0.0029329718 -0.27028823
-0.15044405 0.15934278

fc2.weight f4 [50, 50]
00000000: eb0a 893d 55cc 4c3a e53b 5e3d 138b 9abd
00000010: f6cb 383e 432d 923d fd58 bbbd b779 43bc
00000020: 385a 3abc 8433 28be aaf0 52be 291e 41be
00000030: 1e36 5e3d 13db be3c da6e 82bd af39 bc3d
00000040: 1078 2ebe fbf9 3d3d faec 5dbd 0b71 dc3d
00000050: 7bef 853d e89b 773e 84d5 f8bd d768 083e
00000060: b4ef b73c ed1b f83b a0b8 37bd de52 64be
00000070: 2174 4ebe d814 8bbc 83b1 3fbd 9aa3 18bd
00000080: 0ea2 8b3d b9a6 643d e839 20be 8c00 36be
00000090: 50da acbd e3bf e0bd 5587 473d e631 203d
000000a0: f98d d3bc aebc d33d 7b8e e0bd 2bf9 f5bd
000000b0: f9b7 cd3d eab3 8fbd 6c81 be3d 546b d9bb
000000c0: 6195 073b 5816 833d 0c8f 983d b048 e13d
000000d0: 9903 473e 6214 e33d 1f9e a43e 09ad c1bd
000000e0: cbac 2cbd 9cb7 c33d b960 e13d fc8b 45bd
000000f0: 0599 c2bd d848 c7bd d162 11be 3806 ab3d
00000100: c41d 933d 1259 883d 1cc1 3f3d 6321 ebbc
00000110: 98ac 873d d7a3 69bd cb0e 3fbe 5643 5bbd
00000120: 580c 303b a854 d6bd 5cd7 ca3a 949d d83d
00000130: 168a eb3d 0f33 3bbc 178a cc3d 0e68 d7bc
00000140: f762 1abe e8a5 9dbd 57a6 e4bd cb0c 8ebd
00000150: c7ad cebd 783c 20be 9aef 91b9 1687 80be
00000160: 52ae 2d3e 288b 893c 570e a33c 4cb9 493d
00000170: 26ab f8bd 6828 933d ce36 5dbd d867 60be
00000180: 2e5a 55bd c72e af3c 5d52 55bd 3ae5 eb3d
00000190: 32b2 babd 8c8b 68bd 38db 283d 15e7 4fbd
000001a0: a8fd f0bd 86c8 0cbe b78f 9bbd ee6b 893d
000001b0: 0c9d ebbd 4edc 0a3e 04bc ed3c 0fb4 81bd
000001c0: e241 a73d 8066 d1bd 54d7 96bd 33f8 babd
000001d0: f286 0dbe 6190 98bd a72f 02be a2e3 533d
000001e0: 0bc8 083e ac73 a8bd f0f5 0bbe 210c cc3d
000001f0: 67fb 97bd c56f 62bd 4922 c3bd 52b1 aabd
00000200: 1108 c3bd 78e3 6ebd 5302 823c 49a1 033d
00000210: d5f6 883d c94a e43d 2a37 883d 0c37 54bd
00000220: e75d 5b3d ddde f73d b5ac 04bd f50b cdbc
00000230: b0e5 233d 1697 07bd 987d b0bc 8fd0 bf3c
00000240: cc5f 093e 8b64 3ebc 2fbe 01be de14 843c
00000250: 2117 efbd 101e 013e a5e9 3d3e 3f6f 1bbd
00000260: 4b40 25bd f34a 183e f086 0ebe 61ef 85bc
00000270: d4c0 94bd c46a df3d 65e2 dfbd 62a1 04be
00000280: 3d4f ef3c 4bb3 c9bb 936c 1bbe b50c 333e
00000290: 4bca a0bd b2de 7bbc e2fa 4cbe 9efe 253d
000002a0: 66f0 e93d 82f7 603e b195 c43d fb29 b13c
000002b0: 8fef ef3c ac9b 76bd d054 f33c b4fc b53d
000002c0: bf01 853d 52fd 5a3d aa65 7e3d 82e7 0abe
000002d0: 9826 dabd cad8 9b3d 31cc 56bc 6145 263e
000002e0: b4c6 d53b 8142 883a 1714 4abd d500 8b3c
000002f0: c737 903c fb53 a8bd a1ff 1abe ac80 99bd
00000300: 7df6 23bd e64a 073e 8ca3 0bbe 9577 103e
00000310: ac59 b73d a5f3 eabd 9517 fc3d f7e8 09bd
00000320: 82f2 8bbd e7ff 35bd 22dd 5a3d 0d9b c5bd
00000330: 4451 80bd 7aba 703d 844c 213d dfec 7cbd
00000340: d900 04bd 20b8 d33d 554d 2abe 38eb 06be
00000350: debb c13c fe8c a6bd a7bc 3dbd 3715 383e
00000360: 39dd 0b3e fa19 9b3d c425 303e d9cb 87be
00000370: fd5a 193e 5544 113e f9f9 19be 4461 583d
00000380: 5c94 793e c809 c73d d425 423d 8237 ec3d
00000390: 1cb2 f93d a883 73bd 4952 013e cf0c 023e
000003a0: 9844 ccbe f263 823e 0288 043e cd1d 333e
000003b0: b946 6bbd 1191 2c3e 120c 553d 96dd f53c
000003c0: f7ab 2cbd 304c 59bd b27c 4e3d 01d8 5ebe
000003d0: ea22 373e 903a 223d bffc 1f3d 9f77 c8bd
000003e0: 8040 3a3e b2c8 173e 05a4 06be 66ce 6bbd
000003f0: f86b a63c 00ab 363d 6cd9 f33c 7a73 06be
0.066915356 0.000781243 0.05425634 -0.075460576 0.18046555 0.07137539 -0.091478325 -0.011930875
-0.011374049 -0.16425902 -0.20599619 -0.18859161 0.05425083 0.023297822 -0.063687995 0.0919069
-0.17037988 0.046380978 -0.054181077 0.10763749 0.06539818 0.24180567 -0.121501 0.13321243
0.022453167 0.0075716884 -0.044853806 -0.22297236 -0.20161487 -0.016977713 -0.046800148 -0.037265398
0.06818019 0.05582306 -0.1564709 -0.17773646 -0.08440077 -0.109740995 0.048713047 0.039110087
-0.025824534 0.10338722 -0.10964676 -0.12010416 0.100448556 -0.07016738 0.09302029 -0.006635109
0.0020688402 0.06400746 0.07449159 0.11000192 0.19434966 0.11087872 0.32151887 -0.09456832
-0.042156976 0.09556505 0.110047765 -0.048229203 -0.095018424 -0.09730691 -0.14197852 0.083507955
0.07183412 0.06657614 0.046815023 -0.028702443 0.066247165 -0.057041015 -0.18657987 -0.053531013
0.0026862826 -0.10465366 0.0015475559 0.10576931 0.11500947 -0.011425748 0.09987276 -0.026294734
-0.15076815 -0.0769766 -0.11164539 -0.06936034 -0.10091739 -0.15648067 -0.00027835072 -0.25103062
0.16961029 0.016789988 0.019904299 0.04924898 -0.12142019 0.07185441 -0.054007344 -0.21914613
-0.052087955 0.02138461 -0.0520805 0.11518331 -0.09116019 -0.056773707 0.04122469 -0.050757486
-0.11767131 -0.13748369 -0.07595771 0.06710039 -0.11504564 0.13560602 0.029020317 -0.063331716
0.08166863 -0.102246284 -0.07365289 -0.091293715 -0.13821009 -0.07449413 -0.1271349 0.05173076
0.1335756 -0.08225188 -0.13668036 0.09963251 -0.07420998 -0.055282373 -0.09528024 -0.083346024
-0.09523023 -0.0583224 0.015870249 0.032136235 0.066877045 0.11147077 0.06651147 -0.05181031
0.05355635 0.12103055 -0.03239127 -0.025030116 0.04001397 -0.03310307 -0.021544263 0.023414878
0.1341545 -0.011620651 -0.12670206 0.016123232 -0.11674333 0.12609124 0.1854616 -0.03794789
-0.040344518 0.14872341 -0.13918662 -0.016349496 -0.072633415 0.10909036 -0.10931853 -0.12952188
0.029212588 -0.0061554066 -0.15178137 0.17485316 -0.07851084 -0.015372919 -0.20017579 0.040526025
0.114228055 0.21969417 0.09598864 0.021626463 0.029289035 -0.060207054 0.029703528 0.0888609
0.06494474 0.05346424 0.062108673 -0.13564876 -0.106518924 0.076097086 -0.013110206 0.16237403
0.0065239314 0.0010395796 -0.049335565 0.01696817 0.017604722 -0.08219143 -0.15136577 -0.07495245
-0.04002999 0.13212165 -0.13636607 0.14108117 0.089526504 -0.11472253 0.123091854 -0.03366944
-0.06833364 -0.0444335 0.053433545 -0.09648714 -0.062655 0.058771588 0.03937961 -0.061749335
-0.03222737 0.103378534 -0.16631062 -0.13175666 0.023649152 -0.08132361 -0.04632249 0.17976843
0.13658608 0.07573314 0.17201906 -0.2652271 0.14976116 0.14186223 -0.15036763 0.052827135
0.24373001 0.097186625 0.047399357 0.11534025 0.12192175 -0.05945173 0.12629046 0.12700199
-0.39896083 0.25466877 0.12942508 0.17491837 -0.057440493 0.16852213 0.052013464 0.030012887
-0.042156186 -0.053051174 0.050411887 -0.21762086 0.17884412 0.03960663 0.039059397 -0.09788441
0.18188667 0.14822653 -0.13148506 -0.057569884 0.020315155 0.044596672 0.02976676 -0.13129988

fc2.bias f4 [50]
00000000: b6b0 e63c 2ab3 0a3e 3359 b6bd 36cf c2bd
00000010: 7618 133d 0b3a 8abd e3e3 163e 9ee6 18be
00000020: fb50 5b3d b321 e8bd e274 0abe 9493 8d3d
00000030: 93cf 8d3b bd4e 9f3c 0195 213e 471a e13b
00000040: 7ccf 1fbd 5854 d5bb 5954 adbc 34e5 393e
00000050: af34 f7bc aab5 2f3e 89f2 6fbc 13c7 57bc
00000060: cb99 563d 77a9 33bd aa24 f1bd 4dd1 c33c
00000070: 3367 4c3e 2609 f4bd d31c aabd ef2f 36bd
00000080: 5145 1e3e 40da 4b3d 49cd 3a3e c41d 6f3d
00000090: a0ac 80bd 9842 1ebe bf59 503d f54f ffbc
000000a0: 6115 be3c 0009 a73d f8fe 37bc 0540 dabd
000000b0: b982 dcbd f8ca 5a3d 2810 01be 8064 dcbd
000000c0: 6cdd 9e3d 2254 e0bd
0.028160434 0.13544908 -0.08903732 -0.095121786 0.035912 -0.06749352 0.1473537 -0.14931723
0.053544026 -0.113345526 -0.1352115 0.06912914 0.0043277233 0.019446725 0.15779497 0.0068695876
-0.039016232 -0.0065102987 -0.021158384 0.1815384 -0.030176489 0.17159143 -0.014645227 -0.013170022
0.052392762 -0.043862786 -0.11774571 0.023903513 0.19961242 -0.119158074 -0.08306279 -0.044479307
0.1545613 0.049768686 0.18242373 0.058377996 -0.062829256 -0.15455091 0.05086684 -0.031166056
0.023203554 0.081560135 -0.011230223 -0.10656742 -0.10767121 0.053416222 -0.1260382 -0.10761356
0.077570766 -0.10953547

fc3.weight f4 [50, 50]
00000000: 930b 95bd d7b9 cebd e638 913b 7e71 8fbb
00000010: dc26 993d 38a0 80bc a7fd d2bb 2867 dabd
00000020: 4428 f73d c7fc 03be b9ed cd3d 449c 31bc
00000030: 8efd 8cbd 565c 1a3e 3fa5 8cbd cb1d db3d
00000040: f0c0 ba3d 4575 1abd 88bb 6d3d f0fa a8bd
00000050: 82f9 d63d 7994 fcbc fc48 c63d 3994 003e
00000060: 8433 4c3d a447 873d 4175 d5bd c848 d7bc
00000070: fc15 cd3d e507 893c 1f39 4c3c 2294 abbc
00000080: e62c aa3d 663b c03c 073a 1b3e 3522 18be
00000090: 5178 e63d ebde e73d 80f1 17bc 7fc6 3d3e
000000a0: 02b8 9fbd 4422 ea3c f589 203d e1f3 c3bc
000000b0: c5e7 803d 3696 ff3d 4548 843d b386 a6bd
000000c0: ce88 b13d 869c dbbc 33cf 74bd b3e2 80bd
000000d0: 2ca4 0dbe 7721 27bd 5c0d 973d 9d86 eabc
000000e0: 99eb 973d 644f 5cbc da99 933d 09f8 e8bb
000000f0: 19bf 073d 67ad 003e 979b 5cbd a56a 203e
00000100: 2ade d1bd 2542 47bd c642 bfbb 9d41 513c
00000110: d36b e03d 5214 783d 0218 a3bc e7c5 0a3e
00000120: 0fa8 a53d 5af1 7b3d fe85 aabc 090d 833e
00000130: 4a08 0c3d bc0f 513e 48b6 923d 5aa3 48bb
00000140: ea4b ccbd 12c7 10bd 9af5 6f3d 0739 9fbd
00000150: e9f0 273e 4637 dd3d 3134 c13d cfd2 5a3b
00000160: e549 11be 5b3c 563e 783e 2dbc 7370 3b3e
00000170: b7b8 423d 6782 7dbd 8644 8d3d 8a80 7fbe
00000180: d1bf 4e3d 1e23 9c3d 0d74 4fbd 01f7 983d
00000190: ab75 adbd 0178 7e3c 47cd 073e ebdd 7a3d
000001a0: 939c fb3d 5fc1 07bc cbb4 93ba 1462 9dbd
000001b0: 8ab0 14bd da26 afbd f2e0 e8bc 7f0f a63d
000001c0: 02c6 023d b435 dfbc 97a5 75bd 96f2 2a3e
000001d0: 20c8 f73d 0d37 543d 2663 89bd ca7d 9ebd
000001e0: c858 49bd 3bba aebc 95ae 11be 9bef 10bd
000001f0: 9264 423d 04d7 713e 7d2d 58bd 6ae4 913d
00000200: a8e3 2d3e ffd4 6dbe 8289 b03c 1cd0 a73d
00000210: 017a 6a3d 48cc 25bd 5ce3 653d befb 443e
00000220: f3f0 82bc 355e 82ba 454e 05be 6330 bcbd
00000230: 3ffa 463e ac71 edbd ed9c 9c3d 396d eabd
00000240: df5f 493e bc5b 1a3d 3d49 ab3d 4257 5bbd
00000250: 972a 423d 0820 0c3d 99da a2bd d7e5 603e
00000260: 94cc 933d 0529 823c d868 cdbd 271c e7bd
00000270: e695 583d 3d1b b33d a370 0fbe aba4 a9bd
00000280: 633b b9bd d45d 273c b412 283e 18af 573e
00000290: 4748 ebbc adf1 2f3e 4adf b3bd c9bc 1f3e
000002a0: 9dde 47bd a38b 213e d8f8 1d3e 7b07 7b3d
000002b0: 7d98 da3c a983 bcbc 6049 ca3b c923 8a3c
000002c0: 8c70 59bd c11a 3b3e faf6 993d d3ca 293e
000002d0: ae0f 983c 8f97 1f3c 151b 1c3d bbad 843d
000002e0: 58d6 333d 17cc 673c a8b0 28bc 1c4c 863d
000002f0: bae6 603d f6f1 e63c e521 6ebe 37c1 f0bc
00000300: 9524 c13d b2bd 8b3d 9ed0 c3bd a2dd 02bc
00000310: e370 053d fe1a 2abd e817 38be 5930 853d
00000320: 875f 3b3d b815 3c3d a2b4 a6bd bf91 a2bd
00000330: 97d0 9f3d 17b7 c5bd 3b9b 953d 373e a3bd
00000340: a55a 663d 2026 dcbd 8931 76bc bc77 02be
00000350: 19b6 80bd 8130 123d f37a 8c3d 50f6 3a3d
00000360: 27d9 7a3d 2ffb 033d 444e f63d d350 bb3c
00000370: e1d8 cf3d 5877 0c3e a74c 033e ad6d ba3d
00000380: dfcc c1bd 9e48 15bd ca63 d0bd 7c4e fb3d
00000390: e521 12be e837 083b e842 e339 e9b2 2a3e
000003a0: f310 dbbd 35a4 54bd 2bdf cb3d 52ae 3dbd
000003b0: bae9 c7b9 0432 79bd b727 233e 6465 da3d
000003c0: 4985 5cbd 931c c93d 61b5 71bd 853a 5b3d
000003d0: 5af8 d0bc eff7 46bd 8049 593c ef18 883d
000003e0: 0d9f 573d c341 dbbd 9fc3 82bc df56 2dbd
000003f0: e9cc 9ebd b5b7 b43d 378c 803d 79be 203d
-0.07277598 -0.1009404 0.0044318317 -0.004377543 0.07478115 -0.015701398 -0.006438929 -0.10664207
0.12068227 -0.12889396 0.100551076 -0.010840479 -0.06884299 0.15074286 -0.06867456 0.10699042
0.09118831 -0.037709493 0.05804017 -0.082509875 0.104968086 -0.030832516 0.096818894 0.12556542
0.049853817 0.06605461 -0.10422755 -0.026279822 0.10013959 0.016727397 0.012464791 -0.020944659
0.08309345 0.023465823 0.15158854 -0.14856799 0.11253417 0.11321815 -0.009273887 0.18532752
-0.077987686 0.028580792 0.039194066 -0.023920001 0.062942065 0.12479822 0.06459097 -0.081311606
0.086686715 -0.026808035 -0.059767913 -0.062932394 -0.13832158 -0.0408034 0.07375595 -0.028628642
0.074179836 -0.013446663 0.07207079 -0.007109646 0.03314123 0.12566148 -0.05385932 0.15665682
-0.102474526 -0.048647065 -0.0058368174 0.012771991 0.10958066 0.060566254 -0.019908909 0.13552056
0.08088695 0.061509468 -0.020815846 0.25595883 0.034187593 0.20416158 0.07163674 -0.0030614943
-0.09975417 -0.0353461 0.058583833 -0.07774549 0.16400494 0.10801558 0.09433783 0.0033389812
-0.14188345 0.20921461 -0.010573976 0.18304615 0.04753944 -0.06189194 0.068978354 -0.24951378
0.0504759 0.076238856 -0.050647784 0.07468987 -0.08469709 0.015531541 0.13261901 0.061246794
0.122857235 -0.008285849 -0.001126909 -0.076847225 -0.036301173 -0.08552332 -0.028427575 0.081084244
0.031927116 -0.027247287 -0.059972372 0.16694102 0.12098718 0.051810313 -0.06708364 -0.07738836
-0.049156934 -0.021329036 -0.14226754 -0.035384756 0.047459193 0.23617178 -0.052777756 0.07123645
0.16981375 -0.23225783 0.021549944 0.081939906 0.05724526 -0.04047802 0.05612503 0.19236657
-0.015984034 -0.0009946289 -0.13018139 -0.091889165 0.19431399 -0.11593947 0.07647119 -0.11446614
0.19665478 0.03768514 0.083635785 -0.053550012 0.047403898 0.034210235 -0.079518504 0.21962677
0.072167546 0.0158887 -0.10029763 -0.112846665 0.05287733 0.0874543 -0.14007811 -0.08283361
-0.0904453 0.010215241 0.16413385 0.21062887 -0.028720988 0.17182036 -0.087828234 0.1559936
-0.048796285 0.15775923 0.15426958 0.06128643 0.02668404 -0.023012 0.0061732978 0.016862767
-0.05308585 0.18271925 0.0751781 0.16581278 0.018562164 0.009740724 0.038111765 0.06478449
0.043905586 0.01414778 -0.010296024 0.065574855 0.054907538 0.028191548 -0.23255117 -0.029389007
0.094308056 0.06823291 -0.09561275 -0.007987412 0.03257836 -0.041529648 -0.1797787 0.06503362
0.0457454 0.04591915 -0.08139922 -0.07937955 0.07803457 -0.09654062 0.073049985 -0.07970851
0.05623879 -0.10749459 -0.015026459 -0.12740988 -0.06284732 0.03569079 0.06859388 0.04564506
0.06124225 0.03222197 0.12026647 0.022865688 0.10148788 0.13717401 0.1282221 0.0910295
-0.09462904 -0.036446206 -0.10175283 0.12270829 -0.14270742 0.0020785276 0.00043346663 0.16669811
-0.10696592 -0.051914413 0.09954675 -0.046308823 -0.00038130378 -0.060838714 0.15933119 0.1066387
-0.053838048 0.09819903 -0.059010867 0.053522605 -0.025509048 -0.04857629 0.013262153 0.06645381
0.052641917 -0.107059024 -0.01596242 -0.042319175 -0.07753927 0.08824102 0.06276744 0.03924415

fc3.bias f4 [50]
00000000: 4108 953d 7d9b 103d 4a82 6a3d a63d e63c
00000010: eeac 403e 0a1a 253d 64f0 433e f982 fb3c
00000020: 4461 0c3d 71cc 353e 4b46 9abc 1ece 7f3d
00000030: 8070 ed3c 186f b7bd 72e7 f2bc 0421 ec3d
00000040: c793 c03d c60f f93d 7de9 ac3d 2b4b 3c3e
00000050: 770e 243e 5d0c c93d 39a1 d33d 2880 5d3d
00000060: 137b 133e b7f2 a63d 3625 6bbc a750 9e3d
00000070: b9f8 9e3d 9963 4d3d f30f 103e 2c5c ef3d
00000080: 68c8 1d3e 9e8a c53a 38f0 4dbd 300e ef3d
00000090: cd86 903d 2a87 233c d20f d13d aef2 233e
000000a0: a2d9 3c3d b545 21bd d837 e13d 40ba 303e
000000b0: fa64 583c 9ae6 cebd a9e2 1cbd bd6e df3c
000000c0: d8bd ac3d 0cca 123e
0.07276965 0.035304535 0.05725316 0.028105568 0.18815967 0.040308036 0.1913467 0.030702101
0.034272447 0.1775377 -0.018832346 0.062452428 0.028984308 -0.08956736 -0.029651377 0.11529735
0.09403186 0.12161212 0.08442972 0.1838805 0.16021143 0.09816811 0.10333485 0.054077297
0.14402418 0.08151763 -0.0143521335 0.07730227 0.07762284 0.05014381 0.14068584 0.11687502
0.1540848 0.0015071218 -0.05027792 0.11672628 0.07056961 0.009980956 0.102080956 0.16010544
0.04610599 -0.03937312 0.109969795 0.17258549 0.013207668 -0.101025775 -0.038302097 0.027274484
0.08434647 0.14334887
