checkpointing_test/sigmoid_example_s12345/models/eval_checkpoint_400.pt (torch, 95431 bytes, 24 tensors)

fc1.weight f4 [50, 7]
-0.30431846 0.3292128 0.39728653 0.15469877 -0.46125236 0.04967729 -0.22379129 -0.2675861
-0.13207842 -0.32281706 -0.36992654 -0.119501606 -0.09305407 -0.35248485 -0.1264455 -0.1938655
-0.042781845 0.29258952 0.3513259 0.02788672 -0.16052032 -0.10643276 0.33400482 -0.3874049
0.080780625 -0.114914745 -0.017398361 -0.08964976 -0.26283565 -0.2858939 -0.18540573 -0.3850905
0.39665806 -0.05091754 0.23783259 0.31597292 0.22483568 0.12874667 0.34548473 0.076080784
-0.05706093 0.1461327 -0.06308954 -0.1588638 0.02342017 0.3822788 0.17543076 0.18640336
0.17377429 -0.24029955 0.3032805 0.16723977 -0.10931879 0.0033231108 0.17806815 -0.107586876
0.0021696244 0.15582128 -0.30805084 0.14774717 0.15065047 0.24253236 -0.3296522 -0.281389
0.20805709 0.3791687 0.33982107 0.12406719 -0.06830055 0.03982063 -0.33783165 -0.0642413
0.18280707 -0.21534623 -0.39508364 0.23765567 -0.05786105 -0.3521597 -0.1503552 0.28304476
0.2806656 -0.0013468551 -0.19539483 -0.27664834 0.36074796 -0.21205914 -0.032823876 -0.19001961
-0.2470947 -0.37913492 0.23360549 -0.29660362 0.03935475 0.17500213 0.23022264 -0.41833743
-0.13256165 -0.34167615 -0.30266845 0.31665897 0.2627475 -0.041739557 -0.17507817 -0.3409294
0.3492349 0.36647218 -0.15643351 -0.06460988 -0.17262532 0.24470514 -0.16249245 -0.16184168
-0.370383 -0.3370503 0.047861762 0.3534062 -0.27644125 0.3186169 0.19633445 -0.06353017
-0.24681813 0.22139941 0.2923837 0.38036624 0.32404196 0.06582039 -0.13053566 0.24062194
-0.0852143 -0.03297893 0.21636307 0.14885828 0.03518828 -0.38164937 0.2920618 -0.10008977
0.06638518 -0.117743775 -0.187507 -0.07152531 -0.16818069 0.115542114 -0.015021245 0.36085612
-0.12543425 -0.15344964 -0.10667256 0.13786879 -0.21100852 0.17260073 0.07563602 -0.34971604
0.048987214 -0.13444097 -0.41526487 -0.059178863 -0.25633594 0.32257473 0.2351439 -0.13416643
0.006310581 0.37165698 0.18837404 -0.1375071 -0.38320935 -0.24172182 -0.026683668 0.000120478435
0.25915694 -0.029456215 0.21480171 0.2246788 -0.26171088 -0.115209535 0.052897554 0.3550953
0.15670702 -0.2799186 -0.023016829 0.129415 0.13842559 0.2606825 -0.10702482 0.07708826
-0.1482357 0.26402417 -0.018959759 -0.287744 -0.1610372 -0.04735437 0.28331938 0.020005433
-0.25315157 -0.44436207 -0.35673076 0.28763726 0.15619351 -0.3927993 0.0110284975 0.23028095
0.052078128 -0.32936716 0.26703027 0.2919691 -0.3502272 -0.3715431 -0.32561448 0.1423644
-0.18589048 0.3487759 0.21603139 -0.315676 -0.33982858 -0.18494146 -0.24606197 0.26470834
-0.052410867 -0.09921782 -0.014419979 0.33968866 0.36785945 -0.4327435 0.019707885 -0.31844845
-0.40587562 0.06465042 0.35578412 0.010112424 -0.01218884 -0.06006802 0.06595204 -0.25670668
-0.19879334 -0.39802858 -0.18210904 -0.28199974 -0.34389573 0.10503504 -0.07505831 -0.39847392
-0.19944651 -0.08004643 -0.023477511 0.34968814 0.36619043 0.081686236 -0.41076785 -0.075070925
0.08867522 0.1455791 -0.17203715 0.01852059 0.05086301 0.33630222 -0.2703242 -0.29559043
00000000: a1cf 9bbe 958e a83e 2469 cb3e 5b69 1e3e
00000010: 4529 ecbe 6a7a 4b3d 8b29 65be 0c01 89be
00000020: 913f 07be 4748 a5be 0367 bdbe 42bd f4bd
00000030: 2293 bebd e578 b4be ee7a 01be ad84 46be
00000040: 043c 2fbd 4bce 953e fde0 b33e b172 e43c
00000050: 705f 24be 6bf9 d9bd ae02 ab3e ef59 c6be
00000060: 5070 a53d 6c58 ebbd 0287 8ebc 4b9a b7bd
00000070: 6592 86be af60 92be 00db 3dbe 952a c5be
00000080: c416 cb3e e98e 50bd 638a 733e 34c7 a13e
00000090: 533b 663e 2bd6 033e 60e3 b03e 3ed0 9b3d
000000a0: b9b8 69bd cfa3 153e 1735 81bd 31ad 22be
000000b0: a8db bf3c 0cba c33e 1fa4 333e 86e0 3e3e
000000c0: e3f1 313e 1611 76be 9547 9b3e e740 2b3e
000000d0: 88e2 dfbd 8cc8 593b 7f57 363e 8256 dcbd
000000e0: 4230 0e3b 9d8f 1f3e d7b8 9dbe 094b 173e
000000f0: 1e44 1a3e 675a 783e 2cc8 a8be 3812 90be
00000100: eb0c 553e 6622 c23e 07fd ad3e f016 fe3d
00000110: 29e1 8bbd f51a 233d 45f8 acbe f190 83bd
00000120: c731 3b3e b983 5cbe 6748 cabe 025c 733e
00000130: b5ff 6cbd 474e b4be b7f6 19be 3eeb 903e
00000140: 67b3 8f3e f588 b0ba 9515 48be daa4 8dbe
00000150: f5b3 b83e 0826 59be 5472 06bd 8094 42be
00000160: 6506 7dbe f91d c2be 4736 6f3e 6edc 97be
00000170: 7232 213d c233 333e 7cbf 6b3e 5330 d6be
00000180: 3ebe 07be 2df0 aebe 5cf7 9abe 2021 a23e
00000190: d786 863e 19f7 2abd b147 33be 4c8e aebe
000001a0: ebce b23e 3ea2 bb3e 1b30 20be 2f52 84bd
000001b0: b1c4 30be fc93 7a3e 6c64 26be d3b9 25be
000001c0: d7a2 bdbe db91 acbe b20a 443d a8f1 b43e
000001d0: b589 8dbe c121 a33e e60b 493e 1b1c 82bd
000001e0: e4bd 7cbe 87b6 623e 51b3 953e 5dbf c23e
000001f0: d4e8 a53e d7cc 863d 24ab 05be 9965 763e
00000200: d684 aebd ea14 07bd 488e 5d3e 4e6e 183e
00000210: 9621 103d 8c67 c3be 2089 953e defb ccbd
00000220: f4f4 873d a623 f1bd d601 40be dd7b 92bd
00000230: 8f37 2cbe 58a1 ec3d ab1b 76bc 22c2 b83e
00000240: d671 00be e721 1dbe 2577 dabd 7a2d 0d3e
00000250: 9e12 58be 3fbe 303e 0fe7 9a3d fb0d b3be
00000260: d1a6 483d e5aa 09be 999d d4be 8965 72bd
00000270: 773e 83be 8428 a53e 90c9 703e ed62 09be
00000280: fec8 ce3b d349 be3e 20e5 403e a9ce 0cbe
00000290: 0434 c4be ed85 77be b597 dabc 5ea9 fc38
000002a0: 38b0 843e 294e f1bc fbf4 5b3e 3312 663e
000002b0: f8fe 85be faf2 ebbd 1bab 583d 0dcf b53e
000002c0: ce77 203e 7e51 8fbe ca8d bcbc 5e85 043e
000002d0: 70bf 0d3e 2d78 853e d42f dbbd 73e0 9d3d
000002e0: 19cb 17be 2d2e 873e 7f51 9bbc 2e53 93be
000002f0: f0e6 24be a8f6 41bd 3d0f 913e 6fe2 a33c
00000300: 159d 81be 6d83 e3be 6aa5 b6be 3145 933e
00000310: 31f1 1f3e fd1c c9be dfb0 343c c5ce 6b3e
00000320: e04f 553d d0a2 a8be 31b8 883e f97c 953e
00000330: fb50 b3be e63a bebe f1b6 a6be f9c7 113e
00000340: 135a 3ebe c192 b23e 5537 5d3e 49a0 a1be
00000350: 03fe adbe 4b61 3dbe abf7 7bbe da87 873e
00000360: c7ac 56bd b632 cbbd c741 6cbc aceb ad3e
00000370: 1358 bc3e 8e90 ddbe 6e72 a13c ad0b a3be
00000380: eece cfbe 7067 843d 5629 b63e 95ae 253c
00000390: b3b3 47bc e209 76bd dd11 873d 0f6f 83be
000003a0: 7b90 4bbe 67ca cbbe cb7a 3abe 4562 90be
000003b0: 1a13 b0be 9c1c d73d 2cb8 99bd c604 ccbe
000003c0: b53b 4cbe 62ef a3bd e953 c0bc 530a b33e
000003d0: 507d bb3e 1d4b a73d 2a50 d2be c9be 99bd
000003e0: 5b9b b53d b012 153e 822a 30be 7eb8 973c
000003f0: bb55 503d ce2f ac3e ef67 8abe a157 97be

fc1.bias f4 [50]
-0.35895175 -0.22578293 -0.044066574 0.13863827 0.43652967 0.036531635 -0.09915604 0.38412097
-0.2258153 0.0148272235 -0.17059588 -0.221643 0.1547616 0.19629219 0.056431144 -0.067124695
-0.28411737 0.38208684 0.08274431 -0.038883053 -0.06033235 0.06698074 0.32413766 -0.089034185
0.27601442 0.18112555 0.1308046 0.04220358 -0.029308427 -0.08940927 0.07361237 -0.07997463
-0.037846725 -0.12023283 0.27023837 -0.25365365 -0.17902662 -0.118773416 0.22879028 0.30211225
0.30419958 -0.16359957 0.02079054 0.040162664 -0.05513816 -0.3036543 0.025802722 -0.2953193
-0.18419579 0.13374129
00000000: 86c8 b7be a433 67be 277f 34bd 31f7 0d3e
00000010: d180 df3e 32a2 153d 5212 cbbd 81ab c43e
00000020: 203c 67be e2ed 723c b0b0 2ebe 62f6 62be
00000030: d379 1e3e d200 493e 5824 673d ac78 89bd
00000040: d577 91be e3a0 c33e d975 a93d d643 1fbd
00000050: 0e1f 77bd 332d 893d 5ff5 a53e 8e57 b6bd
00000060: c351 8d3e fa78 393e a4f1 053e a9dd 2c3d
00000070: 3a18 f0bc 351c b7bd 15c2 963d bdc9 a3bd
00000080: 2b05 1bbd a13c f6bd af5c 8a3e e4de 81be
00000090: c152 37be 7a3f f3bd 0048 6a3e 75ae 9a3e
000000a0: 0cc0 9b3e a586 27be ec50 aa3c 9b81 243d
000000b0: 8dd8 61bd 9478 9bbe 3b60 d33c 1734 97be
000000c0: d29d 3cbe 7af3 083e

fc2.weight f4 [50, 50]
0.056677636 0.0008728781 0.07497407 -0.061992783 0.129607 0.07120037 -0.09159392 0.0072980463
-0.0071529835 -0.12388731 -0.15933779 -0.10116988 0.014882727 -0.009708555 -0.048569135 0.08865619
-0.15404607 0.061686493 -0.070720874 0.11239555 0.049944192 0.19784777 -0.10859101 0.104614824
0.019284746 -0.012561099 -0.017413607 -0.21993332 -0.20432726 -0.062488932 -0.054739285 -0.05938196
0.10416373 0.07234239 -0.16730958 -0.20064838 -0.0859502 -0.09232804 0.048985846 0.03936667
-0.04785147 0.075480714 -0.08645976 -0.076249264 0.09087302 -0.08089998 0.10260241 0.0043448843
-0.0007815661 0.045401886 0.101147756 0.110104196 0.15873887 0.0029949213 0.30073714 -0.093310125
-0.024241338 -0.007861875 -0.06107307 -0.051380873 -0.08100176 -0.047927532 -0.12251599 0.06627594
0.09543843 0.055267934 0.086497225 -0.02487542 0.034194797 -0.047049087 -0.15036336 -0.026204556
-0.0026736567 -0.10371028 0.032050207 0.09923552 0.036361743 0.0004127395 0.1448801 -0.018294713
-0.15083481 -0.04895561 -0.08183998 -0.109617606 -0.07000585 -0.13353005 -0.030103983 -0.13605618
0.14235494 0.013488826 0.039162222 0.049260583 -0.11458319 0.07188731 -0.014984133 -0.16906989
-0.070161276 0.022640659 -0.06058498 0.13110292 -0.09113068 -0.05673492 0.04118334 -0.050869294
-0.11778537 -0.13769965 -0.07611372 0.067131184 -0.115175255 0.13564445 0.029045215 -0.06338128
0.081631556 -0.102370635 -0.07373192 -0.09146384 -0.138272 -0.07457656 -0.12712504 0.051679675
0.13379684 -0.08231875 -0.13682446 0.09976107 -0.07437542 -0.05531174 -0.095427416 -0.083409764
-0.09533866 -0.058329538 0.015932908 0.03226333 0.06685883 0.11149648 0.06667166 -0.051886786
0.053590428 0.12119443 -0.03237554 -0.025048176 0.039972544 -0.033050027 -0.021481913 0.023332378
0.13425417 -0.011567978 -0.12669374 0.01606321 -0.116855904 0.12625802 0.18017396 -0.037947845
-0.058797464 0.16045934 -0.114590526 -0.02280587 -0.08044393 0.105596036 -0.11658089 -0.13841218
0.023347206 0.02684518 -0.116131194 0.16852821 -0.06468999 -0.028231045 -0.15143867 0.028805984
0.10438778 0.19266368 0.11561569 0.035116747 0.07380889 -0.044598423 0.037345164 0.083178535
0.11377893 0.07517948 0.053710733 -0.13557592 -0.08151907 0.08033696 -0.02421067 0.14337881
0.01352778 0.006594287 -0.026250973 0.071816295 0.054892257 -0.071970135 -0.12930752 -0.067386806
-0.050461188 0.07687415 -0.12209641 0.13763772 0.07988982 -0.12680191 0.11153404 -0.03535815
-0.075856596 -0.044419575 0.092438385 -0.08142527 -0.12165411 0.037860192 0.04257697 0.003546806
-0.033940203 0.14183624 -0.085427426 -0.03629666 0.011569026 -0.06893014 0.012046753 0.15313528
0.12975317 0.07518843 0.20071876 -0.032666583 0.17188524 0.08240106 -0.022640616 0.026791597
0.19961584 0.06067227 0.058437716 0.1185754 0.0866401 -0.08912663 0.11954135 0.10301293
-0.2788701 0.18936093 0.14017095 0.14959711 -0.08734422 0.17003398 0.039264467 0.0034764353
-0.0939746 -0.08031002 0.07511097 -0.121333584 0.1952558 0.043138925 0.038929783 -0.098943606
0.15015127 0.09365242 -0.13155042 -0.05750228 0.020288246 0.044738397 0.029695524 -0.13137019
00000000: cf26 683d dcd1 643a 018c 993d 25ec 7dbd
00000010: b3b7 043e 80d1 913d 9895 bbbd 7324 ef3b
00000020: 9363 eabb a1b8 fdbd 7229 23be 2732 cfbd
00000030: aed6 733c a210 1fbc 6ef0 46bd 6091 b53d
00000040: 41be 1dbe faaa 7c3d 1bd6 90bd a32f e63d
00000050: 4892 4c3d 9b98 4a3e f764 debd 4c40 d63d
00000060: 0bfb 9d3c 11cd 4dbc fba6 8ebc 3336 61be
00000070: 2a3b 51be 65f4 7fbd 4d36 60bd 803a 73bd
00000080: cb53 d53d 3f28 943d 3453 2bbe c576 4dbe
00000090: a906 b0bd 7c16 bdbd 62a5 483d f23e 213d
000000a0: e7ff 43bd a295 9a3d d111 b1bd 9328 9cbd
000000b0: a21b ba3d e4ae a5bd 3621 d23d 885f 8e3b
000000c0: 03e2 4cba 54f7 393d 8e26 cf3d 4f7e e13d
000000d0: 718c 223e 7146 443b 38fa 993e 6119 bfbd
000000e0: c595 c6bc 18cf 00bc c127 7abd c074 52bd
000000f0: 40e4 a5bd a94f 44bd aae9 fabd aebb 873d
00000100: 3975 c33d a160 623d 7525 b13d 89c7 cbbc
00000110: d80f 0c3d 8bb6 40bd daf8 19be f0aa d6bc
00000120: 8438 2fbb 0e66 d4bd 1447 033d fe3b cb3d
00000130: 0df0 143d f564 d839 735b 143e cbde 95bc
00000140: 7174 1abe ad85 48bd b89b a7bd 327f e0bd
00000150: 3a5f 8fbd 1abc 08be a19c f6bc 5052 0bbe
00000160: 7ec5 113e 3d00 5d3c 9168 203d 77c5 493d
00000170: 97aa eabd a739 933d 0280 75bc a820 2dbe
00000180: b7b0 8fbd e778 b93c f527 78bd d83f 063e
00000190: b9a2 babd e062 68bd ddaf 283d 525c 50bd
000001a0: 7539 f1bd 2301 0dbe 83e1 9bbd 137c 893d
000001b0: 01e1 ebbd 61e6 0a3e 3bf0 ed3c 0bce 81bd
000001c0: 722e a73d b2a7 d1bd c300 97bd 6551 bbbd
000001d0: 2d97 0dbe 98bb 98bd 112d 02be 11ae 533d
000001e0: 0a02 093e bc96 a8bd b61b 0cbe 884f cc3d
000001f0: 2452 98bd 908e 62bd 736f c3bd bdd2 aabd
00000200: ea40 c3bd f4ea 6ebd bb85 823c 8e26 043d
00000210: 48ed 883d 4458 e43d 278b 883d 3d87 54bd
00000220: a381 5b3d c934 f83d 379c 04bd d531 cdbc
00000230: 40ba 233d 775f 07bd d6fa afbc 8b23 bf3c
00000240: ed79 093e 9e87 3dbc 01bc 01be fe96 833c
00000250: 2652 efbd c849 013e 867f 383e 336f 1bbd
00000260: 9cd5 70bd 744f 243e 70ae eabd 60d3 babc
00000270: cabf a4bd bc42 d83d f6c1 eebd ecbb 0dbe
00000280: a442 bf3c 6cea db3c 31d6 edbd a992 2c3e
00000290: 2f7c 84bd cb44 e7bc bd12 1bbe 87fa eb3c
000002a0: 43c9 d53d a149 453e ebc7 ec3d 94d6 0f3d
000002b0: 1e29 973d d6ac 36bd 3ef7 183d 8259 aa3d
000002c0: ed04 e93d b3f7 993d c9ff 5b3d 6ad4 0abe
000002d0: 78f3 a6bd b487 a43d 7455 c6bc e5d1 123e
000002e0: 9fa3 5d3c e414 d83b 480c d7bc 6c14 933d
000002f0: b4d6 603d 1465 93bd 3169 04be 1802 8abd
00000300: 64b0 4ebd 3270 9d3d af0d fabd e7f0 0c3e
00000310: 469d a33d 5cd8 01be f56b e43d b5d3 10bd
00000320: b45a 9bbd 4df1 35bd 5650 bd3d 4bc2 a6bd
00000330: ca25 f9bd 4a13 1b3d 3065 2e3d 8871 683b
00000340: e204 0bbd 853d 113e 93f4 aebd ceab 14bd
00000350: 038c 3d3c 3f2b 8dbd bf5f 453c 7fcf 1c3e
00000360: 04de 043e 64fc 993d 3889 4d3e 65cd 05bd
00000370: af02 303e e3c1 a83d d078 b9bc 0d7a db3c
00000380: 1868 4c3e 7c83 783d 635c 6f3d a9d7 f23d
00000390: 5d70 b13d 0688 b6bd 18d2 f43d 71f8 d23d
000003a0: 10c8 8ebe d5e7 413e f988 0f3e fc2f 193e
000003b0: 87e1 b2bd 631d 2e3e c7d3 203d e8d4 633b
000003c0: c175 c0bd 9479 a4bd c8d3 993d be7d f8bd
000003d0: 23f1 473e 71b2 303d d674 1f3d f2a2 cabd
000003e0: 41c1 193e d7cc bf3d 27b5 06be 8387 6bbd
000003f0: 8933 a63c 9c3f 373d 0744 f33c e885 06be

fc2.bias f4 [50]
0.018114427 0.11095992 -0.08899742 -0.092019774 0.00058623665 -0.06767766 0.1324024 -0.1318236
0.047874916 -0.121300794 -0.14953086 0.07313186 0.0051736105 -0.001997613 0.14398216 -0.030053651
-0.05641232 -0.008839292 -0.042096674 0.1574295 -0.051673822 0.13713852 -0.02157095 -0.021364832
0.04614303 -0.040958814 -0.11800594 -0.007859903 0.15742043 -0.117914066 -0.09416031 -0.04453133
0.1263942 0.049797606 0.15535687 0.0705826 -0.079631 -0.1503925 0.05427042 -0.030000238
0.023763048 0.08835953 -0.014952392 -0.11155501 -0.10835163 0.054386273 -0.1257757 -0.13638082
0.09135174 -0.110093646
00000000: b564 943c f43e e33d 4844 b6bd dd74 bcbd
00000010: adad 193a 969a 8abd 7f94 073e c4fc 06be
00000020: 7d18 443d 8d6c f8bd 9e1e 19be 28c6 953d
00000030: 6487 a93b 63ea 02bb 0f70 133e 1333 f6bc
00000040: 9b10 67bd aed2 10bc 906d 2cbd 3335 213e
00000050: eea7 53bd 0a6e 0c3e 90b5 b0bc 4d05 afbc
00000060: 7900 3d3d 6ec4 27bd 19ad f1bd d3c6 00bc
00000070: d232 213e ee7c f1bd 1fd7 c0bd 7c66 36bd
00000080: 7b6d 013e 93f8 4b3d df15 1f3e 9c8d 903d
00000090: 9415 a3bd 7e00 1abe a94a 5e3d 0fc3 f5bc
000000a0: b9aa c23c d7f5 b43d e1fa 74bc f476 e4bd
000000b0: 76e7 ddbd 24c4 5e3d 58cb 00be 6aa7 0bbe
000000c0: 9f16 bb3d c778 e1bd

fc3.weight f4 [50, 50]
-0.09050774 -0.13624342 0.004402997 -0.029432371 0.032434992 -0.015754357 -0.015760511 -0.079090774
0.12071563 -0.12894142 0.10927618 -0.013395382 -0.09107845 0.14797461 -0.09175914 0.0877457
0.085241705 -0.058636673 0.06951665 -0.09924492 0.08020085 -0.06521284 0.0900843 0.109857
0.042653646 0.08787208 -0.10440683 -0.056443486 0.07700182 -0.028056152 0.017448852 -0.020709254
0.06808409 0.023546299 0.1275298 -0.15759578 0.08127623 0.08178246 -0.0064054946 0.16379763
-0.07648306 0.028520774 0.039177082 -0.045259524 0.059328817 0.08484124 0.06494711 -0.04973384
0.0727259 -0.026921367 -0.06799875 0.02667685 -0.13849653 0.009188196 0.06404783 -0.028717903
0.06730125 -0.014322637 0.14140442 0.038364287 0.044411983 0.13159458 -0.021192232 0.09990119
-0.03826852 -0.060201015 -0.008674916 -0.028266348 0.072637215 0.047273193 -0.010015316 0.15074058
0.08865683 0.013935482 -0.018006084 0.18587004 0.03433783 0.20468038 0.08764229 0.03424351
-0.114598915 -0.00816665 0.081426755 -0.077721156 0.14796472 0.14955597 0.028940344 -0.011434558
-0.0845494 0.19121674 -0.069366395 0.1445387 0.047462277 -0.07629598 0.037345774 -0.18010262
0.024180137 0.019485854 0.023440588 0.074679025 -0.095025234 -0.006900687 0.13278915 -0.044373512
0.12121042 -0.008356287 -0.004480657 -0.12659332 -0.072301224 -0.08553196 -0.04676736 0.041321214
0.034630172 -0.045288526 -0.0782594 0.14352114 0.12410114 0.050057955 -0.052681316 -0.06527795
-0.0427928 0.016014054 -0.06071291 -0.07295672 0.017169511 0.1786867 -0.052759748 0.08288774
0.14293315 -0.10015675 0.04939076 0.069839925 0.073895425 -0.040427577 0.0065865316 0.23502542
-0.044297658 0.08909036 -0.17033336 -0.10595107 0.17531022 -0.11608098 0.07649878 -0.11470994
0.18872811 -0.053731978 0.083745286 -0.097302176 -0.03376521 0.034325913 -0.072804876 0.113872476
0.07229392 0.03966427 -0.10925881 -0.11303118 0.031674933 -0.018745573 -0.1401051 -0.0802372
-0.10598956 0.01378349 0.1458829 0.17312154 -0.053396106 0.15865092 -0.094127156 0.14644267
-0.1179602 0.14144117 0.15089999 0.047966927 0.0038872876 -0.03927707 0.0034547162 0.029197248
-0.05301546 0.15452357 0.07376149 0.15826832 -0.05076022 -0.032222457 0.054950465 0.06480852
0.038607184 -0.060215537 -0.018326938 0.053492088 0.05737027 0.029235901 -0.16872327 -0.029479126
0.09445391 0.04717427 -0.11110341 -0.034628276 0.06414993 0.055164658 -0.1350184 0.06497572
0.017259574 -0.033908773 -0.08135729 -0.09341952 0.08239459 -0.09652802 0.03750016 -0.05837179
0.0563556 -0.107548244 -0.03011466 -0.10868374 -0.093857884 0.03584517 0.039610744 0.051665094
0.07233255 0.09481469 0.1220346 0.038086895 0.10176193 0.065882884 0.13016132 0.101957135
-0.105094045 -0.03667727 -0.1018955 0.028501024 -0.10876354 -0.11428851 -0.0024870546 0.15339284
-0.10203587 -0.052033946 0.14907402 -0.066517875 0.12755753 0.074230954 0.1250376 0.08042465
-0.008403846 0.098301396 -0.058952603 0.019789243 -0.045688774 0.036476802 0.02792212 0.04222305
0.114271425 -0.10707556 -0.074575886 -0.0017586532 -0.07758944 0.03349781 0.03231539 0.039253436
00000000: 1f5c b9bd 6583 0bbe 0447 903b 281c f1bc
00000010: 8eda 043d 480f 81bc 301c 81bc 58fa a1bd
00000020: c239 f73d 3809 04be 31cc df3d 4e78 5bbc
00000030: 5787 babd a886 173e 37ec bbbd 04b4 b33d
00000040: 3493 ae3d 022d 70bd bf5e 8e3d ec40 cbbd
00000050: 5840 a43d 4f8e 85bd 1e7e b83d b5fc e03d
00000060: 97b5 2e3d 47f6 b33d 40d3 d5bd 4931 67bd
00000070: 21b3 9d3d 04d6 e5bc e5f0 8e3c 74a6 a9bc
00000080: ac6f 8b3d 2be4 c03c 2c97 023e ca60 21be
00000090: 2774 a63d 907d a73d 2fe5 d1bb 91ba 273e
000000a0: 27a3 9cbd 66a4 e93c 2678 203d 0d62 39bd
000000b0: c602 733d 3ec1 ad3d fe02 853d b6b5 4bbd
000000c0: 51f1 943d 338a dcbc ee42 8bbd 6989 da3c
000000d0: 09d2 0dbe 168a 163c 822b 833d cf41 ebbc
000000e0: 3dd5 893d 7ea9 6abc 52cc 103e df23 1d3d
000000f0: 57e9 353d bbc0 063e 559b adbc ff98 cc3d
00000100: 74bf 1cbd 5795 76bd 3c21 0ebc d48e e7bc
00000110: d2c2 943d 89a1 413d 4817 24bc bd5b 1a3e
00000120: b691 b53d a651 643c 7f81 93bc b754 3e3e
00000130: d3a5 0c3d bc97 513e cd7d b33d ec42 0c3d
00000140: d6b2 eabd 6acd 05bc 12c3 a63d 452c 9fbd
00000150: 1084 173e 3325 193e 4d14 ed3c 0358 3bbc
00000160: 3c28 adbd 52ce 433e f80f 8ebd f401 143e
00000170: ce67 423d 1141 9cbd e2f7 183d d26c 38be
00000180: 6c15 c63c cca0 9f3c 7a06 c03c 51f1 983d
00000190: 979c c2bd 281f e2bb e1f9 073e 00c1 35bd
000001a0: 2b3d f83d cfe8 08bc 7ad2 92bb aea1 01be
000001b0: aa12 94bd 612b afbd 228f 3fbd 6f40 293d
000001c0: 5ed8 0d3d 7680 39bd 7746 a0bd 35f7 123e
000001d0: bd28 fe3d 9209 4d3d 5dc8 57bd 72b0 85bd
000001e0: 8147 2fbd e82f 833c 1aae 78bd 556a 95bd
000001f0: 13a7 8c3c a5f9 363e 9b1a 58bd 0cc1 a93d
00000200: 115d 123e fb1e cdbd f74d 4a3d 3c08 8f3d
00000210: 7c56 973d 6397 25bd d5d3 d73b 81aa 703e
00000220: 7671 35bd 0275 b63d de6b 2ebe e0fc d8bd
00000230: 8684 333e ddbb edbd 64ab 9c3d 0ced eabd
00000240: f141 413e 1016 5cbd a682 ab3d 5d46 c7bd
00000250: 644d 0abd 5499 0c3d b91a 95bd f935 e93d
00000260: d60e 943d 0077 223d 15c3 dfbd e47c e7bd
00000270: 93bd 013d 5190 99bc b677 0fbe 6753 a4bd
00000280: 0e11 d9bd 26d4 613c 5462 153e c646 313e
00000290: e0b5 5abd 6375 223e bdc5 c0bd 11f5 153e
000002a0: 1e95 f1bd f4d5 103e 8785 1a3e f878 443d
000002b0: ddc1 7e3b fee0 20bd 8568 623b 112f ef3c
000002c0: bd26 59bd 6d3b 1e3e 4410 973d 1711 223e
000002d0: f3e9 4fbd b2fb 03bd bd13 613d 54ba 843d
000002e0: 9122 1e3d 91a4 76bd 6022 96bc 851a 5b3d
000002f0: 17fd 6a3d 2180 ef3c cbc5 2cbe 357e f1bc
00000300: 0d71 c13d cf39 413d 2f8a e3bd 61d6 0dbd
00000310: 0a61 833d 56f4 613d 4342 0abe fe11 853d
00000320: f363 8d3c ede3 0abd a79e a6bd bc52 bfbd
00000330: 7fbe a83d 7cb0 c5bd c599 193d 4217 6fbd
00000340: 21d5 663d 4142 dcbd 05b3 f6bc 9595 debd
00000350: 9038 c0bd 63d2 123d e03e 223d c79e 533d
00000360: 1723 943d 342e c23d 47ed f93d 0101 1c3d
00000370: 8f68 d03d 9bed 863d 0249 053e e7ce d03d
00000380: 8c3b d7bd e83a 16bd 97ae d0bd fb7a e93c
00000390: 6bbf debd 1810 eabd dafd 22bb 0313 1d3e
000003a0: 2ff8 d0bd 8c21 55bd dca6 183e 863a 88bd
000003b0: 719e 023e 6606 983d db09 003e aeb5 a43d
000003c0: 49b0 09bc 3e52 c93d 4978 71bd 0d1d a23c
000003d0: 2724 3bbd b368 153d eebc e43c 14f2 2c3d
000003e0: 2307 ea3d 6e4a dbbd 3ebb 98bd 9c82 e6ba
000003f0: 36e7 9ebd 0035 093d 245d 043d 36c8 203d

fc3.bias f4 [50]
0.059094205 0.055543937 0.062492117 0.015978416 0.18011816 0.024101527 0.19886832 0.01223836
0.053227007 0.14124092 -0.028763609 0.05933179 0.029133033 -0.097313814 -0.041403666 0.09924632
0.07752887 0.100781545 0.09266501 0.16116633 0.14409359 0.09793361 0.1171686 0.049547907
0.14488283 0.08966049 -0.020422598 0.068576574 0.077615514 0.037550606 0.13772258 0.12732871
0.1449784 -0.0014510162 -0.06394047 0.10760386 0.07180113 -0.0119134635 0.10601175 0.13562159
0.04613874 -0.050242223 0.07570531 0.1420742 0.0020051608 -0.10388388 -0.0456671 0.02065321
0.07108449 0.1359736
00000000: c40c 723d 0a82 633d bcf7 7f3d 2be5 823c
00000010: e570 383e 9170 c53c 23a4 4b3e 6783 483c
00000020: 9004 5a3d 76a1 103e a9a1 ebbc e405 733d
00000030: 66a8 ee3c 774c c7bd e496 29bd a841 cb3d
00000040: 75c7 9e3d 8e66 ce3d 27c7 bd3d c908 253e
00000050: 458d 133e 6b91 c83d 17f6 ef3d bff2 4a3d
00000060: 2a5c 143e eb9f b73d 4b4d a7bc e071 8c3d
00000070: e2f4 9e3d aace 193d 2607 0d3e 7562 023e
00000080: 3875 143e 0630 beba 39f3 82bd 6a5f dc3d
00000090: 790c 933d b030 43bc b01c d93d 63e0 0a3e
000000a0: fafb 3c3d caca 4dbd 630b 9b3d e67b 113e
000000b0: 0469 033b 12c1 d4bd 6d0d 3bbd ec30 a93c
000000c0: bf94 913d aa3c 0b3e

fc1.weight f4 [50, 7]
-0.30727202 0.34252733 0.39846468 0.1532293 -0.41697174 0.059426486 -0.23737937 -0.2629975
-0.12881547 -0.31950733 -0.35896078 -0.1210857 -0.09723774 -0.34030357 -0.123944744 -0.1902618
-0.0347106 0.28425455 0.3429929 0.032490212 -0.16104819 -0.0950558 0.323248 -0.38111287
0.0850967 -0.10672017 -0.012039632 -0.103151314 -0.2692633 -0.28561866 -0.18170933 -0.3706039
0.37201053 -0.056673113 0.22422262 0.30669978 0.22264312 0.12009862 0.3328266 0.08081495
-0.04937054 0.14032494 -0.058665004 -0.14541946 0.025229948 0.3686767 0.1743886 0.18819754
0.1741799 -0.24226753 0.2861971 0.16801554 -0.103669725 0.006026689 0.17217943 -0.102301694
0.004253402 0.15075041 -0.30013156 0.14619163 0.14077727 0.2459518 -0.31988508 -0.28189933
0.20542087 0.37087554 0.33726665 0.11071883 -0.07066673 0.04132484 -0.2981297 -0.0715952
0.13967995 -0.23621184 -0.3775166 0.19879024 -0.061609674 -0.36679837 -0.11388111 0.27891478
0.27063552 -0.015565465 -0.18470387 -0.26416013 0.34338224 -0.21757807 -0.033667635 -0.20161214
-0.2177032 -0.35950494 0.24329945 -0.31913596 0.0133822085 0.18098341 0.20566554 -0.38151005
-0.1310406 -0.31491077 -0.28495133 0.33544007 0.25219265 -0.037726842 -0.15664811 -0.33830404
0.34162503 0.34974885 -0.16046804 -0.05587981 -0.1851649 0.23789285 -0.16197199 -0.1694124
-0.3644344 -0.33105376 0.046177305 0.34368858 -0.2603012 0.30680048 0.18850636 -0.06797939
-0.24680768 0.22253115 0.2858266 0.37190717 0.32397982 0.06767477 -0.13040343 0.24178414
-0.08254576 -0.029269308 0.20634617 0.13959259 0.036143385 -0.35643813 0.28259686 -0.13122007
0.06521891 -0.123427056 -0.19004045 -0.07511637 -0.16504382 0.11725058 -0.016919632 0.34786746
-0.11855695 -0.14658593 -0.10219908 0.12058723 -0.21982338 0.14269696 0.03960708 -0.32180536
0.012021189 -0.12610742 -0.38993615 -0.080012225 -0.2726944 0.29403538 0.23772205 -0.13583346
-0.012815735 0.36490738 0.17957844 -0.13505404 -0.37354606 -0.23952495 -0.026248392 -0.0028100652
0.24784045 -0.024007572 0.20392396 0.21657336 -0.24993189 -0.10659948 0.052752327 0.3411066
0.15039597 -0.28518167 -0.048825644 0.12497325 0.13173841 0.25752312 -0.087540604 0.057050955
-0.13418485 0.25819507 0.0018961019 -0.26857573 -0.16134962 -0.063351616 0.25911522 0.02924481
-0.2501541 -0.43905237 -0.34572065 0.27888694 0.15263219 -0.38955754 0.0048003853 0.21877632
0.041716672 -0.32759327 0.25897056 0.29145262 -0.34379873 -0.36280718 -0.31182402 0.14366813
-0.17543928 0.34346166 0.20710032 -0.3248107 -0.3295152 -0.18232088 -0.22424893 0.25737724
-0.05167963 -0.11134175 -0.0046347464 0.3450336 0.34335804 -0.42039615 0.045565344 -0.30115056
-0.36664033 0.059888832 0.33539477 -0.02160374 -0.019473303 -0.08640673 0.049418837 -0.27996945
-0.20412676 -0.37407118 -0.18160103 -0.25851023 -0.31248632 0.10420836 -0.069239154 -0.36908618
-0.19120914 -0.06970626 -0.016223986 0.33626974 0.37205714 0.08318183 -0.40352148 -0.07264092
0.08981823 0.14166388 -0.1570785 0.024817258 0.057661347 0.32382432 -0.25766638 -0.28924626
00000000: c252 9dbe be5f af3e 9003 cc3e 24e8 1c3e
00000010: 527d d5be 3069 733d 9413 73be 9ca7 86be
00000020: 34e8 03be 7796 a3be b5c9 b7be c8fb f7bd
00000030: 9524 c7bd 453c aebe bed6 fdbd fdd3 42be
00000040: b42c 0ebd d089 913e c49c af3e 7514 053d
00000050: d1e9 24be 9eac c2bd c380 a53e 3a21 c3be
00000060: 2e47 ae3d 1b90 dabd e041 45bc ff40 d3bd
00000070: e1dc 89be 9c3c 92be 0312 3abe cbbf bdbe
00000080: 2a78 be3e 1122 68bd 9d9a 653e c107 9d3e
00000090: 8ffc 633e 44f6 f53d 4068 aa3e 4f82 a53d
000000a0: c338 4abd 57b1 0f3e b74a 70bd d7e8 14be
000000b0: 09af ce3c 31c3 bc3e ed92 323e dbb6 403e
000000c0: 375c 323e fb14 78be 6d88 923e 440c 2c3e
000000d0: cb50 d4bd 887b c53b ce4f 303e 8d83 d1bd
000000e0: 1f60 8b3b 515e 1a3e d8aa 99be 42b3 153e
000000f0: eb27 103e cada 7b3e fac7 a3be 1c55 90be
00000100: d959 523e 66e3 bd3e 37ae ac3e 8ec0 e23d
00000110: b8b9 90bd 3c44 293d 75a4 98be 81a0 92bd
00000120: 4308 0f3e 84e1 71be db49 c1be ab8f 4b3e
00000130: 6d5a 7cbd ffcc bbbe 803a e9bd ebcd 8e3e
00000140: bd90 8a3e 4b06 7fbc 0323 3dbe ff3f 87be
00000150: cccf af3e c9cc 5ebe 13e7 09bd 6a73 4ebe
00000160: 96ed 5ebe 0811 b8be 7e23 793e ca65 a3be
00000170: 0d41 5b3c b753 393e fd99 523e 4955 c3be
00000180: 822f 06be fc3b a1be 24e5 91be cdbe ab3e
00000190: 651f 813e 7687 1abd 5d68 20be 3036 adbe
000001a0: 7ae9 ae3e 4812 b33e bc51 24be 3ae2 64bd
000001b0: de9b 3dbe 2f9a 733e fcdb 25be 727a 2dbe
000001c0: 2597 babe e17f a9be 6a24 3d3d f3f7 af3e
000001d0: 3346 85be f414 9d3e d007 413e c738 8bbd
000001e0: 27bb 7cbe 35df 633e dd57 923e 9e6a be3e
000001f0: afe0 a53e 1299 8a3d 7a88 05be 4396 773e
00000200: c00d a9bd 30c6 efbc 694c 533e 5cf1 0e3e
00000210: 160b 143d 0f7f b6be 89b0 903e 8e5e 06be
00000220: 7e91 853d 53c7 fcbd f799 42be 9dd6 99bd
00000230: 3f01 29be 1221 f03d 0a9b 8abc af1b b23e
00000240: fccd f2bd 9f1a 16be c04d d1bd 70f6 f63d
00000250: 6119 61be 271f 123e 093b 223d acc3 a4be
00000260: 85f4 443c 4e22 01be b6a5 c7be 73dd a3bd
00000270: 9a9e 8bbe ce8b 963e 696d 733e ed17 0bbe
00000280: 17f9 51bc 24d5 ba3e 69e3 373e 9b4b 0abe
00000290: 6e41 bfbe 0746 75be de06 d7bc 1229 38bb
000002a0: e3c9 7d3e 87ab c4bc 71d1 503e 68c5 5d3e
000002b0: 25ee 7fbe d450 dabd d312 583d 86a5 ae3e
000002c0: 6701 1a3e 5503 92be 66fd 47bd faf1 ff3d
000002d0: 6fe6 063e 12da 833e 7d48 b3bd 43ae 693d
000002e0: c167 09be 2532 843e 9f86 f83a c282 89be
000002f0: d638 25be 7ebe 81bd c0aa 843e d092 ef3c
00000300: 3314 80be 79cb e0be 4c02 b1be 45ca 8e3e
00000310: 9d4b 1c3e 1674 c7be 8d4c 9d3b e606 603e
00000320: 1adf 2a3d 4eba a7be ca97 843e 4739 953e
00000330: 6306 b0be ddc1 b9be 66a7 9fbe bd1d 133e
00000340: 5ba6 33be 35da af3e 1b12 543e 974d a6be
00000350: 37b6 a8be 53b2 3abe 83a1 65be f3c6 833e
00000360: 05ae 53bd 2507 e4bd 12df 97bb 3ea8 b03e
00000370: a0cc af3e 2a3e d7be baa2 3a3d 6830 9abe
00000380: 48b8 bbbe fe4d 753d ddb8 ab3e 54fa b0bc
00000390: 7a86 9fbc 03f6 b0bd 686b 4a3d 2858 8fbe
000003a0: 9b06 51be 4286 bfbe 9ff5 39be 745b 84be
000003b0: 35fe 9fbe 316b d53d 42cd 8dbd ddf8 bcbe
000003c0: 54cc 43be 28c2 8ebd 2ae8 84bc 8c2b ac3e
000003d0: 467e be3e 3c5b aa3d 5e9a cebe c3c4 94bd
000003e0: 9ff2 b73d 5610 113e 30d9 20be 904d cb3c
000003f0: 4e2e 6c3d 4dcc a53e d9ec 83be 1618 94be

fc1.bias f4 [50]
-0.34572697 -0.21876423 -0.060733754 0.1387948 0.40430817 0.027657483 -0.0947541 0.3718124
-0.23336217 -0.0028509786 -0.18431996 -0.22511007 0.14272736 0.17516764 0.07175246 -0.07998472
-0.28009835 0.37087765 0.08834892 -0.04004964 -0.06919578 0.04790352 0.3097348 -0.07905436
0.26547837 0.1694126 0.11719636 0.031148484 -0.025653262 -0.074514195 0.051218748 -0.07644896
-0.03932409 -0.13145581 0.27148643 -0.25571916 -0.1916788 -0.120285735 0.20335215 0.26721287
0.2910456 -0.15405372 0.015839396 0.04414025 -0.049122315 -0.29036608 0.02979172 -0.29925388
-0.19457527 0.119096614
00000000: 2003 b1be bb03 60be f5c3 78bd 3920 0e3e
00000010: 7b01 cf3e f291 e23c 700e c2bd 325e be3e
00000020: 7ef6 6ebe 7cd7 3abb 5fbe 3cbe 4183 66be
00000030: 1f27 123e 255f 333e f4f2 923d 07cf a3bd
00000040: 0d69 8fbe ade3 bd3e 47f0 b43d 170b 24bd
00000050: 84b6 8dbd 7b36 443d 8f95 9e3e 41e7 a1bd
00000060: c8ec 873e 7f7a 2d3e a504 f03d 1b2b ff3c
00000070: ca26 d2bc e69a 98bd c0ca 513d 4691 9cbd
00000080: 4c12 21bd 5a9c 06be 4500 8b3e 9fed 82be
00000090: 7347 44be 5e58 f6bd 8c3b 503e 20d0 883e
000000a0: ee03 953e 42c0 1dbe 9fc1 813c 68cc 343d
000000b0: 7b34 49bd ddaa 94be c40d f43c ce37 99be
000000c0: bd3e 47be ede8 f33d

fc2.weight f4 [50, 50]
0.0563705 -0.0009956466 0.090876624 -0.056396376 0.07999005 0.073171094 -0.085198715 0.0100235855
-0.00020590296 -0.10337212 -0.123909056 -0.078539014 -0.0011246561 -0.012844172 -0.03490032 0.08229059
-0.14971443 0.06566827 -0.07159682 0.115257025 0.055399355 0.1626561 -0.09342594 0.097243905
0.020319045 -0.015809527 -0.008484419 -0.19560571 -0.1975598 -0.06873282 -0.052524332 -0.063296415
0.12669076 0.0749608 -0.1687444 -0.18769893 -0.08353557 -0.089186 0.045595538 0.042316325
-0.061507832 0.06886491 -0.07588151 -0.0760856 0.06935369 -0.07125878 0.10309321 0.010871463
-0.0022661092 0.038005978 0.11274268 0.10802164 0.13643117 -0.0338717 0.25066522 -0.094314404
-0.03313192 -0.0201429 -0.0944673 -0.056906328 -0.06983243 -0.041584525 -0.12536697 0.075177036
0.08527634 0.05065689 0.09605522 -0.03136656 0.027977005 -0.04374734 -0.13401614 0.0048697013
0.0061479355 -0.10196747 0.033369772 0.089568585 0.049007554 -0.012007157 0.1326062 -0.024668494
-0.12114413 -0.029355587 -0.07859 -0.107651785 -0.08852412 -0.13710338 -0.029860577 -0.13583495
0.14448184 0.014522501 0.039947752 0.050366957 -0.12146081 0.071208164 -0.062090196 -0.15315825
-0.07106743 0.01548185 -0.058854103 0.12364252 -0.09172373 -0.05752224 0.042023476 -0.048590172
-0.115455054 -0.13328314 -0.07293264 0.066501334 -0.11252436 0.13487126 0.02853813 -0.06236836
0.08238626 -0.09982648 -0.07212388 -0.087988645 -0.13700128 -0.07289395 -0.1273285 0.05271719
0.12926947 -0.08095917 -0.13389422 0.09713837 -0.0710006 -0.054714352 -0.092417285 -0.08210442
-0.09313123 -0.05818404 0.014655209 0.029672572 0.067235164 0.1109707 0.063406624 -0.050322756
0.052892365 0.117856786 -0.03269884 -0.024680704 0.0408199 -0.034131017 -0.022753451 0.025013283
0.13223194 -0.012642209 -0.12685277 0.017285664 -0.11456359 0.12285557 0.15975247 -0.037949722
-0.039299592 0.15109897 -0.10029482 -0.021222068 -0.07568735 0.10354019 -0.11361653 -0.13482423
0.06936848 0.05792554 -0.10898822 0.15406583 -0.0694225 -0.03135895 -0.09525382 0.031240327
0.098774426 0.16546914 0.09734111 0.032913946 0.09507528 -0.042533465 0.037672147 0.07935762
0.10696129 0.07925123 0.05704863 -0.1363927 -0.07283453 0.061025217 -0.009591489 0.1423833
0.017921455 0.008416906 -0.025720267 0.08037914 0.07425078 -0.0776547 -0.11773014 -0.057178643
-0.04751517 0.07763132 -0.08974839 0.12838791 0.07766469 -0.12246174 0.108274505 -0.030834563
-0.0851241 -0.044702083 0.09782873 -0.09530258 -0.12254479 0.021187373 0.03764369 0.0116654355
-0.0457635 0.14048879 -0.042184994 -0.005513143 -0.013957098 -0.06361076 0.02994058 0.13322666
0.13980131 0.0738716 0.19458629 -0.007347157 0.13990837 0.049672343 0.034246475 0.015578639
0.17291851 0.044372994 0.028918656 0.10984342 0.06671315 -0.10772099 0.08017158 0.072447665
-0.21763927 0.14306338 0.13162456 0.1337545 -0.104580276 0.1406427 0.016715702 -0.025893854
-0.110850625 -0.07571147 0.078420036 -0.11765872 0.2197182 0.035361007 0.021043433 -0.10477871
0.12059339 0.082103275 -0.13021483 -0.058879733 0.020835487 0.041845508 0.03114628 -0.12993516
00000000: c1e4 663d 5b80 82ba 861d ba3d e3ff 66bd
00000010: d3d1 a33d bada 953d aa7c aebd f739 243c
00000020: a8e7 57b9 c3b4 d3bd 08c4 fdbd 10d9 a0bd
00000030: 3269 93ba 5d70 52bc a3f3 0ebd f887 a83d
00000040: bd4e 19be 167d 863d 5ba1 92bd e00b ec3d
00000050: 6fea 623d 528f 263e 1956 bfbd d027 c73d
00000060: 2074 a63c fb82 81bc 3c02 0bbc dd4c 48be
00000070: 1e4d 4abe cbc3 8cbd c123 57bd 8da1 81bd
00000080: 39bb 013e 0c85 993d 55cb 2cbe 2634 40be
00000090: b214 abbd 26a7 b6bd 63c2 3a3d e253 2d3d
000000a0: a3ef 7bbd 0c09 8d3d c467 9bbd c4d2 9bbd
000000b0: 4f09 8e3d 20f0 91bd 8822 d33d 391e 323c
000000c0: 0183 14bb 28ac 1b3d a2e5 e63d 733a dd3d
000000d0: 9db4 0b3e 0dbd 0abd 3157 803e e927 c1bd
000000e0: 56b5 07bd b902 a5bc 1278 c1bd 9c16 69bd
000000f0: 4e04 8fbd 8954 2abd 3360 00be 6bf6 993d
00000100: 5da5 ae3d 997d 4f3d 99b8 c43d 397a 00bd
00000110: 0830 e53c 6930 33bd 873b 09be 0492 9f3b
00000120: 9f74 c93b 52d4 d0bd beae 083d bc6f b73d
00000130: 25bc 483d abb9 44bc ebc9 073e 9515 cabc
00000140: 6a1a f8bd 217b f0bc cbf3 a0bd 8a78 dcbd
00000150: 224c b5bd d464 0cbe 2b9e f4bc 5118 0bbe
00000160: 0cf3 133e c9ef 6d3c 41a0 233d 954d 4e3d
00000170: 72c0 f8bd 96d5 913d 4a52 7ebd 84d5 1cbe
00000180: cd8b 91bd 96a7 7d3c 0011 71bd 4a38 fd3d
00000190: a7d9 bbbd 719c 6bbd cf20 2c3d 7d06 47bd
000001a0: b373 ecbd 607b 08be b55d 95bd da31 883d
000001b0: 2c73 e6bd b11b 0a3e ccc8 e93c f775 7fbd
000001c0: 21ba a83d d371 ccbd afb5 93bd 6433 b4bd
000001d0: 104a 0cbe 6c49 95bd 6762 02be fbed 573d
000001e0: 375f 043e eccd a5bd 911b 09be 7bf0 c63d
000001f0: c368 91bd 281c 60bd 4645 bdbd 5d26 a8bd
00000200: 96bb bebd 6352 6ebd 671c 703c e513 f33c
00000210: 97b2 893d 9b44 e33d 55db 813d 3c1f 4ebd
00000220: aaa5 583d e65e f13d 38ef 05bd 302f cabc
00000230: c432 273d f7cc 0bbd 7265 babc a8e8 cc3c
00000240: cf67 073e 4521 4fbc b1e5 01be aa9a 8d3c
00000250: 51a0 eabd b39b fb3d 2796 233e 2b71 1bbd
00000260: 9cf8 20bd b0b9 1a3e 5f67 cdbd e7d9 adbc
00000270: f801 9bbd e10c d43d c9af e8bd 5d0f 0abe
00000280: 1011 8e3d 5543 6d3d 3735 dfbd 6fc3 1d3e
00000290: 622d 8ebd 3e72 00bd 6f14 c3bd b7eb ff3c
000002a0: 3f4a ca3d be70 293e c75a c73d c6d0 063d
000002b0: d4b6 c23d 9237 2ebd 1c4e 1a3d 3f86 a23d
000002c0: 850e db3d 784e a23d d3ab 693d 87aa 0bbe
000002d0: 452a 95bd 94f5 793d 9f25 1dbc eecc 113e
000002e0: 04d0 923c 10e7 093c 4fb3 d2bc d29d a43d
000002f0: cb10 983d 6d09 9fbd 801c f1bd 2734 6abd
00000300: 449f 42bd 2bfd 9e3d 01ce b7bd 1f78 033e
00000310: aa0e 9f3d 39cd fabd 06bf dd3d c498 fcbc
00000320: 8b55 aebd 8819 37bd 6e5a c83d 002e c3bd
00000330: c3f8 fabd 2491 ad3c 4530 1a3d 6220 3f3c
00000340: 8272 3bbd 4bdc 0f3e 2cca 2cbd 98a7 b4bb
00000350: 50ac 64bc 5c46 82bd f245 f53c 926c 083e
00000360: 1328 0f3e fe49 973d a141 473e 6cc0 f0bb
00000370: 2444 0f3e 3a75 4b3d 0846 0c3d 8c3d 7f3c
00000380: 8d11 313e 75c0 353d d1e6 ec3c 96f5 e03d
00000390: e7a0 883d d39c dcbd ff30 a43d 715f 943d
000003a0: d4dc 5ebe 357f 123e 97c8 063e f1f6 083e
000003b0: 2f2e d6bd a404 103e 5eef 883c 591f d4bc
000003c0: a705 e3bd 9d0e 9bbd af9a a03d 0ef7 f0bd
000003d0: cffd 603e b4d6 103d 4763 ac3c 3896 d6bd
000003e0: abf9 f63d c325 a83d 0957 05be e02b 71bd
000003f0: 2faf aa3c 3266 2b3d 7c26 ff3c b90d 05be

fc2.bias f4 [50]
0.014789583 0.1005297 -0.08981353 -0.08722098 -0.026278308 -0.063927546 0.12388919 -0.12915263
0.046182103 -0.12299723 -0.13909197 0.07439801 0.0071952725 -0.001504557 0.14385687 -0.038412053
-0.063563384 -0.012227095 -0.044936996 0.14049321 -0.058721226 0.11927137 -0.030073395 -0.024309706
0.048552703 -0.040686212 -0.11269611 -0.026284643 0.13838588 -0.11606898 -0.09814638 -0.04250097
0.1097019 0.04921012 0.1358621 0.0685152 -0.08146072 -0.14104392 0.050870914 -0.030108426
0.024026658 0.0879987 -0.01464667 -0.11279896 -0.10535844 0.058846097 -0.12441843 -0.12891623
0.089765646 -0.10586445
00000000: 0250 723c 84e2 cd3d 28f0 b7bd eaa0 b2bd
00000010: 9b45 d7bc 72ec 82bd 9eb9 fd3d 9640 04be
00000020: 7229 3d3d f9e5 fbbd 206e 0ebe fc5d 983d
00000030: 52c6 eb3b 8e34 c5ba 374f 133e f555 1dbd
00000040: 852d 82bd 2754 48bc db0f 38bd 74dd 0f3e
00000050: ab85 70bd 8c44 f43d 7b5c f6bc 2625 c7bc
00000060: 33df 463d 96a6 26bd 38cd e6bd e452 d7bc
00000070: 07b5 0d3e 93b5 edbd f800 c9bd 7f15 2ebd
00000080: 64ab e03d 8d90 493d 6f1f 0b3e b251 8c3d
00000090: e1d4 a6bd d16d 10be 055e 503d f2a5 f6bc
000000a0: 8ed3 c43c aa38 b43d 96f8 6fbc 2403 e7bd
000000b0: 2ac6 d7bd 9b08 713d 17cf febd 9e02 04be
000000c0: 0dd7 b73d 76cf d8bd

fc3.weight f4 [50, 50]
-0.09149752 -0.13225047 0.004990587 -0.039428905 0.033957224 -0.014673826 -0.019616302 -0.07548086
0.11999972 -0.12797464 0.09933818 -0.024157489 -0.08873808 0.1399122 -0.08737761 0.08098565
0.08235614 -0.06388309 0.06994688 -0.09407622 0.07588348 -0.07724307 0.09349007 0.10953556
0.032796305 0.06903719 -0.100755855 -0.06670172 0.070210345 -0.020119427 -0.0015448879 -0.0134660145
0.06050077 0.021905722 0.13104987 -0.1462247 0.06616618 0.09025101 -0.018340234 0.14930463
-0.08051617 0.029743064 0.039524116 -0.049726736 0.054812666 0.08166939 0.063511066 -0.048037145
0.042814896 -0.024609778 -0.04984567 0.06122152 -0.13493994 -0.0058935 0.05335186 -0.026897622
0.049915098 -0.03645339 0.14063148 0.03720331 0.040908165 0.11231948 0.010539884 0.07111592
-0.013508251 -0.07166607 -0.028320234 -0.028933033 0.0848581 0.03867692 0.0070385016 0.14005491
0.06397155 -0.0069712107 -0.023697207 0.14922185 0.031273022 0.18757269 0.06871131 0.04826738
-0.10094597 0.03592251 0.04783435 -0.07820984 0.12230604 0.1391502 -0.029305434 -0.03199017
-0.09494257 0.17740968 -0.087147765 0.10144407 0.049031787 -0.07970659 0.025708314 -0.15005754
0.021794511 0.019676942 -0.00074688543 0.07490568 -0.09676308 -0.005008213 0.12932572 -0.071283825
0.09305028 -0.006919806 -0.0056312806 -0.05497914 -0.07938377 -0.08535534 -0.05578933 0.035420705
0.034540348 -0.04977984 -0.076196015 0.12759985 0.116237655 0.049439564 -0.05775983 -0.0731654
-0.045116983 0.024102801 -0.06891166 -0.07297879 0.0092313085 0.17333847 -0.053124942 0.09147315
0.13748027 -0.09754209 0.03253402 0.07379226 0.04368844 -0.041454986 0.0031584548 0.20239288
-0.04055456 0.08462846 -0.15684116 -0.10208071 0.16321775 -0.1131965 0.07593363 -0.1118327
0.17798443 -0.06307825 0.081510976 -0.09485256 -0.06650846 0.031965833 -0.07839932 0.112255625
0.0697193 0.033519924 -0.103767075 -0.10926506 0.025826607 -0.05639787 -0.13955083 -0.08109403
-0.086627685 0.03376852 0.13320051 0.14394347 -0.075719945 0.15756394 -0.08251798 0.13910063
-0.09821737 0.13907743 0.15610752 0.05035367 -0.004220175 -0.05225833 0.017855525 0.026230818
-0.05445195 0.13216306 0.08049398 0.13140911 -0.062955156 -0.03714381 0.06763368 0.06431048
0.036041327 -0.061051156 -0.013785513 0.050660137 0.08701298 0.032687526 -0.15272464 -0.027640568
0.09147639 0.036727976 -0.10557824 -0.06418835 0.064372875 0.06625794 -0.11169303 0.06615483
0.01818289 -0.053952187 -0.08221006 -0.090638205 0.061338466 -0.0967791 0.010815539 -0.053757127
0.053975467 -0.10644901 -0.04218077 -0.106177196 -0.11138243 0.032697424 0.021660797 0.031059181
0.057064734 0.0728375 0.10504408 0.022574775 0.086567774 0.043475263 0.124713875 0.08931969
-0.11764723 -0.03854835 -0.09898106 0.0023147727 -0.115019016 -0.13159925 -0.013219893 0.12541384
-0.108604655 -0.04959241 0.12828341 -0.07590506 0.12337362 0.08804147 0.11516502 0.08406054
-0.007668627 0.09621027 -0.060137395 0.0026539136 -0.06453273 0.035404164 0.026333345 0.04074477
0.11133565 -0.106741525 -0.07594849 -0.0015447265 -0.07656215 0.014510517 0.0144693395 0.039064348
00000000: 0d63 bbbd ab6c 07be 1488 a33b 3480 21bd
00000010: bb16 0b3d 7d6a 70bc 5eb2 a0bc b695 9abd
00000020: 6ac2 f53d c90b 03be d171 cb3d ede5 c5bc
00000030: 4fbc b5bd 2545 0f3e 08f3 b2bd cedb a53d
00000040: 56aa a83d 23d5 82bd 4f40 8f3d 09ab c0bd
00000050: cc68 9b3d 9d31 9ebd b977 bf3d 2e54 e03d
00000060: 6b55 063d 5f63 8d3d 1659 cebd e99a 88bd
00000070: 71ca 8f3d 7fd1 a4bc d67d caba 8fa0 5cbc
00000080: a8cf 773d a173 b33c f031 063e eebb 15be
00000090: 2282 873d 86d5 b83d 423e 96bc 50e3 183e
000000a0: a9e5 a4bd baa7 f33c 0ae4 213d 43ae 4bbd
000000b0: 3f83 603d 4842 a73d 1712 823d 99c2 44bd
000000c0: ac5e 2f3d 729a c9bc f92a 4cbd 6bc3 7a3d
000000d0: b22d 0abe 431e c1bb 7b87 5a3d 6758 dcbc
000000e0: c673 4c3d 2650 15bd b301 103e 7f62 183d
000000f0: 528f 273d c107 e63d 7aaf 2c3c 39a5 913d
00000100: b651 5dbc a9c5 92bd d6ff e7bc f804 edbc
00000110: 15ca ad3d b16b 1e3d 3ba3 e63b 8e6a 0f3e
00000120: 8403 833d c16e e4bb a520 c2bc 9dcd 183e
00000130: 2418 003d 0e13 403e 84b8 8c3d 04b4 453d
00000140: c3bc cebd 7b23 133d f4ed 433d 7b2c a0bd
00000150: 977b fa3d 647d 0e3e f311 f0bc 2008 03bd
00000160: 4071 c2bd e2aa 353e 877a b2bd e9c1 cf3d
00000170: 8ed5 483d 353d a3bd 3e9a d23c afa8 19be
00000180: 678a b23c 8a31 a13c a2ca 43ba 2668 993d
00000190: b92b c6bd f01b a4bb f66d 043e 41fd 91bd
000001a0: 2591 be3d 8abf e2bb 9b86 b8bb cf31 61bd
000001b0: f593 a2bd c8ce aebd 5a83 64bd 4d15 113d
000001c0: 2e7a 0d3d f2e5 4bbd a80c 9cbd 89a9 023e
000001d0: 020e ee3d 2481 4a3d 9295 6cbd bed7 95bd
000001e0: 96cc 38bd 3d73 c53c 8e21 8dbd e775 95bd
000001f0: ea3e 173c a47f 313e 8a99 59bd 4656 bb3d
00000200: a1c7 0c3e 26c4 c7bd 6442 053d 6520 973d
00000210: a6f2 323d b4cc 29bd 14fe 4e3b 1440 4f3e
00000220: 8a1c 26bd b051 ad3d f89a 20be b10f d1bd
00000230: 8e22 273e 91d3 e7bd 1783 9b3d 8b08 e5bd
00000240: 8d41 363e 2b2f 81bd 3aef a63d 0f42 c2bd
00000250: 9635 88bd 9bee 023d d38f a0bd 47e6 e53d
00000260: fec8 8e3d 304c 093d d583 d4bd 5cc6 dfbd
00000270: 5292 d33c 7401 67bd 6ae6 0ebe a014 a6bd
00000280: db69 b1bd dc50 0a3d b765 083e eb65 133e
00000290: 0f13 9bbd 7158 213e 30ff a8bd 6570 0e3e
000002a0: 3026 c9bd 506a 0e3e a6da 1f3e a63f 4e3d
000002b0: 6549 8abb d50c 56bd c045 923c 03e2 d63c
000002c0: 0209 5fbd c155 073e 07da a43d 1c90 063e
000002d0: a2ee 80bd 1c24 18bd 8783 8a3d 37b5 833d
000002e0: 12a0 133d c710 7abd a2dc 61bc 0181 4f3d
000002f0: dc33 b23d 5be3 053d d963 1cbe 796e e2bc
00000300: f957 bb3d 1370 163d 6739 d8bd 2f75 83bd
00000310: edd5 833d 3eb2 873d 51bf e4bd 2f7c 873d
00000320: 49f4 943c f8fc 5cbd bf5d a8bd 86a0 b9bd
00000330: 0b3e 7b3d 1f34 c6bd a933 313c 6f30 5cbd
00000340: 6115 5d3d f001 dabd bec5 2cbd 6e73 d9bd
00000350: 791c e4bd bced 053d fc71 b13c d36f fe3c
00000360: b6bc 693d d42b 953d 5a21 d73d bcee b83c
00000370: 724a b13d 1e13 323d fd69 ff3d 3eed b63d
00000380: 08f1 f0bd e0e4 1dbd 95b6 cabd 71b3 173b
00000390: 178f ebbd f4c1 06be 4098 58bc 7c6c 003e
000003a0: 1e6c debd 6921 4bbd ba5c 033e 1d74 9bbd
000003b0: 4fab fc3d 164f b43d a3db eb3d ef27 ac3d
000003c0: 1b49 fbbb e409 c53d a152 76bd 48ed 2d3b
000003d0: bc29 84bd f503 113d 07b9 d73c fde3 263d
000003e0: f203 e43d 4d9b dabd e28a 9bbd 6c78 caba
000003f0: 9ecc 9cbd 85bd 6d3c cf10 6d3c f001 203d

fc3.bias f4 [50]
0.056928344 0.0463491 0.050195966 0.007769701 0.16180798 0.017996732 0.18096937 -0.00271928
0.043914776 0.11159003 -0.03268457 0.03679594 0.026099114 -0.10037896 -0.04928554 0.09446179
0.06192141 0.09602632 0.08005077 0.1457398 0.13355215 0.09406808 0.11567621 0.022142407
0.137643 0.07092482 -0.020749979 0.047826774 0.073718354 0.02561802 0.12521724 0.11871147
0.13774759 -0.008208723 -0.08993737 0.09645912 0.06836234 -0.024231294 0.099204496 0.120801106
0.045381907 -0.06380379 0.051606584 0.13234243 -0.009110389 -0.10508357 -0.05293781 0.021501372
0.05842252 0.12628458
00000000: b22d 693d 8ed8 3d3d 499a 4d3d fa98 fe3b
00000010: feb0 253e e26d 933c 0950 393e f335 32bb
00000020: fbdf 333d 5089 e43d 41e0 05bd 57b7 163d
00000030: cfcd d53c 7c93 cdbd a2df 49bd 2f75 c13d
00000040: 4ea1 7d3d 72a9 c43d a8f1 a33d d03c 153e
00000050: e5c1 083e c4a6 c03d a6e7 ec3d fe63 b53c
00000060: 49f2 0c3e 0841 913d dcfb a9bc 02e6 433d
00000070: a6f9 963d e2dc d13c f338 003e 001f f33d
00000080: b40d 0d3e e17d 06bc 1531 b8bd 5c8c c53d
00000090: 8e01 8c3d b580 c6bc ba2b cb3d 9266 f73d
000000a0: 61e2 393d 90ab 82bd 6d61 533d c684 073e
000000b0: be43 15bc 0e36 d7bd 51d5 58bd a523 b03c
000000c0: 744c 6f3d bf50 013e
