checkpointing_test/sigmoid_example_s12345/models/eval_checkpoint_600.pt (torch, 95431 bytes, 24 tensors)

fc1.weight f4 [50, 7]
0	0xbe9900cb	-0.29883417
1	0x3e9a0e83	0.30089197
2	0x3ed052dd	0.4068822
3	0x3e29c855	0.16580327
4	0xbeebfc8b	-0.46091112
5	0x3d823118	0.0635702
6	0xbe44b1ce	-0.19208452
7	0xbe89010c	-0.2675861
8	0xbe073f91	-0.13207842
9	0xbea54847	-0.32281706
10	0xbebd6703	-0.36992654
11	0xbdf4bd42	-0.119501606
12	0xbdbe9322	-0.09305407
13	0xbeb478e5	-0.35248485
14	0xbddbb682	-0.1072817
15	0xbe478942	-0.19485953
16	0xbd9aef56	-0.07565181
17	0x3e8f5bb2	0.27999645
18	0x3eb665ed	0.35624638
19	0x3cc23700	0.023707867
20	0xbe137eb6	-0.14403805
21	0xbe020e4f	-0.12700771
22	0x3eaa7967	0.33295748
23	0xbed6a8d6	-0.41925687
24	0x3d81ccd9	0.063379
25	0xbdf9f3b3	-0.12204685
26	0xbce2dfc4	-0.02769459
27	0xbdb0a33b	-0.08624884
28	0xbe922c47	-0.28549406
29	0xbe85294d	-0.26008072
30	0xbe510f7f	-0.20416068
31	0xbed5162d	-0.4161848
32	0x3ecf9dbd	0.40550032
33	0xbcb723f2	-0.022356007
34	0x3e575621	0.2102895
35	0x3eac646d	0.3367037
36	0x3e6ad994	0.22934562
37	0x3e06d902	0.1316872
38	0x3eaeb924	0.34125626
39	0x3d92971f	0.0715773
40	0xbd5ded7a	-0.054181553
41	0x3e110bb9	0.14164628
42	0xbd59f860	-0.053215384
43	0xbe20a8c0	-0.15689373
44	0x3ca0be41	0.01962197
45	0x3eca8835	0.39557043
46	0x3e39c08e	0.1813986
47	0x3e227044	0.15863138
48	0x3e2f4176	0.17114815
49	0xbe64d23c	-0.22345823
50	0x3e9f6a35	0.31135717
51	0x3e2c5ba6	0.16831836
52	0xbde1837c	-0.11011407
53	0x3a61f2f0	0.00086192694
54	0x3e3d3421	0.18476917
55	0xbdec944b	-0.11551722
56	0x3c558f79	0.013034695
57	0x3e28cdc4	0.16484743
58	0xbeb5701a	-0.3543709
59	0x3dfe39a9	0.124133416
60	0x3e1f0fbe	0.15533349
61	0x3e63bf8c	0.22241038
62	0xbea04c48	-0.31308198
63	0xbe88493b	-0.2661837
64	0x3e4930ed	0.1964757
65	0x3ec103ed	0.37698308
66	0x3ea97b11	0.33101705
67	0x3decdc25	0.11565427
68	0xbdb468ce	-0.088090524
69	0x3d6085bd	0.054815043
70	0xbef2280b	-0.47296175
71	0xbd7d0bdb	-0.061778884
72	0x3e49902e	0.19683906
73	0xbe76576a	-0.24056783
74	0xbeb93bae	-0.36178344
75	0x3e794f21	0.24346592
76	0xbd9b7c99	-0.075921245
77	0xbeb880cc	-0.36035764
78	0xbdd26c41	-0.10274554
79	0x3ea0f850	0.31439447
80	0x3e956465	0.29178157
81	0x3dc6e141	0.097109325
82	0xbe2acccd	-0.16679688
83	0xbea8336b	-0.3285173
84	0x3ec58640	0.38578987
85	0xbe4ca107	-0.19983302
86	0xbd64d601	-0.055868153
87	0xbe4b1050	-0.19830441
88	0xbe6b7510	-0.22993875
89	0xbeb7ab1b	-0.3587273
90	0x3e721360	0.23640203
91	0xbe8bfa3f	-0.2733936
92	0x3d9288ea	0.071550205
93	0x3e280b22	0.16410497
94	0x3e850556	0.25980633
95	0xbed0effb	-0.4080809
96	0xbe08fa7e	-0.13376805
97	0xbecb27e1	-0.39678863
98	0xbeb9afa1	-0.36266807
99	0x3e8eec71	0.27914765
100	0x3e79ebad	0.2440631
101	0xbd68bfc6	-0.056823514
102	0xbe5305a8	-0.20607626
103	0xbeadbf50	-0.33935022
104	0x3eb9b465	0.36270443
105	0x3ebfb25b	0.37440762
106	0xbe0fc3ec	-0.14039582
107	0xbd9c0d13	-0.07619681
108	0xbe5e8d85	-0.21733673
109	0x3e848e65	0.25889888
110	0xbe2951e9	-0.16535152
111	0xbe279858	-0.16366708
112	0xbea12623	-0.31474409
113	0xbebad4f0	-0.36490583
114	0x3d9c355c	0.07627365
115	0x3ec97780	0.39348984
116	0xbea6254e	-0.32450336
117	0x3ea1b45a	0.3158291
118	0x3e4c9c4e	0.199815
119	0xbd0abc3e	-0.033870928
120	0xbe7255c7	-0.23665534
121	0x3e6aa9c6	0.22916326
122	0x3e9a36e4	0.30120003
123	0x3ec23159	0.37928274
124	0x3eada9d0	0.3391862
125	0x3d9a351b	0.0752966
126	0xbdf8ce29	-0.12148697
127	0x3e734732	0.23757628
128	0xbdbe63c9	-0.09296376
129	0xbccc6364	-0.024949737
130	0x3e60bafd	0.2194633
131	0x3e23cdc9	0.1599647
132	0x3d10e34d	0.03537302
133	0xbf01e6a3	-0.5074255
134	0x3eb3c999	0.35114744
135	0xbc3d6e3e	-0.011561928
136	0x3e0e2c89	0.13884176
137	0xbe0fa234	-0.1402672
138	0xbd6481d9	-0.055787895
139	0x3d22fbe2	0.039790995
140	0xbe3c2183	-0.18372159
141	0x3dbdbc8e	0.092644796
142	0x3c11d4ea	0.00890086
143	0x3ec0d537	0.3766267
144	0xbe27eb1c	-0.16398281
145	0xbe35a2d5	-0.17737897
146	0xbdf939a0	-0.12169194
147	0x3e17f53d	0.14839645
148	0xbe7128bf	-0.235507
149	0x3e4d14ec	0.20027512
150	0x3db6dd8f	0.08928978
151	0xbeb1337c	-0.34609592
152	0x3dac7baf	0.08422028
153	0xbe1831d8	-0.14862764
154	0xbf0b3356	-0.5437521
155	0xbcaa4ab6	-0.020787578
156	0xbe5c105a	-0.21490613
157	0x3eb139e2	0.34614474
158	0x3e798d93	0.24370413
159	0xbda4d3bd	-0.08048198
160	0x3d32d91d	0.043664087
161	0x3ebe5259	0.371722
162	0x3e456ff5	0.1928099
163	0xbe1ce28d	-0.15320797
164	0xbed09ac7	-0.40743086
165	0xbe71770b	-0.23580568
166	0xbcd5eb3b	-0.026113143
167	0x3c8d971b	0.017283967
168	0x3e948f05	0.29015365
169	0xbcdad52a	-0.026712973
170	0x3e547378	0.20747173
171	0x3e690cc1	0.22758771
172	0xbe868ce6	-0.26279372
173	0xbdefcbb6	-0.11708777
174	0x3d701d69	0.058621798
175	0x3ec1bc6d	0.3783907
176	0x3e2f68e4	0.17129856
177	0xbe888770	-0.2666583
178	0xbc8f4d70	-0.01749298
179	0x3e08f87e	0.13376042
180	0x3e1c6773	0.15273838
181	0x3e86e911	0.2634969
182	0xbdb01cef	-0.08599269
183	0x3dbf9d5a	0.09356184
184	0xbe38d8ca	-0.18051448
185	0x3e86a874	0.26300395
186	0xbd08a138	-0.033356875
187	0xbea2f7e9	-0.31829765
188	0xbe1781fa	-0.14795676
189	0xbd1d2247	-0.038362768
190	0x3e9c72ba	0.3055628
191	0x3cd1e38e	0.025621202
192	0xbe8adf44	-0.27123463
193	0xbedfb900	-0.4369583
194	0xbeb7dc18	-0.35910106
195	0x3e952c7f	0.2913551
196	0x3e24a4e5	0.16078527
197	0xbeca5036	-0.3951432
198	0xbbfebe14	-0.007774124
199	0x3e6df1e4	0.23236805
200	0x3d610968	0.05494061
201	0xbeaecd2e	-0.34140915
202	0x3e8d52aa	0.2760213
203	0x3e92f23b	0.28700432
204	0xbeafd3c0	-0.3434124
205	0xbecc309b	-0.39880833
206	0xbe9a2222	-0.30104166
207	0x3e10b416	0.14131197
208	0xbe4fac33	-0.20280533
209	0x3eb827f0	0.3596797
210	0x3e73ba3a	0.23801509
211	0xbe988efd	-0.2979659
212	0xbebb9a2b	-0.36641058
213	0xbe42b032	-0.19012526
214	0xbe81919c	-0.25306404
215	0x3e7e72a1	0.24848415
216	0xbce62c1f	-0.02809721
217	0xbdb2896e	-0.08717619
218	0xbd2c20ec	-0.042023584
219	0x3ebc2576	0.3674733
220	0x3ec05e55	0.3757197
221	0xbeeb727b	-0.4598578
222	0x3d4bd8a6	0.04976716
223	0xbe90b62c	-0.28263986
224	0xbeffcc96	-0.49960774
225	0x3d878ee7	0.06619053
226	0x3eb7274e	0.35772175
227	0x3cdf7de1	0.027281703
228	0x3bdceb12	0.0067418898
229	0xbc84ab1a	-0.016194869
230	0x3d65a66e	0.056066923
231	0xbe707442	-0.23481849
232	0xbe3dabca	-0.18522564
233	0xbeec58b5	-0.46161428
234	0xbe5c004e	-0.21484491
235	0xbe8b1099	-0.271611
236	0xbecc2c48	-0.39877534
237	0x3dee7fd8	0.11645478
238	0xbd75c0cc	-0.05999832
239	0xbede99e1	-0.43476775
240	0xbe5bb585	-0.21455963
241	0xbdafa2fc	-0.08576009
242	0xbcd4aee7	-0.025962306
243	0x3eac8c53	0.3370081
244	0x3eaa6045	0.33276573
245	0x3ddf408b	0.109009825
246	0xbed537d6	-0.41644162
247	0xbdad12df	-0.08450865
248	0x3dfa61fa	0.12225719
249	0x3e14bfe6	0.14526328
250	0xbe35d9e5	-0.17758901
251	0x3cbd05ba	0.02307402
252	0x3d83f0c7	0.06442409
253	0x3eb9aca2	0.3626452
254	0xbe8945b8	-0.26811004
255	0xbe911e69	-0.28343514

fc1.bias f4 [50]
0	0xbeb66b5f	-0.35628793
1	0xbe6733a4	-0.22578293
2	0xbcc704bb	-0.024294248
3	0x3de52c94	0.11190143
4	0x3eec2bcb	0.4612716
5	0x3d8219f5	0.06352607
6	0xbdad60ab	-0.084657036
7	0x3ecca16e	0.3996691
8	0xbe50a0fe	-0.20373914
9	0x3d0a9fbe	0.03384375
10	0xbe2ba574	-0.16762334
11	0xbe4d5c60	-0.2005477
12	0x3e220dd9	0.15825595
13	0x3e5b1356	0.21394095
14	0x3cd7d79b	0.026347926
15	0xbd461890	-0.04836327
16	0xbe8351ad	-0.2564825
17	0x3ed4faac	0.41597497
18	0x3db44635	0.088024534
19	0x3d45642f	0.048191246
20	0xbd62a8bb	-0.055336695
21	0x3d758adc	0.05994688
22	0x3eabc046	0.3354513
23	0xbda99178	-0.08279699
24	0x3e9f495d	0.3111066
25	0x3e605c88	0.21910298
26	0x3e201ceb	0.15636031
27	0x3d5fb422	0.054615147
28	0xbc81f0cb	-0.01586189
29	0xbdae8ec4	-0.08523324
30	0x3dbc9772	0.092085734
31	0xbdbd3fb3	-0.09240665
32	0xbd64475e	-0.055732124
33	0xbdd0742f	-0.1017841
34	0x3e8b767f	0.27238843
35	0xbe5e7643	-0.21724801
36	0xbe00cbac	-0.12577695
37	0xbd447c30	-0.047969997
38	0x3e5eefe0	0.21771193
39	0x3eb055c4	0.34440434
40	0x3ea64481	0.3247414
41	0xbe2d4344	-0.16920191
42	0x3d0ae444	0.033909097
43	0x3dac0abb	0.08400484
44	0xbd8495fa	-0.06473918
45	0xbe9b0009	-0.30273464
46	0x3a2210e8	0.0006182329
47	0xbe8a8a70	-0.27058744
48	0xbe19c2ca	-0.15015712
49	0x3e262289	0.16224112

fc2.weight f4 [50, 50]
0	0x3d6da644	0.05801989
1	0x3a64d1dc	0.0008728781
2	0x3d586afe	0.05283641
3	0xbda0a829	-0.07844574
4	0x3e4f0f50	0.20220685
5	0x3d9b9234	0.075962454
6	0xbdb13631	-0.08652914
7	0xbc8f2f1b	-0.017478516
8	0xbc43d55b	-0.011952723
9	0xbe29aee5	-0.16570623
10	0xbe5b8e0e	-0.21440908
11	0xbe4d3a75	-0.20041831
12	0x3d8f4f68	0.069975674
13	0x3c987093	0.018608367
14	0xbd8e106d	-0.06936727
15	0x3dcfdf63	0.101500295
16	0xbe3e61d3	-0.18592004
17	0x3d58dccc	0.052944943
18	0xbd388ae6	-0.04505434
19	0x3de324e0	0.11091018
20	0x3d747c44	0.05968882
21	0x3e75f93b	0.24020855
22	0xbdf26639	-0.11835904
23	0x3e0c88f2	0.13724115
24	0x3cbb4a7b	0.022862663
25	0x3c85775a	0.016292263
26	0xbd455166	-0.04817333
27	0xbe6adfa2	-0.22936872
28	0xbe40c658	-0.18825662
29	0xbbb79905	-0.005602958
30	0xbd501b00	-0.050807
31	0xbd30ccbc	-0.043164
32	0x3d70636c	0.058688566
33	0x3d476bc3	0.048686754
34	0xbe1be948	-0.15225708
35	0xbe31d166	-0.17365035
36	0xbdc551ef	-0.09634768
37	0xbdd369f9	-0.10322947
38	0x3d309847	0.043113973
39	0x3d1e0660	0.0385803
40	0xbcbcd0df	-0.023048816
41	0x3dc48ba3	0.09596946
42	0xbdee076d	-0.1162251
43	0xbdf9b0db	-0.12191936
44	0x3dba5ae4	0.09099367
45	0xbda253b7	-0.079261236
46	0x3dc69074	0.09695521
47	0x3b7be312	0.0038434905
48	0x3b34992e	0.0027557123
49	0x3d9ab931	0.07554854
50	0x3d8b27ee	0.06794725
51	0x3de17e4f	0.110104196
52	0x3e4b0969	0.19827808
53	0x3df31dac	0.11870894
54	0x3ea23145	0.31678215
55	0xbdbf7940	-0.093492985
56	0xbd21be96	-0.039488398
57	0x3de576ec	0.11204323
58	0x3e05c70e	0.13064215
59	0xbd3a7c0c	-0.045528457
60	0xbdc56c2e	-0.09639774
61	0xbdb9240b	-0.09040078
62	0xbe15948b	-0.14607446
63	0x3d9ef302	0.07761194
64	0x3d96518a	0.07339771
65	0x3d8320a0	0.06402707
66	0x3d3844ae	0.044987373
67	0xbcca3585	-0.024683723
68	0x3d90880a	0.070571974
69	0xbd91a091	-0.07110704
70	0xbe48fc3b	-0.19627468
71	0xbd78ce9c	-0.060743913
72	0x3be8484e	0.0070886975
73	0xbdd2802d	-0.10278354
74	0xb791057a	-1.7287897e-05
75	0x3ddc63c4	0.10761216
76	0x3de808d1	0.113298066
77	0xbc869199	-0.016426848
78	0x3dc2d783	0.09513762
79	0xbcf10686	-0.029422056
80	0xbe225f98	-0.15856779
81	0xbda5ce99	-0.08096046
82	0xbdc00530	-0.093759894
83	0xbdbacbea	-0.09120925
84	0xbdd06896	-0.10176198
85	0xbe2527dc	-0.16128486
86	0x3c06a6cc	0.008218478
87	0xbe821230	-0.254045
88	0x3e275776	0.16341957
89	0x3c4c87a1	0.012483508
90	0x3caa9a2f	0.020825474
91	0x3d58ca50	0.052927315
92	0xbde7a92c	-0.11311564
93	0x3d9339a7	0.07188731
94	0xbc686a7d	-0.014185545
95	0xbe5b7520	-0.21431398
96	0xbd521c10	-0.051296294
97	0x3caaa057	0.02082841
98	0xbd3f6254	-0.046724632
99	0x3def6004	0.116882354
100	0xbdbaa2b9	-0.09113068
101	0xbd6862e0	-0.05673492
102	0x3d28afdd	0.04118334
103	0xbd505c52	-0.050869294
104	0xbdf13975	-0.11778537
105	0xbe0d0123	-0.13769965
106	0xbd9be183	-0.07611372
107	0x3d897c13	0.067131184
108	0xbdebe101	-0.115175255
109	0x3e0ae661	0.13564445
110	0x3cedf03b	0.029045215
111	0xbd81ce0b	-0.06338128
112	0x3da72e72	0.081631556
113	0xbdd1a7b2	-0.102370635
114	0xbd9700c3	-0.07373192
115	0xbdbb5165	-0.09146384
116	0xbe0d972d	-0.138272
117	0xbd98bb98	-0.07457656
118	0xbe022d11	-0.12712504
119	0x3d53ae11	0.051679675
120	0x3e09020a	0.13379684
121	0xbda896bc	-0.08231875
122	0xbe0c1bb6	-0.13682446
123	0x3dcc4f88	0.09976107
124	0xbd985224	-0.07437542
125	0xbd628e90	-0.05531174
126	0xbdc36f73	-0.095427416
127	0xbdaad2bd	-0.083409764
128	0xbdc340ea	-0.09533866
129	0xbd6eeaf4	-0.058329538
130	0x3c8285bb	0.015932908
131	0x3d04268e	0.03226333
132	0x3d88ed48	0.06685883
133	0x3de45844	0.11149648
134	0x3d888b27	0.06667166
135	0xbd54873d	-0.051886786
136	0x3d5b81a3	0.053590428
137	0x3df834c9	0.12119443
138	0xbd049c37	-0.03237554
139	0xbccd31d5	-0.025048176
140	0x3d23ba40	0.039972544
141	0xbd075f77	-0.033050027
142	0xbcaffad6	-0.021481913
143	0x3cbf238b	0.023332378
144	0x3e0979ed	0.13425417
145	0xbc3d879e	-0.011567978
146	0xbe01bc01	-0.12669374
147	0x3c8396fe	0.01606321
148	0xbdef5226	-0.116855904
149	0x3e0149c8	0.12625802
150	0x3e3ed894	0.18637305
151	0xbd1b6f33	-0.037947845
152	0xbd22a9d0	-0.039712727
153	0x3e14b706	0.14522943
154	0xbe212fd5	-0.15740903
155	0xbc7d3a59	-0.015455806
156	0xbd9221a3	-0.07135322
157	0x3de1ff76	0.110350534
158	0xbde2c5b8	-0.11072868
159	0xbe0307f2	-0.12796
160	0x3cf9db00	0.030499935
161	0xbb7e6e8d	-0.0038823218
162	0xbe2118fd	-0.15732189
163	0x3e3205de	0.1738505
164	0xbda3e4b6	-0.080026075
165	0xbc773fbf	-0.015090882
166	0xbe54273a	-0.20718089
167	0x3d2d4a7b	0.04230736
168	0x3deae13f	0.114687435
169	0x3e60d784	0.21957213
170	0x3dc6295d	0.09675858
171	0x3c6fe118	0.014641069
172	0x3cc6dd90	0.024275571
173	0xbd7ae30e	-0.061251692
174	0x3cf16a09	0.029469507
175	0x3db6ac97	0.08919638
176	0x3d7698b4	0.060204223
177	0x3d4337c4	0.047660604
178	0x3d8420e3	0.06451585
179	0xbe0cf4d6	-0.13765272
180	0xbde895c2	-0.11356689
181	0x3d99544c	0.074867815
182	0xbc6b7e49	-0.01437337
183	0x3e1ecf1e	0.15508696
184	0x3bacd052	0.005273857
185	0x3bad6bd4	0.005292395
186	0xbd4501ff	-0.048097607
187	0x3c60c885	0.013719683
188	0x3c32f9e0	0.010923833
189	0xbda9c7aa	-0.08290036
190	0xbe2264ec	-0.15858811
191	0xbd99004c	-0.0747076
192	0xbd1882e7	-0.037234213
193	0x3e117e89	0.14208426
194	0xbe0f0b60	-0.13969183
195	0x3e13c188	0.14429295
196	0x3db95c86	0.090508506
197	0xbde872bd	-0.113500096
198	0x3dff45d9	0.12464494
199	0xbd0cc475	-0.034367044
200	0xbd82c906	-0.063859984
201	0xbd35f14d	-0.044419575
202	0x3d4c7c42	0.04992319
203	0xbdc3f27e	-0.09567736
204	0xbd827776	-0.063704416
205	0x3d772b0f	0.0603438
206	0x3d17e589	0.037084136
207	0xbd8a1cb3	-0.06743755
208	0xbd078c04	-0.033092514
209	0x3dcbb69d	0.0994694
210	0xbe28c684	-0.16481978
211	0xbe10db8b	-0.14146249
212	0x3cddedb4	0.027090885
213	0xbda8639f	-0.08222126
214	0xbd45c2fb	-0.04828165
215	0x3e44fbe8	0.1923672
216	0x3e0c7bf1	0.13719155
217	0x3d961cbb	0.07329699
218	0x3e2d12d6	0.16901717
219	0xbe893afd	-0.26802817
220	0x3e17f656	0.14840063
221	0x3e1156b6	0.14193234
222	0xbe2687af	-0.16262697
223	0x3d61f70e	0.05516725
224	0x3e7bd661	0.24593498
225	0x3dcdf047	0.10055595
226	0x3d4b1d3a	0.04958842
227	0x3df43e3b	0.11925932
228	0x3dffdc67	0.1249321
229	0xbd55ca67	-0.05219498
230	0x3e009752	0.12557724
231	0x3e025e3d	0.12731262
232	0xbecfb716	-0.4056937
233	0x3e84a4b8	0.2590692
234	0x3e058c5b	0.13041823
235	0x3e3743a6	0.178969
236	0xbd6965b2	-0.05698175
237	0x3e2fc19c	0.171637
238	0x3d569d70	0.052396238
239	0x3d0acb5a	0.033885337
240	0xbd2a66fa	-0.041602112
241	0xbd4fce7f	-0.05073404
242	0x3d3e9d0d	0.046536494
243	0xbe66dfb6	-0.22546276
244	0x3e3b2b1a	0.1827816
245	0x3d172258	0.036897987
246	0x3d3022fb	0.04300211
247	0xbdc57a07	-0.096424155
248	0x3e3dbf39	0.18529977
249	0x3e1be4da	0.15224019
250	0xbe06b527	-0.13155042
251	0xbd6b8783	-0.05750228
252	0x3ca63389	0.020288246
253	0x3d373f9c	0.044738397
254	0x3cf34407	0.029695524
255	0xbe0685e8	-0.13137019

fc2.bias f4 [50]
0	0x3d051a8f	0.03249603
1	0x3e0f4bbf	0.13993739
2	0xbdb64448	-0.08899742
3	0xbdc37add	-0.09544919
4	0x3d1555eb	0.03645889
5	0xbd8a9a96	-0.06767766
6	0x3e15b49f	0.14619683
7	0xbe17e6f4	-0.14834195
8	0x3d6fc58e	0.058538012
9	0xbdec6eb9	-0.11544556
10	0xbe0759d3	-0.13217859
11	0x3d8c5f68	0.06854135
12	0x3bb815ff	0.0056178565
13	0x3cb59f27	0.022170616
14	0x3e22b46c	0.15889138
15	0x3c069d46	0.008216208
16	0xbd29e2f7	-0.041476216
17	0xbbbabd56	-0.00569884
18	0xbca987f7	-0.020694716
19	0x3e3b47a3	0.18289046
20	0xbce47643	-0.027888423
21	0x3e30175e	0.17196414
22	0xbc71428d	-0.01472534
23	0xbc5865cf	-0.013207867
24	0x3d49d3cf	0.049274262
25	0xbd36f821	-0.044670228
26	0xbdf1ad19	-0.11800594
27	0x3cd5bcc4	0.026090987
28	0x3e4c886e	0.19973919
29	0xbdeefb1c	-0.11668989
30	0xbdaaf997	-0.08348387
31	0xbd337629	-0.04381386
32	0x3e1fa42e	0.15589973
33	0x3d4bf893	0.049797606
34	0x3e3ac68e	0.18239805
35	0x3d6e884b	0.058235448
36	0xbd7f4816	-0.062324606
37	0xbe20afc2	-0.15692046
38	0x3d46b527	0.048512604
39	0xbceed743	-0.02915538
40	0x3cc6d398	0.024270818
41	0x3da481aa	0.08032544
42	0xbc3c0842	-0.011476578
43	0xbdd96834	-0.10615578
44	0xbde0dde7	-0.109798245
45	0x3d54b916	0.051934324
46	0xbe007938	-0.12546241
47	0xbdde5947	-0.10856872
48	0x3d9db8ac	0.07701239
49	0xbde19932	-0.11015548

fc3.weight f4 [50, 50]
0	0xbda37eca	-0.079831675
1	0xbdfceebb	-0.12350222
2	0x3b904704	0.004402997
3	0xbca22df9	-0.019797312
4	0x3daac645	0.08338598
5	0xbc810f48	-0.015754357
6	0x3b405c18	0.0029351767
7	0xbda1fa58	-0.079090774
8	0x3df739c2	0.12071563
9	0xbe040938	-0.12894142
10	0x3df76ea9	0.120816536
11	0xbb897c61	-0.0041957353
12	0xbda03991	-0.0782348
13	0x3e20be40	0.15697575
14	0xbd9e91ff	-0.0774269
15	0x3df59e9c	0.11993143
16	0x3dd0914f	0.101839654
17	0xbd2d2642	-0.042272814
18	0x3d9d169c	0.07670328
19	0xbd92e7df	-0.07173132
20	0x3dde3e3e	0.108517155
21	0xbcf211fa	-0.029549588
22	0x3dd8f9ff	0.10594558
23	0x3dfb5ca9	0.12273533
24	0x3d82b560	0.06382251
25	0x3dc50a28	0.09621078
26	0xbdd5d340	-0.10440683
27	0xbcbb3d19	-0.022856282
28	0x3dd0228e	0.10162841
29	0x3c0b3e4c	0.008498739
30	0x3d0fcf86	0.03511002
31	0xbc03caaa	-0.008043924
32	0x3dcaa61d	0.09894965
33	0x3cc0e42b	0.023546299
34	0x3e1bee3b	0.15227596
35	0xbe0615e8	-0.13094294
36	0x3e028511	0.12746073
37	0x3de413f4	0.11136618
38	0x3b81f9e6	0.003966558
39	0x3e3e4bc1	0.18583585
40	0xbd90c299	-0.070683666
41	0x3ce9a466	0.028520774
42	0x3d207826	0.039177082
43	0xbcd3d5b6	-0.025858741
44	0x3d8e681f	0.06953453
45	0x3dc7d58b	0.09757527
46	0x3d8502fe	0.06494711
47	0xbd4bb5b6	-0.04973384
48	0x3dd0aa41	0.10188723
49	0xbcdc8a33	-0.026921367
50	0xbd39e572	-0.04538483
51	0xbd9dab80	-0.07698727
52	0xbe0dd209	-0.13849653
53	0xbd27c5f0	-0.040960252
54	0x3da2235b	0.079169
55	0xbceb41cf	-0.028717903
56	0x3d975a1d	0.073902346
57	0xba7202e1	-0.00092319964
58	0x3da5ae48	0.08089882
59	0xbc56f1a3	-0.013119134
60	0x3d1cd91f	0.038293
61	0x3e08404e	0.1330578
62	0xbd86e4f6	-0.065866396
63	0x3e1808f1	0.14847161
64	0xbdf2be02	-0.11852647
65	0xbd1b17cb	-0.037864488
66	0xbb5a8984	-0.0033346126
67	0x3cc9778d	0.024593139
68	0x3df77b60	0.12084079
69	0x3d85905f	0.06521677
70	0xbc8bc73d	-0.017062778
71	0x3e015d6c	0.12633294
72	0x3d9983e4	0.07495859
73	0x3d8fb731	0.07017363
74	0xbc3da945	-0.0115760015
75	0x3e92398f	0.2855954
76	0x3d0ca5d3	0.03433783
77	0x3e51ccee	0.2048833
78	0x3d9549d3	0.072894715
79	0xbc660370	-0.0140389055
80	0xbdc6e36c	-0.09711346
81	0xbd091ec7	-0.033476617
82	0x3d73961a	0.05946932
83	0xbd9f2c45	-0.077721156
84	0x3e2e4f8d	0.17022534
85	0x3dce794d	0.1008173
86	0x3deebb72	0.11656846
87	0xba67de70	-0.00088450965
88	0xbe13ef7c	-0.14446825
89	0x3e636ac9	0.22208704
90	0x3c0027a9	0.007821956
91	0x3e3a3465	0.1818405
92	0x3d4267ce	0.047462277
93	0xbd753ff8	-0.05987546
94	0x3d9b52a7	0.07584124
95	0xbe896592	-0.26835304
96	0x3cc6156c	0.024180137
97	0x3daf60ac	0.085633606
98	0xbd55597a	-0.052087285
99	0x3d98f151	0.074679025
100	0xbdb09ba5	-0.08623437
101	0x3c845b28	0.016156748
102	0x3e07f9e1	0.13278915
103	0x3d935d56	0.07195537
104	0x3df5f611	0.12009824
105	0xbc08e8cf	-0.008356287
106	0xbb95a5d1	-0.004566886
107	0xbd9a4494	-0.075326115
108	0xbd3d6776	-0.046241246
109	0xbdaf2b61	-0.08553196
110	0xbcdf7b37	-0.027280433
111	0x3da5d6ff	0.08097648
112	0x3d0190af	0.03163212
113	0xbd1483ce	-0.03625851
114	0xbd74e10f	-0.059784945
115	0x3e29f92e	0.16598961
116	0x3df24ef2	0.11831464
117	0x3d4af2e3	0.04954804
118	0xbd892847	-0.066971354
119	0xbda18202	-0.07886125
120	0xbd5b4040	-0.05352807
121	0xbd0a3505	-0.03374197
122	0xbe17549d	-0.14778371
123	0xbd043d77	-0.03228518
124	0x3d390132	0.045167156
125	0x3e74c6d7	0.23903976
126	0xbd581a9b	-0.052759748
127	0x3d6db647	0.05803516
128	0x3e27ecc6	0.16398916
129	0xbe7b7e03	-0.24559788
130	0x3ca3d1c7	0.01999749
131	0x3da6a479	0.081368394
132	0x3d69317c	0.056931958
133	0xbd259763	-0.040427577
134	0x3d687e1d	0.056760896
135	0x3e4622be	0.1934919
136	0xbcf30ae4	-0.029668279
137	0xbb904798	-0.004403066
138	0xbe032094	-0.12805396
139	0xbdc2cfdb	-0.095123015
140	0x3e4264a6	0.18983707
141	0xbdedbbdd	-0.11608098
142	0x3d9cab64	0.07649878
143	0xbdedfdd5	-0.1162068
144	0x3e48e93f	0.19620226
145	0x3d2b3d10	0.04180628
146	0x3dab82a6	0.083745286
147	0xbd4c9470	-0.04994625
148	0x3d5f3c99	0.05450115
149	0x3d0c9954	0.034325913
150	0xbd9b8faf	-0.07595765
151	0x3e685c06	0.22691354
152	0x3d940ed6	0.07229392
153	0x3c60ef90	0.013728991
154	0xbdc9d9bc	-0.09855983
155	0xbde77ce4	-0.11303118
156	0x3d5e7b21	0.054316644
157	0x3dd9089e	0.10597347
158	0xbe0f77b6	-0.1401051
159	0xbda45367	-0.0802372
160	0xbdb33064	-0.08749464
161	0x3c0cb9e8	0.008589245
162	0x3e2cf145	0.16888912
163	0x3e571c84	0.21006972
164	0xbcade32b	-0.021226486
165	0x3e313e21	0.17308857
166	0xbdb48d69	-0.08816034
167	0x3e21765b	0.15767805
168	0xbcfdada6	-0.030966591
169	0x3e25df87	0.1619855
170	0x3e1f5dc6	0.15563115
171	0x3d725af0	0.059168756
172	0x3cf946b8	0.03042923
173	0xbc916255	-0.017747084
174	0x3b7e948f	0.0038845872
175	0x3cef2f11	0.029197248
176	0xbd5926bd	-0.05301546
177	0x3e3e2433	0.18568496
178	0x3d95f75f	0.07322573
179	0x3e313944	0.17307001
180	0x3d1fd6d2	0.039023228
181	0x3c91b017	0.017784161
182	0x3d13af53	0.036055874
183	0x3d84ba54	0.06480852
184	0x3d415537	0.047200408
185	0x3cdd617f	0.027024029
186	0xbc28f9f2	-0.010313498
187	0x3d8b01e9	0.06787474
188	0x3d58f66c	0.05296938
189	0x3cdf8512	0.027285133
190	0xbe6e11c8	-0.2324897
191	0xbcf17e35	-0.029479126
192	0x3dc1710d	0.09445391
193	0x3d941c9f	0.072320215
194	0xbdc048c1	-0.09388877
195	0xbb13cded	-0.0022553161
196	0x3d196e22	0.037458546
197	0xbd1b87df	-0.037971374
198	0xbe3f979c	-0.18710178
199	0x3d8511fe	0.06497572
200	0x3d6105f6	0.054937325
201	0x3d743c1b	0.059627634
202	0xbda69ea7	-0.08135729
203	0xbdb2ed52	-0.087366715
204	0x3dabc8d3	0.083879136
205	0xbdc5b07c	-0.09652802
206	0x3da6cee6	0.081449315
207	0xbd9b1124	-0.07571629
208	0x3d66d521	0.0563556
209	0xbddc4241	-0.107548244
210	0xbbd87cc6	-0.006606671
211	0xbe03e4c5	-0.12880237
212	0xbd52e1a8	-0.051484734
213	0x3d12d263	0.03584517
214	0x3da645a2	0.0811875
215	0x3d4e1f40	0.05032277
216	0x3d865459	0.06559057
217	0x3ce7b62b	0.028285107
218	0x3e026f4a	0.12737766
219	0x3cdee0d6	0.02720682
220	0x3de1323c	0.109959096
221	0x3e1af43d	0.15132232
222	0x3e0bf924	0.13669258
223	0x3dc3d34c	0.09561786
224	0xbdba803d	-0.09106491
225	0xbd11fcf6	-0.035641633
226	0xbdd0ae97	-0.1018955
227	0x3e1043d1	0.1408837
228	0xbe10e5e3	-0.14150195
229	0x3cbd6c9e	0.023123082
230	0x3c24f9e2	0.010069342
231	0x3e30fccb	0.17283933
232	0xbdca1692	-0.09867586
233	0xbd55218c	-0.052033946
234	0x3dcc078e	0.099623784
235	0xbd175db0	-0.03695458
236	0xbc5bcec8	-0.013416
237	0xbd901417	-0.07035082
238	0x3e258c54	0.16166812
239	0x3dead397	0.11466139
240	0xbd6c9fad	-0.057769466
241	0x3dc9523e	0.098301396
242	0xbd717849	-0.058952603
243	0x3d8160e6	0.0631731
244	0xbc9abc00	-0.018888474
245	0xbd1df533	-0.03856392
246	0x3ce4bcee	0.02792212
247	0x3d8897c8	0.06669575
248	0x3d40b0d1	0.047043625
249	0xbddb4a6e	-0.10707556
250	0xbb8d1c96	-0.004306386
251	0xbd421d89	-0.04739145
252	0xbd9ee736	-0.07758944
253	0x3db8e066	0.090271756
254	0x3d851977	0.06498998
255	0x3d20c836	0.039253436

fc3.bias f4 [50]
0	0x3d9e9eef	0.07745158
1	0x3d1c785e	0.03820073
2	0x3d67c2f9	0.056582425
3	0x3cfb4b37	0.030675514
4	0x3e4797c6	0.1949149
5	0x3d2a2de2	0.041547664
6	0x3e46866e	0.19387218
7	0x3cff3117	0.031151338
8	0x3d08e59a	0.03342209
9	0x3e37ef33	0.17962341
10	0xbc929819	-0.017894791
11	0x3d977b61	0.073965795
12	0x3ceea866	0.029133033
13	0xbdb710b1	-0.089387305
14	0xbce25eec	-0.027633153
15	0x3dec9222	0.1155131
16	0x3dbdff78	0.092772424
17	0x3dfd2cb2	0.123620406
18	0x3dad57be	0.08464001
19	0x3e3d03cd	0.18458481
20	0x3e228548	0.15871155
21	0x3dc8c73e	0.098036274
22	0x3dcec86d	0.10096822
23	0x3d69c8d9	0.05707631
24	0x3e12d12e	0.14337608
25	0x3db763d1	0.08954585
26	0xbc60fd47	-0.013732261
27	0x3daa265d	0.083080985
28	0x3da4fdf3	0.080562495
29	0x3d46c2f6	0.048525773
30	0x3e1077a2	0.14108136
31	0x3de93909	0.11387832
32	0x3e204181	0.15649988
33	0x3979ae2c	0.00023811375
34	0xbd56a2ec	-0.05240147
35	0x3df1857f	0.117930405
36	0x3d8d26bf	0.06892156
37	0x3c183698	0.00929036
38	0x3dd810ca	0.10550077
39	0x3e25cafe	0.16190717
40	0x3d3ddd23	0.04635347
41	0xbd16c0cd	-0.036804963
42	0x3ddf7eea	0.10912879
43	0x3e30848d	0.17238064
44	0x3c22c55e	0.009934751
45	0xbdd1de26	-0.102474496
46	0xbd1a6a25	-0.037698884
47	0x3cc356f2	0.02384517
48	0x3db00d67	0.08596306
49	0x3e1465b2	0.14491919

fc1.weight f4 [50, 7]
0	0xbe9b6acd	-0.3035492
1	0x3ea16434	0.3152176
2	0x3ecda651	0.40165952
3	0x3e26e5e6	0.16298637
4	0xbee8f1ae	-0.45496887
5	0x3d76eebc	0.06028627
6	0xbe4ae01b	-0.19812052
7	0xbe88b07e	-0.26697153
8	0xbe06cce3	-0.13164096
9	0xbea50e0a	-0.32237273
10	0xbebca692	-0.36845833
11	0xbdf52c77	-0.119713716
12	0xbdbfb907	-0.09361463
13	0xbeb3a2e9	-0.35085228
14	0xbdebdde9	-0.115169354
15	0xbe46ab8c	-0.19401377
16	0xbd86fce0	-0.06591201
17	0x3e90d5f9	0.28288248
18	0x3eb4455a	0.3520916
19	0x3cc6f376	0.024286013
20	0xbe1a7ecb	-0.1508743
21	0xbdf69fbc	-0.12042186
22	0x3eab8749	0.33501652
23	0xbecd1bfe	-0.4006042
24	0x3d96dd10	0.07366383
25	0xbde6e72e	-0.11274563
26	0xbc9489ca	-0.01813211
27	0xbdb85712	-0.09000982
28	0xbe8c8fd6	-0.27453488
29	0xbe87e514	-0.2654196
30	0xbe465d6b	-0.19371574
31	0xbece8fbd	-0.4034404
32	0x3ecc9e32	0.39964443
33	0xbd164c63	-0.03669394
34	0x3e6281ee	0.22119877
35	0x3ea6354e	0.32462543
36	0x3e671e5a	0.22570172
37	0x3e063056	0.13104376
38	0x3eaeb51b	0.34122548
39	0x3d946711	0.07246221
40	0xbd60345e	-0.05473744
41	0x3e119a22	0.14218953
42	0xbd6ccde6	-0.057813548
43	0xbe2074f8	-0.1566962
44	0x3cbc8161	0.023010911
45	0x3ec665ae	0.3874945
46	0x3e362d4a	0.17790714
47	0x3e2f6457	0.1712812
48	0x3e31fabc	0.17380804
49	0xbe6b561c	-0.22982067
50	0x3e9c9784	0.30584347
51	0x3e2cb700	0.16866684
52	0xbddcb0ca	-0.10775907
53	0x3abbe065	0.0014333843
54	0x3e39a6d5	0.18130048
55	0xbde3df4e	-0.11126576
56	0x3c06f09b	0.008236076
57	0x3e21f2ee	0.15815327
58	0xbeac8bf8	-0.33700538
59	0x3e096c80	0.13420296
60	0x3e190572	0.14943483
61	0x3e6d6c80	0.2318592
62	0xbea439f4	-0.32075465
63	0xbe8be485	-0.27322784
64	0x3e4c0d2d	0.19926901
65	0x3ebf6b23	0.37386426
66	0x3eab8de8	0.33506703
67	0x3de4dfeb	0.111755215
68	0xbda2df10	-0.07952702
69	0x3d473657	0.048635807
70	0xbed7a976	-0.42121476
71	0xbd878d49	-0.06618745
72	0x3e3b79ff	0.18308257
73	0xbe751811	-0.23934962
74	0xbebbcc27	-0.36679193
75	0x3e709abc	0.23496526
76	0xbd914c44	-0.07094625
77	0xbeb3c3db	-0.35110363
78	0xbdffd0f9	-0.1249103
79	0x3e9a758d	0.3016781
80	0x3e93af62	0.28844744
81	0x3d7d293f	0.061806913
82	0xbe365af0	-0.17808127
83	0xbe98d662	-0.2985106
84	0x3ebeed14	0.3729025
85	0xbe51015f	-0.2041068
86	0xbd4ef35f	-0.050525066
87	0xbe481f27	-0.19543134
88	0xbe6fd862	-0.23422387
89	0xbebce1e8	-0.36891103
90	0x3e6d586d	0.23178263
91	0xbe93da40	-0.2887745
92	0x3d5b1b94	0.053493097
93	0x3e29cdec	0.16582459
94	0x3e79225d	0.24329515
95	0xbecfea74	-0.4060856
96	0xbe05f372	-0.13081148
97	0xbebbd0ba	-0.36682683
98	0xbeab5bc0	-0.33468437
99	0x3e97b6c9	0.29631642
100	0x3e7d614f	0.24744152
101	0xbd50785e	-0.05089604
102	0xbe40c0ae	-0.18823501
103	0xbeae3e13	-0.34031734
104	0x3eb8ff57	0.3613231
105	0x3ebd886a	0.37018138
106	0xbe186f31	-0.14886166
107	0xbd8f8a74	-0.0700883
108	0xbe4f70bf	-0.20257853
109	0x3e816139	0.25269488
110	0xbe28d6da	-0.1648821
111	0xbe256115	-0.16150315
112	0xbeaa64d0	-0.3328004
113	0xbeb3f29f	-0.35146043
114	0x3d886b1c	0.066610545
115	0x3ebf5983	0.3737298
116	0xbe9dce42	-0.30821425
117	0x3ea0fe73	0.3144413
118	0x3e4b3936	0.19846043
119	0xbd40198f	-0.046899375
120	0xbe7627d5	-0.24038632
121	0x3e65a44a	0.22425953
122	0x3e98a741	0.29815105
123	0x3ec17367	0.37783358
124	0x3eab6095	0.33472124
125	0x3d9a01d7	0.07519882
126	0xbe014b5e	-0.12626407
127	0x3e7355ad	0.23763151
128	0xbdb93815	-0.090439
129	0xbced7cc8	-0.028990164
130	0x3e5d9fac	0.21642941
131	0x3e1bac0b	0.15202348
132	0x3d191f96	0.03738364
133	0xbee63ecd	-0.44969788
134	0x3ea425f5	0.3206021
135	0xbd4af459	-0.049549434
136	0x3dcd6621	0.10029245
137	0xbe0c79d7	-0.13718353
138	0xbde63741	-0.112410076
139	0xbca1d7ce	-0.019756224
140	0xbe36b4f6	-0.17842469
141	0x3dbf1d6c	0.09331784
142	0xbb1535c6	-0.0022767647
143	0x3ebb4c67	0.36581728
144	0xbe1a4034	-0.15063554
145	0xbe2d4154	-0.16919452
146	0xbdee03d2	-0.116218224
147	0x3e0f75d0	0.14009786
148	0xbe69b494	-0.22822791
149	0x3e404aae	0.18778488
150	0x3d9f2bfe	0.07772063
151	0xbead8945	-0.3389379
152	0x3d8a2823	0.06745937
153	0xbe0c6e21	-0.13713886
154	0xbef9cf54	-0.4879099
155	0xbd27e144	-0.040986314
156	0xbe6c9572	-0.23103884
157	0x3eaa0686	0.33208102
158	0x3e7674e9	0.24068035
159	0xbddcabf5	-0.10774986
160	0x3ccacb41	0.024755122
161	0x3ebd0039	0.36914232
162	0x3e42c000	0.19018555
163	0xbe1765e4	-0.14784962
164	0xbeca74a5	-0.39542118
165	0xbe7402a0	-0.23829126
166	0xbcdd3f12	-0.027007613
167	0x3c25c634	0.010118056
168	0x3e8ba955	0.27277628
169	0xbcde9aea	-0.027173478
170	0x3e55d9c1	0.20883848
171	0x3e6712e4	0.225658
172	0xbe85d34e	-0.26137775
173	0xbdea488f	-0.11439621
174	0x3d66e164	0.056367293
175	0x3ebbde97	0.3669326
176	0x3e2771eb	0.1635205
177	0xbe8980af	-0.2685599
178	0xbccb8396	-0.024843019
179	0x3e067add	0.13132806
180	0x3e14b2bc	0.14521307
181	0x3e855a72	0.26045567
182	0xbdc2d6db	-0.09513637
183	0x3da23d55	0.079218544
184	0xbe2be7ca	-0.1678764
185	0x3e85285e	0.2600736
186	0xbce25cf7	-0.02763222
187	0xbe9a39dc	-0.30122268
188	0xbe18d26b	-0.14924018
189	0xbd37db26	-0.04488673
190	0x3e96c466	0.29446715
191	0x3ccf90ee	0.025337663
192	0xbe88841e	-0.26663297
193	0xbedd5437	-0.43228313
194	0xbeb7223d	-0.3576831
195	0x3e94261e	0.2893533
196	0x3e214ae0	0.15751219
197	0xbec969da	-0.3933857
198	0x3a14748c	0.0005663119
199	0x3e668091	0.22509982
200	0x3d5a035e	0.053225867
201	0xbeac8d81	-0.3370171
202	0x3e8b1fbb	0.27172646
203	0x3e932bc1	0.2874432
204	0xbeb1f9ac	-0.34760797
205	0xbec4054b	-0.38285288
206	0xbe9e97a8	-0.3097508
207	0x3e108bd7	0.14115845
208	0xbe479361	-0.19489814
209	0x3eb57c16	0.35446233
210	0x3e6a96e9	0.2290913
211	0xbe99ccdc	-0.30039108
212	0xbeb6525a	-0.35609704
213	0xbe3bb6c5	-0.1833144
214	0xbe7b3d58	-0.2453512
215	0x3e84e9cd	0.25959626
216	0xbd1fd2f8	-0.039019555
217	0xbdc3d029	-0.09561188
218	0xbcc93d1d	-0.024565274
219	0x3eb7c34e	0.35891193
220	0x3ebe3642	0.3715077
221	0xbee46622	-0.4460917
222	0x3d3ba9cb	0.045816224
223	0xbe94179b	-0.2892426
224	0xbee94c47	-0.45566007
225	0x3d7afa77	0.06127402
226	0x3eb5f08a	0.3553508
227	0x3c80143b	0.015634647
228	0x3a0565f1	0.0005088738
229	0xbd1d99c9	-0.03847674
230	0x3d543eba	0.051817633
231	0xbe80d59a	-0.25162965
232	0xbe42c7d2	-0.19021538
233	0xbedd7511	-0.43253377
234	0xbe4ca94d	-0.19986458
235	0xbe8b8be5	-0.2725517
236	0xbebf1358	-0.37319446
237	0x3de7cca8	0.11318332
238	0xbd86ba58	-0.06578511
239	0xbed5f3d5	-0.41787592
240	0xbe53c89c	-0.20681995
241	0xbda94a20	-0.08266091
242	0xbca42c7a	-0.02004074
243	0x3ead0dfa	0.33799726
244	0x3eb14bf6	0.34628266
245	0x3dc8e4e8	0.098092854
246	0xbed09029	-0.40734985
247	0xbdad620f	-0.08465969
248	0x3dde9f94	0.10870281
249	0x3e163ed7	0.14672409
250	0xbe30d4d2	-0.17268685
251	0x3cc49435	0.023996452
252	0x3d8605e6	0.06544094
253	0x3eb518a0	0.3537035
254	0xbe8b7bfc	-0.2724303
255	0xbe8ee384	-0.27907956

fc1.bias f4 [50]
0	0xbeb5a4c9	-0.35477284
1	0xbe663d0f	-0.2248423
2	0xbd0cbd65	-0.03436031
3	0x3dfe42ab	0.1241506
4	0x3ee530af	0.44763705
5	0x3d49f014	0.049301222
6	0xbdb80e01	-0.08987046
7	0x3ec887fb	0.39166245
8	0xbe5e289e	-0.21695182
9	0x3cbd72df	0.023126064
10	0xbe313c90	-0.17308259
11	0xbe55610d	-0.20837803
12	0x3e1ddb91	0.15415789
13	0x3e4ed9b1	0.2020023
14	0x3d283ad1	0.041071717
15	0xbd71206c	-0.05886881
16	0xbe88bd21	-0.26706794
17	0x3ecd75ab	0.40128836
18	0x3dabb538	0.08384174
19	0x3bba700e	0.0056896275
20	0xbd81a613	-0.06330504
21	0x3d6ba713	0.05753238
22	0x3ea7c8b4	0.32770312
23	0xbdad6391	-0.084662564
24	0x3e96415f	0.2934675
25	0x3e4d814d	0.20068856
26	0x3e1006f6	0.14065155
27	0x3d47b6e1	0.04875839
28	0xbcb2ae07	-0.021811498
29	0xbdb10fc0	-0.08645582
30	0x3dae8ed4	0.08523336
31	0xbdaf34fc	-0.08555028
32	0xbd51ad10	-0.051190436
33	0xbde02caa	-0.10946019
34	0x3e8ab0fd	0.27088156
35	0xbe6d5a1c	-0.23178905
36	0xbe159a36	-0.14609608
37	0xbd9ea71d	-0.07746718
38	0x3e5e6bd4	0.2172082
39	0x3ea41274	0.3204533
40	0x3e9f6ad3	0.31136188
41	0xbe2bf6ba	-0.16793337
42	0x3cf29794	0.029613294
43	0x3d963b1a	0.073354915
44	0xbd74c2da	-0.059756137
45	0xbe998808	-0.29986596
46	0x3c531778	0.012884013
47	0xbe9118f9	-0.28339365
48	0xbe2ae976	-0.16690621
49	0x3e16c83a	0.14724818

fc2.weight f4 [50, 50]
0	0x3d57f19f	0.052720662
1	0x3a233182	0.0006225334
2	0x3d89a2a3	0.067204736
3	0xbd8de6a7	-0.06928759
4	0x3e312ea0	0.17302942
5	0x3d9e6c1c	0.07735464
6	0xbdab2fa1	-0.08358694
7	0xbbbc8123	-0.005752699
8	0xbc03806c	-0.008026224
9	0xbe12491d	-0.14285703
10	0xbe4b3fdc	-0.19848579
11	0xbe201fd6	-0.15637144
12	0x3d3831ed	0.044969488
13	0xbabd4d68	-0.0014442625
14	0xbd5db153	-0.054124188
15	0x3dca973d	0.09892128
16	0xbe342f00	-0.17596054
17	0x3d7a7799	0.061149213
18	0xbd564ba4	-0.05231823
19	0x3de62d8b	0.112391554
20	0x3d6879dc	0.05675684
21	0x3e5a0255	0.21289952
22	0xbdd935f1	-0.10605992
23	0x3df9267d	0.12165544
24	0x3cb424de	0.021990236
25	0x3c025edc	0.007957187
26	0xbceed089	-0.029152172
27	0xbe6994b0	-0.22810626
28	0xbe41214d	-0.1886036
29	0xbceefc66	-0.029173087
30	0xbd513b13	-0.05108173
31	0xbd653844	-0.055961862
32	0x3d977386	0.07395081
33	0x3d3dd4fa	0.04634569
34	0xbe2292a1	-0.15876247
35	0xbe3763df	-0.17909192
36	0xbdc2afa5	-0.09506158
37	0xbdcb069a	-0.099133685
38	0x3d381a89	0.04494718
39	0x3d1f25df	0.038854476
40	0xbd1dee21	-0.038557176
41	0x3daf79ab	0.08568128
42	0xbdcecd60	-0.10097766
43	0xbde6fd6f	-0.11278807
44	0x3db46a17	0.088092975
45	0xbda4edb7	-0.08053153
46	0x3dcf9e53	0.1013762
47	0x3c2043e2	0.0097818095
48	0x3b602467	0.0034201385
49	0x3d838979	0.06422705
50	0x3da0b552	0.07847084
51	0x3de0ebf4	0.109825045
52	0x3e354a54	0.17704135
53	0x3d9fcb61	0.07802463
54	0x3e9c0b2f	0.30477282
55	0xbdbf03d1	-0.093269
56	0xbd11a916	-0.035561644
57	0x3d62a05f	0.055328723
58	0x3d8487a1	0.06471182
59	0xbd56c432	-0.0524332
60	0xbdbdb44c	-0.092629045
61	0xbd816e42	-0.06319858
62	0xbe07e255	-0.13269933
63	0x3d907c52	0.07054962
64	0x3daaa349	0.083319254
65	0x3d863eae	0.06554924
66	0x3d673f71	0.056456987
67	0xbccbd96b	-0.024883946
68	0x3d59643e	0.053074114
69	0xbcf60adf	-0.03003448
70	0xbe29f72e	-0.16598198
71	0xbd4bc492	-0.04974801
72	0x3b9c2216	0.0047648055
73	0xbdcb8a4d	-0.09938488
74	0x3c60e4c3	0.013726416
75	0x3dd3cf6c	0.10342297
76	0x3db2b741	0.08726359
77	0xbc387c73	-0.01126014
78	0x3ded38d6	0.11583106
79	0xbcb94251	-0.02261463
80	0xbe257203	-0.16156773
81	0xbd90f00d	-0.07077036
82	0xbdadd959	-0.084887214
83	0xbdc74b03	-0.09731104
84	0xbdbc7849	-0.0920263
85	0xbe1d3d4e	-0.15355417
86	0x3bd74476	0.0065694405
87	0xbe45a626	-0.19301662
88	0x3e18b63c	0.14913267
89	0x3c0fa60b	0.008767615
90	0x3ce9a373	0.028520321
91	0x3d4e20c9	0.050324235
92	0xbdf4b678	-0.11948866
93	0x3d930a24	0.071796685
94	0xbca8e020	-0.020614684
95	0xbe4be809	-0.19912733
96	0xbd66df8c	-0.056365535
97	0x3cb38a42	0.021916512
98	0xbd418ce5	-0.047253508
99	0x3dffee47	0.1249662
100	0xbdbacc93	-0.09121051
101	0xbd68d1a5	-0.056840558
102	0x3d29260a	0.041296043
103	0xbd4f1c17	-0.050563898
104	0xbdf095de	-0.11747335
105	0xbe0c662b	-0.13710849
106	0xbd9b020d	-0.075687505
107	0x3d894fe2	0.067046896
108	0xbdeb26fa	-0.114820436
109	0x3e0acb1d	0.13554044
110	0x3ced61af	0.028977243
111	0xbd8186ed	-0.06324563
112	0x3da7637c	0.08173272
113	0xbdd0f52a	-0.10203011
114	0xbd968fbc	-0.07351634
115	0xbdba5d6c	-0.0909985
116	0xbe0d6aa5	-0.13810213
117	0xbd984571	-0.0743512
118	0xbe023430	-0.1271522
119	0x3d544005	0.051818866
120	0x3e086339	0.133191
121	0xbda83723	-0.082136415
122	0xbe0bb4b5	-0.13643153
123	0x3dcb9751	0.09940971
124	0xbd97651c	-0.07392332
125	0xbd623a94	-0.055231646
126	0xbdc29c39	-0.09502453
127	0xbdaa772c	-0.083235115
128	0xbdc2a5c4	-0.095042735
129	0xbd6ed685	-0.05831005
130	0x3c811ec1	0.015761735
131	0x3d02ba8d	0.03191619
132	0x3d89079e	0.06690906
133	0x3de4335c	0.111426085
134	0x3d87a5c6	0.06623416
135	0xbd53abbb	-0.051677447
136	0x3d5b1fb3	0.053497028
137	0x3df74a3e	0.120747074
138	0xbd04c985	-0.032418747
139	0xbcccca7f	-0.024998901
140	0x3d24312a	0.04008595
141	0xbd07f759	-0.033194873
142	0xbcb16018	-0.021652266
143	0x3cc0fbf7	0.023557646
144	0x3e0932c5	0.13398273
145	0xbc3fe340	-0.0117118955
146	0xbe01c1b5	-0.1267155
147	0x3c84ee9b	0.016227057
148	0xbdeeb10c	-0.11654863
149	0x3e00d24e	0.12580225
150	0x3e3a30ac	0.1818263
151	0xbd1b6f59	-0.037947986
152	0xbd353d3c	-0.04424785
153	0x3e16fbbf	0.14744471
154	0xbe176b2b	-0.14786975
155	0xbc933825	-0.017971108
156	0xbd98e689	-0.07465846
157	0x3dde895a	0.108660415
158	0xbde77572	-0.11301698
159	0xbe05a788	-0.1305219
160	0x3d0a00f3	0.03369231
161	0x3c49334b	0.012280296
162	0xbe0fa0a6	-0.14026126
163	0x3e2c3bd3	0.16819696
164	0xbd978026	-0.07397489
165	0xbca5b9df	-0.020230232
166	0xbe3aeb69	-0.18253864
167	0x3d1bc12c	0.03802602
168	0x3de1c811	0.11024488
169	0x3e4d1ccd	0.20030518
170	0x3dcf1c9f	0.10112881
171	0x3ca63765	0.020290086
172	0x3d3d27cc	0.04618053
173	0xbd5c209a	-0.05374203
174	0x3d01459c	0.031560525
175	0x3db131a3	0.086520456
176	0x3da38682	0.0798464
177	0x3d672f19	0.0564414
178	0x3d7787c0	0.060432196
179	0xbe0b29da	-0.13590184
180	0xbdc53593	-0.09629359
181	0x3d98c238	0.07458919
182	0xbc881472	-0.016611312
183	0x3e224d10	0.1584971
184	0x3c47810c	0.012176763
185	0x3ad7ecfb	0.0016473824
186	0xbd21a9a9	-0.03946844
187	0x3d221411	0.039569918
188	0x3cf51dd8	0.029921457
189	0xbda2bde0	-0.07946372
190	0xbe16d97e	-0.14731404
191	0xbd8d5ae4	-0.06902102
192	0xbd260e1e	-0.040540807
193	0x3dfff664	0.12498167
194	0xbe05bd39	-0.13060464
195	0x3e0f91c7	0.14020453
196	0x3db19cc0	0.08672476
197	0xbdf02c2d	-0.11727176
198	0x3df3d575	0.11905948
199	0xbd0969cc	-0.03354816
200	0xbd8fd201	-0.07022477
201	0xbd36190f	-0.04445749
202	0x3d864d75	0.065577425
203	0xbdb6eb71	-0.08931626
204	0xbdb95c8b	-0.09050854
205	0x3d4ba06f	0.04971355
206	0x3d1e5fdd	0.03866564
207	0xbd23c8e2	-0.0399865
208	0xbcf4a83d	-0.029865379
209	0x3deb1cd8	0.11480111
210	0xbe04e7fa	-0.12979117
211	0xbdc46e7e	-0.09591387
212	0x3c9913a5	0.018686125
213	0xbd9daae8	-0.076986134
214	0xbca418b9	-0.02003132
215	0x3e32ee87	0.17473803
216	0x3e07cf0e	0.13262579
217	0x3d94f863	0.072739385
218	0x3e39a684	0.18129927
219	0xbe2814be	-0.16414163
220	0x3e1effb0	0.15527225
221	0x3dec9724	0.11552265
222	0xbdc3b8b5	-0.095567144
223	0x3d2e487a	0.042549588
224	0x3e6577d7	0.22408997
225	0x3dac4a4a	0.08412607
226	0x3d55a8c4	0.0521629
227	0x3df051fe	0.11734389
228	0x3ddd2976	0.10798924
229	0xbd8afc75	-0.067864336
230	0x3df50582	0.11963941
231	0x3de4c898	0.11171073
232	0xbeb08d00	-0.34482574
233	0x3e5e4d9a	0.2170929
234	0x3e07d681	0.1326542
235	0x3e285d6b	0.16441886
236	0xbd8bb8e2	-0.06822373
237	0x3e2d30e0	0.16913176
238	0x3d32e1df	0.04367244
239	0x3c982967	0.01857443
240	0xbd849cca	-0.06475218
241	0xbd78f85d	-0.060783733
242	0x3d6d1204	0.05787851
243	0xbe41c5d2	-0.18923119
244	0x3e40ab0a	0.18815246
245	0x3d200472	0.03906674
246	0x3d1ac193	0.037782263
247	0xbdc9de62	-0.09856869
248	0x3e2d13de	0.1690211
249	0x3e03a1c4	0.12854677
250	0xbe068648	-0.13137162
251	0xbd6c4912	-0.057686873
252	0x3ca6cd71	0.020361634
253	0x3d35a954	0.044350937
254	0x3cf4dbd5	0.02988998
255	0xbe065386	-0.13117799

fc2.bias f4 [50]
0	0x3cefdfa0	0.029281437
1	0x3e007f34	0.12548524
2	0xbdb67d8b	-0.08910664
3	0xbdbdeb30	-0.09273374
4	0x3c9538a1	0.01821548
5	0xbd89930c	-0.067175
6	0x3e0eaeff	0.13933943
7	0xbe0e6f5f	-0.13909672
8	0x3d5ccb55	0.05390485
9	0xbdf04078	-0.117310464
10	0xbe0cf47d	-0.1376514
11	0x3d8f5d95	0.07000271
12	0x3ba9a697	0.0051773298
13	0x3c4707dd	0.012147871
14	0x3e1b14ab	0.15144603
15	0xbc18bff6	-0.009323111
16	0xbd4d0f0a	-0.05006317
17	0xbc05a895	-0.008157869
18	0xbcf89509	-0.030344503
19	0x3e2e3e98	0.17016065
20	0xbd21ace1	-0.03947151
21	0x3e2000e7	0.15625344
22	0xbca0efe2	-0.019645635
23	0xbc8e0373	-0.01733563
24	0x3d47e04f	0.0487979
25	0xbd3947b5	-0.0452344
26	0xbdf03833	-0.11729469
27	0x3be23742	0.00690356
28	0x3e373029	0.17889465
29	0xbdedec4b	-0.11617335
30	0xbdb3380d	-0.08750925
31	0xbd374973	-0.04474778
32	0x3e10b85e	0.1413283
33	0x3d4ba5ef	0.049718793
34	0x3e2ccdf0	0.16875434
35	0x3d8136e5	0.063092984
36	0xbd8f9f30	-0.070127845
37	0xbe1cf897	-0.15329204
38	0x3d4cecd4	0.050030544
39	0xbcf507f9	-0.029911028
40	0x3cc8d6fe	0.024516579
41	0x3da95327	0.08267813
42	0xbc5b5ac3	-0.0133883385
43	0xbdde476c	-0.108534664
44	0xbde5f5be	-0.11228512
45	0x3d5e4dd4	0.05427344
46	0xbdfffece	-0.12499772
47	0xbdf221e0	-0.118228674
48	0x3da8565d	0.082195975
49	0xbde07183	-0.10959151

fc3.weight f4 [50, 50]
0	0xbdb68e1b	-0.08913823
1	0xbe0a8699	-0.13527907
2	0x3b92db91	0.0044817408
3	0xbce484ad	-0.027895296
4	0x3d72875f	0.05921113
5	0xbc7fbf61	-0.015609593
6	0xbbbfb208	-0.0058500804
7	0xbda0fcdd	-0.0786073
8	0x3df70798	0.12061995
9	0xbe03e73f	-0.12881182
10	0x3df01254	0.11722246
11	0xbbfbd468	-0.007685233
12	0xbdb1f409	-0.08689124
13	0x3e1de60c	0.15419787
14	0xbdb201ab	-0.086917244
15	0x3dd47213	0.103733204
16	0x3dc2f1e4	0.09518793
17	0xbd58b49a	-0.05290661
18	0x3d939a7b	0.07207199
19	0xbdb23333	-0.08701172
20	0x3dbfff5f	0.0937488
21	0xbd4188c5	-0.047249574
22	0x3dcb6b3c	0.09932563
23	0x3de80e95	0.11330906
24	0x3d637121	0.05552781
25	0x3dbd61f6	0.092472
26	0xbdd4d2ae	-0.103917465
27	0xbd2059ee	-0.039148264
28	0x3db8321f	0.08993935
29	0xbc44bd01	-0.012007953
30	0x3ccd18ff	0.025036333
31	0xbc9e36e9	-0.019313293
32	0x3daf41a8	0.08557445
33	0x3cbf172b	0.023326477
34	0x3e0c5cb6	0.13707241
35	0xbe0f87ca	-0.14016643
36	0x3dd84f8f	0.105620496
37	0x3dc38ecd	0.095487215
38	0x3976ebc5	0.00023548219
39	0x3e31c11a	0.17358819
40	0xbd948c54	-0.07253328
41	0x3ceafbf7	0.0286846
42	0x3d20a8e2	0.03922356
43	0xbd17c403	-0.037052166
44	0x3d84abbd	0.06478069
45	0x3dadc350	0.084845185
46	0x3d849e4c	0.06475505
47	0xbd4ac74e	-0.049506478
48	0x3dbb72d8	0.09152764
49	0xbcda00c1	-0.026611688
50	0xbd8424b5	-0.06452314
51	0xbd1bf155	-0.03807195
52	0xbe0d5500	-0.13801956
53	0xbc19559e	-0.009358792
54	0x3d93bfdc	0.07214329
55	0xbce94261	-0.028474035
56	0x3d94450a	0.07239731
57	0xbc009b03	-0.007849458
58	0x3e028a46	0.1274806
59	0x3c5e1e26	0.013556993
60	0x3d2d7720	0.042349935
61	0x3e08fdac	0.13378018
62	0xbd3c8385	-0.046023864
63	0x3e018cb1	0.12651326
64	0xbda9087f	-0.082535736
65	0xbd402f6e	-0.046920232
66	0xbb92237e	-0.0044597974
67	0xbb2f90c9	-0.002678918
68	0x3dca6953	0.0988337
69	0x3d6c4d27	0.057690766
70	0xbc59980c	-0.01328088
71	0x3e0f5b1d	0.139996
72	0x3da39b15	0.07988564
73	0x3d2914e8	0.041279703
74	0xbbc6a358	-0.0060619526
75	0x3e73f4d8	0.23823869
76	0x3d0af752	0.03392727
77	0x3e507844	0.20358378
78	0x3da993d1	0.08280147
79	0x3be702ce	0.007049895
80	0xbdcf00f1	-0.101076014
81	0xbc95e788	-0.01829888
82	0x3d947dee	0.07250582
83	0xbd9f4ec8	-0.07778698
84	0x3e23a9de	0.15982768
85	0x3e013754	0.12618762
86	0x3d94e168	0.07269555
87	0xbbb57e67	-0.00553875
88	0xbde0e108	-0.10980421
89	0x3e54340f	0.20722984
90	0xbcf710d7	-0.030159397
91	0x3e305e95	0.1722358
92	0x3d43447c	0.047672734
93	0xbd8b35a9	-0.06797344
94	0x3d687b11	0.05675799
95	0xbe6c116a	-0.23053518
96	0x3cc3771f	0.023860512
97	0x3d6f57db	0.058433395
98	0xbc32bf85	-0.01090992
99	0x3d99011b	0.07470914
100	0xbdb7e532	-0.089792624
101	0x3c6cbb23	0.014448914
102	0x3e078029	0.13232483
103	0x3cb4493f	0.022007583
104	0x3ded1679	0.11576552
105	0xbc05c19d	-0.008163837
106	0xbbb676fe	-0.005568384
107	0xbda6f669	-0.08152468
108	0xbd6f6346	-0.058444284
109	0xbdaf1efb	-0.08550831
110	0xbd0fdea3	-0.035124432
111	0x3d839f63	0.06426885
112	0x3d055bd6	0.032558285
113	0xbd21aaf0	-0.03946966
114	0xbd7f41e8	-0.062318712
115	0x3e1de4ec	0.15419358
116	0x3df38fa4	0.11892632
117	0x3d4ed7fc	0.050498948
118	0xbd7bac37	-0.061443534
119	0xbd99546a	-0.07486804
120	0xbd4a8e12	-0.049451895
121	0xbc6ab8fc	-0.01432633
122	0xbded460b	-0.11585625
123	0xbd3b7c3c	-0.045772776
124	0x3d08a306	0.033358596
125	0x3e5dece0	0.21672392
126	0xbd584e01	-0.052808765
127	0x3d8f2a02	0.06990434
128	0x3e1fbd32	0.15599516
129	0xbe46708d	-0.19378872
130	0x3ce9e04b	0.028549334
131	0x3da3973e	0.079878315
132	0x3d67e632	0.056616016
133	0xbd2627c5	-0.04056527
134	0x3d213ec0	0.039366484
135	0x3e4fdbb7	0.20298658
136	0xbd0bdc23	-0.034145486
137	0x3cee458a	0.029085893
138	0xbe0e457a	-0.1389369
139	0xbdc88691	-0.097912915
140	0x3e3d14ae	0.1846492
141	0xbdecf135	-0.11569444
142	0x3d9c83bf	0.07642316
143	0xbdeacc9d	-0.11464808
144	0x3e43d4e5	0.19124182
145	0x3c5661b2	0.013084816
146	0x3daae5b9	0.08344597
147	0xbd8f1794	-0.06986919
148	0x3c984f72	0.01859257
149	0x3d0b4dd5	0.034009773
150	0xbd96f204	-0.073703796
151	0x3e420e02	0.18950656
152	0x3d9359f1	0.07194889
153	0x3caff492	0.021478925
154	0xbdd263c8	-0.10272938
155	0xbde6746b	-0.11252674
156	0x3d35d8b6	0.044396125
157	0x3d64d4b0	0.055866897
158	0xbe0f644c	-0.14003104
159	0xbda48fc7	-0.08035236
160	0xbdbfe960	-0.093706846
161	0x3c490824	0.012270007
162	0x3e247d06	0.16063318
163	0x3e3f244a	0.18666187
164	0xbd0d6357	-0.034518566
165	0x3e2addf5	0.16686232
166	0xbdb5b79d	-0.08872912
167	0x3e1ba744	0.15200526
168	0xbd6cc6bb	-0.05780671
169	0x3e1edee9	0.15514721
170	0x3e1e3cdc	0.15452904
171	0x3d59b0e6	0.05314722
172	0x3cddb6a7	0.027064634
173	0xbcd7a731	-0.02632484
174	0x3b7e17cc	0.0038771508
175	0x3cebedc3	0.028799897
176	0xbd59f07f	-0.05320787
177	0x3e312349	0.17298616
178	0x3d9559a4	0.07292488
179	0x3e2f169d	0.1709847
180	0x3c1b7c96	0.009490153
181	0xb9e01caf	-0.0004274598
182	0x3d3b1858	0.045677513
183	0x3d849785	0.064742126
184	0x3d3536c9	0.0442417
185	0xbb6565f4	-0.0035003396
186	0xbc665b30	-0.014059827
187	0x3d7aa37a	0.06119106
188	0x3d690486	0.05688908
189	0x3cde790e	0.027157333
190	0xbe522d2d	-0.20525046
191	0xbcef79b4	-0.029232837
192	0x3dc09ff9	0.09405512
193	0x3d7d7ef9	0.06188867
194	0xbdcca424	-0.09992245
195	0xbc9c4dc0	-0.019080043
196	0x3d736137	0.059418883
197	0x3b584681	0.0033001008
198	0xbe305013	-0.17218046
199	0x3d8564df	0.0651338
200	0x3cb8918e	0.022530343
201	0x3ccd6a30	0.025075048
202	0xbda6da9f	-0.081471674
203	0xbdcbd0e4	-0.09951952
204	0x3d965a72	0.0734147
205	0xbdc5c241	-0.096561916
206	0x3d639f96	0.055572115
207	0xbd633274	-0.055468038
208	0x3d6586ab	0.056036633
209	0xbddbf52c	-0.10740122
210	0xbcd74431	-0.026277633
211	0xbe0bc3e0	-0.13648939
212	0xbd8981c8	-0.06714207
213	0x3d111824	0.035423413
214	0x3d8b4d31	0.068018325
215	0x3d1c543a	0.038166262
216	0x3d7ae0db	0.061249595
217	0x3d3a0f68	0.04542485
218	0x3dec4361	0.11536289
219	0x3cc29288	0.023751512
220	0x3dc86077	0.09784024
221	0x3dde0618	0.10841006
222	0x3e060fb7	0.13091932
223	0x3dc116e3	0.094281934
224	0xbddaf0dd	-0.10690472
225	0xbd500de7	-0.05079451
226	0xbdcfe1f7	-0.10150521
227	0x3dbb2cce	0.09139405
228	0xbe08192c	-0.13290852
229	0xbce8d947	-0.028423918
230	0x3bd0922f	0.0063650827
231	0x3e22cf64	0.15899426
232	0xbddf380a	-0.108993605
233	0xbd53cabf	-0.051707026
234	0x3de02086	0.10943703
235	0xbd6594fe	-0.056050293
236	0x3cfcebcb	0.030874154
237	0xbc31a88c	-0.010843407
238	0x3e0b43ac	0.13600034
239	0x3dbcf1b2	0.09225787
240	0xbd1a7e30	-0.037717998
241	0x3dc8bf6e	0.09802137
242	0xbd721ee3	-0.059111487
243	0x3d1deec3	0.03855778
244	0xbd187749	-0.037223134
245	0xbc99fc69	-0.018797116
246	0x3ce2fea6	0.027709316
247	0x3d410b00	0.04712963
248	0x3d7e4d59	0.062085483
249	0xbddb32e2	-0.107030645
250	0xbcdf67cc	-0.027271174
251	0xbd041965	-0.03225078
252	0xbd9e9f28	-0.077452004
253	0x3d8b2b5e	0.06795381
254	0x3d59eb0b	0.05320267
255	0x3d20ada3	0.039228093

fc3.bias f4 [50]
0	0x3d8b0ac8	0.06789166
1	0x3d48e847	0.049049642
2	0x3d68c304	0.056826606
3	0x3ccd14d9	0.025034355
4	0x3e37c0f5	0.17944701
5	0x3d124f5d	0.035720218
6	0x3e488d8a	0.19585243
7	0x3cc0edbe	0.023550864
8	0x3d3a45d5	0.045476753
9	0x3e20a920	0.15689516
10	0xbcbb8221	-0.022889199
11	0x3d86e1e3	0.06586053
12	0x3ceb540e	0.028726604
13	0xbdbb398a	-0.09141834
14	0xbd0f7271	-0.03502125
15	0x3de3e79c	0.1112816
16	0x3daaad59	0.08333845
17	0x3dea4b5c	0.11440155
18	0x3dacb40b	0.08432778
19	0x3e30b4ff	0.17256545
20	0x3e1def06	0.15423211
21	0x3dc7103c	0.09719893
22	0x3ddf05ac	0.10889754
23	0x3d51d34f	0.05122691
24	0x3e128303	0.1430779
25	0x3db9d25d	0.09073327
26	0xbc85bccd	-0.016325379
27	0x3d998a1e	0.07497047
28	0x3da1bc5d	0.078972556
29	0x3d2a4c07	0.04157641
30	0x3e110cfe	0.14165112
31	0x3df51559	0.11966962
32	0x3e18ecc2	0.14934066
33	0xbababe76	-0.0014247436
34	0xbd6ef444	-0.05833842
35	0x3de7ead6	0.11324088
36	0x3d8dfcd2	0.06932987
37	0xb9df7057	-0.00042617574
38	0x3dd9fd7d	0.10644052
39	0x3e18d5cb	0.14925306
40	0x3d3cb7cf	0.04607373
41	0xbd370f61	-0.0446924
42	0x3dbef15e	0.09323381
43	0x3e2529b9	0.16129197
44	0x3ba77d93	0.005111405
45	0xbdd4ea4e	-0.103962526
46	0xbd2b4f86	-0.041823886
47	0x3cb99484	0.022653826
48	0x3d9e2509	0.07721908
49	0x3e102775	0.14077552
